policies/Walker2D/he_ppo_initialization.pt (torch, 40848 bytes, 10 tensors)

mlp_extractor.policy_net.0.weight f4 [64, 3]
0	0xbeb93bec	-0.3617853
1	0x3edac8a4	0.42731202
2	0xbf5307d2	-0.8243381
3	0x3e36c270	0.1784761
4	0xbf9bc58c	-1.2169662
5	0x3f452f76	0.77025545
6	0x3f1b3636	0.60629594
7	0xbfa1efc9	-1.2651302
8	0x3f2f545e	0.6848811
9	0x3faeb1eb	1.3648046
10	0xbd9b9250	-0.07596266
11	0x3e693c18	0.2277683
12	0x3e337638	0.17525566
13	0xbf5f8b4a	-0.87321913
14	0x3f135022	0.5754415
15	0xbfae501b	-1.3618196
16	0xbfa4df4d	-1.2880646
17	0x3f445bba	0.76702464
18	0xbfb1cdbf	-1.3890914
19	0xbe2009a0	-0.15628672
20	0x3e8d4e10	0.2759862
21	0xbf3576fe	-0.7088469
22	0x3f854283	1.0410923
23	0xbe080cb0	-0.1328609
24	0x3f324f32	0.6965209
25	0xbf7ffc97	-0.99994797
26	0xbf96f69e	-1.1794012
27	0x3f19461e	0.59872615
28	0xbf3135dc	-0.6922281
29	0x3fb15bdf	1.3856162
30	0xbfb2c007	-1.3964852
31	0x3f62a75a	0.8853661
32	0xbe9810e8	-0.29700398
33	0xbf660714	-0.8985455
34	0x3faf193f	1.367958
35	0xbf26b615	-0.65121585
36	0x3f5e8a2e	0.86929595
37	0xbef7b9d8	-0.48383975
38	0xbe01ab20	-0.12662935
39	0x3f0e49d0	0.5558138
40	0xbfa98bbc	-1.3245769
41	0x3f9621b7	1.1729039
42	0xbfb1f9e4	-1.3904386
43	0xbf686d47	-0.90791744
44	0xbe258e18	-0.16167486
45	0xbd5f54a0	-0.054524064
46	0x3edd564c	0.43229902
47	0x3dad56d0	0.08463824
48	0xbe9c6ad0	-0.3055024
49	0xbe3d1290	-0.18464112
50	0x3fa822bf	1.3135604
51	0x3f9bd62b	1.2174734
52	0xbd9b4ca0	-0.075829744
53	0xbdaece80	-0.085354805
54	0xbfb2445b	-1.392711
55	0xbf59e8ba	-0.8512074
56	0xbf319e83	-0.69382495
57	0xbf14c219	-0.5810867
58	0x3f9a13eb	1.2037328
59	0xbd71fee0	-0.05908096
60	0x3f0963da	0.53667986
61	0xbf789b4a	-0.9711195
62	0x3d76a760	0.060218215
63	0x3ebc4920	0.3677454
64	0x3fa2ebdd	1.272823
65	0x3f2719ae	0.6527356
66	0xbf80779a	-1.00365
67	0x3fae0f37	1.3598393
68	0xbd1cea80	-0.038309574
69	0x3f5f979a	0.873407
70	0x3f98ebdf	1.1946982
71	0xbf4f82be	-0.8105887
72	0x3d9d5e40	0.076839924
73	0x3f09d744	0.53844094
74	0x3ec52b88	0.38509774
75	0x3f9a0b93	1.2034782
76	0xbee0b596	-0.4388854
77	0xbec3f9d4	-0.3827654
78	0x3f26892e	0.6505307
79	0xbf866d3e	-1.0502088
80	0x3ed79c0c	0.42111242
81	0x3fb25b9f	1.393421
82	0x3e4aae20	0.19792986
83	0xbf884802	-1.0646975
84	0x3f88820f	1.0664691
85	0x3f5e2c02	0.867859
86	0x3f44cd76	0.7687601
87	0x3ea7373c	0.32659328
88	0xbf60b9a2	-0.87783253
89	0xbfa95686	-1.322953
90	0xbe9f13c8	-0.3106978
91	0xbf7c1d50	-0.9848223
92	0x3f533582	0.8250352
93	0xbfb27d02	-1.3944399
94	0xbf389fde	-0.7211894
95	0x3de67110	0.11252034
96	0xbedbbf2a	-0.42919284
97	0xbed67cb8	-0.41892028
98	0x3f9f8ad5	1.2464243
99	0xbec16f50	-0.37780237
100	0x3f0c278a	0.5474783
101	0x3fa78d1b	1.3089937
102	0xbf7ce08e	-0.98780143
103	0x3f878445	1.058724
104	0x3f6c49c6	0.9230007
105	0xbfac4d12	-1.346102
106	0xbfb4f2e4	-1.4136624
107	0xbfb374c5	-1.402001
108	0x3f55e8b6	0.83558214
109	0xbf0de597	-0.5542845
110	0xbe98d1e0	-0.29847622
111	0x3f84d44f	1.0377291
112	0xbfa7054a	-1.3048489
113	0x3f017d50	0.50581837
114	0x3f22b072	0.63550484
115	0xbf92d3bf	-1.147087
116	0xbfabb3c4	-1.3414235
117	0x3e247c98	0.16063154
118	0xbfb01b15	-1.3758265
119	0x3faf9cc3	1.3719715
120	0x3f4f64fe	0.81013477
121	0x3f5645e2	0.8370038
122	0x3faa8673	1.3322281
123	0xbf928978	-1.1448202
124	0xbf1e3168	-0.6179414
125	0x3e9947bc	0.2993754
126	0xbf3e8097	-0.7441496
127	0x3f57e2f6	0.8433069
128	0x3fa979f1	1.3240339
129	0x3f483ca6	0.7821754
130	0x3fa617c9	1.2976009
131	0x3ccbbec0	0.02487123
132	0x3f8fac95	1.1224543
133	0xbd033f40	-0.03204274
134	0x3dd63d20	0.104608774
135	0xbe479a80	-0.19492531
136	0xbf5e3904	-0.8680575
137	0xbfa67fb0	-1.3007717
138	0x3f53f30a	0.82792723
139	0x3f3be052	0.7338916
140	0xbeee3ada	-0.46529275
141	0xbf5b134a	-0.8557631
142	0xbf79fa20	-0.97647285
143	0x3f9864c3	1.190575
144	0x3f4647fe	0.774536
145	0xbfadcd20	-1.3578224
146	0xbf1aca1c	-0.60464644
147	0xbf32a561	-0.697836
148	0x3ee1b0f0	0.44080305
149	0xbf699509	-0.91243035
150	0xbeeb54dc	-0.4596318
151	0xbe7fd898	-0.24984968
152	0xbf75185e	-0.95740306
153	0x3f1b9722	0.60777485
154	0xbf40e77a	-0.75353205
155	0xbf1ff0a1	-0.62476546
156	0xbf0cd8b0	-0.5501814
157	0xbf9958ed	-1.1980263
158	0xbf974009	-1.1816417
159	0x3f6634ea	0.8992449
160	0x3f8c3969	1.095502
161	0xbf7c08b0	-0.98450756
162	0xbf1aa064	-0.60400987
163	0xbecd42d0	-0.40090036
164	0xbe2f72a0	-0.1713357
165	0xbf8c4b5c	-1.0960498
166	0xbf013f32	-0.50487053
167	0x3f8484b1	1.0352994
168	0xbf9f54ba	-1.2447731
169	0xbf55cef5	-0.83518916
170	0x3fb1debd	1.3896099
171	0xbf34c0fb	-0.70606965
172	0xbfa71968	-1.3054628
173	0x3fb1f0a9	1.3901569
174	0x3ecc74d0	0.3993287
175	0xbf57ddc4	-0.8432276
176	0x3f4309d2	0.7618686
177	0x3e68db80	0.22739983
178	0x3e2345d8	0.15944612
179	0x3eaee048	0.34155488
180	0x3f440312	0.76567185
181	0xbec041b4	-0.37550128
182	0xbf4fb389	-0.81133324
183	0xbe987dd0	-0.29783487
184	0xbab0b400	-0.0013481379
185	0x3f55f13a	0.8357121
186	0xbfa13540	-1.2594376
187	0xbeb4fd4c	-0.353495
188	0xbf85730a	-1.0425732
189	0x3f5028fa	0.81312525
190	0xbf799dbf	-0.97506326
191	0x3ed976a8	0.4247334

mlp_extractor.policy_net.0.bias f4 [64]
0	0x00000000	0.0
1	0x00000000	0.0
2	0x00000000	0.0
3	0x00000000	0.0
4	0x00000000	0.0
5	0x00000000	0.0
6	0x00000000	0.0
7	0x00000000	0.0
8	0x00000000	0.0
9	0x00000000	0.0
10	0x00000000	0.0
11	0x00000000	0.0
12	0x00000000	0.0
13	0x00000000	0.0
14	0x00000000	0.0
15	0x00000000	0.0
16	0x00000000	0.0
17	0x00000000	0.0
18	0x00000000	0.0
19	0x00000000	0.0
20	0x00000000	0.0
21	0x00000000	0.0
22	0x00000000	0.0
23	0x00000000	0.0
24	0x00000000	0.0
25	0x00000000	0.0
26	0x00000000	0.0
27	0x00000000	0.0
28	0x00000000	0.0
29	0x00000000	0.0
30	0x00000000	0.0
31	0x00000000	0.0
32	0x00000000	0.0
33	0x00000000	0.0
34	0x00000000	0.0
35	0x00000000	0.0
36	0x00000000	0.0
37	0x00000000	0.0
38	0x00000000	0.0
39	0x00000000	0.0
40	0x00000000	0.0
41	0x00000000	0.0
42	0x00000000	0.0
43	0x00000000	0.0
44	0x00000000	0.0
45	0x00000000	0.0
46	0x00000000	0.0
47	0x00000000	0.0
48	0x00000000	0.0
49	0x00000000	0.0
50	0x00000000	0.0
51	0x00000000	0.0
52	0x00000000	0.0
53	0x00000000	0.0
54	0x00000000	0.0
55	0x00000000	0.0
56	0x00000000	0.0
57	0x00000000	0.0
58	0x00000000	0.0
59	0x00000000	0.0
60	0x00000000	0.0
61	0x00000000	0.0
62	0x00000000	0.0
63	0x00000000	0.0

mlp_extractor.policy_net.2.weight f4 [64, 64]
0	0x3dd2cfa4	0.102935106
1	0x3d04fd30	0.03246802
2	0xbde46900	-0.1115284
3	0xbe65391c	-0.22385067
4	0xbcdcb070	-0.0269396
5	0x3e6d016e	0.23145077
6	0xbd3737f8	-0.04473111
7	0xbc750ec0	-0.01495713
8	0x3dfc9244	0.123325855
9	0xbe0c1f5a	-0.13683835
10	0xbe562d64	-0.20915753
11	0x3de0bbf4	0.10973349
12	0x3e7e0a7e	0.2480869
13	0xbd97e316	-0.0741636
14	0xbe1df40e	-0.1542513
15	0x3d3e6a30	0.046487987
16	0xbe75be5f	-0.23998402
17	0xbe7f0eec	-0.24908036
18	0xbe6620f0	-0.22473502
19	0x3e77f1d2	0.24213341
20	0x3df28028	0.1184085
21	0xbe1e827f	-0.15479468
22	0xbe38e93c	-0.18057722
23	0x3d369f78	0.044585675
24	0xbdbbf516	-0.09177606
25	0xbdf440c8	-0.119264185
26	0x3e5d198a	0.21591774
27	0x3e8db1af	0.27674624
28	0xbe22d0aa	-0.15899912
29	0x3d464638	0.04840681
30	0x3e56ad9a	0.20964661
31	0xbba7b5c0	-0.005118102
32	0x3de36f00	0.11105156
33	0x3dd21418	0.10257739
34	0xbd6b70f4	-0.057480767
35	0xbb64d980	-0.003491968
36	0xbe3cf430	-0.18452525
37	0xbe79f718	-0.24410665
38	0x3e30beee	0.17260334
39	0xbe0051f2	-0.1253126
40	0xbe8cdfa3	-0.2751437
41	0x3de643f4	0.1124343
42	0xbdb67d92	-0.089106694
43	0x3e2f537e	0.17121693
44	0x3e1bff8e	0.15234205
45	0x3e1c848e	0.1528494
46	0x3d469300	0.048480034
47	0xbdacc984	-0.084368736
48	0x3bedc980	0.0072566867
49	0xbc450a40	-0.01202637
50	0xbe5ad2e5	-0.21369512
51	0xbe6dade7	-0.2321087
52	0x3e9233dd	0.28555194
53	0x3e21d068	0.15802157
54	0x3e8ad153	0.27112827
55	0xbe81b500	-0.25333405
56	0xbe3fcc57	-0.18730293
57	0xbde0c614	-0.109752804
58	0x3e944207	0.28956625
59	0x3e23b9f0	0.15988898
60	0x3e594e96	0.21221384
61	0xbd92291a	-0.07136746
62	0xbe18250d	-0.14857884
63	0x3daee03c	0.08538863
64	0x3de92d9c	0.113856524
65	0xbe45f3e3	-0.19331317
66	0xbd7bbc94	-0.06145914
67	0xbe86deca	-0.2634185
68	0xbe51d97c	-0.2049312
69	0x3e8cb9bf	0.27485463
70	0x3e01bf06	0.12670526
71	0xbe0ec1e2	-0.13941148
72	0xbe2c236f	-0.16810392
73	0x3cfdcb20	0.030980647
74	0x3e9056c7	0.28191206
75	0xbe3ad04a	-0.18243518
76	0x3e068fb4	0.13140756
77	0xbdfc0114	-0.12304893
78	0xbdc2a068	-0.09503251
79	0x3e8593b3	0.26089248
80	0x3e416884	0.18887526
81	0xbe81258b	-0.25223956
82	0x3db8be5c	0.09020683
83	0xba226000	-0.00061941147
84	0xbe8fbcf2	-0.2807384
85	0x3e4ad2ea	0.1980702
86	0xbdc0a19c	-0.094058245
87	0x3e17f75a	0.14840451
88	0x3d9c92b8	0.07645172
89	0x3e911e5d	0.28343478
90	0xbe1821d8	-0.1485666
91	0xbe7095be	-0.23494622
92	0x3e821f75	0.25414625
93	0x3e0ce254	0.13758212
94	0xbce8b420	-0.028406203
95	0x3cebd530	0.02878818
96	0x3e868b23	0.26278028
97	0xbd29ee20	-0.04148686
98	0xbe6009e0	-0.21878767
99	0x3e9c390b	0.3051227
100	0xbe66ab2c	-0.22526234
101	0x3e03dcb0	0.12877154
102	0x3db07548	0.086161196
103	0x3dc26ab0	0.09493005
104	0x3e2e23a8	0.1700579
105	0x3cccbf20	0.02499348
106	0xbe374b8a	-0.1789991
107	0x3c9393a0	0.018014729
108	0xbe86fbcf	-0.2636399
109	0x3e98fd9b	0.29880986
110	0xbd2a2ff8	-0.041549653
111	0xbe7f1e84	-0.24913985
112	0xbc09d560	-0.008412689
113	0x3db44dd8	0.0880391
114	0x3e9506db	0.29106793
115	0x3e9b975d	0.3038892
116	0xbe27566e	-0.16341564
117	0x3d223cf0	0.039608896
118	0xbe7770a4	-0.24164063
119	0x3d76d9c8	0.060266286
120	0xbdcb5d36	-0.09929888
121	0x3e836461	0.2566252
122	0x3e671012	0.22564724
123	0x3c96cd40	0.018408418
124	0xbe0a65bd	-0.13515373
125	0x3e38d6d0	0.18050694
126	0xbe18dfc9	-0.14929117
127	0x3e37fd0c	0.17967623
128	0x3daf69e4	0.08565119
129	0xbe85f6cf	-0.26164863
130	0x3e9814b5	0.29703298
131	0xbba29000	-0.004961014
132	0xbdb728b0	-0.089433074
133	0x3e0a8d10	0.13530374
134	0xbe367748	-0.1781894
135	0xbd8c5878	-0.068528116
136	0x3e3790f4	0.17926389
137	0xbe8f23c6	-0.2795698
138	0x3de48a3c	0.111591786
139	0xbe841b4a	-0.2580207
140	0xbd7c4978	-0.061593503
141	0xbe62bf08	-0.22143185
142	0x3e84a949	0.25910404
143	0x3d142c30	0.036174953
144	0x3e409a7a	0.18808928
145	0xbddec4c2	-0.10877372
146	0x3e14ddde	0.1453776
147	0x3e2e16b0	0.17000842
148	0xbd965cd6	-0.07341926
149	0xbe3fba06	-0.18723306
150	0x3dda0b5c	0.10646698
151	0x3db2e150	0.08734381
152	0xbe91760b	-0.28410372
153	0x3c9f5c00	0.019453049
154	0xbe84528a	-0.25844222
155	0xbdb1bb38	-0.08678287
156	0xbe15590e	-0.14584753
157	0x3e696ff6	0.22796616
158	0xbd767d44	-0.060178056
159	0x3e1613be	0.14655969
160	0x3e71a47e	0.23597905
161	0x3e065508	0.13118374
162	0x3dad6030	0.08465612
163	0xbe196c3d	-0.14982696
164	0xbd47e550	-0.048802674
165	0x3e7683aa	0.24073663
166	0x3e876871	0.2644687
167	0xbe80b52c	-0.25138223
168	0x3e6fd682	0.23421672
169	0xbe35476c	-0.17703027
170	0x3e0bdbb4	0.13658029
171	0x3d7f5210	0.06233412
172	0x3a5ec600	0.0008498132
173	0x3e986de3	0.29771337
174	0x3dce93f0	0.100868106
175	0x3dff38d8	0.12462014
176	0x3e7667b2	0.24062994
177	0xbe923449	-0.28555515
178	0x3e63725a	0.2221159
179	0x3cdfbab0	0.0273107
180	0x3e1fe9f6	0.15616593
181	0xbe486f68	-0.19573748
182	0xbe066d46	-0.13127622
183	0xbe962048	-0.29321504
184	0xbe2b0016	-0.16699252
185	0x3e94291b	0.2893761
186	0x3db84790	0.089980245
187	0x3d4fe7f8	0.050758332
188	0xbe98da95	-0.29854265
189	0xbd0c89c0	-0.034311056
190	0xbe368e2e	-0.17827675
191	0xbd2fae18	-0.042890638
192	0x3c4cf520	0.012509614
193	0x3c6a76c0	0.014310539
194	0xbe587584	-0.21138579
195	0xbe55a002	-0.2086182
196	0x3d7626b0	0.06009549
197	0x3e4f8832	0.20266798
198	0x3cc95c80	0.02458024
199	0x3dc9fab4	0.09862271
200	0x3d1bbeb8	0.03802368
201	0x3e98551f	0.29752442
202	0x3e98efb5	0.29870382
203	0xbd29faa0	-0.04149878
204	0x3e0ee164	0.13953167
205	0x3dc35bd4	0.09538999
206	0xbe4376d6	-0.19088301
207	0xbde5a914	-0.1121389
208	0xbbd83280	-0.006597817
209	0x3d8de98c	0.06929311
210	0xbe9ba506	-0.3039934
211	0xbe5a286d	-0.21304484
212	0x3e8d59d1	0.27607587
213	0xbe8ff905	-0.28119674
214	0xbe13af2b	-0.1442229
215	0x3e65131e	0.22370574
216	0xbe88ac78	-0.26694083
217	0x3c776100	0.01509881
218	0xbe3c436a	-0.18385091
219	0x3dbe467c	0.092907876
220	0x3dfb0748	0.12257248
221	0xbd005c40	-0.031337976
222	0xbe99ffe1	-0.30078033
223	0xbe009360	-0.12556219
224	0x3e99bf19	0.30028608
225	0x3e0b6cc0	0.13615704
226	0x3e8b1081	0.2716103
227	0x3e8292f7	0.2550275
228	0xbe753a1c	-0.23947948
229	0x3d511580	0.051045895
230	0x3e6b0732	0.22951964
231	0x3d5e40f8	0.054261178
232	0x3e16be7c	0.14721102
233	0x3db73248	0.08945137
234	0xbe494d53	-0.19658403
235	0x3ca4c470	0.0201132
236	0x3deea4b8	0.11652511
237	0x3ce02cb0	0.027365059
238	0x3e7794c6	0.24177846
239	0x3c542c00	0.012949944
240	0xbdbe44f2	-0.09290494
241	0xbe2d9fb5	-0.16955455
242	0x3d4eadf0	0.05045885
243	0x3cdb3e60	0.026763141
244	0x3c424fa0	0.011859804
245	0x3dccdf80	0.10003567
246	0x3de47508	0.111551344
247	0x3e8b30c7	0.27185652
248	0x3e14e9a2	0.14542249
249	0xbd43d300	-0.047808647
250	0xbb8aa5c0	-0.0042311847
251	0x3e59496a	0.21219411
252	0xbd2728e8	-0.040810496
253	0x3dc88ca8	0.09792453
254	0xbd0c8330	-0.034304798
255	0x3e1f2510	0.15541482

mlp_extractor.policy_net.2.bias f4 [64]
0	0x00000000	0.0
1	0x00000000	0.0
2	0x00000000	0.0
3	0x00000000	0.0
4	0x00000000	0.0
5	0x00000000	0.0
6	0x00000000	0.0
7	0x00000000	0.0
8	0x00000000	0.0
9	0x00000000	0.0
10	0x00000000	0.0
11	0x00000000	0.0
12	0x00000000	0.0
13	0x00000000	0.0
14	0x00000000	0.0
15	0x00000000	0.0
16	0x00000000	0.0
17	0x00000000	0.0
18	0x00000000	0.0
19	0x00000000	0.0
20	0x00000000	0.0
21	0x00000000	0.0
22	0x00000000	0.0
23	0x00000000	0.0
24	0x00000000	0.0
25	0x00000000	0.0
26	0x00000000	0.0
27	0x00000000	0.0
28	0x00000000	0.0
29	0x00000000	0.0
30	0x00000000	0.0
31	0x00000000	0.0
32	0x00000000	0.0
33	0x00000000	0.0
34	0x00000000	0.0
35	0x00000000	0.0
36	0x00000000	0.0
37	0x00000000	0.0
38	0x00000000	0.0
39	0x00000000	0.0
40	0x00000000	0.0
41	0x00000000	0.0
42	0x00000000	0.0
43	0x00000000	0.0
44	0x00000000	0.0
45	0x00000000	0.0
46	0x00000000	0.0
47	0x00000000	0.0
48	0x00000000	0.0
49	0x00000000	0.0
50	0x00000000	0.0
51	0x00000000	0.0
52	0x00000000	0.0
53	0x00000000	0.0
54	0x00000000	0.0
55	0x00000000	0.0
56	0x00000000	0.0
57	0x00000000	0.0
58	0x00000000	0.0
59	0x00000000	0.0
60	0x00000000	0.0
61	0x00000000	0.0
62	0x00000000	0.0
63	0x00000000	0.0

mlp_extractor.value_net.0.weight f4 [64, 3]
0	0xbf5176c2	-0.81821835
1	0xbf93f2e2	-1.1558497
2	0xbf115215	-0.5676587
3	0xbf94d241	-1.1626664
4	0xbef29a3a	-0.4738329
5	0x3f9a591b	1.2058443
6	0xbfaf79d6	-1.3709056
7	0xbe137f60	-0.14404058
8	0x3f0906ae	0.5352582
9	0xbd8ccb40	-0.06874704
10	0xbea37a4c	-0.31929243
11	0x3f91f1bf	1.14019
12	0xbed27a0c	-0.4110874
13	0xbf50a147	-0.8149609
14	0xbf815172	-1.010298
15	0x3f9b5afd	1.2137142
16	0xbf975ac1	-1.1824571
17	0x3f2b9c2a	0.6703516
18	0xbeac7b48	-0.33687806
19	0x3f487086	0.782967
20	0x3fa488d1	1.2854253
21	0xbf8d8247	-1.1055382
22	0x3e58b2c8	0.2116195
23	0x3f37b1be	0.7175559
24	0xbe00eae0	-0.12589598
25	0x3f9b7ddb	1.2147783
26	0x3e4c3ec8	0.19945824
27	0xbf9fbaaa	-1.247884
28	0x3e3abac0	0.18235302
29	0x3f5a7066	0.85327756
30	0xbec6bf78	-0.38817954
31	0xbe8cf974	-0.27534068
32	0x3f45204a	0.77002394
33	0x3f67d70e	0.9056252
34	0xbf619e84	-0.881325
35	0x3f8c4a45	1.0960165
36	0xbf3a4fa8	-0.72777796
37	0x3f7ef19e	0.9958743
38	0x3fb4522b	1.4087576
39	0xbde24f00	-0.11050224
40	0xbf00d7f5	-0.50329524
41	0xbdbf7370	-0.0934819
42	0xbf1402de	-0.57816875
43	0xbf9a4472	-1.2052138
44	0x3f2e742a	0.68146
45	0xbea5c458	-0.3237636
46	0xbe2b82b8	-0.16749084
47	0x3e545988	0.20737278
48	0x3f52e396	0.8237852
49	0x3e31dc60	0.17369223
50	0xbe9d1a24	-0.30684006
51	0xbe68db18	-0.22739828
52	0xbf049216	-0.5178541
53	0xbdfbfae0	-0.1230371
54	0xbe4307f0	-0.19045997
55	0x3e2f2b58	0.17106378
56	0x3f0c1532	0.5471984
57	0xbe364498	-0.17799604
58	0xbfb2beae	-1.3964441
59	0x3f83c2cb	1.0293821
60	0xbfab8e80	-1.3402863
61	0xbd3663e0	-0.044528842
62	0x3f816e53	1.0111793
63	0x3f92a02b	1.1455129
64	0x3e2fdd58	0.1717428
65	0xbcbb8a00	-0.022892952
66	0xbf150f0d	-0.5822609
67	0xbef7c642	-0.48393446
68	0x3c8050c0	0.015663505
69	0xbf264eab	-0.6496379
70	0xbf26867f	-0.65048975
71	0x3ee7a85c	0.45245636
72	0xbf898f74	-1.0746903
73	0x3b246400	0.0025084019
74	0xbebfac4c	-0.3743614
75	0x3f95a67d	1.1691433
76	0x3f3671ea	0.7126757
77	0x3f9e9969	1.2390567
78	0xbfa4ec20	-1.288456
79	0x3e412400	0.18861389
80	0xbf9d24f5	-1.2276903
81	0x3f7b36be	0.98130405
82	0xbebef18c	-0.3729366
83	0x3f28f82a	0.6600367
84	0x3e7d85a0	0.24758005
85	0xbf3c3932	-0.73524773
86	0x3f6bd6fe	0.9212493
87	0x3efea370	0.49734068
88	0x3f120de6	0.5705246
89	0xbf97b920	-1.1853371
90	0x3f6db2f6	0.928512
91	0x3f900c0b	1.1253675
92	0xbfb38707	-1.4025582
93	0x3e980798	0.29693294
94	0xbf27aced	-0.6549824
95	0x3f6b795a	0.9198204
96	0xbeb010e8	-0.34387898
97	0xbfa0d25a	-1.2564194
98	0xbfab1e30	-1.3368587
99	0x3e15dc60	0.14634848
100	0x3f94ed99	1.1635009
101	0xbd858680	-0.065197945
102	0xbf9e5cd1	-1.2372075
103	0xbf1f0727	-0.6212029
104	0xbf524023	-0.82129115
105	0xbee5ec52	-0.4490686
106	0x3f961d7d	1.1727749
107	0xbe606108	-0.21912014
108	0x3fa86817	1.3156766
109	0xbf78701a	-0.97046053
110	0xbf934203	-1.150452
111	0x3f4056a6	0.75132215
112	0xbd3f6be0	-0.046733737
113	0x3f6adaa6	0.9173988
114	0x3ed5eadc	0.41780746
115	0x3bcf4e00	0.006326437
116	0x3fac60e5	1.346707
117	0x3f88dd5d	1.0692555
118	0xbf3764a7	-0.7163796
119	0x3f9fb575	1.2477251
120	0xbe64d9b0	-0.22348666
121	0xbf8e5232	-1.1118834
122	0xbf6986af	-0.91221136
123	0xbfa9a87d	-1.3254544
124	0x3ea99e20	0.33128452
125	0xbf91f504	-1.1402898
126	0xbe8b5558	-0.2721355
127	0xbe4b7470	-0.19868636
128	0x3d991680	0.07474995
129	0x3f1c23a6	0.60991895
130	0x3f831857	1.0241803
131	0x3ef8a314	0.4856192
132	0x3f51aa4a	0.81900465
133	0x3f4eb85a	0.8075005
134	0xbf0ab971	-0.5418921
135	0xbf806117	-1.002963
136	0xbf357260	-0.7087765
137	0x3f0aaf58	0.54173803
138	0xbef91e72	-0.4865604
139	0x3d964fc0	0.0733943
140	0xbf1c0243	-0.6094095
141	0xbf9838c9	-1.189233
142	0xbf4a49e4	-0.79019
143	0xbe3b4f10	-0.18291879
144	0xbfa77cc7	-1.3084954
145	0x3f915895	1.1355158
146	0xbf939752	-1.1530554
147	0x3e538518	0.2065624
148	0x3ebaa878	0.36456656
149	0x3f50f6a6	0.81626356
150	0x3fa2c9e3	1.2717861
151	0x3f8c2e1b	1.095157
152	0xbf14952f	-0.58040136
153	0x3ec7c800	0.39019775
154	0xbebb4b3c	-0.36580837
155	0xbf41463d	-0.754978
156	0xbf6e71d2	-0.93142426
157	0x3f9b9035	1.2153383
158	0x3e0188a0	0.12649775
159	0xbf5336e6	-0.82505643
160	0x3edc9264	0.43080437
161	0xbe882aa0	-0.2659502
162	0xbf38097f	-0.7188949
163	0xbf021ba2	-0.50823414
164	0xbdb51850	-0.08842528
165	0xbe877c74	-0.26462138
166	0xbe254328	-0.161389
167	0x3ed9ec50	0.42563105
168	0xbf11d271	-0.56961733
169	0x3f52b1ee	0.8230275
170	0x3f81d60b	1.0143446
171	0xbf2ae80b	-0.6676032
172	0x3f8d68e3	1.1047634
173	0x3f48335a	0.78203356
174	0x3e5603e8	0.20899928
175	0x3f952665	1.1652342
176	0x3e071c88	0.13194478
177	0xbf5995ce	-0.8499421
178	0x3eb636a8	0.35588574
179	0xbed8b3ee	-0.42324775
180	0x3f8096d3	1.0046028
181	0x3f510556	0.81648767
182	0xbf9f73d6	-1.2457225
183	0xbf709adb	-0.9398629
184	0x3f8ecf31	1.115698
185	0x3f7f1006	0.99633825
186	0x3f9d197d	1.2273403
187	0xbe34ebf8	-0.1766814
188	0x3f35a6ae	0.7095746
189	0x3ed6c040	0.4194355
190	0x3e78f0f8	0.24310672
191	0x3f15d414	0.5852673

mlp_extractor.value_net.0.bias f4 [64]
0	0x00000000	0.0
1	0x00000000	0.0
2	0x00000000	0.0
3	0x00000000	0.0
4	0x00000000	0.0
5	0x00000000	0.0
6	0x00000000	0.0
7	0x00000000	0.0
8	0x00000000	0.0
9	0x00000000	0.0
10	0x00000000	0.0
11	0x00000000	0.0
12	0x00000000	0.0
13	0x00000000	0.0
14	0x00000000	0.0
15	0x00000000	0.0
16	0x00000000	0.0
17	0x00000000	0.0
18	0x00000000	0.0
19	0x00000000	0.0
20	0x00000000	0.0
21	0x00000000	0.0
22	0x00000000	0.0
23	0x00000000	0.0
24	0x00000000	0.0
25	0x00000000	0.0
26	0x00000000	0.0
27	0x00000000	0.0
28	0x00000000	0.0
29	0x00000000	0.0
30	0x00000000	0.0
31	0x00000000	0.0
32	0x00000000	0.0
33	0x00000000	0.0
34	0x00000000	0.0
35	0x00000000	0.0
36	0x00000000	0.0
37	0x00000000	0.0
38	0x00000000	0.0
39	0x00000000	0.0
40	0x00000000	0.0
41	0x00000000	0.0
42	0x00000000	0.0
43	0x00000000	0.0
44	0x00000000	0.0
45	0x00000000	0.0
46	0x00000000	0.0
47	0x00000000	0.0
48	0x00000000	0.0
49	0x00000000	0.0
50	0x00000000	0.0
51	0x00000000	0.0
52	0x00000000	0.0
53	0x00000000	0.0
54	0x00000000	0.0
55	0x00000000	0.0
56	0x00000000	0.0
57	0x00000000	0.0
58	0x00000000	0.0
59	0x00000000	0.0
60	0x00000000	0.0
61	0x00000000	0.0
62	0x00000000	0.0
63	0x00000000	0.0

mlp_extractor.value_net.2.weight f4 [64, 64]
0	0x3cb78730	0.02240333
1	0x3dc3aef4	0.09554854
2	0xbe047fbe	-0.12939355
3	0x3e5b0692	0.21389225
4	0xbe883f73	-0.26610908
5	0xbe295d2d	-0.1653945
6	0x3d6d7988	0.05797723
7	0xbe317139	-0.17328347
8	0xbe0de37a	-0.13856307
9	0xbe8736f2	-0.26409107
10	0xbc0414a0	-0.008061558
11	0x3e008554	0.1255086
12	0x3bee3280	0.0072692037
13	0xbe27b424	-0.16377312
14	0xbdc92d0a	-0.09823044
15	0xbe3a3d01	-0.18187334
16	0x3e4b482e	0.19851753
17	0x3df74ebc	0.12075564
18	0x3e6b19aa	0.22959009
19	0xbe55b43a	-0.20869532
20	0x3bed8a80	0.0072491765
21	0x3e95cd1d	0.29258052
22	0xbe3a55e0	-0.18196821
23	0xbd567798	-0.052360147
24	0x3e1b004a	0.15136829
25	0xbbcad400	-0.006189823
26	0xbe9bcaf6	-0.30428284
27	0xbe895775	-0.26824537
28	0x3e2b557a	0.16731825
29	0x3e1c6d4c	0.15276068
30	0x3e1502c2	0.14551833
31	0xbd2a0598	-0.04150924
32	0x3ba87c40	0.005141765
33	0x3db70b50	0.089377046
34	0x3e8d749b	0.27628025
35	0xbdeeb798	-0.116561115
36	0x3e878c19	0.26474074
37	0xbe20e07f	-0.15710638
38	0x3dc7ec64	0.09761885
39	0x3c179880	0.009252667
40	0x3e086ad2	0.13321999
41	0x3c5e7e00	0.013579845
42	0x3e8cf32f	0.27529284
43	0x3ad18000	0.0015983582
44	0x3e504d06	0.20341882
45	0x3d8e0044	0.069336444
46	0xbcef1bd0	-0.029188067
47	0x3e515c16	0.20445284
48	0xbc2f16c0	-0.010686576
49	0x3e9805f9	0.29692057
50	0x3e51f3aa	0.20503107
51	0x3e1269ac	0.14298123
52	0xbddfa526	-0.109201714
53	0x3e65911a	0.22418633
54	0xbc9b7640	-0.018977284
55	0x3d921ddc	0.071346015
56	0x3e6406ae	0.22268173
57	0xbe1eaa3e	-0.1549463
58	0xbe0295b6	-0.12752423
59	0xbe31b6df	-0.17354916
60	0x3d1cac20	0.03825009
61	0xbe88a762	-0.26690203
62	0xbd3a77b0	-0.0455243
63	0xbe8e490b	-0.27790102
64	0x3e3530c8	0.1769439
65	0xbe6ccd66	-0.23125228
66	0xbe91b8c2	-0.28461272
67	0x3db8ac40	0.09017229
68	0x3c321320	0.010868818
69	0xbe97a7eb	-0.296203
70	0x3e29be72	0.16576555
71	0xbe52ba74	-0.20578939
72	0x3da5d3b8	0.08097023
73	0xbe8c1463	-0.27359304
74	0x3d89efa8	0.06735164
75	0x3e0cc502	0.13747028
76	0xbe9825b0	-0.29716253
77	0x3d2690d8	0.040665478
78	0x3e78a81a	0.24282876
79	0xbcae13c0	-0.021249652
80	0x3e5c309a	0.21502915
81	0xbe6da20e	-0.2320635
82	0x3e0357da	0.12826481
83	0xbddfa51c	-0.10920164
84	0xbe10e05e	-0.1414809
85	0x3dbed0dc	0.093171805
86	0x3e2bc3a2	0.16773847
87	0xbdc24074	-0.0948495
88	0xbe684f6e	-0.2268655
89	0xbe587863	-0.21139674
90	0xbd0420d0	-0.032257855
91	0x3ddfb260	0.10922694
92	0x3c5e6ea0	0.01357618
93	0x3e0ef89a	0.13962021
94	0xbd933302	-0.07187463
95	0xbe418b5f	-0.18900822
96	0xbe791157	-0.24323021
97	0x3dc40f3c	0.09573218
98	0xbc88df10	-0.016707927
99	0xbd86aa94	-0.06575504
100	0xbe2455d8	-0.16048372
101	0x3d308c78	0.04310271
102	0x3c1976c0	0.009366691
103	0x3e00d2dc	0.12580436
104	0xbdb5c9b0	-0.088763595
105	0x3d8471e0	0.064670324
106	0x3b4af000	0.0030965805
107	0xbe40ad56	-0.18816122
108	0x3e69277e	0.22768971
109	0xbe0ab9ae	-0.13547394
110	0xbe42d1e4	-0.1902538
111	0x3e57a532	0.21059111
112	0x3e956b57	0.29183456
113	0xbe752e6a	-0.23943487
114	0xbe56cb00	-0.20975876
115	0xbe8b1b8d	-0.27169457
116	0x3e5825e2	0.21108201
117	0x3e8874a1	0.2665148
118	0xbd542990	-0.05179745
119	0x3e92e5a9	0.28690842
120	0xbe5d9c8a	-0.21641746
121	0x3e230036	0.15918049
122	0x3d96a438	0.07355541
123	0x3d52b628	0.05144325
124	0xbdb3906e	-0.08767782
125	0x3de40404	0.111335784
126	0x3e4adcfe	0.19810864
127	0xbac10a00	-0.0014727712
128	0x3e8bdd7d	0.2731742
129	0x3da08624	0.07838085
130	0xbe8660d0	-0.26245737
131	0xbe8e0bbb	-0.27743325
132	0xbd891310	-0.06693089
133	0xbe15888f	-0.14602874
134	0xbe21a85a	-0.15786877
135	0xbc18ce40	-0.009326518
136	0x3d852d64	0.06502798
137	0x3da46580	0.08027172
138	0x3e82e42d	0.2556471
139	0xbe02a40d	-0.12757893
140	0xbdce909a	-0.10086174
141	0xbd434f58	-0.04768309
142	0xbb123580	-0.002230972
143	0xbdd5c3b6	-0.104377195
144	0x3e85d213	0.26136836
145	0xbcdd5800	-0.0270195
146	0x3cce41c0	0.025177836
147	0x3e271b64	0.16319042
148	0x3e896555	0.26835123
149	0xbe9320bc	-0.28735912
150	0xbe91a02b	-0.2844251
151	0xbdf23456	-0.118263885
152	0xbe9197c1	-0.28436092
153	0xbe0f3922	-0.13986638
154	0x3cdab580	0.026697874
155	0xbdd51a68	-0.10405427
156	0x3de26ad0	0.11055529
157	0xbd1dcd08	-0.03852561
158	0x3df37960	0.11888385
159	0x3e62b2f6	0.2213858
160	0xbdbefd40	-0.09325647
161	0xbe953ce2	-0.29148012
162	0xbe18836f	-0.14893888
163	0x3e26de72	0.16295794
164	0x3db38bf0	0.08766925
165	0xbd6763e4	-0.056491747
166	0x3df50300	0.11963463
167	0x3e86762b	0.2626203
168	0xbe6f34f8	-0.2336005
169	0x3c3717a0	0.011175066
170	0x3dd24df8	0.102687776
171	0xbcdab2c0	-0.026696563
172	0x3e2f13a8	0.17097342
173	0x3e0acd38	0.13554847
174	0x3ced5e30	0.028975576
175	0x3ddd96d4	0.10819784
176	0x3e9c00f5	0.3046948
177	0x3d5e6fb0	0.054305732
178	0x3d3f46e0	0.04669845
179	0xbe5421a8	-0.20715964
180	0x3e96362f	0.29338214
181	0xbe6db424	-0.2321325
182	0x3e50e10a	0.20398346
183	0xbe96fcef	-0.29489848
184	0x3d90c26c	0.07068333
185	0x3e8b28af	0.27179477
186	0x3e42293a	0.18961039
187	0x3e8f4a7b	0.27986512
188	0xbd01af28	-0.031661183
189	0x3e4d4faa	0.2004992
190	0xbdd4e202	-0.1039467
191	0xbd8d9554	-0.06913248
192	0x3cb7e7c0	0.022449374
193	0xbe1e3c1d	-0.15452619
194	0x3e6956fa	0.22787085
195	0x3e8730b3	0.26404342
196	0x3e9c979f	0.30584428
197	0x3d87604c	0.06610164
198	0xbcd14730	-0.02554664
199	0x3e9b0d27	0.30283472
200	0xbe3bc56e	-0.18337032
201	0xbe7ba544	-0.24574763
202	0xbe3d6e41	-0.1849909
203	0x3e5d270e	0.2159693
204	0x3e0edd6c	0.13951653
205	0x3d92690c	0.07148942
206	0xbe543a9a	-0.2072548
207	0xbc63d2c0	-0.013905227
208	0x3e2a75da	0.1664652
209	0xbe6c7e82	-0.23095134
210	0xbda9a7ec	-0.08283982
211	0xbe5f9fcb	-0.218383
212	0x3db77908	0.08958632
213	0xbda696ac	-0.08134207
214	0xbe93c845	-0.2886373
215	0x3c6ab820	0.014326125
216	0x3e5e7fda	0.21728459
217	0xbd157968	-0.036492735
218	0xbe7a9cec	-0.24473923
219	0xbe0f284f	-0.1398022
220	0x3e3e78e8	0.1860081
221	0x3d3925a8	0.045201927
222	0x3d252c28	0.040325314
223	0x3dde79b4	0.10863057
224	0xbe84558c	-0.25846517
225	0xbe9c152a	-0.30484897
226	0x3e869987	0.26289007
227	0x3e83edd3	0.25767383
228	0x3e8e7449	0.27823094
229	0x3e997415	0.29971376
230	0x3e8018e1	0.2501898
231	0xbdda37b8	-0.10655159
232	0xbe9c7f11	-0.30565694
233	0xbb115000	-0.0022172928
234	0xbe88b180	-0.26697922
235	0xbe43cdf6	-0.19121537
236	0xbdf81202	-0.1211281
237	0x3e0eb466	0.13936004
238	0xbe5c44ce	-0.21510622
239	0x3bed2b40	0.007237822
240	0x3e5fe4ee	0.21864673
241	0xbdc6bb1e	-0.097036585
242	0x3e96de2d	0.29466382
243	0xbe36bca7	-0.17845403
244	0xbd835c16	-0.064140484
245	0x3e72a476	0.2369555
246	0x3e25f250	0.16205716
247	0xbd26ee30	-0.040754497
248	0x3e0367da	0.12832585
249	0xbe305986	-0.1722165
250	0x3e13a20c	0.14417285
251	0xbe343602	-0.17598727
252	0x3d6ca5f8	0.057775468
253	0x3e1bf10e	0.15228674
254	0xbba56000	-0.0050468445
255	0x3df93840	0.12168932

mlp_extractor.value_net.2.bias f4 [64]
0	0x00000000	0.0
1	0x00000000	0.0
2	0x00000000	0.0
3	0x00000000	0.0
4	0x00000000	0.0
5	0x00000000	0.0
6	0x00000000	0.0
7	0x00000000	0.0
8	0x00000000	0.0
9	0x00000000	0.0
10	0x00000000	0.0
11	0x00000000	0.0
12	0x00000000	0.0
13	0x00000000	0.0
14	0x00000000	0.0
15	0x00000000	0.0
16	0x00000000	0.0
17	0x00000000	0.0
18	0x00000000	0.0
19	0x00000000	0.0
20	0x00000000	0.0
21	0x00000000	0.0
22	0x00000000	0.0
23	0x00000000	0.0
24	0x00000000	0.0
25	0x00000000	0.0
26	0x00000000	0.0
27	0x00000000	0.0
28	0x00000000	0.0
29	0x00000000	0.0
30	0x00000000	0.0
31	0x00000000	0.0
32	0x00000000	0.0
33	0x00000000	0.0
34	0x00000000	0.0
35	0x00000000	0.0
36	0x00000000	0.0
37	0x00000000	0.0
38	0x00000000	0.0
39	0x00000000	0.0
40	0x00000000	0.0
41	0x00000000	0.0
42	0x00000000	0.0
43	0x00000000	0.0
44	0x00000000	0.0
45	0x00000000	0.0
46	0x00000000	0.0
47	0x00000000	0.0
48	0x00000000	0.0
49	0x00000000	0.0
50	0x00000000	0.0
51	0x00000000	0.0
52	0x00000000	0.0
53	0x00000000	0.0
54	0x00000000	0.0
55	0x00000000	0.0
56	0x00000000	0.0
57	0x00000000	0.0
58	0x00000000	0.0
59	0x00000000	0.0
60	0x00000000	0.0
61	0x00000000	0.0
62	0x00000000	0.0
63	0x00000000	0.0

action_net.weight f4 [1, 64]
0	0x3d7ce450	0.061741173
1	0xbe3c7ce0	-0.18407011
2	0xbe805a7a	-0.25069028
3	0xbe267e63	-0.1625915
4	0x3e6c541a	0.23078957
5	0x3e615d3e	0.22008225
6	0xbe66f6be	-0.22555062
7	0x3cef7220	0.029229224
8	0xbe8d96ef	-0.27654216
9	0xbcacf140	-0.02111113
10	0x3e298c5e	0.16557452
11	0x3e764376	0.24049172
12	0xbe547a91	-0.2074988
13	0x3e77a852	0.24185303
14	0xbc9bca00	-0.01901722
15	0xbe2bb453	-0.16768007
16	0x3ddb215c	0.10699722
17	0xbc6a95a0	-0.0143179
18	0xbb893d00	-0.00418818
19	0xbe218d1c	-0.15776485
20	0x3ae4e000	0.0017461777
21	0x3e719a42	0.23594001
22	0x3e2cdcd2	0.16881111
23	0xbe81e3c4	-0.25369084
24	0x3e9c2c35	0.30502477
25	0x3e630e46	0.22173414
26	0x3e6335da	0.22188511
27	0x3e8d21ab	0.2756475
28	0xbe0e59e5	-0.1390148
29	0xbe979a16	-0.29609746
30	0xbe87dafc	-0.2653426
31	0x3e0db918	0.13840139
32	0x3dfbdae4	0.122976094
33	0x3e902dd9	0.2815998
34	0xbcb4ad70	-0.022055358
35	0xbd8bd79a	-0.06828232
36	0xbdd8d89e	-0.105881914
37	0xbbf4f9c0	-0.0074760616
38	0x3e339eea	0.1754109
39	0x3e22cb86	0.1589795
40	0x3dff9ae4	0.12480715
41	0xbe431629	-0.19051422
42	0xbe74c378	-0.2390269
43	0x3d5fa120	0.05459702
44	0xbe035026	-0.12823543
45	0xbe8f4701	-0.2798386
46	0xbcd3b120	-0.025841296
47	0x3e83cca9	0.2574208
48	0x3e8cce31	0.27501062
49	0x3e884801	0.26617435
50	0x3dd5a874	0.104325205
51	0xbdbca6c0	-0.092114925
52	0xbe8613c0	-0.26186943
53	0xbe8f49c5	-0.2798597
54	0xbcc3d760	-0.02390641
55	0x3d59b788	0.053153545
56	0x3e39551e	0.18098876
57	0xbe54f998	-0.20798337
58	0x3d8aed14	0.067835
59	0x3e1212be	0.14264962
60	0x3e7bbdda	0.24584141
61	0x3e1794d2	0.14802864
62	0x3e5ecdc6	0.21758184
63	0x3e7f4712	0.24929455

value_net.weight f4 [1, 64]
0	0xbe54740a	-0.2074739
1	0x394e2000	0.00019657612
2	0xbe9549db	-0.2915791
3	0xbda8b88c	-0.082383245
4	0xbd67c05c	-0.056579933
5	0xbe5216be	-0.20516488
6	0x3bf53900	0.0074836016
7	0x3e84a577	0.2590749
8	0x3e32e172	0.17468813
9	0xbe61eb0e	-0.22062322
10	0x3e2a392a	0.16623369
11	0x3e8dc637	0.27690288
12	0xbe1c22eb	-0.15247695
13	0x3e84a18b	0.25904498
14	0xbe0bac07	-0.13639842
15	0xbe24f530	-0.16109157
16	0x3dd48538	0.10376972
17	0xbe93de0c	-0.28880346
18	0xbe0b9d8d	-0.1363432
19	0x3dc54c9c	0.09633753
20	0xbdccc7b6	-0.09999029
21	0x3e212a0c	0.15738696
22	0x3d08bc78	0.033382863
23	0xba83ce00	-0.00100559
24	0xbbdcee80	-0.0067422986
25	0xbe387b5a	-0.18015805
26	0x3c878ab0	0.016545624
27	0x3e64a4a6	0.22328433
28	0x3e6dd3ca	0.23225322
29	0x3e7e0286	0.2480565
30	0xbe908682	-0.2822762
31	0xbe6024b2	-0.21888998
32	0xbdea50ec	-0.11441216
33	0xbc881260	-0.016610324
34	0xbe99bc0e	-0.30026287
35	0xbdd27f22	-0.10278155
36	0xbe196599	-0.14980163
37	0x3e9b9b8d	0.30392113
38	0xbdfe9a52	-0.12431778
39	0x3dc9d3a4	0.0985482
40	0xbe6a1778	-0.22860515
41	0x3e975c73	0.2956272
42	0x3e895f5f	0.26830575
43	0xbd21e088	-0.03952077
44	0xbe948aa0	-0.29012012
45	0x3e18149c	0.14851612
46	0xbd87df9e	-0.066344485
47	0x3cbb0cb0	0.022833198
48	0xbe2e65b4	-0.17030984
49	0xbe9c69f0	-0.30549574
50	0xbe01706e	-0.12640545
51	0x3d9635a8	0.07334453
52	0x3e537956	0.20651755
53	0xbc7ef560	-0.015561432
54	0x3dee5ba8	0.11638576
55	0x3d9222fc	0.07135579
56	0x3e8f970d	0.2804493
57	0xbe8fa7e1	-0.2805777
58	0x3e184b4a	0.1487247
59	0xbe90efe3	-0.2830802
60	0xbe9adb60	-0.30245495
61	0xbd05d130	-0.0326702
62	0x3e777336	0.24165043
63	0xbddc6b58	-0.10762662
