policies/Walker2D/orthogonal_ppo_initialization.pt (torch, 41032 bytes, 10 tensors)

mlp_extractor.policy_net.0.weight f4 [64, 3]
-0.09560442 0.16122131 0.0056427564 -0.020104093 0.13070245 0.017887171 0.19738458 -0.029742092
0.32219234 -0.0622286 -0.08911053 0.035514712 -0.21141726 -0.058720298 -0.01088074 0.0451281
-0.048971355 0.14564838 -0.014083349 0.09655232 -0.068888895 0.11797143 0.31017113 0.09771297
0.16977361 0.11445322 0.25716248 0.015604408 -0.13158268 0.034267712 0.18743615 0.017902955
-0.10665197 -0.14165841 -0.046049405 0.07395536 0.05928546 0.014003746 -0.019819511 -0.0033426054
-0.10491677 -0.026818033 -0.07845381 0.06488063 0.08313132 -0.19350703 -0.024359977 0.11241424
-0.040761378 -0.193425 0.106910236 0.05355384 0.0421168 0.020050207 0.066177405 -0.10027242
-0.04836946 0.002840941 -0.11501126 -0.014406585 0.01975405 0.17630333 0.012954726 0.0048601087
-0.05328041 0.058046173 0.1995532 0.0075137266 0.073660396 0.11041186 0.1796999 0.041826125
-0.15288696 -0.045820817 0.005352559 0.20865838 -0.11212467 -0.14392376 0.019906364 -0.013781558
-0.13968903 -0.015939476 0.055488333 -0.120118946 0.020698259 -0.3884243 -0.01619685 0.083450675
0.24237143 -0.21400496 -0.12826434 -0.07326154 -0.085345216 0.12339534 -0.0038001128 -0.007980738
-0.044672165 0.0012433708 0.08748387 0.040225632 -0.1719455 -0.12601075 0.019558119 0.17328933
0.06752218 0.21706264 0.19086298 -0.0050851298 -0.07612121 -0.030981537 0.021630758 -0.058713578
0.030459369 0.23045737 -0.11475945 0.14988528 -0.016453039 0.028990379 0.037047278 0.19379109
-0.07752939 0.12142693 0.080063924 0.119027525 -0.020595543 0.03672387 -0.09280034 0.052916422
-0.05153114 -0.045856506 0.021706758 -0.12900147 0.04557775 -0.048754144 0.2111416 0.06558487
0.048712928 0.10608241 0.05299622 -0.14183772 0.019657988 -0.0972681 0.2134652 -0.11436133
-0.12692639 0.1407733 0.029406678 -0.01800035 0.04829833 0.28213957 0.5236426 -0.031484425
-0.16607068 0.007518298 -0.061220217 0.017732004 0.16447808 -0.24442157 -0.12322096 0.06443214
0.14964524 -0.085805856 0.03326136 0.003498474 0.045685835 0.024332639 -0.06215504 0.07151407
0.0145244235 -0.0761934 0.027433861 -0.0053135627 0.056923114 0.055517986 0.33509696 0.012099208
0.014840728 0.08900454 -0.07940633 0.08415663 0.010315451 0.26463792 -0.07090834 0.009871166
0.11208222 -0.12748799 -0.0901451 0.023380527 -0.4833303 -0.10546321 -0.06339582 -0.030779209
00000000: 40cc c3bd 3317 253e dfe6 b83b 57b1 a4bc
00000010: ddd6 053e 1e88 923c 2f1f 4a3e b0a5 f3bc
00000020: 65f6 a43e 6be3 7ebd 957f b6bd e077 113d
00000030: c47d 58be b284 70bd 2245 32bc 3ed8 383d
00000040: 3096 48bd d924 153e d9bd 66bc 39bd c53d
00000050: 9f15 8dbd 019b f13d c0ce 9e3e bd1d c83d
00000060: 22d9 2d3e 7366 ea3d cdaa 833e a2a9 7f3c
00000070: 9cbd 06be 4d5c 0c3d 43ef 3f3e 38a9 923c
00000080: 596c dabd e70e 11be 4d9e 3cbd e875 973d
00000090: 4fd5 723d f86f 653c 875c a2bc 9d0f 5bbb
000000a0: 9ade d6bd 7eb1 dbbc 64ac a0bd 23e0 843d
000000b0: c140 aa3d b526 46be 938e c7bc 7039 e63d
000000c0: 67f5 26bd 3411 46be c1f3 da3d 455b 5b3d
000000d0: aa82 2c3d 5540 a43c 0588 873d a05b cdbd
000000e0: 0e1f 46bd 152f 3a3b 068b ebbd 9909 6cbc
000000f0: 3fd3 a13c dc88 343e 0f40 543c 8c41 9f3b
00000100: 8f3c 5abd d3c1 6d3d ad57 4c3e b535 f63b
00000110: 43db 963d 9d1f e23d 4003 383e df51 2b3d
00000120: 668e 1cbe 9cae 3bbd 8564 af3b 8baa 553e
00000130: 9ea1 e5bd c060 13be ac12 a33c 0bcc 61bc
00000140: a40a 0fbe 8193 82bc bc47 633d ec00 f6bd
00000150: 658f a93c 8ddf c6be 42af 84bc 30e8 aa3d
00000160: 3730 783e 1e24 5bbe ba57 03be 250a 96bd
00000170: 79c9 aebd b2b6 fc3d 500b 79bb a4c1 02bc
00000180: 29fa 36bd 9af8 a23a be2a b33d a2c3 243d
00000190: 7b12 30be f608 01be 5938 a03c c272 313e
000001a0: 1249 8a3d ab45 5e3e 9671 433e 29a1 a6bb
000001b0: 70e5 9bbd fecc fdbc fd32 b13c a67d 70bd
000001c0: ed85 f93c 04fd 6b3e 0107 ebbd 877b 193e
000001d0: 86c8 86bc 3b7d ed3c e3be 173d 2c71 463e
000001e0: bbc7 9ebd afae f83d 8ef8 a33d b4c4 f33d
000001f0: fcb7 a8bc c56b 163d 1b0e bebd e4be 583d
00000200: 5112 53bd 08d4 3bbd 5fd2 b13c f618 04be
00000210: bcaf 3a3d 6db2 47bd 8135 583e 5c51 863d
00000220: 3587 473d bc41 d93d 9012 593d e83d 11be
00000230: ca09 a13c 7f34 c7bd 9f96 5a3e 4636 eabd
00000240: fef8 01be e026 103e 46e6 f03c 7875 93bc
00000250: 78d4 453d 9974 903e 710d 063f d0f5 00bd
00000260: 6f0e 2abe 0e5c f63b 0dc2 7abd b542 913c
00000270: f16c 283e a649 7abe 455b fcbd fff4 833d
00000280: 9a3c 193e fbba afbd 103d 083d a746 653b
00000290: 1221 3b3d 3e55 c73c 4996 7ebd f875 923d
000002a0: d9f7 6d3c 490b 9cbd fabc e03c 651d aebb
000002b0: 3628 693d d466 633d d491 ab3e c23b 463c
000002c0: 8626 733c 0348 b63d c99f a2bd 505a ac3d
000002d0: 2302 293c 9f7e 873e 6438 91bd acba 213c
000002e0: 5d8b e53d 368c 02be ff9d b8bd 8588 bf3c
000002f0: 1277 f7be 18fd d7bd abd5 81bd ae24 fcbc

mlp_extractor.policy_net.0.bias f4 [64]
0.0 0.0 0.0 0.0 0.0 0.0 0.0 0.0
0.0 0.0 0.0 0.0 0.0 0.0 0.0 0.0
0.0 0.0 0.0 0.0 0.0 0.0 0.0 0.0
0.0 0.0 0.0 0.0 0.0 0.0 0.0 0.0
0.0 0.0 0.0 0.0 0.0 0.0 0.0 0.0
0.0 0.0 0.0 0.0 0.0 0.0 0.0 0.0
0.0 0.0 0.0 0.0 0.0 0.0 0.0 0.0
0.0 0.0 0.0 0.0 0.0 0.0 0.0 0.0
00000000: 0000 0000 0000 0000 0000 0000 0000 0000
00000010: 0000 0000 0000 0000 0000 0000 0000 0000
00000020: 0000 0000 0000 0000 0000 0000 0000 0000
00000030: 0000 0000 0000 0000 0000 0000 0000 0000
00000040: 0000 0000 0000 0000 0000 0000 0000 0000
00000050: 0000 0000 0000 0000 0000 0000 0000 0000
00000060: 0000 0000 0000 0000 0000 0000 0000 0000
00000070: 0000 0000 0000 0000 0000 0000 0000 0000
00000080: 0000 0000 0000 0000 0000 0000 0000 0000
00000090: 0000 0000 0000 0000 0000 0000 0000 0000
000000a0: 0000 0000 0000 0000 0000 0000 0000 0000
000000b0: 0000 0000 0000 0000 0000 0000 0000 0000
000000c0: 0000 0000 0000 0000 0000 0000 0000 0000
000000d0: 0000 0000 0000 0000 0000 0000 0000 0000
000000e0: 0000 0000 0000 0000 0000 0000 0000 0000
000000f0: 0000 0000 0000 0000 0000 0000 0000 0000

mlp_extractor.policy_net.2.weight f4 [64, 64]
0.12268424 0.0026878044 -0.013468498 0.14271237 0.14615242 -0.2583575 0.16427903 -0.117588475
0.0029373951 -0.04708048 -0.124940574 0.12482115 -0.21779299 0.006872557 0.17266786 -0.05952304
-0.059183974 0.059471797 0.029259754 0.13062368 -0.10364308 0.089063615 0.1912483 -0.03516156
-0.03147398 0.2636148 -0.071095556 0.1800283 0.08535274 0.13067305 -0.10989266 0.06359459
-0.2345063 -0.09026494 -0.1105711 -0.006150329 0.22809605 -0.030082993 0.043486387 0.06233062
-0.16667905 0.07649809 0.11164477 0.008382893 -0.2150302 -0.11111504 -0.19874007 0.21928075
-0.06481158 0.083940774 -0.15498954 -0.053770017 0.10217569 0.095538214 -0.11346989 -0.13496777
0.011054871 0.008348846 0.0151779875 0.05822323 0.16627117 0.036040343 -0.20031087 0.05650211
-0.08354503 0.13103771 0.18729907 0.04614422 -0.17865548 0.05671633 0.17815189 -0.2908946
-0.11316183 0.0026511007 0.17250925 -0.08808962 -0.22046222 0.12751414 -0.14239539 -0.024702337
0.1216463 0.26283976 0.11382293 -0.07801678 0.037136294 -0.090429336 0.09441518 -0.015480081
0.12924127 -0.06737274 0.23680629 -0.06287701 0.097689964 -0.020404153 -0.19705471 -0.3113955
0.06838426 0.14694569 0.031264797 0.066774204 -0.035761923 0.021773884 0.016071592 0.07123066
0.013650254 -0.0072217416 0.1508398 0.13885583 0.061153922 0.011304682 -0.25427702 -0.12999704
-0.13621734 0.01096659 -0.030877832 0.083905995 0.049994744 -0.1273522 0.15434472 -0.063534066
0.056100685 -0.050126046 -0.10132329 0.16627021 0.10306216 0.022258613 -0.080134064 0.039446764
-0.00026935898 0.09397939 -0.013245583 0.12612562 0.020380046 -0.011171674 0.19510782 -0.010229124
-0.10182275 -0.21188702 -0.15161619 9.648502e-07 0.034260526 -0.12330272 -0.06801251 0.08138372
-0.009165162 -0.111693546 -0.042478915 0.025793899 0.08835248 0.0021626335 -0.034102894 0.1802834
-0.077157386 -0.13988099 -0.2440803 -0.044321753 0.14203285 -0.010727716 0.23527323 0.13741007
0.16103257 -0.006713708 -0.0874485 0.08151678 -0.12829132 -0.05681194 -0.18718572 0.06768251
0.17644437 0.25667882 0.0151375765 -0.028248895 -0.12580943 0.16773836 -0.103094324 0.07566422
-0.25850213 -0.16678603 0.010903335 0.06467694 -0.016283903 0.08781383 0.19701627 0.0024150866
0.026196465 0.010465223 -0.2666184 0.1070884 0.17058678 0.2720769 0.030484699 0.036420327
0.20350872 0.01291411 0.20453487 -0.043560505 -0.00092352554 -0.21330957 -0.15704839 -0.28429648
-0.00677971 -0.05082901 0.050457157 0.09953107 0.11726858 0.00879148 -0.09859815 -0.112055086
0.06335709 -0.024739414 0.08221637 0.14922065 -0.14600177 0.0431118 0.05429112 0.13629572
0.07495408 -0.12141256 0.0005717389 -0.057907503 0.038417112 -0.17072253 -0.15370972 0.15681526
-0.09912561 -0.0856728 -0.0069923326 -0.2328439 -0.052407265 -0.15163994 -0.096086666 0.04139419
0.12796798 0.13475266 -0.048664227 -0.088769495 -0.0055176136 -0.03896246 -0.023544786 0.01879171
0.07296357 -0.15813333 0.06136554 -0.04624442 0.0042896047 -0.23307545 0.00731273 0.0342241
-0.054574598 0.017808702 -0.07475499 0.01976461 -0.43862852 0.10614781 -0.25081784 -0.09272191
00000000: e041 fb3d e025 303b faaa 5cbc 3123 123e
00000010: fba8 153e 6f47 84be c338 283e 3ad2 f0bd
00000020: 5081 403b 76d7 40bd d8e0 ffbd 3ba2 ff3d
00000030: 2005 5fbe 3033 e13b d8cf 303e 6ece 73bd
00000040: e56a 72bd b398 733d 27b2 ef3c 37c2 053e
00000050: d342 d4bd fc66 b63d 98d6 433e 9105 10bd
00000060: dcea 00bd 85f8 863e 8c9a 91bd 5759 383e
00000070: 6bcd ae3d 28cf 053e 670f e1bd e13d 823d
00000080: 6b22 70be d3dc b8bd 1a73 e2bd b388 c9bb
00000090: 0392 693e 9c70 f6bc c81e 323d 644e 7f3d
000000a0: eaad 2abe 08ab 9c3d 03a6 e43d 6758 093c
000000b0: e030 5cbe 4890 e3bd 8482 4bbe 228b 603e
000000c0: efbb 84bd 24e9 ab3d 94b5 1ebe f33d 5cbd
000000d0: 7d41 d13d 8aa9 c33d e762 e8bd fe34 0abe
000000e0: 7d1f 353c 99c9 083c 18ad 783c 7b7b 6e3d
000000f0: fd42 2a3e 0a9f 133d 4b1e 4dbe c26e 673d
00000100: a819 abbd c02e 063e 54cb 3f3e b901 3d3d
00000110: 76f1 36be 624f 683d 736d 363e 23f0 94be
00000120: 64c1 e7bd 17be 2d3b 44a6 303e 5568 b4bd
00000130: d9c0 61be 1193 023e 19d0 11be 8e5c cabc
00000140: b221 f93d ef92 863e ff1b e93d 43c7 9fbd
00000150: 3a1c 183d 0433 b9bd bf5c c13d 2aa0 7dbc
00000160: d357 043e b8fa 89bd 597d 723e a9c5 80bd
00000170: ad11 c83d 9c26 a7bc b6c8 49be 3b6f 9fbe
00000180: 0c0d 8c3d ee78 163e 840f 003d eac0 883d
00000190: 187b 12bd 255f b23c 92a8 833c 61e1 913d
000001a0: 51a5 5f3c 5ca4 ecbb c075 1a3e 3930 0e3e
000001b0: 897c 7a3d 4637 393c 9930 82be f21d 05be
000001c0: 8f7c 0bbe 36ad 333c 82f3 fcbc e8d6 ab3d
000001d0: 4ac7 4c3d 9d68 02be 8b0c 1e3e 261e 82bd
000001e0: d5c9 653d f850 4dbd 9682 cfbd bd42 2a3e
000001f0: 4112 d33d b257 b63c 541d a4bd ee92 213d
00000200: c038 8db9 4478 c03d 0004 59bc 1327 013e
00000210: 0ef4 a63c 6609 37bc 58ca 473e 0e98 27bc
00000220: 7288 d0bd e9f8 58be 4641 1bbe 0080 8135
00000230: c454 0c3d 2386 fcbd 254a 8bbd 82ac a63d
00000240: 7a29 16bc 96bf e4bd 5ffe 2dbd ba4d d33c
00000250: 25f2 b43d f8ba 0d3b 7aaf 0bbd 369c 383e
00000260: b104 9ebd f63c 0fbe 30f0 79be ba8a 35bd
00000270: 0f71 113e 4dc3 2fbc 77eb 703e 3ab5 0c3e
00000280: b9e5 243e aafe dbbb 3318 b3bd 45f2 a63d
00000290: cd5e 03be a3b3 68bd 9dad 3fbe 219d 8a3d
000002a0: d5ad 343e 686b 833e 9903 783c 3a6a e7bc
000002b0: 30d4 00be 9bc3 2b3e 1e23 d3bd d8f5 9a3d
000002c0: 645a 84be f5c9 2abe e7a3 323c 5875 843d
000002d0: d265 85bc bdd7 b33d a2be 493e 6e46 1e3b
000002e0: f899 d63c 5476 2b3c 3582 88be 2a51 db3d
000002f0: 4dae 2e3e aa4d 8b3e 0cbb f93c 7b2d 153d
00000300: 9764 503e b495 533c 9771 513e 806c 32bd
00000310: c018 72ba d36d 5abe 4bd1 20be 4f8f 91be
00000320: 5428 debb 1432 50bd 2aac 4e3d f2d6 cb3d
00000330: 822a f03d 240a 103c d4ed c9bd 237d e5bd
00000340: 5dc1 813d 50aa cabc 0e61 a83d 4ccd 183e
00000350: 7d81 15be 0096 303d 5e60 5e3d 1b91 0b3e
00000360: 8681 993d 26a7 f8bd c0e0 153a 6b30 6dbd
00000370: 435b 1d3d e3d1 2ebe 1566 1dbe 2e94 203e
00000380: 5e02 cbbd 3975 afbd f01f e5bb a26e 6ebe
00000390: 00a9 56bd 8047 1bbe 16c9 c4bd f48c 293d
000003a0: 0a0a 033e 9afc 093e 2454 47bd c8cc b5bd
000003b0: 19cd b4bb 1a97 1fbd ffe0 c0bc 12f1 993c
000003c0: ed6d 953d b4ed 21be 6f5a 7b3d ca6a 3dbd
000003d0: d08f 8c3b 55ab 6ebe a09f ef3b 922e 0c3d
000003e0: 9d89 5fbd 8ee3 913c 2519 99bd 64e9 a13c
000003f0: eb93 e0be 0664 d93d 326b 80be fce4 bdbd

mlp_extractor.policy_net.2.bias f4 [64]
0.0 0.0 0.0 0.0 0.0 0.0 0.0 0.0
0.0 0.0 0.0 0.0 0.0 0.0 0.0 0.0
0.0 0.0 0.0 0.0 0.0 0.0 0.0 0.0
0.0 0.0 0.0 0.0 0.0 0.0 0.0 0.0
0.0 0.0 0.0 0.0 0.0 0.0 0.0 0.0
0.0 0.0 0.0 0.0 0.0 0.0 0.0 0.0
0.0 0.0 0.0 0.0 0.0 0.0 0.0 0.0
0.0 0.0 0.0 0.0 0.0 0.0 0.0 0.0
00000000: 0000 0000 0000 0000 0000 0000 0000 0000
00000010: 0000 0000 0000 0000 0000 0000 0000 0000
00000020: 0000 0000 0000 0000 0000 0000 0000 0000
00000030: 0000 0000 0000 0000 0000 0000 0000 0000
00000040: 0000 0000 0000 0000 0000 0000 0000 0000
00000050: 0000 0000 0000 0000 0000 0000 0000 0000
00000060: 0000 0000 0000 0000 0000 0000 0000 0000
00000070: 0000 0000 0000 0000 0000 0000 0000 0000
00000080: 0000 0000 0000 0000 0000 0000 0000 0000
00000090: 0000 0000 0000 0000 0000 0000 0000 0000
000000a0: 0000 0000 0000 0000 0000 0000 0000 0000
000000b0: 0000 0000 0000 0000 0000 0000 0000 0000
000000c0: 0000 0000 0000 0000 0000 0000 0000 0000
000000d0: 0000 0000 0000 0000 0000 0000 0000 0000
000000e0: 0000 0000 0000 0000 0000 0000 0000 0000
000000f0: 0000 0000 0000 0000 0000 0000 0000 0000

mlp_extractor.value_net.0.weight f4 [64, 3]
0.0648731 -0.04648043 0.09606129 0.16706191 -0.0069989157 0.13105963 0.047770053 0.008641084
-0.06887801 -0.08670937 -0.082859 0.07240834 0.036003098 -0.018504724 -0.07841726 -0.17327848
-0.068452016 0.16637397 0.10550716 0.0999265 0.033173535 -0.17321207 0.031637784 -0.17808257
-0.14147943 -0.14364783 0.022389824 -0.07259871 -0.12001296 0.10061419 -0.0046892446 -0.01437203
-0.122038506 -0.028404173 -0.14242882 0.01904088 0.09089086 0.029272674 0.25031123 0.12887354
0.076500826 0.04506071 0.16023353 0.010033834 0.12366284 0.036553595 0.11725107 -0.034037754
0.09049837 -0.2655414 -0.1331501 0.19849147 0.02392715 -0.08066932 -0.18171589 0.07172145
-0.026175914 0.072643764 0.2818519 0.10368823 -0.08821365 -0.064352676 0.011057425 -0.294088
-0.08923178 0.312332 0.12782359 0.036931813 0.09376844 0.08344287 -0.21365689 -0.0031374963
-0.026118055 0.12765966 -0.07737903 -0.018112136 0.09569166 0.16389833 0.07031734 -0.03482837
0.0013176033 0.14883871 0.08830949 0.27342427 0.015630325 0.04812486 0.009367982 -0.023159834
0.04892958 0.17008942 -0.038641978 0.21193571 0.03709009 -0.019678144 -0.15251459 -0.03124801
0.03500245 -0.008780053 -0.24572866 0.11721225 0.16872174 -0.11949142 -0.13962129 0.05344985
-0.06410717 -0.0864402 0.27607226 0.12698261 -0.13543269 -0.04933748 -0.0666475 -0.15491289
-0.09441845 -0.14899792 -0.10684553 -0.012239202 0.08439657 -0.16507855 -0.11193 -0.15548259
-0.13966872 0.26771638 0.012302454 -0.27240404 0.16803718 -0.030963868 -0.07561962 0.045923155
-0.087656856 0.0807625 0.012672472 0.10852087 -0.09133308 0.123765916 -0.09014931 0.03992461
0.16462746 -0.15293054 0.05519806 0.053338084 -0.082631685 0.30258766 0.025842438 0.03947779
-0.11115708 0.1428382 0.08180423 0.08792047 0.13650122 -0.11621753 -0.15910079 0.072733924
-0.06695634 -0.11490347 0.2547077 -0.012390841 0.027704952 -0.08098593 0.09007459 -0.12430218
-0.06110283 -0.068960175 0.12084422 0.022389594 0.021960672 -0.030001799 0.27838916 -0.19762816
-0.122297764 -0.051529314 0.08768225 0.2549553 0.035361674 -0.19995254 -0.11105417 -0.044619348
0.2857152 0.024862576 -0.2725702 0.0084361145 0.18827826 0.033637837 0.1750769 -0.046343714
-0.054990407 -0.08563318 -0.06544645 0.1206342 0.21977973 0.12189453 0.021422317 0.051024575
00000000: 30dc 843d 4362 3ebd c8bb c43d 4712 2b3e
00000010: 2957 e5bb 7f34 063e 88aa 433d 5593 0d3c
00000020: ea0f 8dbd af94 b1bd fbb1 a9bd d34a 943d
00000030: fc77 133d 3897 97bc 3a99 a0bd ea6f 31be
00000040: 9230 8cbd f05d 2a3e 2314 d83d 44a6 cc3d
00000050: f9e0 073d 815e 31be 9f96 013d 475b 36be
00000060: fcdf 10be 6b18 13be dd6a b73c a2ae 94bd
00000070: 5bc9 f5bd d00e ce3d 3ca8 99bb aa78 6bbc
00000080: 53ef f9bd deaf e8bc dcd8 11be 9ffb 9b3c
00000090: fd24 ba3d 3fcd ef3c cb28 803e 6df7 033e
000000a0: 77ac 9c3d 9491 383d 4214 243e f364 243c
000000b0: f142 fd3d 39b9 153d 5421 f03d 2c6b 0bbd
000000c0: 3657 b93d 0bf5 87be 8058 08be 5941 4b3e
000000d0: df02 c43c f535 a5bd bb13 3abe b2e2 923d
000000e0: df6e d6bc 41c6 943d e44e 903e 7f5a d43d
000000f0: 5ca9 b4bd 56cb 83bd 342a 353c b492 96be
00000100: 27bf b6bd fbe9 9f3e 30e4 023e d045 173d
00000110: ab09 c03d 18e4 aa3d dfc8 5abe 749e 4dbb
00000120: 88f5 d5bc 37b9 023e e678 9ebd e75f 94bc
00000130: fdf9 c33d f7d4 273e 8a02 903d 31a8 0ebd
00000140: 6eb3 ac3a 2d69 183e 9bdb b43d 44fe 8b3e
00000150: 2b0b 803c 931e 453d 2a7c 193c b1b9 bdbc
00000160: 626a 483d ec2b 2e3e 0d47 1ebd ad05 593e
00000170: c7eb 173d 0f34 a1bc c92c 1cbe d4fb ffbc
00000180: bb5e 0f3d 36da 0fbc 4ba0 7bbe fa0c f03d
00000190: 64c5 2c3e ebb7 f4bd e2f8 0ebe 3bee 5a3d
000001a0: 9f4a 83bd 8f07 b1bd 5859 8d3e bb07 023e
000001b0: deae 0abe 1916 4abd 7c7e 88bd 7ca1 1ebe
000001c0: 765e c1bd e992 18be d4d1 dabd ef86 48bc
000001d0: 1cd8 ac3d 5a0a 29be 8e3b e5bd d436 1fbe
000001e0: 5105 0fbe 1f12 893e 3b90 493c 8b78 8bbe
000001f0: f011 2c3e f0a7 fdbc 76de 9abd eb19 3c3d
00000200: 7085 b3bd cf66 a53d 33a0 4f3c 3140 de3d
00000210: d60c bbbd fc78 fd3d 34a0 b8bd fd87 233d
00000220: 1a94 283e d399 1cbe 5c17 623d 0979 5a3d
00000230: cd3a a9bd c5ec 9a3e 85b3 d33c 77b3 213d
00000240: 53a6 e3bd 2d44 123e fa88 a73d a60f b43d
00000250: fac6 0b3e 7503 eebd 51eb 22be 86f5 943d
00000260: 6820 89bd 8352 ebbd 0c69 823e f402 4bbc
00000270: 7ff5 e23c f4db a5bd 0779 b83d 2492 febd
00000280: f646 7abd fe3a 8dbd 2d7d f73d 626a b73c
00000290: dee6 b33c 55c6 f5bc 0689 8e3e 095f 4abe
000002a0: 4077 fabd 6710 53bd c092 b33d 8089 823e
000002b0: 67d7 103d 5cc0 4cbe 5e70 e3bd c7c2 36bd
000002c0: 4349 923e 9aac cb3c 528e 8bbe a137 0a3c
000002d0: 04cc 403e d4c7 093d 5c47 333e e8d2 3dbd
000002e0: 9f3d 61bd 7360 afbd ca08 86bd 100f f73d
000002f0: f00d 613e d7a3 f93d db7d af3c 25ff 503d

mlp_extractor.value_net.0.bias f4 [64]
0.0 0.0 0.0 0.0 0.0 0.0 0.0 0.0
0.0 0.0 0.0 0.0 0.0 0.0 0.0 0.0
0.0 0.0 0.0 0.0 0.0 0.0 0.0 0.0
0.0 0.0 0.0 0.0 0.0 0.0 0.0 0.0
0.0 0.0 0.0 0.0 0.0 0.0 0.0 0.0
0.0 0.0 0.0 0.0 0.0 0.0 0.0 0.0
0.0 0.0 0.0 0.0 0.0 0.0 0.0 0.0
0.0 0.0 0.0 0.0 0.0 0.0 0.0 0.0
00000000: 0000 0000 0000 0000 0000 0000 0000 0000
00000010: 0000 0000 0000 0000 0000 0000 0000 0000
00000020: 0000 0000 0000 0000 0000 0000 0000 0000
00000030: 0000 0000 0000 0000 0000 0000 0000 0000
00000040: 0000 0000 0000 0000 0000 0000 0000 0000
00000050: 0000 0000 0000 0000 0000 0000 0000 0000
00000060: 0000 0000 0000 0000 0000 0000 0000 0000
00000070: 0000 0000 0000 0000 0000 0000 0000 0000
00000080: 0000 0000 0000 0000 0000 0000 0000 0000
00000090: 0000 0000 0000 0000 0000 0000 0000 0000
000000a0: 0000 0000 0000 0000 0000 0000 0000 0000
000000b0: 0000 0000 0000 0000 0000 0000 0000 0000
000000c0: 0000 0000 0000 0000 0000 0000 0000 0000
000000d0: 0000 0000 0000 0000 0000 0000 0000 0000
000000e0: 0000 0000 0000 0000 0000 0000 0000 0000
000000f0: 0000 0000 0000 0000 0000 0000 0000 0000

mlp_extractor.value_net.2.weight f4 [64, 64]
0.012348056 0.026175432 0.021252811 -0.13924119 0.13181415 0.052599765 -0.18163516 0.12453236
0.09625383 -0.13179934 -0.007164404 -0.26356244 -0.05872163 0.13125242 -0.06414252 -0.27179286
-0.1096931 0.057740625 0.086065456 -0.029074805 0.08054849 0.1630198 -0.06120778 -0.104883894
-0.17574182 0.022873964 0.02274159 -0.14467165 -0.049970746 -0.009275656 0.18020806 0.04936254
-0.08836154 0.18391852 0.0012065652 -0.112021185 -0.014650915 -0.18049778 -0.07182378 -0.09108792
0.18086675 -0.36524326 -0.16916691 0.055204093 -0.07821445 0.03755192 -0.05116034 0.0522053
-0.12418437 0.1525458 -0.20538422 0.028369118 -0.04636478 0.12022583 0.061438378 0.121324316
-0.05035466 0.09911813 0.03712977 0.149616 0.1650558 0.22001415 -0.11245535 0.042504277
0.07548019 0.20719922 0.11363094 -0.0022245338 -0.02206897 0.18740496 -0.012592227 -0.016120557
0.16979149 -0.24208346 0.03433573 -0.06326031 -0.000114639755 -0.0100553 0.09856719 -0.10734847
0.2303057 -0.25827935 -0.08559646 0.08692603 -0.10000322 -0.16381717 -0.041223917 -0.052708037
0.010737018 0.079698786 -0.043310605 0.08511854 -0.016356133 -0.3312585 -0.08551146 -0.030277627
-0.031149557 -0.0063653477 -0.08272235 0.031356823 -0.20749256 -0.15213507 -0.13040635 0.32794514
-0.06368521 0.013114359 0.021201039 -0.028043587 0.046978377 0.11340001 -0.1385192 0.11312854
0.054109372 0.041711796 0.26768455 -0.091501 -0.06352955 -0.005369216 -0.053858653 0.19723733
-0.059789076 -0.04200354 -0.12930627 0.09223512 0.009335805 0.05057849 -0.04012276 0.24742779
0.27771774 -0.03117505 -0.16041231 0.004497718 0.023309633 -0.15795517 0.19209406 -0.062875934
-0.09006197 0.091318436 -0.03945468 0.13909294 -0.07813698 0.08984156 0.15401818 -0.16168569
-0.24633521 0.16695277 -0.14726032 0.10050331 0.10764686 -0.003393624 0.09714372 -0.027497742
-0.16114649 0.0050523924 -0.1122462 0.07347344 -0.021298144 -0.018539215 -0.22982435 0.081689455
-0.12097866 -0.12536202 -0.0062821363 -0.098244324 -0.07105881 -0.01881675 -0.32262775 -0.080540985
0.025280617 0.052445136 0.10922576 -0.24997748 0.0063480567 0.11301942 -0.2558972 -0.014106875
-0.1569071 0.26235455 0.02400922 0.047325544 -0.0070894565 -0.13150182 0.086542495 -0.05803775
0.09755572 -0.060886517 -0.05586111 -0.011998199 0.09243246 0.06062071 0.07859961 0.101560265
-0.081350185 -0.10818626 -0.11891421 0.028905988 -0.20636919 -0.101645514 0.18369584 0.087678224
0.0039713793 -0.07418539 0.0007131682 -0.18800496 0.011117525 -0.20170395 -0.13353044 0.042091176
0.18674457 -0.03314557 0.038075738 -0.063559204 0.06403006 0.082971476 0.055641003 -0.043462433
0.14384456 -0.012569342 -0.24638577 -0.092286326 -0.011233549 0.022097126 0.002996143 0.1642981
-0.07482612 0.21550511 -0.035596456 -0.13699508 -0.3312729 0.16992004 -0.23108064 0.1520277
0.09473039 0.038689572 -0.07222845 -0.18717349 -0.029434295 -0.115552336 0.04351792 -0.38404563
0.0030743894 -0.0753082 -0.07383201 0.0026695314 -0.17040622 0.049375363 0.019798607 -0.15745516
-0.122218594 0.019653954 -0.017935429 0.085850656 -0.012153303 0.042431474 0.039681293 0.009482482
00000000: 804f 4a3c dc6d d63c 601a ae3c 3e95 0ebe
00000010: 4afa 063e da72 573d 91fe 39be d20a ff3d
00000020: ba20 c53d 68f6 06be 60c3 eabb a8f1 86be
00000030: 1886 70bd 0967 063e 275d 83bd 6f28 8bbe
00000040: c7a6 e0bd 6f81 6c3d 1643 b03d 492e eebc
00000050: 9bf6 a43d aaee 263e 02b5 7abd 5ecd d6bd
00000060: aaf5 33be 2e62 bb3c 924c ba3c ce24 14be
00000070: 20ae 4cbd ecf8 17bc 7688 383e 6030 4a3d
00000080: e5f6 b4bd 2355 3c3e 9c25 9e3a 5d6b e5bd
00000090: 640a 70bc 69d4 38be 5918 93bd 4e8c babd
000000a0: 2235 393e 2a01 bbbe 173a 2dbe b01d 623d
000000b0: e62e a0bd 0bd0 193d 818d 51bd 3ad5 553d
000000c0: 6054 febd f734 1c3e 3e50 52be 5a66 e83c
000000d0: ffe8 3dbd f638 f63d cfa6 7b3d e278 f83d
000000e0: b040 4ebd 72fe ca3d 6315 183d f034 193e
000000f0: 6304 293e 644b 613e fe4e e6bd f718 2e3d
00000100: 5c95 9a3d 082c 543e 57b7 e83d 7cc9 11bb
00000110: fcc9 b4bc 16e7 3f3e a14f 4ebc 420f 84bc
00000120: d2dd 2d3e bae4 77be 9fa3 0c3d 9f8e 81bd
00000130: c06a f0b8 fcbe 24bc 98dd c93d 84d9 dbbd
00000140: 42d5 6b3e 313d 84be 324d afbd 4606 b23d
00000150: 7dce ccbd b0bf 27be 69da 28bd 62e4 57bd
00000160: 51ea 2f3c 1e39 a33d 7666 31bd a152 ae3d
00000170: 4cfd 85bc b79a a9be a220 afbd c908 f8bc
00000180: 5b2d ffbc 6894 d0bb 566a a9bd 0370 003d
00000190: ee78 54be 4cc9 1bbe 3e89 05be 6de8 a73e
000001a0: 646d 82bd 9cdd 563c cdad ad3c aabb e5bc
000001b0: 666c 403d 443e e83d fad7 0dbe f0af e73d
000001c0: caa1 5d3d fdd9 2a3d f30d 893e e064 bbbd
000001d0: c81b 82bd 40f0 afbb e49a 5cbd 95f8 493e
000001e0: 64e5 74bd e70b 2cbd dd68 04be c4e5 bc3d
000001f0: 34f5 183c 642b 4f3d c357 24bd b65d 7d3e
00000200: 0531 8e3e d262 ffbc 2043 24be 9861 933b
00000210: d8f3 be3c 00bf 21be 4eb4 443e 19c5 80bd
00000220: 6972 b8bd 2905 bb3d 3b9b 21bd 616e 0e3e
00000230: 4806 a0bd dafe b73d f1b6 1d3e ef90 25be
00000240: 4c3f 7cbe abf5 2a3e 69cb 16be aed4 cd3d
00000250: f575 dc3d 9067 5ebb 49f3 c63d f242 e1bc
00000260: 9603 25be 8a8e a53b 56e1 e5bd 3e79 963d
00000270: 7279 aebc 8ddf 97bc 1357 6bbe cd4c a73d
00000280: a9c3 f7bd e75e 00be 61da cdbb 5234 c9bd
00000290: 4887 91bd 9625 9abc 772f a5be acf2 a4bd
000002a0: 4c19 cf3c b6d0 563d c1b1 df3d 19fa 7fbe
000002b0: 5c03 d03b ba76 e73d f504 83be 8620 67bc
000002c0: 41ac 20be 5653 863e fcae c43c 6ed8 413d
000002d0: ac4e e8bb 6aa8 06be 313d b13d feb8 6dbd
000002e0: 4bcb c73d 2464 79bd 9fce 64bd 1894 44bc
000002f0: 3b4d bd3d 6c4d 783d d5f8 a03d d4fe cf3d
00000300: ed9a a6bd c290 ddbd 4b89 f3bd 40cc ec3c
00000310: 7252 53be 862b d0bd c31a 3c3e a490 b33d
00000320: 5822 823b 82ee 97bd e8f3 3a3a 5f84 40be
00000330: 4826 363c 7b8b 4ebe 34bc 08be cc67 2c3d
00000340: f839 3f3e a6c3 07bd 4ef5 1b3d 542b 82bd
00000350: 3122 833d f3ec a93d d2e7 633d aa05 32bd
00000360: fd4b 133e a4ef 4dbc 8d4c 7cbe 9d00 bdbd
00000370: eb0c 38bc 0805 b53c f05a 443b c33d 283e
00000380: 703e 99bd 5fad 5c3e 97cd 11bd 7048 0cbe
00000390: 9a9c a9be 85ff 2d3e 67a0 6cbe 26ad 1b3e
000003a0: 0202 c23d f578 1e3d 82ec 93bd 68aa 3fbe
000003b0: 3120 f1bc b4a6 ecbd d93f 323d a1a1 c4be
000003c0: b27b 493b 303b 9abd 3d35 97bd 4ef3 2e3b
000003d0: f87e 2ebe d23d 4a3d b030 a23c ed3b 21be
000003e0: be4d fabd 5401 a13c 52ed 92bc 78d2 af3d
000003f0: a61e 47bc a0cc 2d3d da88 223d 6a5c 1b3c

mlp_extractor.value_net.2.bias f4 [64]
0.0 0.0 0.0 0.0 0.0 0.0 0.0 0.0
0.0 0.0 0.0 0.0 0.0 0.0 0.0 0.0
0.0 0.0 0.0 0.0 0.0 0.0 0.0 0.0
0.0 0.0 0.0 0.0 0.0 0.0 0.0 0.0
0.0 0.0 0.0 0.0 0.0 0.0 0.0 0.0
0.0 0.0 0.0 0.0 0.0 0.0 0.0 0.0
0.0 0.0 0.0 0.0 0.0 0.0 0.0 0.0
0.0 0.0 0.0 0.0 0.0 0.0 0.0 0.0
00000000: 0000 0000 0000 0000 0000 0000 0000 0000
00000010: 0000 0000 0000 0000 0000 0000 0000 0000
00000020: 0000 0000 0000 0000 0000 0000 0000 0000
00000030: 0000 0000 0000 0000 0000 0000 0000 0000
00000040: 0000 0000 0000 0000 0000 0000 0000 0000
00000050: 0000 0000 0000 0000 0000 0000 0000 0000
00000060: 0000 0000 0000 0000 0000 0000 0000 0000
00000070: 0000 0000 0000 0000 0000 0000 0000 0000
00000080: 0000 0000 0000 0000 0000 0000 0000 0000
00000090: 0000 0000 0000 0000 0000 0000 0000 0000
000000a0: 0000 0000 0000 0000 0000 0000 0000 0000
000000b0: 0000 0000 0000 0000 0000 0000 0000 0000
000000c0: 0000 0000 0000 0000 0000 0000 0000 0000
000000d0: 0000 0000 0000 0000 0000 0000 0000 0000
000000e0: 0000 0000 0000 0000 0000 0000 0000 0000
000000f0: 0000 0000 0000 0000 0000 0000 0000 0000

action_net.weight f4 [1, 64]
0.09464133 0.10422719 0.11562922 0.030956225 -0.172745 0.06434064 0.0750733 -0.18582682
0.17673743 -0.22148053 0.04284845 -0.09246607 -0.21309163 0.22115481 -0.012037114 0.101877876
0.05481761 -0.07719211 0.23931997 -0.112503506 0.25600424 0.14074922 0.23687978 0.16813913
-0.046805922 0.15445231 0.10397742 0.07649283 0.06364329 0.16416678 0.032182068 0.031806473
0.0028435956 0.10101323 -0.050843608 -0.20387913 0.066456966 -0.15527482 -0.040757794 -0.012879442
0.0026526728 0.16004115 0.20430978 -0.074494265 -0.076256305 -0.05718647 -0.0958131 -0.09627821
-0.02656317 0.08869467 0.013324202 -0.034241226 0.051001612 -0.16719542 0.035587087 -0.16273877
0.16722979 -0.0030535122 -0.22524329 0.096887894 -0.040567428 -0.16455951 -0.0020246876 -0.039792795
00000000: 50d3 c13d 1175 d53d 03cf ec3d e997 fd3c
00000010: 11e4 30be 07c5 833d 08c0 993d 6349 3ebe
00000020: a8fa 343e cbcb 62be db81 2f3d da5e bdbd
00000030: b134 5abe 6876 623e 5137 45bc 59a5 d03d
00000040: 6e88 603d e616 9ebd 4b10 753e 3d68 e6bd
00000050: fd12 833e 9020 103e 9d90 723e aa2c 2c3e
00000060: 91b7 3fbd bf28 1e3e 1df2 d43d 46a8 9c3d
00000070: 6a57 823d 561b 283e 58d1 033d 8147 023d
00000080: 9e5b 3a3b 06e0 ce3d 6341 50bd b1c5 50be
00000090: 971a 883d 5d00 1fbe a5f1 26bd 4c04 53bc
000000a0: 77d8 2d3b d4e1 233e 9536 513e 7390 98bd
000000b0: 442c 9cbd 5c3c 6abd a939 c4bd 832d c5bd
000000c0: 019b d9bc 8da5 b53d c14d 5a3c 8740 0cbd
000000d0: 11e7 503d 4735 2bbe c4c3 113d fea4 26be
000000e0: 493e 2b3e 6f1d 48bb 2da6 66be 296d c63d
000000f0: 082a 26bd 4a82 28be 9fb0 04bb c5fd 22bd

value_net.weight f4 [1, 64]
-0.05894029 -0.04048573 0.2256778 -0.1265724 0.0031147848 0.14333755 0.0748492 0.10389263
0.22229008 -0.19352183 0.07572089 -0.10614154 0.063123636 -0.10341047 -0.089080654 -0.05049779
-0.11776216 -0.030254984 0.0553815 -0.027091594 -0.17281054 -0.16128562 0.24833001 0.17380732
-0.16246344 -0.056482993 -0.21723199 -0.0024375096 0.04652338 -0.022840213 -0.41166568 -0.048566584
-0.18886144 -0.045682125 -0.09050827 -0.02842668 -0.058530208 0.076121375 -0.16829675 0.17987938
0.07169567 -0.07664411 -0.1282165 -0.010451174 -0.004505983 -0.04889902 0.004404597 -0.045095097
0.07442576 0.0003757796 -0.19141056 0.16375738 0.01720424 -0.13930024 0.18550569 -0.15321338
-0.09213325 0.09381243 0.040009588 -0.10557967 -0.09501071 -0.08011203 0.041182753 -0.04339579
00000000: 606b 71bd 5dd4 25bd 1518 673e 329c 01be
00000010: 6b21 4c3b 14c7 123e 8a4a 993d a9c5 d43d
00000020: 03a0 633e 962a 46be 8e13 9b3d bc60 d9bd
00000030: f746 813d dec8 d3bd eb6f b6bd c5d6 4ebd
00000040: 4a2d f1bd 4dd9 f7bc b6d7 623d 31ef ddbc
00000050: 3ff5 30be 0f28 25be 394a 7e3e 8cfa 313e
00000060: d15c 26be b65a 67bd 1072 5ebe a0be 1fbb
00000070: 4d8f 3e3d 661b bbbc d8c5 d2be c1ed 46bd
00000080: e564 41be 2e1d 3bbd 665c b9bd 12df e8bc
00000090: 5fbd 6fbd 86e5 9b3d fc55 2cbe 4d32 383e
000000a0: 2ed5 923d 96f7 9cbd 304b 03be 673b 2bbc
000000b0: eda6 93bb 574a 48bd 7054 903b a3b5 38bd
000000c0: 886c 983d 4904 c539 2101 44be 04b0 273e
000000d0: e8ef 8c3c b9a4 0ebe 34f5 3d3e f8e3 1cbe
000000e0: 5bb0 bcbd bb20 c03d 18e1 233d 273a d8bd
000000f0: fa94 c2bd c711 a4bd 3faf 283d c9bf 31bd
