policies/LunarLander/bad_ppo.pt (torch, 43134 bytes, 12 tensors)

log_std f4 [2]
0	0xc07a7278	-3.9132366
1	0xc07a8454	-3.9143267

mlp_extractor.policy_net.0.weight f4 [64, 8]
0	0xbbb2e9e2	-0.00546001
1	0xbb6f7d54	-0.0036543207
2	0x39e59868	0.00043791835
3	0x3a8d4b63	0.0010779913
4	0xb9ea9879	-0.0004474556
5	0xb980825d	-0.0002451119
6	0xbb885a0c	-0.004161125
7	0x3b9f60c2	0.0048638294
8	0x3ae05f81	0.0017118306
9	0xb9fee1ae	-0.000486148
10	0xbbec5313	-0.0072120517
11	0x3aef101f	0.0018239057
12	0x3a54b40b	0.00081139867
13	0x3995c23f	0.0002856422
14	0xbc47e8d0	-0.012201503
15	0xbb8b3c8a	-0.00424916
16	0x3b15f0db	0.0022879157
17	0x3c2b472d	0.010453981
18	0xbae27b4a	-0.0017279175
19	0x3b8a740e	0.0042252606
20	0xbabb50e0	-0.001429107
21	0x3b890a7e	0.004182159
22	0xbaac8855	-0.0013163189
23	0xbbdb4eb4	-0.0066927318
24	0x3a297d17	0.0006465478
25	0xbbf04468	-0.0073323734
26	0xbac5ed89	-0.0015100698
27	0xbae5a414	-0.0017520213
28	0xb8dad3e8	-0.00010434521
29	0xbb4b4640	-0.0031017214
30	0x3c265cd6	0.01015397
31	0xbb3235bc	-0.0027192673
32	0xbd855c7e	-0.06511782
33	0x3cc0575f	0.023479162
34	0xbba9756e	-0.0051714694
35	0x3c056626	0.00814203
36	0x3f91610e	1.1357744
37	0x3b04b3cb	0.0020248767
38	0x3d25b439	0.040455077
39	0x3cebcfb6	0.028785568
40	0xbb8ea207	-0.0043528113
41	0xbbdc18d4	-0.006716827
42	0x36b5124b	5.39635e-06
43	0xbb14afee	-0.002268787
44	0x3aab38e0	0.0013063215
45	0xbb87a65f	-0.004139706
46	0x3c96f8fd	0.018429274
47	0xbaa65489	-0.0012689988
48	0x3e08f951	0.13376357
49	0xbb687c1f	-0.0035474373
50	0x3b81aa04	0.003957035
51	0xbbff2fda	-0.007787687
52	0xbf82a876	-1.020766
53	0xbbc4eefd	-0.006009935
54	0xbc821823	-0.01588065
55	0xbbd85a33	-0.0066025495
56	0xbb1809d6	-0.0023199222
57	0x372d447d	1.032755e-05
58	0x3bf275ef	0.0073993127
59	0xbaf54f4b	-0.0018715648
60	0xba5fc447	-0.00085360225
61	0xb9d7e390	-0.00041177543
62	0x3c558372	0.013031827
63	0x3b96d6fc	0.004603265
64	0xbc11e2d4	-0.008904178
65	0x3b05a37a	0.002039163
66	0x3a448e09	0.00074979715
67	0x3adca02a	0.00168324
68	0xbae4aebf	-0.0017447098
69	0x3aa825f3	0.0012828693
70	0xbbdf7823	-0.0068197413
71	0x3bbed2e1	0.0058234786
72	0x3ade3d93	0.0016955606
73	0xbb4c8619	-0.0031207858
74	0xbaa10b8c	-0.0012286766
75	0xbb7e6ff3	-0.003882405
76	0x3a62884e	0.0008641527
77	0xbb2830da	-0.0025663883
78	0x3c06e872	0.00823413
79	0xbb04af12	-0.0020245952
80	0xbc0f4e0d	-0.008746636
81	0xb99fff6b	-0.00030517144
82	0xba91aa70	-0.0011113416
83	0xbb3917ba	-0.0028242902
84	0xbac4f6ee	-0.0015027204
85	0xba68c0e3	-0.000887884
86	0xbbfa7a7d	-0.0076439963
87	0x3be1a69f	0.006886318
88	0x3bab3671	0.005224996
89	0xbbfbc58f	-0.007683463
90	0xbacf9611	-0.001583757
91	0xba78022f	-0.00094607746
92	0x3a0eb6ca	0.0005444108
93	0xbb47e0b0	-0.0030498914
94	0x3c0b17bb	0.0084895445
95	0xbbde6220	-0.0067865998
96	0x3b17cfd9	0.0023164658
97	0xbb338c24	-0.0027396763
98	0xbb4631e0	-0.003024213
99	0xb8577263	-5.1366525e-05
100	0xbb1424a5	-0.002260485
101	0xbaf4175b	-0.0018622683
102	0x3bb2d2e9	0.0054572714
103	0xbb0a1ec5	-0.002107547
104	0xbb304b52	-0.0026900363
105	0x3bce6bbd	0.0062994645
106	0xbbb88394	-0.0056309197
107	0x3bf086a7	0.0073402706
108	0xbfaa41cc	-1.330133
109	0x3b0ef127	0.0021811218
110	0x3d06f006	0.032943748
111	0xba0abc74	-0.0005292364
112	0x3bd55a25	0.00651099
113	0xbaed0012	-0.0018081686
114	0x39e2dcf1	0.00043270693
115	0xbb19d361	-0.002347194
116	0x3b3c534c	0.0028736172
117	0xbb191489	-0.0023358187
118	0x3c669682	0.01407397
119	0xbb8c0670	-0.0042732283
120	0x3c15f454	0.009152491
121	0x3a6bd3f9	0.0008996125
122	0x39ecfa6d	0.0004520001
123	0x3ac5a88a	0.0015080136
124	0x3aea2840	0.0017864779
125	0x3a422c00	0.0007407069
126	0x3c18eacc	0.009333324
127	0xbbaaa48c	-0.005207604
128	0xc086717b	-4.2013526
129	0x3b279988	0.002557369
130	0xbb3cb88b	-0.002879652
131	0xba145e9f	-0.00056598516
132	0x39ae2024	0.00033211813
133	0x3a06834a	0.0005131258
134	0xbb35818d	-0.0027695626
135	0x3c846db7	0.016165597
136	0xbb08108e	-0.002076182
137	0xbb83a048	-0.0040169097
138	0xba5770c8	-0.0008218405
139	0xba7b2d8a	-0.0009581676
140	0x3a8ae83e	0.0010597778
141	0xbace0b5f	-0.0015719942
142	0x3a1c666e	0.0005966191
143	0x3b0ad45d	0.0021183707
144	0xbe916d95	-0.28403917
145	0x3ae68f09	0.0017590235
146	0xbb348d86	-0.0027550175
147	0xbbe8627e	-0.0070918193
148	0x3f2875a1	0.6580449
149	0x3c386be0	0.011256188
150	0x3c59630a	0.013268242
151	0xbc44de6c	-0.01201592
152	0x3b1bc8c4	0.0023770789
153	0xbadbeb13	-0.0016778432
154	0xbbffeaf9	-0.0078099933
155	0x3b66e370	0.0035230778
156	0x3ad3a489	0.0016147058
157	0x3ab3d5d0	0.0013720337
158	0xbc0741fe	-0.00825548
159	0xbb3c6195	-0.0028744687
160	0x3be4fb6f	0.006987981
161	0xbc622be4	-0.01380441
162	0xbb1c93b8	-0.0023891758
163	0xbb9ae1df	-0.004726633
164	0x3b3fc183	0.002925963
165	0xbbb0df18	-0.0053976886
166	0x3c53cdc9	0.012927481
167	0xbb5bdb1c	-0.0033547347
168	0xbb61e030	-0.0034465902
169	0x3bcf7cae	0.0063320016
170	0x3b12ba76	0.0022388971
171	0xba6e3080	-0.00090862066
172	0x3aa53bbd	0.0012606304
173	0x3b18b1f8	0.0023299437
174	0xbc25892d	-0.010103506
175	0x3babd85b	0.0052442974
176	0xbbbe8ad0	-0.0058148876
177	0xbc267772	-0.010160314
178	0x39762263	0.00023473198
179	0xbb654ed4	-0.0034989612
180	0xb9ea4f3c	-0.00044690992
181	0xbb70e043	-0.0036754764
182	0xbace4cac	-0.0015739403
183	0x3be2c422	0.0069203535
184	0x3aa2c231	0.0012417493
185	0x3a91e3ca	0.0011130509
186	0xba10b2cc	-0.0005519807
187	0xbad2881b	-0.0016062291
188	0xb8868820	-6.414973e-05
189	0xb9e248aa	-0.00043160218
190	0x3b2f1f1b	0.002672142
191	0xbb4c8b2d	-0.0031210885
192	0x39da9ed6	0.00041698542
193	0xbb63f55b	-0.0034783694
194	0xb9dd594c	-0.00042218936
195	0xbb845f5c	-0.004039688
196	0x3a4fb16e	0.00079228624
197	0xbb3529d1	-0.0027643333
198	0x3c1a390b	0.009413014
199	0x39bd3379	0.0003608724
200	0x3b744fd3	0.0037279024
201	0xbba26211	-0.004955538
202	0xbadb2b65	-0.0016721307
203	0xbb9618b7	-0.004580583
204	0x3ac1c974	0.0014784769
205	0xbb563646	-0.0032686158
206	0x3c2987f8	0.010347359
207	0xbaf42794	-0.0018627518
208	0x3f3b63ed	0.7319935
209	0xbc5e1dda	-0.013556922
210	0x3c52317c	0.012829181
211	0x3bb96400	0.005657673
212	0xbcfc9994	-0.03083495
213	0xbaf74c39	-0.0018867321
214	0xbceb9562	-0.028757755
215	0x3b27a6b6	0.0025581545
216	0x3c3b6cc6	0.011439508
217	0xbc960edf	-0.018317638
218	0xbacffd18	-0.0015868274
219	0xbb3280c5	-0.0027237397
220	0x3b9fddea	0.004878749
221	0xbbb4f42f	-0.005522273
222	0x3c446a1e	0.011988191
223	0xbbd893ae	-0.0066094017
224	0x3c3824f9	0.011239284
225	0xbc28444e	-0.010270191
226	0x37d410ca	2.5280187e-05
227	0x39e7db18	0.0004422299
228	0x3b35b65b	0.00277271
229	0xbb1ad7b3	-0.0023627102
230	0x3c0c02bb	0.008545573
231	0xbc088cc1	-0.00833434
232	0xbb443316	-0.0029937676
233	0xbbbf3e72	-0.0058363015
234	0xbb485b2c	-0.003057192
235	0xbb25b6a2	-0.002528586
236	0x3ab3affa	0.0013709061
237	0xbb810feb	-0.003938665
238	0x3c08e3b0	0.008355066
239	0xbb5ebc8f	-0.0033986901
240	0x3bd4eabc	0.006497709
241	0xbb8eb026	-0.0043544946
242	0x3afc00fc	0.0019226368
243	0x3b8b6122	0.0042535225
244	0xb9d3a3e5	-0.00040367167
245	0x3907ddc7	0.00012957222
246	0x3bddc696	0.006768058
247	0xbbf912cd	-0.007601118
248	0xbc08d4c7	-0.008351511
249	0x3ae93519	0.0017792314
250	0x38973261	7.209625e-05
251	0xbae4eb33	-0.0017465114
252	0xb9caefef	-0.00038707207
253	0x379a9898	1.8429288e-05
254	0xbbe0b3b6	-0.0068573607
255	0x3be60f5a	0.007020873

mlp_extractor.policy_net.0.bias f4 [64]
0	0xbb421978	-0.0029617231
1	0xbb4bcfd2	-0.0031099212
2	0xbb08ab91	-0.0020854215
3	0xbb2e7238	-0.0026618373
4	0x3e908923	0.28229627
5	0xba8416f5	-0.0010077643
6	0x3da9c641	0.08289767
7	0x3b352c9c	0.0027644997
8	0xbb6cbfcf	-0.003612507
9	0xb8f73c34	-0.000117890915
10	0xbb21bde3	-0.0024679832
11	0xba8f725e	-0.0010944118
12	0xbb223d78	-0.0024755877
13	0xbea60f84	-0.32433712
14	0x3b9ab044	0.0047207195
15	0x3b36bfbc	0.0027885279
16	0xbc0e2277	-0.008675209
17	0xbb2358a3	-0.0024924658
18	0xbdaf5100	-0.085603714
19	0xbb73f940	-0.0037227422
20	0xbb4a8f39	-0.0030908121
21	0x3b84c70a	0.0040520476
22	0xbb8b9c03	-0.0042605414
23	0x3a1e40d1	0.000603688
24	0xb9e28e85	-0.00043212264
25	0xb9b121f0	-0.00033785356
26	0x3dcbb35c	0.099463195
27	0xb983016c	-0.00024987326
28	0x3b21c788	0.002468558
29	0xbac1edcf	-0.0014795604
30	0xba88146b	-0.0010382062
31	0x38f7b707	0.00011811969
32	0xbb84171c	-0.004031075
33	0xbb9b213b	-0.004734186
34	0xbae72b55	-0.0017636815
35	0xbbe1b0ef	-0.006887547
36	0x3a0d5612	0.00053915486
37	0x3dff6d99	0.12472076
38	0xba5905f2	-0.0008278779
39	0x3b38e26d	0.0028211132
40	0xbdda6c61	-0.10665203
41	0xba946cc4	-0.0011323919
42	0x3bce2e40	0.0062921345
43	0xbb03060f	-0.0019992625
44	0x3b7ba40d	0.0038397342
45	0x3b510930	0.0031896345
46	0xba621064	-0.0008623658
47	0x3b027a1f	0.0019909216
48	0x3b8af6dd	0.004240854
49	0xbe249186	-0.16071138
50	0xbafe792b	-0.0019414773
51	0x3f3e4bc3	0.74334353
52	0x3d2f2a5d	0.04276501
53	0xbb4402ba	-0.0029908852
54	0x3bb94537	0.005654003
55	0x3b4c000f	0.0031127965
56	0x3b8167ad	0.0039491267
57	0xba92c4c7	-0.001119756
58	0xbbbf652d	-0.0058409185
59	0xbaeeba49	-0.0018213476
60	0x3b17d973	0.0023170381
61	0xbba15e63	-0.004924582
62	0x3f1cd649	0.61264473
63	0x3ba6bc4a	0.005088364

mlp_extractor.policy_net.2.weight f4 [64, 64]
0	0xb980676f	-0.00024491127
1	0x393f0a52	0.00018219024
2	0xb90809f3	-0.00012973677
3	0x39bd8fa2	0.00036155904
4	0xbbb0ea5b	-0.005399031
5	0x387c88d2	6.0208906e-05
6	0xba3ba068	-0.0007157386
7	0xb957b8f4	-0.00020572898
8	0xba20f695	-0.0006140259
9	0x39d0c159	0.00039816907
10	0xb9731f43	-0.00023185932
11	0x3a0bd425	0.0005334041
12	0x39b4031b	0.0003433459
13	0x3b53130c	0.0032207398
14	0x3a03630f	0.00050120143
15	0x39abd83e	0.00032776775
16	0x3ad04a42	0.0015891271
17	0x3897dfd0	7.2419294e-05
18	0x3a6d3e54	0.000905012
19	0x38c87a48	9.55952e-05
20	0x3a5bdff4	0.00083875586
21	0xb9d39c0b	-0.00040361317
22	0x388899eb	6.513655e-05
23	0x392fa13f	0.0001674937
24	0x3993aedf	0.00028168314
25	0x3a15f578	0.00057204766
26	0xbb99a974	-0.00468939
27	0x3a735f9b	0.00092839607
28	0x3a2c46a5	0.0006571806
29	0x39746c3b	0.00023309972
30	0x38e885f5	0.000110875735
31	0xb9d0d947	-0.00039834736
32	0x38921929	6.966509e-05
33	0x3939ca2b	0.00017718288
34	0xb93dba8b	-0.00018093937
35	0xb9074d19	-0.00012903324
36	0x3883871e	6.271734e-05
37	0xba10e6bd	-0.0005527547
38	0xba54d7af	-0.00081192976
39	0xb96b86f8	-0.00022461626
40	0x3b000502	0.0019534235
41	0xba228ede	-0.00062010984
42	0x39864cd8	0.00025615725
43	0x3a46059e	0.00075539376
44	0xb8c14454	-9.215684e-05
45	0xb92c51db	-0.00016433692
46	0xb9bd0938	-0.00036055758
47	0x3a21ccee	0.00061721995
48	0xb95c0dc1	-0.00020985959
49	0x3afe2e30	0.0019392427
50	0xb6a40532	-4.8881857e-06
51	0xbc1ef977	-0.009703032
52	0xbb36e0a5	-0.0027904895
53	0x3951f3bd	0.00020022593
54	0x3ae89c6e	0.0017746815
55	0xb9a897cf	-0.00032156563
56	0x3a09e290	0.00052598957
57	0xba6cba66	-0.0009030461
58	0xba80c555	-0.0009824435
59	0x39a65876	0.00031727896
60	0x3a753f89	0.0009355476
61	0xba9c207a	-0.0011911534
62	0xbc0a05dd	-0.0084242495
63	0x3a048f51	0.0005056756
64	0x3b0aaf21	0.0021161514
65	0x3c053afb	0.008131738
66	0xb9f0ae63	-0.00045906295
67	0x3b09d3bf	0.0021030752
68	0xbe8b64fe	-0.27225488
69	0x3b0e0745	0.0021671813
70	0x3de683e9	0.112556286
71	0xbbffa868	-0.007802058
72	0x3a6d0243	0.00090411695
73	0xbb1d7c48	-0.0024030376
74	0xbb857f51	-0.004074015
75	0x3c06f023	0.008235964
76	0x3ba9f417	0.0051865685
77	0x3e96e6b5	0.2947289
78	0xbb34908f	-0.0027551984
79	0x399caa83	0.0002988168
80	0xbe0592e5	-0.13044317
81	0x3b3efee3	0.0029143624
82	0xbdc3815b	-0.09546157
83	0x3c1e4bab	0.009661595
84	0x3b087b55	0.0020825465
85	0xbc10594c	-0.0088103525
86	0x3b895091	0.0041905125
87	0xbb037b16	-0.0020062379
88	0xbb29b3f3	-0.0025894612
89	0xbb18a524	-0.002329179
90	0xbcb5b704	-0.022181995
91	0x3b3b4f80	0.0028581321
92	0x3ba938cc	0.0051642414
93	0x3bc3a2f2	0.0059703523
94	0x3c57d19c	0.013172533
95	0xbbdf43cd	-0.0068135024
96	0x3b6e24c2	0.0036337827
97	0x3b27b7c9	0.0025591722
98	0x3bef4e80	0.007303059
99	0x3c032eb0	0.008006737
100	0xbae800f9	-0.0017700485
101	0x3d9c6515	0.07636467
102	0x3905ee34	0.00012772606
103	0xbb550240	-0.0032502562
104	0xbda8b408	-0.08237463
105	0xbbd2d4e6	-0.006434071
106	0xbba09ece	-0.0049017435
107	0x395d0a95	0.00021080145
108	0xbb1959f8	-0.0023399573
109	0xbb1dbc02	-0.002406836
110	0xbc0070b3	-0.00783937
111	0xbb3202c5	-0.0027162295
112	0xbb33dbeb	-0.0027444314
113	0x3ca5f1f2	0.02025697
114	0x3ca8256a	0.020525653
115	0xbe30cb45	-0.17265041
116	0xbd9c7b94	-0.07640758
117	0x3b1f0ac7	0.0024267898
118	0xbbea530a	-0.0071510123
119	0xbb801dd9	-0.003909808
120	0xbb05f260	-0.0020438656
121	0xbb16d8ab	-0.0023017328
122	0x3c21089f	0.009828716
123	0x3b946e7c	0.0045297723
124	0x3a9bb93f	0.0011880769
125	0x3bf0220b	0.007328277
126	0xbf026788	-0.50939226
127	0xbc358764	-0.011079643
128	0x39c3f61d	0.00037376667
129	0x37cc5ae4	2.436102e-05
130	0x397023a8	0.00022901467
131	0xb9aa1df5	-0.00032447246
132	0x3b8bb86f	0.0042639296
133	0xb8900112	-6.8666544e-05
134	0x3a0c9050	0.00053620804
135	0xb69d816c	-4.6940313e-06
136	0x3a469e4d	0.0007576689
137	0xba0301a5	-0.00049974985
138	0x399de903	0.0003011898
139	0xba14fd3b	-0.0005683486
140	0xb9914889	-0.00027710598
141	0xbb4e9087	-0.003151925
142	0xba2abb24	-0.00065128715
143	0xb9e53210	-0.00043715583
144	0xbaffe67c	-0.0019523646
145	0xb859a28e	-5.1888223e-05
146	0x3931e86e	0.00016966622
147	0x3943e3ac	0.00018681464
148	0xba77c5bf	-0.0009451769
149	0x39bcbd37	0.0003599913
150	0xb6a645cd	-4.9553114e-06
151	0xb96e37d6	-0.00022718249
152	0xb9cd4e88	-0.00039159157
153	0xba384c34	-0.0007030398
154	0x3a97f507	0.001159341
155	0xba831406	-0.0010000474
156	0xba408d81	-0.00073453045
157	0xb97112de	-0.0002299058
158	0xb8b6a307	-8.7088025e-05
159	0x39f179ea	0.00046057935
160	0xb7382945	-1.0976863e-05
161	0xb8ef76c0	-0.00011418527
162	0x39c4c0f7	0.00037527803
163	0x3989fe65	0.00026320215
164	0xb8473d51	-4.7502403e-05
165	0x399ccf96	0.00029909302
166	0x3a7cc563	0.000964245
167	0x3957496c	0.0002053135
168	0xbaaf8d90	-0.0013393629
169	0x3a38df26	0.00070522947
170	0xb9de3062	-0.00042379188
171	0xba6d466e	-0.00090513274
172	0x388b73d2	6.64961e-05
173	0x3913d82f	0.00014099547
174	0x39da7b5b	0.00041672107
175	0xba494fee	-0.0007679452
176	0x398106c8	0.0002460985
177	0xba9253d5	-0.00111639
178	0x388eeff5	6.815783e-05
179	0x3c11521f	0.008869677
180	0x3ae5c701	0.0017530621
181	0xb977673a	-0.0002359421
182	0xbacef1bd	-0.0015788596
183	0x39811354	0.00024619198
184	0xba372972	-0.0006987072
185	0x3a8377b7	0.0010030185
186	0x3a9c3a7f	0.0011919289
187	0xb9c8fc0f	-0.0003833477
188	0xba889ead	-0.0010423266
189	0x3aa805da	0.0012819127
190	0x3be3a3b5	0.0069470056
191	0xba49c7ef	-0.0007697334
192	0xbb994dca	-0.0046784626
193	0xba3f5843	-0.0007299224
194	0x3b52943c	0.0032131812
195	0x3956f53d	0.00020499989
196	0xbeebca08	-0.46052575
197	0xbbf12429	-0.007359047
198	0x3ea265cc	0.3171829
199	0x391ce81d	0.00014963788
200	0xbbc1cc5a	-0.005914253
201	0x3b3bec08	0.002867462
202	0xbb461fa1	-0.0030231255
203	0x3afe8005	0.0019416815
204	0x3a4e9ce6	0.0007881656
205	0x3efa738d	0.48916283
206	0x3b61aafc	0.003443419
207	0x3b9f0bec	0.004853716
208	0x3f0fc6f2	0.5616294
209	0xba928b05	-0.0011180347
210	0xbe74b6dd	-0.23897882
211	0xbaadeb68	-0.0013269009
212	0x3b62c5aa	0.003460268
213	0x3a771b69	0.00094263867
214	0xbbb50cb7	-0.0055251974
215	0x3abd35fc	0.0014435644
216	0x3ae207a6	0.0017244711
217	0x3b80ad64	0.00392692
218	0xbcf876b6	-0.030330043
219	0x3b47ef82	0.0030507748
220	0x3b4bc1a6	0.0031090765
221	0xbb50f628	-0.0031885002
222	0x3a1dd86f	0.0006021326
223	0xbb89f591	-0.004210182
224	0xbb03c204	-0.0020104656
225	0xbb650d4d	-0.0034950555
226	0x3b32d00f	0.0027284657
227	0xbbc4d687	-0.006007019
228	0x39b8637c	0.00035169336
229	0x3e379575	0.17928107
230	0xbb88b04c	-0.004171407
231	0xbb428fc3	-0.002968774
232	0xbeab4b15	-0.3345572
233	0xbb0f9c87	-0.0021913366
234	0xba54f286	-0.0008123297
235	0x3bb01117	0.005373131
236	0xbb8ee698	-0.004360985
237	0xba9f02c5	-0.0012131563
238	0xbaca7cce	-0.0015448572
239	0x3b8e7eb9	0.0043486026
240	0x3b129d4d	0.002237159
241	0xbe9f6049	-0.31128147
242	0xbb4f7d1d	-0.0031660267
243	0x3da57322	0.080786005
244	0x3eaea55d	0.34110537
245	0x3a6ab001	0.0008952618
246	0x3c54d7af	0.012990876
247	0x3a19e183	0.00058700907
248	0x3bbcfafc	0.0057672244
249	0xbb8beb45	-0.0042699897
250	0xbc1ef0e8	-0.009700991
251	0xbb52aa8a	-0.0032145106
252	0x3ba1d902	0.0049391994
253	0xbbb564ff	-0.0055357213
254	0xbf04c53c	-0.51863456
255	0x3b7c45d7	0.0038493776

mlp_extractor.policy_net.2.bias f4 [64]
0	0x3bd1ae51	0.006398954
1	0xbe5aad0f	-0.21355079
2	0xbb9f58ac	-0.0048628654
3	0xbddf1b08	-0.10893828
4	0x3c7b0a66	0.015322303
5	0xbae4848a	-0.0017434519
6	0xbc75d218	-0.015003704
7	0x3bb330bc	0.005468456
8	0x3bc6c879	0.0060663787
9	0xbb168266	-0.0022965907
10	0x3a5c2a0a	0.00083985983
11	0x3ac89f01	0.0015306176
12	0xbc40ffc0	-0.011779726
13	0xb8900f33	-6.869286e-05
14	0xbd91f284	-0.07126334
15	0x3bec1e24	0.0072057415
16	0x3b2f984d	0.002679366
17	0xba795b83	-0.00095122325
18	0xbebadfb5	-0.364988
19	0x3beb45dc	0.0071799587
20	0xbbc3f21e	-0.0059797904
21	0xbbb6a850	-0.0055742636
22	0x3b81ea7b	0.00396472
23	0xbb8512dd	-0.0040610866
24	0xbc96b929	-0.018398838
25	0x3bfa6357	0.0076412368
26	0x3b4e8663	0.0031513206
27	0xbbfd4e2b	-0.0077302656
28	0xbc92cc0c	-0.017919563
29	0x3d0932fd	0.03349589
30	0xbb02046a	-0.0019839057
31	0xbbfa74b4	-0.0076433066
32	0xbbfaeff3	-0.0076579987
33	0x3e423bd5	0.18968137
34	0xbb7a39b2	-0.0038181362
35	0xbbd784ae	-0.006577096
36	0xb9af93c8	-0.00033488707
37	0x39fa837a	0.00047781673
38	0x3b600f28	0.0034188721
39	0xbb485a51	-0.003057141
40	0x3ba1c923	0.0049373074
41	0x3beefcf6	0.007293339
42	0x3b046ef6	0.002020774
43	0x3a492f05	0.0007674548
44	0xbc013b31	-0.0078876475
45	0xbf57486d	-0.8409489
46	0x3b50a4c8	0.0031836499
47	0xbdfa4822	-0.122207895
48	0x3e1c22a9	0.15247597
49	0xbc013b26	-0.007887637
50	0x3f34837e	0.7051314
51	0xbbac8e38	-0.0052659772
52	0x3b2b44e1	0.0026133584
53	0xbaa10007	-0.0012283333
54	0x3c6bc33f	0.014389812
55	0xbe704161	-0.2346244
56	0xbbdbfe9f	-0.006713703
57	0xbb9122ae	-0.004429183
58	0x3ade204e	0.0016946883
59	0x3b411339	0.002946092
60	0xbc167ac7	-0.009184546
61	0x3ddc979c	0.10771105
62	0xbc762ec9	-0.015025803
63	0xbbe64b38	-0.0070280097

mlp_extractor.value_net.0.weight f4 [64, 8]
0	0xbd5f4e39	-0.05451796
1	0x3e118475	0.14210685
2	0x3dc07bae	0.0939859
3	0x3e9d568d	0.30730096
4	0x3e804d3d	0.25058928
5	0xbe1bcd3c	-0.1521501
6	0x3c3261f0	0.010887608
7	0x3e87c5d5	0.2651812
8	0x3d99bb5f	0.07506441
9	0xbd23c9c4	-0.03998734
10	0xbeca3916	-0.39496678
11	0x3b7648d7	0.0037580037
12	0xbe4d1be6	-0.20030174
13	0x3e1bc69c	0.15212482
14	0x3c438684	0.0119339265
15	0x3e1aa644	0.15102488
16	0x3f1ec840	0.6202431
17	0x3de8a8ef	0.113603465
18	0xbdb4fc56	-0.08837192
19	0x3d1aa3ef	0.037753996
20	0x3e1d8a3e	0.15384766
21	0x3d3af5fe	0.045644753
22	0xbdd78b9a	-0.10524674
23	0x3bbad573	0.0057017147
24	0x3d0a3168	0.033738524
25	0xbe2dd5b2	-0.1697605
26	0x3c38d85f	0.011282056
27	0xbe964f72	-0.29357487
28	0x3e86315a	0.26209527
29	0xbe5c0784	-0.21487242
30	0xbea5498d	-0.32282677
31	0x3e431a34	0.19052964
32	0x3b91ed91	0.004453369
33	0xbe3cc26c	-0.18433541
34	0x3e818c37	0.25302288
35	0x3d293a3b	0.0413153
36	0x3ae02065	0.0017099498
37	0x3e3267d5	0.17422421
38	0xbcc4930f	-0.023995904
39	0xbdf0d8a5	-0.11760072
40	0x3d6175d0	0.055043995
41	0xbccc285b	-0.024921587
42	0x3ab1aa87	0.001355485
43	0xbe075439	-0.13215722
44	0xbe1671b7	-0.14691816
45	0xbd69dbd4	-0.05709441
46	0x3c0a62fd	0.008446452
47	0xbda87d29	-0.082269974
48	0xbe0f4124	-0.13989693
49	0x3e856675	0.2605473
50	0xbe94acdf	-0.2903814
51	0x3db5be41	0.08874179
52	0xbddc0b41	-0.10744334
53	0x3e5d9c57	0.2164167
54	0xbcd9226c	-0.026505671
55	0x3ea13fd8	0.3149402
56	0x3d2f2bec	0.042766497
57	0xbdb3916e	-0.08767973
58	0x3e2b0c6f	0.16703962
59	0xbe915e5f	-0.28392312
60	0xbda1686b	-0.07881244
61	0x3e523e99	0.20531692
62	0xbdd6760d	-0.10471735
63	0x3e2fb82a	0.17160097
64	0x3c65a7e7	0.014017082
65	0x3dddb684	0.10825828
66	0xbc87f85b	-0.016597917
67	0x3e00874a	0.12551609
68	0xbc3b19ec	-0.0114197545
69	0xbea70262	-0.32619005
70	0xbeb97e93	-0.3622938
71	0x3dca9778	0.098921716
72	0x3da38784	0.07984832
73	0x3ea4c384	0.32180417
74	0x3dcf8834	0.101334006
75	0x3c16344c	0.009167742
76	0x3e18886b	0.1489579
77	0xbe9181cd	-0.28419343
78	0x3e9beb75	0.30453077
79	0x3df1b153	0.118014
80	0xbe537aa8	-0.20652258
81	0xbdcd8c3f	-0.100365154
82	0xbe05757e	-0.13033101
83	0x3e10cb1a	0.14139977
84	0xbda9691b	-0.082720004
85	0x3dc1cfbd	0.09463451
86	0xbc3b05e5	-0.01141498
87	0x3dda7705	0.106672324
88	0x3da0e6fc	0.07856557
89	0x3ecd350b	0.4007953
90	0xbe719bed	-0.23594637
91	0xbe9045d7	-0.28178284
92	0x3d3da1d4	0.04629691
93	0x3d28658f	0.04111248
94	0x3dec701d	0.115448214
95	0x3caa7b2a	0.020810682
96	0x3db3030b	0.08740815
97	0x3e157df4	0.14598829
98	0x3dde085a	0.10841437
99	0x3d7e63ee	0.06210702
100	0x3e39a89e	0.18130729
101	0xbdba219f	-0.09088444
102	0xbe0c3f00	-0.13695908
103	0xbe871f19	-0.26390913
104	0x3cd12f0c	0.025535129
105	0xbc7c0b03	-0.015383485
106	0x3e871327	0.263818
107	0xbe4cf0ac	-0.20013684
108	0x3eb88b4d	0.36043778
109	0x3e1bb92c	0.15207356
110	0xbe95519c	-0.29163826
111	0x3e73db3c	0.238141
112	0x3de20360	0.110358
113	0x3daf413b	0.085573636
114	0x3e591dca	0.2120277
115	0xbdeaeb30	-0.1147064
116	0xbeb1c9cf	-0.3472428
117	0xbe7ae980	-0.24503136
118	0xbd818c39	-0.063255735
119	0x3de4299c	0.11140749
120	0x3d61a06e	0.05508464
121	0xbe9a03d1	-0.30081037
122	0x3e38c8cf	0.18045352
123	0xbe692be7	-0.22770654
124	0x3c7d6006	0.015464788
125	0x3d8263e5	0.063667096
126	0x3ed250ef	0.41077372
127	0x3e922373	0.2854267
128	0xbd904ff3	-0.07046499
129	0x3e18c742	0.14919761
130	0x3e2b7fb9	0.16747941
131	0x3d2e2288	0.0425134
132	0x3e488cb0	0.19584918
133	0x3e60698b	0.21915261
134	0xbe4f024e	-0.20215723
135	0xbdf2b8a6	-0.11851625
136	0x3cfa8f15	0.030585805
137	0xbe272a80	-0.16324806
138	0x3d0eda69	0.03487626
139	0x3e06d893	0.13168554
140	0xbe8bb0fb	-0.27283463
141	0xbe90ef53	-0.2830759
142	0xbad81e03	-0.0016488436
143	0x3e1adfdd	0.1512446
144	0xbe967303	-0.29384622
145	0xbe5fdf84	-0.21862608
146	0x3db39761	0.087691076
147	0xbdf15cff	-0.11785316
148	0x3e26ed37	0.16301428
149	0x3ac828c6	0.001527094
150	0x3d47cca0	0.04877913
151	0xbcd0a8af	-0.02547106
152	0x3e235a15	0.15952332
153	0xbe6eef02	-0.23333362
154	0x3e195462	0.14973596
155	0xbea801e0	-0.3281393
156	0xbda4b1b2	-0.08041705
157	0x3e87e9fb	0.265457
158	0x3cd461f5	0.025925616
159	0xbe4e5cfe	-0.20152661
160	0x3bc43a42	0.00598839
161	0x3dd8836e	0.10571943
162	0xbe4f9310	-0.20270944
163	0xbdd535fc	-0.10410687
164	0x3d902f9f	0.07040333
165	0xbd788c1e	-0.0606805
166	0x3d9f9284	0.077916175
167	0x3e242df1	0.1603315
168	0xbe5f3507	-0.21797572
169	0x3c771f20	0.015083104
170	0xbe806c5f	-0.2508268
171	0x3ca0323a	0.0195552
172	0x3e6a878d	0.22903271
173	0x3d3ee520	0.04660523
174	0xbdbfa1e8	-0.09357053
175	0x3e18e368	0.14930499
176	0xbe20b51e	-0.1569409
177	0x3e4e2d4e	0.2013447
178	0xbd23ea64	-0.040018454
179	0xbe7a82bc	-0.24463934
180	0x3cc853f1	0.024454089
181	0x3ea1828b	0.3154491
182	0xbe105abf	-0.14097117
183	0xbeb95ee6	-0.36205214
184	0xbd416ed6	-0.047224842
185	0xbd7f8c4b	-0.062389653
186	0x3d9ebddd	0.07751057
187	0xbdbd0374	-0.09229174
188	0x3e3b221d	0.18274732
189	0x3c76892b	0.015047352
190	0xbdddf8af	-0.10838448
191	0x3ddc1b9b	0.10747453
192	0x3e006b40	0.12540913
193	0x3e09ec3a	0.1346902
194	0xbd338bae	-0.04383438
195	0x3d06fef1	0.032957975
196	0x3d12bb62	0.035823233
197	0xbe2920a6	-0.1651636
198	0x3e7ef40a	0.24897781
199	0x3d493556	0.04912313
200	0x3dac10ef	0.08401667
201	0xbab65cfc	-0.001391321
202	0xbd8ce2e1	-0.06879211
203	0x3e8e49d5	0.27790704
204	0x3eb7d54e	0.35904926
205	0xbd593a01	-0.053033832
206	0x3e069689	0.13143362
207	0xbe0f4427	-0.13990842
208	0x3d8bb2cf	0.068212144
209	0x3ec15ffa	0.37768537
210	0xbe51aa6b	-0.20475166
211	0xbdb308ec	-0.08741936
212	0x3b56644a	0.0032713586
213	0x3e9f3d39	0.31101397
214	0x3df7649a	0.12079735
215	0x3e22f71f	0.15914582
216	0xbe34dd66	-0.17662582
217	0x3e1139b4	0.14182168
218	0x3e8e9b15	0.27852693
219	0xbeda5f03	-0.42650613
220	0xbd62f76b	-0.055411737
221	0xbd317c8f	-0.04333168
222	0xbd8768ec	-0.06611809
223	0x3e907bfe	0.282196
224	0x3e3fa480	0.18715096
225	0x3d190394	0.037356928
226	0xbd6eef67	-0.05833378
227	0xbe4bdc6f	-0.19908307
228	0xbdec10e1	-0.11526657
229	0xbe059f4e	-0.13049051
230	0x3cf40d0c	0.029791377
231	0xbe6adddd	-0.22936197
232	0x3e505213	0.20343809
233	0x3c4756d7	0.0121667
234	0x3ea768f6	0.32697266
235	0x3d275f81	0.040862564
236	0x3e4ca6bc	0.19985479
237	0x3d6ba78b	0.05753283
238	0x3e966d9b	0.29380497
239	0x3dcf15b2	0.1011156
240	0xbe8b5a21	-0.272172
241	0xbd481d93	-0.04885633
242	0xbd2099df	-0.039209243
243	0xbd4552e1	-0.048174743
244	0xbd9e107a	-0.077179864
245	0x3da4a098	0.08038443
246	0xbd5a609e	-0.053314798
247	0xbe537a89	-0.20652212
248	0xbe4270c2	-0.18988326
249	0xbe07d026	-0.13262996
250	0x3e2cd2ea	0.16877332
251	0x3e627957	0.221166
252	0xbeb2fe4b	-0.34959635
253	0xbe38438e	-0.1799452
254	0xbe0b04ae	-0.13576004
255	0xbea909cc	-0.33015287

mlp_extractor.value_net.0.bias f4 [64]
0	0x00000000	0.0
1	0x00000000	0.0
2	0x00000000	0.0
3	0x00000000	0.0
4	0x00000000	0.0
5	0x00000000	0.0
6	0x00000000	0.0
7	0x00000000	0.0
8	0x00000000	0.0
9	0x00000000	0.0
10	0x00000000	0.0
11	0x00000000	0.0
12	0x00000000	0.0
13	0x00000000	0.0
14	0x00000000	0.0
15	0x00000000	0.0
16	0x00000000	0.0
17	0x00000000	0.0
18	0x00000000	0.0
19	0x00000000	0.0
20	0x00000000	0.0
21	0x00000000	0.0
22	0x00000000	0.0
23	0x00000000	0.0
24	0x00000000	0.0
25	0x00000000	0.0
26	0x00000000	0.0
27	0x00000000	0.0
28	0x00000000	0.0
29	0x00000000	0.0
30	0x00000000	0.0
31	0x00000000	0.0
32	0x00000000	0.0
33	0x00000000	0.0
34	0x00000000	0.0
35	0x00000000	0.0
36	0x00000000	0.0
37	0x00000000	0.0
38	0x00000000	0.0
39	0x00000000	0.0
40	0x00000000	0.0
41	0x00000000	0.0
42	0x00000000	0.0
43	0x00000000	0.0
44	0x00000000	0.0
45	0x00000000	0.0
46	0x00000000	0.0
47	0x00000000	0.0
48	0x00000000	0.0
49	0x00000000	0.0
50	0x00000000	0.0
51	0x00000000	0.0
52	0x00000000	0.0
53	0x00000000	0.0
54	0x00000000	0.0
55	0x00000000	0.0
56	0x00000000	0.0
57	0x00000000	0.0
58	0x00000000	0.0
59	0x00000000	0.0
60	0x00000000	0.0
61	0x00000000	0.0
62	0x00000000	0.0
63	0x00000000	0.0

mlp_extractor.value_net.2.weight f4 [64, 64]
0	0xbc7eb8ae	-0.015546961
1	0x3c845d35	0.016157726
2	0x3eac3e83	0.33641443
3	0x3d603dfa	0.054746605
4	0x3b0dc715	0.0021633555
5	0x3ddf03ec	0.1088942
6	0xbca749e6	-0.02042098
7	0xbd4df538	-0.050282687
8	0x3d11d7cb	0.035606187
9	0x3e843d0c	0.25827825
10	0xbdefb86d	-0.11705098
11	0x3e21e065	0.15808256
12	0x3b4a7446	0.0030892058
13	0x3e197c7d	0.14988895
14	0xbde95eb0	-0.11395013
15	0x3dc8364d	0.09775982
16	0x3e4f38f3	0.20236568
17	0xbe34fda7	-0.17674886
18	0x3dad87a9	0.08473141
19	0xbe2f0169	-0.17090382
20	0x3dd6781d	0.104721285
21	0xbd81271e	-0.06306289
22	0x3e4c8cde	0.19975612
23	0x3e6b099f	0.22952889
24	0xbe86978e	-0.26287502
25	0x3db9e1b0	0.090762496
26	0xbdf04e1a	-0.11733647
27	0x3e7a7f7e	0.24462697
28	0x3e16d08c	0.14727992
29	0x3e174e69	0.14776005
30	0x3e9ba62a	0.3040021
31	0xbe05a1ea	-0.13050047
32	0xbe35e6bb	-0.17763798
33	0x3e251203	0.16120152
34	0x3dcd8801	0.10035706
35	0x3b97eb70	0.0046362206
36	0x3ddc179c	0.10746691
37	0xbeb34365	-0.35012355
38	0xbef4fbb8	-0.47848296
39	0xbce215b3	-0.027598238
40	0x3ccc82f3	0.024964785
41	0x3d71ed1f	0.059064027
42	0x3e96dc58	0.29464984
43	0xbe92b666	-0.28654784
44	0xbd044e5d	-0.032301296
45	0x3de0177c	0.10941979
46	0x3e8273f6	0.25479096
47	0x3db1c681	0.0868044
48	0x3db1bbfe	0.08678435
49	0x3d20c23c	0.039247736
50	0xbe1bd470	-0.15217757
51	0x3e495c11	0.19664027
52	0xbeab73cd	-0.33486786
53	0xbb2cb2be	-0.0026351656
54	0x3d1f7acd	0.03893547
55	0xbe8f2070	-0.27954435
56	0x3df5b8da	0.11998148
57	0xbed1c291	-0.40968755
58	0x3e442414	0.19154388
59	0xbdcf2b14	-0.101156384
60	0xbc539e8c	-0.0129162185
61	0xbd698eed	-0.05702107
62	0x3d9b3441	0.07578326
63	0x3d9bd369	0.07608683
64	0x3b8cf1fd	0.004301308
65	0xbd2eccb9	-0.042675707
66	0xbd9882e8	-0.074468434
67	0xbdf77e08	-0.120845854
68	0x3b738527	0.0037158222
69	0xbed36bcf	-0.4129319
70	0x3df46e00	0.11935043
71	0xbdf5c92c	-0.12001261
72	0xbc18a2fe	-0.009316204
73	0xbe84be20	-0.25926304
74	0x3e17a6de	0.14809749
75	0xbe1a4429	-0.15065064
76	0xbe5e9522	-0.21736577
77	0x3de615cc	0.11234626
78	0x3cd3f3f7	0.025873167
79	0x3d8ccd67	0.06875115
80	0xbddaded2	-0.10687031
81	0xbd35e226	-0.044405125
82	0x39dfaedd	0.00042664158
83	0xbd394036	-0.045227252
84	0xbdd2292e	-0.10261761
85	0xbc449d5a	-0.012000406
86	0x3db44621	0.088024385
87	0x3e8af036	0.2713639
88	0xbdd031ac	-0.10165724
89	0x3d969ece	0.07354508
90	0xbdd5b439	-0.10434765
91	0xbdd249b6	-0.102679655
92	0xbd6c32e3	-0.057665717
93	0x3dea9e8f	0.11456024
94	0xbcfce389	-0.030870216
95	0xbecfacf9	-0.40561655
96	0x3e726825	0.2367254
97	0x3e803f05	0.2504808
98	0xbdbd053a	-0.092295125
99	0xbd01007c	-0.031494603
100	0x3df01591	0.117228635
101	0xbe546e39	-0.20745172
102	0x3c2c1756	0.010503611
103	0xbe7b64f8	-0.24550235
104	0xbe98db8d	-0.29855004
105	0x3eae60f5	0.34058347
106	0xbe86795e	-0.2626447
107	0xbe18fc48	-0.14939988
108	0x3d7b104c	0.06129484
109	0xbe1ddad3	-0.15415506
110	0x3e9549e4	0.29157937
111	0xbae9662f	-0.0017806942
112	0xbebe6d17	-0.37192604
113	0x3c9f09e5	0.019413898
114	0x3e0baa7d	0.13639255
115	0x3e459c78	0.1929797
116	0x3d34175f	0.0439676
117	0xbe48777d	-0.19576831
118	0x3e83c7d1	0.25738385
119	0x3e79fc43	0.24412636
120	0xbdee3dfb	-0.116329156
121	0xbe353b22	-0.17698339
122	0xbd4e7c65	-0.0504116
123	0x3e4516a2	0.19246915
124	0xbd87a977	-0.0662412
125	0x3ecdd840	0.40204048
126	0xbdb82e03	-0.08993151
127	0x3d199c40	0.037502527
128	0xbd9ebbf8	-0.07750696
129	0x3d832ff3	0.0640563
130	0x3d7fb84c	0.06243162
131	0x3dba4689	0.09095485
132	0x3e8c4ad8	0.2740085
133	0x3d9018c0	0.07035971
134	0xbcf0a0fe	-0.029373642
135	0x3e04a07f	0.1295185
136	0xbd774fd5	-0.060378868
137	0xbe8280cc	-0.2548889
138	0xbe7d0332	-0.2470825
139	0xbdaa3427	-0.083107285
140	0xbd1e5d9b	-0.038663488
141	0x3d943a0d	0.07237635
142	0xbd903bac	-0.070426315
143	0x3df2e7c7	0.11860614
144	0x3dc43e86	0.09582238
145	0xbe5549cc	-0.20828933
146	0xbd6e3a17	-0.058160868
147	0x3d7fdded	0.062467504
148	0xbe81d65c	-0.25358856
149	0x3edac1f9	0.42726114
150	0x3e302da5	0.17204912
151	0xbe6dcfe6	-0.23223838
152	0x3cf6f1f2	0.030144665
153	0xbe84f2d4	-0.25966513
154	0xbdc5aba7	-0.09651881
155	0x3cbb7726	0.022883963
156	0x3c33ef1a	0.010982299
157	0x3ee9c87c	0.4566077
158	0x3e1991e3	0.14997058
159	0x3e643db1	0.22289158
160	0xbe069f81	-0.13146783
161	0xbd65594a	-0.055993356
162	0xbeaa71b5	-0.33289877
163	0xbd0427c5	-0.03226449
164	0xbd3468d7	-0.044045296
165	0xbd51b346	-0.05119636
166	0xbc589bcb	-0.013220738
167	0x3cba4a6a	0.022740562
168	0x3d8645c5	0.06556276
169	0xbddce4f2	-0.10785855
170	0x3c9c4064	0.019073673
171	0x3bc54d8b	0.0060212067
172	0x3ecdaf3a	0.4017275
173	0xbe509225	-0.2036825
174	0x3db529c2	0.08845855
175	0xbe3e4d7f	-0.1858425
176	0xbe11e014	-0.14245635
177	0x3d844b1e	0.0645964
178	0xbd12c18d	-0.035829116
179	0xbd420f6c	-0.04737799
180	0xbddac71c	-0.10682508
181	0xbc2abed8	-0.010421477
182	0x3e8a7860	0.27044964
183	0x3d9b57d8	0.07585114
184	0x3d04f552	0.03246052
185	0x3d539442	0.05165506
186	0x3e5ba826	0.21450862
187	0x3e6a6902	0.2289162
188	0xbe91c069	-0.2846711
189	0xbe3dc620	-0.1853261
190	0xbde3bb9e	-0.111197695
191	0xbef0c207	-0.4702303
192	0x3e8ee1eb	0.27906737
193	0x3e127601	0.14302827
194	0x3bae4612	0.0053184116
195	0x3ce431fb	0.027855864
196	0xbddcdf86	-0.10784821
197	0xbdb909b1	-0.090350516
198	0xbd91c42f	-0.07117497
199	0x3e192dc3	0.14958863
200	0x3e6ea68d	0.23305722
201	0xbdcf28aa	-0.10115178
202	0x3bfa85fa	0.007645366
203	0x3c7765c1	0.015099944
204	0x3e13011c	0.14355892
205	0x3e8d540e	0.2760319
206	0xbc9054b6	-0.017618518
207	0x3e0006f7	0.12502657
208	0xbd9fa7f3	-0.07795706
209	0x3e26109a	0.1621727
210	0x3ea4e533	0.32206115
211	0x3c8ad9fe	0.01694965
212	0xbe92fa86	-0.2870676
213	0x3e6c0669	0.2304932
214	0xbe6d593b	-0.2317857
215	0x3e560513	0.20900373
216	0xbe166c4c	-0.1468975
217	0x3da0071d	0.07813857
218	0xbc13114e	-0.008976294
219	0x3eaa0eee	0.33214515
220	0xbdca55ea	-0.09879668
221	0x3d960b8f	0.073264234
222	0x3e0c05e3	0.1367412
223	0x3d71be3e	0.05901932
224	0x3c7c4696	0.015397688
225	0xbd59b1ea	-0.053148188
226	0x3dd956cd	0.10612259
227	0xbe9ef943	-0.31049547
228	0xbe3f0bda	-0.18656865
229	0xbeab0ab5	-0.33406606
230	0x3d5d4847	0.054024007
231	0x3e17ea1e	0.14835402
232	0xbebaf632	-0.36515957
233	0xbe675e92	-0.2259467
234	0x3e045ac3	0.12925248
235	0x3c4571a1	0.012051017
236	0xbecb6c59	-0.397311
237	0xbdfa17f2	-0.122115985
238	0xbe06c0a1	-0.1315942
239	0xbe6a8f85	-0.22906311
240	0xbe9e2769	-0.30889443
241	0x3d1735ce	0.036916547
242	0xbe6b30b6	-0.229678
243	0xbd9d95de	-0.076946005
244	0x3e8d106c	0.2755159
245	0x3e3ce9e3	0.18448596
246	0x3ca41f18	0.020034358
247	0x3d9a0f93	0.07522502
248	0xbdcc5ac9	-0.099782534
249	0x3be43c3b	0.006965188
250	0xbe3e017a	-0.18555251
251	0x3c0b7628	0.008512057
252	0x3d2c6a2e	0.04209345
253	0xbe75688b	-0.23965661
254	0x3e32256b	0.17397086
255	0x3b84a454	0.0040479098

mlp_extractor.value_net.2.bias f4 [64]
0	0x00000000	0.0
1	0x00000000	0.0
2	0x00000000	0.0
3	0x00000000	0.0
4	0x00000000	0.0
5	0x00000000	0.0
6	0x00000000	0.0
7	0x00000000	0.0
8	0x00000000	0.0
9	0x00000000	0.0
10	0x00000000	0.0
11	0x00000000	0.0
12	0x00000000	0.0
13	0x00000000	0.0
14	0x00000000	0.0
15	0x00000000	0.0
16	0x00000000	0.0
17	0x00000000	0.0
18	0x00000000	0.0
19	0x00000000	0.0
20	0x00000000	0.0
21	0x00000000	0.0
22	0x00000000	0.0
23	0x00000000	0.0
24	0x00000000	0.0
25	0x00000000	0.0
26	0x00000000	0.0
27	0x00000000	0.0
28	0x00000000	0.0
29	0x00000000	0.0
30	0x00000000	0.0
31	0x00000000	0.0
32	0x00000000	0.0
33	0x00000000	0.0
34	0x00000000	0.0
35	0x00000000	0.0
36	0x00000000	0.0
37	0x00000000	0.0
38	0x00000000	0.0
39	0x00000000	0.0
40	0x00000000	0.0
41	0x00000000	0.0
42	0x00000000	0.0
43	0x00000000	0.0
44	0x00000000	0.0
45	0x00000000	0.0
46	0x00000000	0.0
47	0x00000000	0.0
48	0x00000000	0.0
49	0x00000000	0.0
50	0x00000000	0.0
51	0x00000000	0.0
52	0x00000000	0.0
53	0x00000000	0.0
54	0x00000000	0.0
55	0x00000000	0.0
56	0x00000000	0.0
57	0x00000000	0.0
58	0x00000000	0.0
59	0x00000000	0.0
60	0x00000000	0.0
61	0x00000000	0.0
62	0x00000000	0.0
63	0x00000000	0.0

action_net.weight f4 [2, 64]
0	0x3ad10cbb	0.0015949229
1	0xbedbb63a	-0.42912465
2	0xbab7e24a	-0.0014029231
3	0x3f39fc7a	0.72650874
4	0xba133555	-0.0005615552
5	0x38d19e25	9.995353e-05
6	0x3a5cd95d	0.00084247236
7	0xb928c2d4	-0.00016094308
8	0x3ad23435	0.0016037287
9	0xb92e47fd	-0.00016620751
10	0x395491aa	0.0002027216
11	0x3983579d	0.00025051544
12	0xbab5d2d4	-0.0013872036
13	0xb94391d2	-0.00018650971
14	0x3f095983	0.5365221
15	0x3aad4189	0.0013218384
16	0x39421c43	0.0001851181
17	0x3604d14a	1.9791355e-06
18	0x3ecb5775	0.39715162
19	0x3a2eddef	0.0006670644
20	0x3940a9fd	0.00018373872
21	0xbacab6ca	-0.0015465852
22	0x392a8f17	0.00016265768
23	0x3966c325	0.00022007206
24	0x3d96ff57	0.07372921
25	0x3a8bebbb	0.0010675112
26	0xb9c2b9c9	-0.00037140984
27	0xb92836db	-0.00016042164
28	0x3eb08826	0.34478873
29	0xbdc93dab	-0.09826215
30	0x386926d3	5.5587687e-05
31	0xba889b61	-0.0010422283
32	0xbacd7845	-0.0015676102
33	0xbecc7315	-0.3993155
34	0x395a4a56	0.00020817792
35	0xb8ea5cde	-0.00011175287
36	0xb9538c33	-0.00020174756
37	0x39670b25	0.00022034028
38	0xb9d8156d	-0.00041214694
39	0xb96274a8	-0.00021596497
40	0x395ad3be	0.0002086898
41	0xb9e8a1b0	-0.00044370955
42	0xb8a38e71	-7.7989775e-05
43	0x3968c37d	0.00022198069
44	0xb63bea58	-2.8001577e-06
45	0xbf2aac0f	-0.6666879
46	0xb949a660	-0.00019230833
47	0xbd0ad618	-0.033895582
48	0xbe6bc359	-0.23023738
49	0xba9e1993	-0.0012062065
50	0x3f2c512c	0.6731136
51	0xbac07654	-0.0014683702
52	0x3883c933	6.284043e-05
53	0xb9704142	-0.00022912494
54	0xba0848c8	-0.00051988335
55	0xbe7c12ef	-0.24616598
56	0xbac90ecf	-0.0015339496
57	0xb95c3613	-0.00021000979
58	0xb94f38ab	-0.00019762169
59	0x3987da97	0.0002591207
60	0xba048176	-0.00050546916
61	0x3b0eaf0a	0.0021771812
62	0x39b7c225	0.0003504913
63	0xba899415	-0.0010496402
64	0x398dbbc2	0.00027033506
65	0xbe32fc4d	-0.17479058
66	0xb9a2de5c	-0.00031064718
67	0x3ef085e4	0.4697715
68	0xbb87d3af	-0.0041451077
69	0x3a0fe5cc	0.00054892595
70	0x3b9086b8	0.004410591
71	0xba8b8faf	-0.001064768
72	0x38c18fcc	9.2297414e-05
73	0xba22c067	-0.000620848
74	0x3a09259f	0.0005231741
75	0x39f2fd1e	0.00046346424
76	0x3a02aaec	0.0004984576
77	0xba01b418	-0.00049477955
78	0xbdc4474e	-0.09583913
79	0x3a224672	0.0006190307
80	0x39c50a3f	0.00037582402
81	0x39f29511	0.000462689
82	0xbeeedc94	-0.46652663
83	0xba2d7ce8	-0.0006618039
84	0x3abc8e37	0.0014385645
85	0xb871dbe1	-5.7663656e-05
86	0x3661abf3	3.36277e-06
87	0x3a8a8585	0.0010568356
88	0xbf30a44d	-0.69000703
89	0xb8811ae5	-6.156209e-05
90	0xba71ff6d	-0.0009231482
91	0x3aa493b2	0.0012556224
92	0xbee92bf9	-0.4554136
93	0xbf41c791	-0.7569514
94	0x3a2838b4	0.0006417141
95	0x391c679c	0.00014915917
96	0xba1fe380	-0.0006099269
97	0x3f05405f	0.5205135
98	0x3a8b7730	0.0010640379
99	0x3a6bf33a	0.0009000782
100	0xba03d3be	-0.00050288055
101	0x3a095258	0.00052384054
102	0xba55ee6e	-0.0008160834
103	0x37f1c35d	2.8820412e-05
104	0x3a0015a1	0.00048860355
105	0xbaa4d8fa	-0.0012576871
106	0xba2cfcec	-0.00065989676
107	0x3a097c3f	0.00052446494
108	0x3aa88853	0.0012858011
109	0xbf68f0a5	-0.90992194
110	0xba411592	-0.000736558
111	0x3fda9395	1.7076288
112	0x3e43c836	0.19119343
113	0xba42918a	-0.00074221997
114	0xbf891b00	-1.0711365
115	0xb9aa9260	-0.00032533985
116	0xba395d8c	-0.00070711295
117	0xb9e620f5	-0.00043893573
118	0xbb68b809	-0.0035510084
119	0x3f03068d	0.5118187
120	0xb9695d25	-0.0002225531
121	0xb9ac31dc	-0.00032843545
122	0xba25c95f	-0.0006324257
123	0x3853970f	5.0447004e-05
124	0x3a8cad69	0.0010732833
125	0x3fe5cb9f	1.7952765
126	0x3b9ab08e	0.004720754
127	0xb9810d81	-0.0002461486

action_net.bias f4 [2]
0	0x3b4a04c9	0.0030825606
1	0xbcb095c0	-0.021555781

value_net.weight f4 [1, 64]
0	0xbd31a600	-0.0433712
1	0x3dfd231f	0.123602144
2	0x3c9779fc	0.018490784
3	0xbea86b22	-0.32894236
4	0xbd6687b9	-0.05628178
5	0xbe70d4e4	-0.23518711
6	0x3e33801a	0.17529336
7	0x3de02faa	0.10946591
8	0xbe5c0f6b	-0.21490256
9	0x3e01fe65	0.126947
10	0xbcf0835e	-0.029359516
11	0xbda1dcf1	-0.07903469
12	0xbd32dc23	-0.04366697
13	0x3de68d7a	0.11257453
14	0xbe78f78e	-0.24313185
15	0x3da71be0	0.081596136
16	0xbe13c2b9	-0.1442975
17	0xbc4e4264	-0.012589071
18	0x3e57e052	0.21081665
19	0xbd795797	-0.060874548
20	0xbd963104	-0.07333568
21	0xbdff60da	-0.12469645
22	0xbc9fcfc1	-0.019508244
23	0xbdb45f00	-0.08807182
24	0xbd6b7d53	-0.057492565
25	0x3e3bdd06	0.18346033
26	0xba639176	-0.0008681038
27	0xbd70ce0a	-0.058790244
28	0x3e02c6c2	0.12771133
29	0xbdeb89a9	-0.11500866
30	0x3db1d2d2	0.08682789
31	0x3cafc14b	0.021454474
32	0x3e298cb9	0.16557588
33	0x3dfbbe82	0.12292196
34	0x3e01ed8b	0.12688272
35	0xbdcf43b6	-0.10120337
36	0xbdc69af6	-0.09697525
37	0x3caec499	0.02133398
38	0x3dcbeb8c	0.099570364
39	0x3dca007d	0.098633744
40	0x3c948fbc	0.018134944
41	0xbe09045a	-0.13380566
42	0xbdb68cd7	-0.08913582
43	0x3dc05090	0.09390366
44	0xbb99a65c	-0.004689021
45	0x3d098458	0.03357348
46	0xbe5f250d	-0.21791478
47	0x3d71adf2	0.059003778
48	0xbe393dc5	-0.1808997
49	0x3e32ce49	0.17461504
50	0xbe41309b	-0.18866198
51	0x3cc35f3f	0.023849128
52	0xbc1687a7	-0.0091876155
53	0x3cf42254	0.029801525
54	0x3e329e03	0.17443089
55	0x3e2378cf	0.15964054
56	0xbe1f8b38	-0.15580451
57	0xbb2d1a93	-0.0026413545
58	0xbe41a1bc	-0.18909353
59	0x3daaeed6	0.083463356
60	0x3e060b1a	0.13090172
61	0xbe0951a5	-0.13410051
62	0xbd18d6da	-0.037314273
63	0x3d3454b8	0.044026107
