policies/LunarLander/good_a2c.pt (torch, 43597 bytes, 12 tensors)

log_std f4 [2]
000000 12 3a 93 c1 23 65 8e c1
       -18.403355 -17.799383

mlp_extractor.policy_net.0.weight f4 [64, 8]
000000 34 6f 7c 42 85 02 84 c0 62 be 03 42 f0 22 29 c2
       63.108597 -4.1253076 32.93592 -42.28412
000010 3d 89 b1 41 bc 88 81 c1 f7 71 de c0 93 7d 69 c1
       22.19201 -16.191765 -6.9514117 -14.593158
000020 ec ff 06 3f 7b 5d b2 3e f0 7b f8 3d d7 12 86 3d
       0.52734256 0.34836945 0.12133014 0.06546562
000030 43 f7 c6 bf c9 01 65 be dd 56 1c 41 cf c2 c1 40
       -1.5544208 -0.22363962 9.771207 6.0550303
000040 63 9e c7 42 7a 33 a0 3f 6c f6 88 41 0f ee 05 42
       99.80935 1.2515709 17.120323 33.48248
000050 01 cd 96 41 d7 c2 a5 41 cc d4 2b 41 00 7d ca c1
       18.8501 20.720137 10.739452 -25.311035
000060 c2 21 0a c2 5f b8 6e 41 32 b5 30 41 d7 0d 64 42
       -34.532967 14.920012 11.044237 57.013515
000070 dd 0e a1 c1 8d 7f 29 41 d0 bb b8 41 d7 aa 32 42
       -20.132257 10.59364 23.091705 44.666836
000080 d5 68 d6 c1 39 81 8b c1 9d 98 5b c1 7a e5 92 c1
       -26.801188 -17.438097 -13.724759 -18.36205
000090 67 4a f5 42 f8 32 02 c1 3e 46 0d 42 f4 f5 7b 41
       122.64532 -8.137444 35.318596 15.747547
0000a0 58 33 3f c2 f0 b1 11 42 2a 46 82 41 28 33 59 42
       -47.80014 36.423767 16.28426 54.299957
0000b0 26 63 69 41 17 14 a5 41 3e 5b 11 42 07 cb 5c c1
       14.586706 20.63481 36.339104 -13.799567
0000c0 e4 41 10 40 11 df 43 bf 2b a5 46 bf a1 3d dd 3f
       2.2540216 -0.7651225 -0.77595776 1.7284433
0000d0 c4 c1 11 c3 c2 21 a8 bf 77 f8 08 40 54 61 26 bf
       -145.7569 -1.3135302 2.140165 -0.6499226
0000e0 be 60 53 3f d3 9c 63 c0 37 60 bd be 01 84 f3 3f
       0.8256949 -3.5564468 -0.3698747 1.9024659
0000f0 ae 62 78 44 91 ad 72 3e 42 57 dd 3f 51 c6 56 bd
       993.5419 0.23699023 1.7292254 -0.052435223
000100 33 94 65 3f d6 75 7a 40 ac 06 b7 bf fd 8e 28 c0
       0.8967926 3.9134421 -1.4298911 -2.6337273
000110 38 58 0b c3 2d c4 e3 be b8 35 33 bf 6e 70 37 40
       -139.3446 -0.44485608 -0.70003843 2.8662372
000120 75 93 a1 bf 70 ff 21 42 45 46 64 42 4d 8e 1e 41
       -1.2623125 40.49945 57.068623 9.909741
000130 48 cf ed 41 6f 12 72 c0 5b 59 54 41 93 91 8d c2
       29.726212 -3.782375 13.271815 -70.784325
000140 f3 11 65 42 1d 3e d8 c0 f3 a7 1e c2 2c be 75 bf
       57.26753 -6.757582 -39.664013 -0.95993304
000150 ae dc ad 40 f2 3c 26 c2 ad 36 84 41 27 c8 2d 41
       5.4331884 -41.559517 16.526697 10.861365
000160 14 fc 2e 42 69 2a 9e c1 08 ee b9 41 c3 e0 0d 42
       43.74617 -19.770708 23.241226 35.469494
000170 a8 11 07 c2 01 a5 3c c2 cc a0 d3 c1 81 e3 17 c0
       -33.767242 -47.161137 -26.453514 -2.3732607
000180 c1 76 2f 41 a4 d3 bb 41 f6 44 4d 42 51 46 ba 41
       10.966493 23.47834 51.317345 23.284334
000190 08 f8 e7 c1 8c aa 25 42 76 e5 cd 40 82 63 5b 41
       -28.996109 41.41655 6.4342604 13.711794
0001a0 71 75 9e 43 f6 c1 17 40 b4 b8 de c0 f1 ac 10 c0
       316.9175 2.3712134 -6.960047 -2.2605555
0001b0 dc 70 47 c2 a2 68 17 bd 30 24 ed c0 ba 75 44 40
       -49.860214 -0.03696502 -7.4106674 3.0696855
0001c0 24 9c 94 c1 cc a9 82 c2 88 cf 87 c0 7f 3f 8d 41
       -18.57624 -65.331635 -4.2440834 17.656004
0001d0 f4 82 0d c2 86 82 ea 41 31 4f 2b c2 58 93 2a c2
       -35.377884 29.313732 -42.827335 -42.64389
0001e0 97 28 a1 c1 ef 84 16 c1 ae 05 41 42 05 7b d1 41
       -20.14482 -9.4074545 48.255547 26.185068
0001f0 78 29 2e c2 be 5a fb 41 3f 60 1c 42 99 9a cd 41
       -43.540497 31.419308 39.09399 25.700487
000200 82 e8 ea c2 db d0 96 40 04 20 9c 41 90 d1 d6 c1
       -117.45412 4.712995 19.515633 -26.852325
000210 64 e8 2e 40 83 0b f4 41 26 2f 8a 40 03 2a 07 41
       2.732934 30.505621 4.3182554 8.447757
000220 c1 da bd 3e d2 56 10 c0 d5 8a ff 3d d1 bd 9d 3e
       0.37080958 -2.255299 0.12477652 0.3080888
000230 e7 19 ee 3e 96 b0 1c bc f0 ed 17 c1 22 0d 21 c1
       0.46504137 -0.009563586 -9.49559 -10.065706
000240 c4 ca 1d c2 ce 90 15 c2 23 5b 63 c2 76 30 3c 41
       -39.448013 -37.39141 -56.839 11.761831
000250 33 18 0d 41 ac ec f5 41 a3 7b 9b 41 16 a3 f6 41
       8.818408 30.740562 19.43537 30.829632
000260 c8 89 0d c2 2a e3 bb c1 dd f4 7c c1 70 44 97 bf
       -35.384552 -23.48592 -15.809781 -1.181776
000270 dd 3c 0f 42 b7 5d 0a c2 5d 51 7c 42 b0 d5 24 42
       35.809437 -34.59152 63.079456 41.20868
000280 43 5f 72 c1 6f bd c9 c2 84 1a 7b c1 41 58 ea 41
       -15.148257 -100.86999 -15.693974 29.293093
000290 7c 14 73 41 7f 39 4b 41 3b 0b c9 c1 6d 6f ce c1
       15.192501 12.701537 -25.130484 -25.804407
0002a0 e7 04 63 40 20 32 0d c2 34 fd ba 41 72 6f f5 41
       3.5471742 -35.29895 23.373634 30.679417
0002b0 e5 eb 68 41 b8 c2 31 c2 92 2c 62 c2 a5 7a 69 c2
       14.557591 -44.440155 -56.543526 -58.36977
0002c0 d5 23 c0 41 cc d4 96 c1 f9 f5 90 c0 f6 31 2b 42
       24.017496 -18.853905 -4.530026 42.79879
0002d0 5d f5 d7 c2 f5 2b ac c1 3b 41 2e 3f ed d6 fa 40
       -107.979225 -21.521463 0.68068284 7.838736
0002e0 0d 0c e2 c1 2b 28 74 c1 ea 39 08 42 84 1d ce c1
       -28.255884 -15.259807 34.056557 -25.764412
0002f0 a0 69 17 43 63 ed 10 c1 11 c3 6e c1 f2 8b b6 c1
       151.4126 -9.057956 -14.922624 -22.818333
000300 92 f7 af 43 d5 ce 2a 3f b7 3c 53 40 21 1f ec bf
       351.93414 0.6672185 3.3005807 -1.8447
000310 41 01 a8 c1 fd f0 92 c0 7c 09 22 c1 8d b4 46 41
       -21.000612 -4.5919175 -10.1273155 12.41908
000320 8e 0f 41 c2 7e 77 23 c1 af 37 08 41 32 fe 46 42
       -48.26519 -10.216673 8.513595 49.748238
000330 20 26 32 41 8c 55 b2 41 2d 26 2f c2 fd 9d 35 c2
       11.134308 22.29177 -43.78728 -45.404285
000340 4e d9 17 c1 e0 c9 97 c1 d1 36 8f 42 ef d2 8d c1
       -9.490553 -18.973572 71.60706 -17.727995
000350 03 fb ec c1 98 29 8c c1 cc 79 c7 c1 75 60 3e c1
       -29.622564 -17.52031 -24.934471 -11.898549
000360 9e 04 91 c2 84 3d 8a c1 e6 17 f2 40 60 a5 2c c2
       -72.50902 -17.280037 7.5654173 -43.1615
000370 15 0e 14 42 af 17 2d c2 82 b6 a5 40 41 94 88 c1
       37.013752 -43.27313 5.178529 -17.07239
000380 4f 3e 15 40 f4 8a 7e c1 be 37 14 bf 10 83 0a 3f
       2.331928 -15.908924 -0.57897556 0.54106236
000390 d3 4a e5 bd e3 b9 a5 3e 6c 78 c6 c1 e3 66 f3 c1
       -0.11195912 0.32368383 -24.8088 -30.425238
0003a0 66 47 16 41 a5 5c 78 bf d2 43 74 41 df b5 6b 41
       9.392431 -0.97016364 15.266558 14.731902
0003b0 bf d1 d6 42 06 de 82 c1 43 bd 17 42 be 80 d8 41
       107.40966 -16.35841 37.934826 27.062862
0003c0 62 1d 5c 42 d3 91 4e c1 89 5d 11 42 d3 ba 7b c0
       55.028694 -12.910602 36.341343 -3.9332778
0003d0 c4 5a d2 c1 65 1f fd c1 fb 67 75 c2 46 60 29 c2
       -26.29432 -31.64033 -61.351543 -42.344017
0003e0 cd 3c 41 c2 61 21 49 c0 4b 0f 27 42 b4 40 89 3f
       -48.309376 -3.1426623 41.764935 1.0722871
0003f0 9b 2c 0b 42 dd 85 55 c2 d9 f4 a7 41 60 79 eb c0
       34.79356 -53.380726 20.994555 -7.3585663

mlp_extractor.policy_net.0.bias f4 [64]
000000 5f 60 6b 3f b8 6d 59 41 a6 4a 62 bf dd 4a 4d 40
       0.91943926 13.589287 -0.88395154 3.2076943
000010 f8 d3 4d 41 0e 37 15 42 fc 38 5b c2 03 ce 11 3f
       12.86425 37.303764 -54.80565 0.56954974
000020 fb 59 65 42 1a 75 e0 c0 b3 f7 38 41 6a 20 25 c0
       57.33787 -7.0142946 11.560473 -2.5801034
000030 9d 24 85 41 66 bc ea c0 6f 53 6c c2 6e 2c 39 42
       16.642878 -7.335498 -59.08148 46.29339
000040 d1 1e 87 3f a6 9c 82 c1 07 19 07 42 31 c0 84 42
       1.055628 -16.326488 33.77444 66.375374
000050 68 b5 7b c0 9c e7 41 c2 ac 53 b2 41 99 00 c8 c1
       -3.9329472 -48.47618 22.290855 -25.000292
000060 92 5a 26 c0 ff be eb c0 5d da eb c1 1c ef 3d 41
       -2.599278 -7.367065 -29.481623 11.870876
000070 c6 fa 24 c2 9e 07 5c 42 a1 f2 77 c2 5e 0a 2a c0
       -41.244896 55.00744 -61.986942 -2.6568828
000080 c7 2d aa 41 50 74 8e 40 83 bb 9f 40 4b 00 df c1
       21.272352 4.4516983 4.9916396 -27.875143
000090 c1 d5 ee 41 a0 c6 aa c1 a9 c4 0f c2 fa ec 5e c1
       29.854372 -21.346985 -35.94205 -13.932856
0000a0 5e 19 97 c1 37 6c dd 41 cf ca e2 41 6d 45 c3 3f
       -18.887386 27.67784 28.349028 1.5255562
0000b0 5f c1 11 c2 65 d6 ad 41 f2 51 68 c1 18 3d 19 41
       -36.43884 21.729685 -14.520006 9.577415
0000c0 76 05 20 42 28 5e 06 c2 ec 7e a8 40 e1 a1 61 c2
       40.005333 -33.59195 5.2654934 -56.408085
0000d0 2e 01 a2 41 bc ab e4 c1 56 54 6c 42 3d 68 a9 c0
       20.250576 -28.583855 59.08236 -5.2939744
0000e0 cf 5d 14 c2 8b e3 36 42 c3 b7 a7 3f ba 65 1a c2
       -37.09161 45.72221 1.3102955 -38.599342
0000f0 f8 8e 02 c2 25 91 2d 41 97 77 62 c2 54 22 cb 41
       -32.639618 10.847936 -56.616787 25.391762

mlp_extractor.policy_net.2.weight f4 [64, 64]
000000 9d 0e 44 41 f5 8e 8b 41 ff d5 e3 40 74 61 3b 41
       12.253568 17.444803 7.1198726 11.711292
000010 e4 a8 08 c2 46 26 34 40 3c f1 cb c0 a4 4e 56 41
       -34.164932 2.814836 -6.3731976 13.394199
000020 91 50 2c 43 a4 1b a3 41 31 e5 6d c1 80 6e 21 40
       172.31471 20.388496 -14.868455 2.5223694
000030 06 f7 84 c0 18 6a 9c bf 6c 0c 33 c1 5b 41 7a 40
       -4.155154 -1.2219877 -11.190533 3.910239
000040 5a 3c ed 41 7e 31 bb c1 78 c2 30 c1 1d 04 9c c0
       29.654469 -23.399166 -11.047478 -4.875502
000050 df eb 72 40 d4 6f 6f c1 75 20 fc 41 b9 af ce c1
       3.7956464 -14.964802 31.515848 -25.835802
000060 a8 28 d9 c0 f1 20 a5 40 ea ac 22 41 76 60 1e bf
       -6.786213 5.160271 10.167215 -0.6186594
000070 d6 6c 61 c1 48 cf ad c1 67 00 0a c1 83 44 23 c1
       -14.089071 -21.726212 -8.625098 -10.2042265
000080 33 ce c7 41 9a 0b ca 3f 95 c3 73 40 ca 8c 26 3f
       24.975683 1.578479 3.8088124 0.6505858
000090 d7 3d 0d c1 21 26 aa c0 be 87 20 40 29 b6 8b c0
       -8.827598 -5.3171544 2.508285 -4.3659863
0000a0 ee a1 00 c0 32 5b e4 c0 9f 0f 2a c0 d8 2f 83 41
       -2.0098834 -7.1361322 -2.6572034 16.398361
0000b0 51 c2 0b c0 56 1d 34 3e 54 68 3f c1 13 6e 86 c0
       -2.1837351 0.17589316 -11.962971 -4.200937
0000c0 b5 87 a6 c1 be ab 0e c2 eb 51 88 c0 b5 16 8b c1
       -20.816263 -35.667717 -4.2599998 -17.386087
0000d0 14 1c 98 41 5a bc af c0 72 67 19 41 18 d5 f5 41
       19.01371 -5.491742 9.587755 30.72905
0000e0 13 26 10 c1 9f 4e a9 3e de 7d 10 41 ab 3a a8 3f
       -9.009295 0.33067796 9.030729 1.3142904
0000f0 a4 e4 0c 42 0c c2 f1 c1 5b f5 2a c3 d7 79 84 41
       35.22328 -30.21975 -170.95842 16.559492
000100 43 53 c1 41 b5 b6 f4 41 82 ec 9f 41 8f 34 ef c1
       24.165655 30.589212 19.990482 -29.900663
000110 47 36 e1 bf bd e8 45 c2 24 03 57 c1 76 f8 09 c2
       -1.7594689 -49.477283 -13.438267 -34.492638
000120 30 05 c2 41 ba e0 0c c2 8b 7d 0e c0 5d fb 69 c0
       24.252533 -35.21946 -2.2264125 -3.655967
000130 66 95 85 c2 67 71 b7 42 89 ff 06 42 c9 7e 36 c1
       -66.791794 91.72149 33.749546 -11.405953
000140 b5 bd 57 c1 f6 69 f4 c1 c5 f0 84 c0 ea 48 2c 42
       -13.483815 -30.551739 -4.154391 43.071205
000150 b9 c6 91 42 5c 91 42 42 a3 76 fa c1 63 04 b6 41
       72.88813 48.641953 -31.307928 22.752142
000160 fc 32 bc 42 12 b4 33 c1 8b 3d 51 c1 67 b7 b3 41
       94.09958 -11.2314625 -13.077525 22.464552
000170 e4 47 ad c1 1b 91 ec 40 0f 2f e8 41 56 f7 50 42
       -21.660103 7.392713 29.022978 52.24154
000180 54 90 d9 c1 b9 33 9f c2 76 b4 99 c1 f8 a6 d7 c1
       -27.195473 -79.60102 -19.213116 -26.956528
000190 0e 60 13 3f 9d d8 04 c2 62 df 02 c2 cc 85 f4 41
       0.5756844 -33.211536 -32.718147 30.56533
0001a0 f3 3c 1f c2 a4 84 bd 41 6c 62 46 41 50 77 3a c2
       -39.80952 23.689766 12.399029 -46.616516
0001b0 dc 7c 1b 42 bf 94 a8 c0 f5 23 e1 41 dd aa 22 42
       38.871933 -5.2681575 28.142557 40.66686
0001c0 95 83 e8 41 fb 6e 08 c2 be c8 54 41 b3 57 c1 3f
       29.064249 -34.10838 13.299009 1.5104889
0001d0 35 aa 03 42 67 e0 74 41 01 87 de 40 59 39 1f c2
       32.916218 15.304786 6.95398 -39.806004
0001e0 6e ef 48 c2 d6 00 16 bf f2 54 86 c2 4b f9 da 41
       -50.233818 -0.58595026 -67.16591 27.371725
0001f0 b7 7c 14 c2 75 56 90 c2 a7 f0 bc c1 d6 2a b6 41
       -37.12179 -72.16886 -23.617506 22.770916
000200 9a 42 5d 41 eb 9b 66 c0 ed c9 aa 3c 94 e4 74 c1
       13.82876 -3.6032665 0.020848239 -15.305805
000210 e3 ec c0 41 63 92 f2 c0 a1 04 a2 c1 1f 83 36 43
       24.115667 -7.5803695 -20.25226 182.51219
000220 50 74 ac c2 40 85 cb c0 da 99 ea c0 e4 e7 2b c0
       -86.22717 -6.360016 -7.3312807 -2.6860285
000230 59 a9 09 40 04 47 98 c2 b9 47 91 40 b4 85 ad c0
       2.1509612 -76.1387 4.540005 -5.422571
000240 dc 62 78 c1 ea 62 83 40 94 dd d9 c0 e3 98 06 41
       -15.524136 4.1058245 -6.808298 8.412326
000250 a4 76 e4 c0 7b ec 29 40 2a d5 4f c1 f7 1f 73 41
       -7.1394825 2.6550586 -12.989542 15.195304
000260 17 da 68 c2 ba 38 3e c1 65 f2 fd c0 8d b9 0f 41
       -58.21298 -11.888849 -7.935839 8.9828005
000270 ae 4a a3 40 bd fe 74 40 0d 83 a6 c0 db 35 98 c0
       5.102866 3.828048 -5.2034974 -4.756574
000280 b5 ef 84 c1 8e d7 93 42 4a 6e 56 c0 3e fa 9e 40
       -16.617044 73.921005 -3.3504815 4.968047
000290 75 4e 2e c1 07 8c 68 c0 ee 10 2f bf d7 fd 35 c1
       -10.894155 -3.6335466 -0.6838521 -11.374473
0002a0 d0 f3 ce 40 a5 f6 b5 41 2d 63 34 c0 62 82 51 c0
       6.4672623 22.745432 -2.8185532 -3.273583
0002b0 9b fa 48 41 41 82 fa 3d c8 5a 39 3f 71 6e 94 c0
       12.561183 0.12231875 0.72404146 -4.6384816
0002c0 c3 f9 4b 41 08 64 1c 41 64 3d 7d bf 9c 87 3c c1
       12.748477 9.774422 -0.989218 -11.783108
0002d0 48 74 99 c0 8f 9e 23 41 21 f0 0a 41 5b 4d 0e c1
       -4.7954445 10.226211 8.683625 -8.893886
0002e0 f3 2f d8 bf 43 35 f2 40 58 52 ec 40 96 b7 cc 40
       -1.6889633 7.5690017 7.3850517 6.3974104
0002f0 b4 24 cb c1 bb 2f a2 40 62 1a 05 43 59 bd d6 bf
       -25.392921 5.0683265 133.10306 -1.6776534
000300 d4 71 29 42 d3 4a ff 40 95 2c 86 c1 f3 3a 1b 41
       42.36116 7.977884 -16.771769 9.701892
000310 ab 4b 53 42 75 b4 6d 40 a7 14 3f c2 4d 25 8a 42
       52.823895 3.7141392 -47.77017 69.07285
000320 6a 43 7e c2 d6 72 09 42 89 cc db c1 ea db 16 c1
       -63.565834 34.362144 -27.47487 -9.42869
000330 f8 7d d0 41 55 d5 90 c2 42 f7 9f c1 3f c3 31 42
       26.061508 -72.416664 -19.995731 44.44067
000340 a3 54 5b 41 de 5d 64 c1 f6 ff 37 c1 f4 0c 3d 41
       13.708163 -14.272917 -11.49999 11.815662
000350 50 8b d9 c0 01 2c cb 40 4e 8d ac c0 09 c9 d0 42
       -6.798256 6.3491216 -5.392249 104.39265
000360 5e 67 8a c2 9d 18 9e 40 22 fc ca 41 cd f1 84 42
       -69.20189 4.9405046 25.373112 66.47227
000370 fb 7d 16 c1 90 5c 47 42 30 e7 32 41 18 34 47 42
       -9.405757 49.840393 11.181442 49.800873
000380 cd d8 7d c2 e9 c3 22 42 dd 92 3e 41 2f 71 81 40
       -63.46172 40.69132 11.910855 4.0450664
000390 da e8 20 42 1f b7 f4 c1 85 67 ea 40 17 8b 30 41
       40.227394 -30.589415 7.3251367 11.0339575
0003a0 7e 5a 1e c0 78 fe 1c 40 1b 15 10 42 f0 d5 cc 41
       -2.4742732 2.4530315 36.02061 25.604462
0003b0 1c a6 c0 40 5e a2 39 42 4c 3a 3c c2 5f a9 17 42
       6.020277 46.40856 -47.05693 37.9154
0003c0 58 e9 93 41 45 f2 9f c0 36 63 eb 40 db a6 2b c2
       18.488937 -4.998324 7.3558607 -42.912945
0003d0 26 f3 77 41 50 51 54 41 a3 e4 89 c1 01 9d 5b c1
       15.496862 13.269852 -17.236639 -13.725831
0003e0 34 18 85 c1 0b 1d cf 41 b1 dd 42 41 1e 6b a0 41
       -16.636818 25.889181 12.179124 20.052303
0003f0 b4 d4 a3 c1 6f 51 39 41 e6 89 95 42 08 91 a0 41
       -20.478859 11.582381 74.76933 20.070816

mlp_extractor.policy_net.2.bias f4 [64]
000000 01 28 9e 41 0d 59 e7 41 68 ca 8b c0 ba ae 22 41
       19.769533 28.918482 -4.368458 10.167658
000010 7b 28 16 42 e2 f6 f8 41 13 f2 20 41 d2 7a f1 c1
       37.53953 31.120548 10.0591 -30.18497
000020 3e 4b 54 bf 40 f6 13 41 8b fe c0 41 d9 a8 00 42
       -0.8292731 9.24762 24.124289 32.16489
000030 05 aa 8b 41 98 6f cb c1 56 75 40 42 1a e7 ac c0
       17.458017 -25.42949 48.114586 -5.4032106
000040 32 53 df c1 d8 18 d0 40 8d 6a 87 40 ec b9 b5 40
       -27.915623 6.5030327 4.2317567 5.6789455
000050 8c 01 7e 41 83 e8 f7 3f 52 6d a8 c1 fe a0 b7 40
       15.875378 1.9367832 -21.05338 5.7384024
000060 fb e3 44 c2 aa 54 05 42 ab 67 fb c1 fc f1 12 41
       -49.222637 33.33268 -31.42562 9.184078
000070 f7 70 a6 41 9f 4f d6 41 3d 1f 89 c0 15 45 a7 c1
       20.805159 26.788877 -4.2850633 -20.908731
000080 bb 8d 61 c2 c8 ef 65 41 76 97 35 c1 11 10 26 c1
       -56.38841 14.37104 -11.349478 -10.378922
000090 4d 32 96 c1 20 cf 18 42 68 3f c2 40 a1 11 c8 c1
       -18.77456 38.20227 6.07024 -25.008608
0000a0 93 89 05 41 37 b5 ec c0 d2 8f f5 40 e3 6c 5b 40
       8.346087 -7.397121 7.673806 3.428521
0000b0 30 f3 58 c1 a8 88 ea c0 ec 40 f0 c1 cd 2b 15 c2
       -13.559372 -7.3291817 -30.0317 -37.292774
0000c0 89 1d 66 41 a9 0a 4b c2 49 bf c1 c1 ac ca 32 41
       14.382211 -50.76041 -24.218401 11.17448
0000d0 d1 6a ab c1 92 43 64 40 3d 68 cb 40 79 2e 06 c1
       -21.427156 3.5666242 6.3564744 -8.386346
0000e0 49 9c a3 40 fb 2f 89 41 01 a1 69 41 c2 de 02 41
       5.112828 17.148428 14.601808 8.179384
0000f0 31 ea 4f 42 f4 68 38 41 75 38 73 40 b6 9e c9 3f
       51.978703 11.525623 3.8003209 1.575156

mlp_extractor.value_net.0.weight f4 [64, 8]
000000 39 4e 5f bd 75 84 11 3e ae 7b c0 3d 8d 56 9d 3e
       -0.05451796 0.14210685 0.0939859 0.30730096
000010 3d 4d 80 3e 3c cd 1b be f0 61 32 3c d5 c5 87 3e
       0.25058928 -0.1521501 0.010887608 0.2651812
000020 5f bb 99 3d c4 c9 23 bd 16 39 ca be d7 48 76 3b
       0.07506441 -0.03998734 -0.39496678 0.0037580037
000030 e6 1b 4d be 9c c6 1b 3e 84 86 43 3c 44 a6 1a 3e
       -0.20030174 0.15212482 0.0119339265 0.15102488
000040 40 c8 1e 3f ef a8 e8 3d 56 fc b4 bd ef a3 1a 3d
       0.6202431 0.113603465 -0.08837192 0.037753996
000050 3e 8a 1d 3e fe f5 3a 3d 9a 8b d7 bd 73 d5 ba 3b
       0.15384766 0.045644753 -0.10524674 0.0057017147
000060 68 31 0a 3d b2 d5 2d be 5f d8 38 3c 72 4f 96 be
       0.033738524 -0.1697605 0.011282056 -0.29357487
000070 5a 31 86 3e 84 07 5c be 8d 49 a5 be 34 1a 43 3e
       0.26209527 -0.21487242 -0.32282677 0.19052964
000080 91 ed 91 3b 6c c2 3c be 37 8c 81 3e 3b 3a 29 3d
       0.004453369 -0.18433541 0.25302288 0.0413153
000090 65 20 e0 3a d5 67 32 3e 0f 93 c4 bc a5 d8 f0 bd
       0.0017099498 0.17422421 -0.023995904 -0.11760072
0000a0 d0 75 61 3d 5b 28 cc bc 87 aa b1 3a 39 54 07 be
       0.055043995 -0.024921587 0.001355485 -0.13215722
0000b0 b7 71 16 be d4 db 69 bd fd 62 0a 3c 29 7d a8 bd
       -0.14691816 -0.05709441 0.008446452 -0.082269974
0000c0 24 41 0f be 75 66 85 3e df ac 94 be 41 be b5 3d
       -0.13989693 0.2605473 -0.2903814 0.08874179
0000d0 41 0b dc bd 57 9c 5d 3e 6c 22 d9 bc d8 3f a1 3e
       -0.10744334 0.2164167 -0.026505671 0.3149402
0000e0 ec 2b 2f 3d 6e 91 b3 bd 6f 0c 2b 3e 5f 5e 91 be
       0.042766497 -0.08767973 0.16703962 -0.28392312
0000f0 6b 68 a1 bd 99 3e 52 3e 0d 76 d6 bd 2a b8 2f 3e
       -0.07881244 0.20531692 -0.10471735 0.17160097
000100 e7 a7 65 3c 84 b6 dd 3d 5b f8 87 bc 4a 87 00 3e
       0.014017082 0.10825828 -0.016597917 0.12551609
000110 ec 19 3b bc 62 02 a7 be 93 7e b9 be 78 97 ca 3d
       -0.0114197545 -0.32619005 -0.3622938 0.098921716
000120 84 87 a3 3d 84 c3 a4 3e 34 88 cf 3d 4c 34 16 3c
       0.07984832 0.32180417 0.101334006 0.009167742
000130 6b 88 18 3e cd 81 91 be 75 eb 9b 3e 53 b1 f1 3d
       0.1489579 -0.28419343 0.30453077 0.118014
000140 a8 7a 53 be 3f 8c cd bd 7e 75 05 be 1a cb 10 3e
       -0.20652258 -0.100365154 -0.13033101 0.14139977
000150 1b 69 a9 bd bd cf c1 3d e5 05 3b bc 05 77 da 3d
       -0.082720004 0.09463451 -0.01141498 0.106672324
000160 fc e6 a0 3d 0b 35 cd 3e ed 9b 71 be d7 45 90 be
       0.07856557 0.4007953 -0.23594637 -0.28178284
000170 d4 a1 3d 3d 8f 65 28 3d 1d 70 ec 3d 2a 7b aa 3c
       0.04629691 0.04111248 0.115448214 0.020810682
000180 0b 03 b3 3d f4 7d 15 3e 5a 08 de 3d ee 63 7e 3d
       0.08740815 0.14598829 0.10841437 0.06210702
000190 9e a8 39 3e 9f 21 ba bd 00 3f 0c be 19 1f 87 be
       0.18130729 -0.09088444 -0.13695908 -0.26390913
0001a0 0c 2f d1 3c 03 0b 7c bc 27 13 87 3e ac f0 4c be
       0.025535129 -0.015383485 0.263818 -0.20013684
0001b0 4d 8b b8 3e 2c b9 1b 3e 9c 51 95 be 3c db 73 3e
       0.36043778 0.15207356 -0.29163826 0.238141
0001c0 60 03 e2 3d 3b 41 af 3d ca 1d 59 3e 30 eb ea bd
       0.110358 0.085573636 0.2120277 -0.1147064
0001d0 cf c9 b1 be 80 e9 7a be 39 8c 81 bd 9c 29 e4 3d
       -0.3472428 -0.24503136 -0.063255735 0.11140749
0001e0 6e a0 61 3d d1 03 9a be cf c8 38 3e e7 2b 69 be
       0.05508464 -0.30081037 0.18045352 -0.22770654
0001f0 06 60 7d 3c e5 63 82 3d ef 50 d2 3e 73 23 92 3e
       0.015464788 0.063667096 0.41077372 0.2854267
000200 f3 4f 90 bd 42 c7 18 3e b9 7f 2b 3e 88 22 2e 3d
       -0.07046499 0.14919761 0.16747941 0.0425134
000210 b0 8c 48 3e 8b 69 60 3e 4e 02 4f be a6 b8 f2 bd
       0.19584918 0.21915261 -0.20215723 -0.11851625
000220 15 8f fa 3c 80 2a 27 be 69 da 0e 3d 93 d8 06 3e
       0.030585805 -0.16324806 0.03487626 0.13168554
000230 fb b0 8b be 53 ef 90 be 03 1e d8 ba dd df 1a 3e
       -0.27283463 -0.2830759 -0.0016488436 0.1512446
000240 03 73 96 be 84 df 5f be 61 97 b3 3d ff 5c f1 bd
       -0.29384622 -0.21862608 0.087691076 -0.11785316
000250 37 ed 26 3e c6 28 c8 3a a0 cc 47 3d af a8 d0 bc
       0.16301428 0.001527094 0.04877913 -0.02547106
000260 15 5a 23 3e 02 ef 6e be 62 54 19 3e e0 01 a8 be
       0.15952332 -0.23333362 0.14973596 -0.3281393
000270 b2 b1 a4 bd fb e9 87 3e f5 61 d4 3c fe 5c 4e be
       -0.08041705 0.265457 0.025925616 -0.20152661
000280 42 3a c4 3b 6e 83 d8 3d 10 93 4f be fc 35 d5 bd
       0.00598839 0.10571943 -0.20270944 -0.10410687
000290 9f 2f 90 3d 1e 8c 78 bd 84 92 9f 3d f1 2d 24 3e
       0.07040333 -0.0606805 0.077916175 0.1603315
0002a0 07 35 5f be 20 1f 77 3c 5f 6c 80 be 3a 32 a0 3c
       -0.21797572 0.015083104 -0.2508268 0.0195552
0002b0 8d 87 6a 3e 20 e5 3e 3d e8 a1 bf bd 68 e3 18 3e
       0.22903271 0.04660523 -0.09357053 0.14930499
0002c0 1e b5 20 be 4e 2d 4e 3e 64 ea 23 bd bc 82 7a be
       -0.1569409 0.2013447 -0.040018454 -0.24463934
0002d0 f1 53 c8 3c 8b 82 a1 3e bf 5a 10 be e6 5e b9 be
       0.024454089 0.3154491 -0.14097117 -0.36205214
0002e0 d6 6e 41 bd 4b 8c 7f bd dd bd 9e 3d 74 03 bd bd
       -0.047224842 -0.062389653 0.07751057 -0.09229174
0002f0 1d 22 3b 3e 2b 89 76 3c af f8 dd bd 9b 1b dc 3d
       0.18274732 0.015047352 -0.10838448 0.10747453
000300 40 6b 00 3e 3a ec 09 3e ae 8b 33 bd f1 fe 06 3d
       0.12540913 0.1346902 -0.04383438 0.032957975
000310 62 bb 12 3d a6 20 29 be 0a f4 7e 3e 56 35 49 3d
       0.035823233 -0.1651636 0.24897781 0.04912313
000320 ef 10 ac 3d fc 5c b6 ba e1 e2 8c bd d5 49 8e 3e
       0.08401667 -0.001391321 -0.06879211 0.27790704
000330 4e d5 b7 3e 01 3a 59 bd 89 96 06 3e 27 44 0f be
       0.35904926 -0.053033832 0.13143362 -0.13990842
000340 cf b2 8b 3d fa 5f c1 3e 6b aa 51 be ec 08 b3 bd
       0.068212144 0.37768537 -0.20475166 -0.08741936
000350 4a 64 56 3b 39 3d 9f 3e 9a 64 f7 3d 1f f7 22 3e
       0.0032713586 0.31101397 0.12079735 0.15914582
000360 66 dd 34 be b4 39 11 3e 15 9b 8e 3e 03 5f da be
       -0.17662582 0.14182168 0.27852693 -0.42650613
000370 6b f7 62 bd 8f 7c 31 bd ec 68 87 bd fe 7b 90 3e
       -0.055411737 -0.04333168 -0.06611809 0.282196
000380 80 a4 3f 3e 94 03 19 3d 67 ef 6e bd 6f dc 4b be
       0.18715096 0.037356928 -0.05833378 -0.19908307
000390 e1 10 ec bd 4e 9f 05 be 0c 0d f4 3c dd dd 6a be
       -0.11526657 -0.13049051 0.029791377 -0.22936197
0003a0 13 52 50 3e d7 56 47 3c f6 68 a7 3e 81 5f 27 3d
       0.20343809 0.0121667 0.32697266 0.040862564
0003b0 bc a6 4c 3e 8b a7 6b 3d 9b 6d 96 3e b2 15 cf 3d
       0.19985479 0.05753283 0.29380497 0.1011156
0003c0 21 5a 8b be 93 1d 48 bd df 99 20 bd e1 52 45 bd
       -0.272172 -0.04885633 -0.039209243 -0.048174743
0003d0 7a 10 9e bd 98 a0 a4 3d 9e 60 5a bd 89 7a 53 be
       -0.077179864 0.08038443 -0.053314798 -0.20652212
0003e0 c2 70 42 be 26 d0 07 be ea d2 2c 3e 57 79 62 3e
       -0.18988326 -0.13262996 0.16877332 0.221166
0003f0 4b fe b2 be 8e 43 38 be ae 04 0b be cc 09 a9 be
       -0.34959635 -0.1799452 -0.13576004 -0.33015287

mlp_extractor.value_net.0.bias f4 [64]
000000 00 00 00 00 00 00 00 00 00 00 00 00 00 00 00 00
       0.0 0.0 0.0 0.0
000010 00 00 00 00 00 00 00 00 00 00 00 00 00 00 00 00
       0.0 0.0 0.0 0.0
000020 00 00 00 00 00 00 00 00 00 00 00 00 00 00 00 00
       0.0 0.0 0.0 0.0
000030 00 00 00 00 00 00 00 00 00 00 00 00 00 00 00 00
       0.0 0.0 0.0 0.0
000040 00 00 00 00 00 00 00 00 00 00 00 00 00 00 00 00
       0.0 0.0 0.0 0.0
000050 00 00 00 00 00 00 00 00 00 00 00 00 00 00 00 00
       0.0 0.0 0.0 0.0
000060 00 00 00 00 00 00 00 00 00 00 00 00 00 00 00 00
       0.0 0.0 0.0 0.0
000070 00 00 00 00 00 00 00 00 00 00 00 00 00 00 00 00
       0.0 0.0 0.0 0.0
000080 00 00 00 00 00 00 00 00 00 00 00 00 00 00 00 00
       0.0 0.0 0.0 0.0
000090 00 00 00 00 00 00 00 00 00 00 00 00 00 00 00 00
       0.0 0.0 0.0 0.0
0000a0 00 00 00 00 00 00 00 00 00 00 00 00 00 00 00 00
       0.0 0.0 0.0 0.0
0000b0 00 00 00 00 00 00 00 00 00 00 00 00 00 00 00 00
       0.0 0.0 0.0 0.0
0000c0 00 00 00 00 00 00 00 00 00 00 00 00 00 00 00 00
       0.0 0.0 0.0 0.0
0000d0 00 00 00 00 00 00 00 00 00 00 00 00 00 00 00 00
       0.0 0.0 0.0 0.0
0000e0 00 00 00 00 00 00 00 00 00 00 00 00 00 00 00 00
       0.0 0.0 0.0 0.0
0000f0 00 00 00 00 00 00 00 00 00 00 00 00 00 00 00 00
       0.0 0.0 0.0 0.0

mlp_extractor.value_net.2.weight f4 [64, 64]
000000 ae b8 7e bc 35 5d 84 3c 83 3e ac 3e fa 3d 60 3d
       -0.015546961 0.016157726 0.33641443 0.054746605
000010 15 c7 0d 3b ec 03 df 3d e6 49 a7 bc 38 f5 4d bd
       0.0021633555 0.1088942 -0.02042098 -0.050282687
000020 cb d7 11 3d 0c 3d 84 3e 6d b8 ef bd 65 e0 21 3e
       0.035606187 0.25827825 -0.11705098 0.15808256
000030 46 74 4a 3b 7d 7c 19 3e b0 5e e9 bd 4d 36 c8 3d
       0.0030892058 0.14988895 -0.11395013 0.09775982
000040 f3 38 4f 3e a7 fd 34 be a9 87 ad 3d 69 01 2f be
       0.20236568 -0.17674886 0.08473141 -0.17090382
000050 1d 78 d6 3d 1e 27 81 bd de 8c 4c 3e 9f 09 6b 3e
       0.104721285 -0.06306289 0.19975612 0.22952889
000060 8e 97 86 be b0 e1 b9 3d 1a 4e f0 bd 7e 7f 7a 3e
       -0.26287502 0.090762496 -0.11733647 0.24462697
000070 8c d0 16 3e 69 4e 17 3e 2a a6 9b 3e ea a1 05 be
       0.14727992 0.14776005 0.3040021 -0.13050047
000080 bb e6 35 be 03 12 25 3e 01 88 cd 3d 70 eb 97 3b
       -0.17763798 0.16120152 0.10035706 0.0046362206
000090 9c 17 dc 3d 65 43 b3 be b8 fb f4 be b3 15 e2 bc
       0.10746691 -0.35012355 -0.47848296 -0.027598238
0000a0 f3 82 cc 3c 1f ed 71 3d 58 dc 96 3e 66 b6 92 be
       0.024964785 0.059064027 0.29464984 -0.28654784
0000b0 5d 4e 04 bd 7c 17 e0 3d f6 73 82 3e 81 c6 b1 3d
       -0.032301296 0.10941979 0.25479096 0.0868044
0000c0 fe bb b1 3d 3c c2 20 3d 70 d4 1b be 11 5c 49 3e
       0.08678435 0.039247736 -0.15217757 0.19664027
0000d0 cd 73 ab be be b2 2c bb cd 7a 1f 3d 70 20 8f be
       -0.33486786 -0.0026351656 0.03893547 -0.27954435
0000e0 da b8 f5 3d 91 c2 d1 be 14 24 44 3e 14 2b cf bd
       0.11998148 -0.40968755 0.19154388 -0.101156384
0000f0 8c 9e 53 bc ed 8e 69 bd 41 34 9b 3d 69 d3 9b 3d
       -0.0129162185 -0.05702107 0.07578326 0.07608683
000100 fd f1 8c 3b b9 cc 2e bd e8 82 98 bd 08 7e f7 bd
       0.004301308 -0.042675707 -0.074468434 -0.120845854
000110 27 85 73 3b cf 6b d3 be 00 6e f4 3d 2c c9 f5 bd
       0.0037158222 -0.4129319 0.11935043 -0.12001261
000120 fe a2 18 bc 20 be 84 be de a6 17 3e 29 44 1a be
       -0.009316204 -0.25926304 0.14809749 -0.15065064
000130 22 95 5e be cc 15 e6 3d f7 f3 d3 3c 67 cd 8c 3d
       -0.21736577 0.11234626 0.025873167 0.06875115
000140 d2 de da bd 26 e2 35 bd dd ae df 39 36 40 39 bd
       -0.10687031 -0.044405125 0.00042664158 -0.045227252
000150 2e 29 d2 bd 5a 9d 44 bc 21 46 b4 3d 36 f0 8a 3e
       -0.10261761 -0.012000406 0.088024385 0.2713639
000160 ac 31 d0 bd ce 9e 96 3d 39 b4 d5 bd b6 49 d2 bd
       -0.10165724 0.07354508 -0.10434765 -0.102679655
000170 e3 32 6c bd 8f 9e ea 3d 89 e3 fc bc f9 ac cf be
       -0.057665717 0.11456024 -0.030870216 -0.40561655
000180 25 68 72 3e 05 3f 80 3e 3a 05 bd bd 7c 00 01 bd
       0.2367254 0.2504808 -0.092295125 -0.031494603
000190 91 15 f0 3d 39 6e 54 be 56 17 2c 3c f8 64 7b be
       0.117228635 -0.20745172 0.010503611 -0.24550235
0001a0 8d db 98 be f5 60 ae 3e 5e 79 86 be 48 fc 18 be
       -0.29855004 0.34058347 -0.2626447 -0.14939988
0001b0 4c 10 7b 3d d3 da 1d be e4 49 95 3e 2f 66 e9 ba
       0.06129484 -0.15415506 0.29157937 -0.0017806942
0001c0 17 6d be be e5 09 9f 3c 7d aa 0b 3e 78 9c 45 3e
       -0.37192604 0.019413898 0.13639255 0.1929797
0001d0 5f 17 34 3d 7d 77 48 be d1 c7 83 3e 43 fc 79 3e
       0.0439676 -0.19576831 0.25738385 0.24412636
0001e0 fb 3d ee bd 22 3b 35 be 65 7c 4e bd a2 16 45 3e
       -0.116329156 -0.17698339 -0.0504116 0.19246915
0001f0 77 a9 87 bd 40 d8 cd 3e 03 2e b8 bd 40 9c 19 3d
       -0.0662412 0.40204048 -0.08993151 0.037502527
000200 f8 bb 9e bd f3 2f 83 3d 4c b8 7f 3d 89 46 ba 3d
       -0.07750696 0.0640563 0.06243162 0.09095485
000210 d8 4a 8c 3e c0 18 90 3d fe a0 f0 bc 7f a0 04 3e
       0.2740085 0.07035971 -0.029373642 0.1295185
000220 d5 4f 77 bd cc 80 82 be 32 03 7d be 27 34 aa bd
       -0.060378868 -0.2548889 -0.2470825 -0.083107285
000230 9b 5d 1e bd 0d 3a 94 3d ac 3b 90 bd c7 e7 f2 3d
       -0.038663488 0.07237635 -0.070426315 0.11860614
000240 86 3e c4 3d cc 49 55 be 17 3a 6e bd ed dd 7f 3d
       0.09582238 -0.20828933 -0.058160868 0.062467504
000250 5c d6 81 be f9 c1 da 3e a5 2d 30 3e e6 cf 6d be
       -0.25358856 0.42726114 0.17204912 -0.23223838
000260 f2 f1 f6 3c d4 f2 84 be a7 ab c5 bd 26 77 bb 3c
       0.030144665 -0.25966513 -0.09651881 0.022883963
000270 1a ef 33 3c 7c c8 e9 3e e3 91 19 3e b1 3d 64 3e
       0.010982299 0.4566077 0.14997058 0.22289158
000280 81 9f 06 be 4a 59 65 bd b5 71 aa be c5 27 04 bd
       -0.13146783 -0.055993356 -0.33289877 -0.03226449
000290 d7 68 34 bd 46 b3 51 bd cb 9b 58 bc 6a 4a ba 3c
       -0.044045296 -0.05119636 -0.013220738 0.022740562
0002a0 c5 45 86 3d f2 e4 dc bd 64 40 9c 3c 8b 4d c5 3b
       0.06556276 -0.10785855 0.019073673 0.0060212067
0002b0 3a af cd 3e 25 92 50 be c2 29 b5 3d 7f 4d 3e be
       0.4017275 -0.2036825 0.08845855 -0.1858425
0002c0 14 e0 11 be 1e 4b 84 3d 8d c1 12 bd 6c 0f 42 bd
       -0.14245635 0.0645964 -0.035829116 -0.04737799
0002d0 1c c7 da bd d8 be 2a bc 60 78 8a 3e d8 57 9b 3d
       -0.10682508 -0.010421477 0.27044964 0.07585114
0002e0 52 f5 04 3d 42 94 53 3d 26 a8 5b 3e 02 69 6a 3e
       0.03246052 0.05165506 0.21450862 0.2289162
0002f0 69 c0 91 be 20 c6 3d be 9e bb e3 bd 07 c2 f0 be
       -0.2846711 -0.1853261 -0.111197695 -0.4702303
000300 eb e1 8e 3e 01 76 12 3e 12 46 ae 3b fb 31 e4 3c
       0.27906737 0.14302827 0.0053184116 0.027855864
000310 86 df dc bd b1 09 b9 bd 2f c4 91 bd c3 2d 19 3e
       -0.10784821 -0.090350516 -0.07117497 0.14958863
000320 8d a6 6e 3e aa 28 cf bd fa 85 fa 3b c1 65 77 3c
       0.23305722 -0.10115178 0.007645366 0.015099944
000330 1c 01 13 3e 0e 54 8d 3e b6 54 90 bc f7 06 00 3e
       0.14355892 0.2760319 -0.017618518 0.12502657
000340 f3 a7 9f bd 9a 10 26 3e 33 e5 a4 3e fe d9 8a 3c
       -0.07795706 0.1621727 0.32206115 0.01694965
000350 86 fa 92 be 69 06 6c 3e 3b 59 6d be 13 05 56 3e
       -0.2870676 0.2304932 -0.2317857 0.20900373
000360 4c 6c 16 be 1d 07 a0 3d 4e 11 13 bc ee 0e aa 3e
       -0.1468975 0.07813857 -0.008976294 0.33214515
000370 ea 55 ca bd 8f 0b 96 3d e3 05 0c 3e 3e be 71 3d
       -0.09879668 0.073264234 0.1367412 0.05901932
000380 96 46 7c 3c ea b1 59 bd cd 56 d9 3d 43 f9 9e be
       0.015397688 -0.053148188 0.10612259 -0.31049547
000390 da 0b 3f be b5 0a ab be 47 48 5d 3d 1e ea 17 3e
       -0.18656865 -0.33406606 0.054024007 0.14835402
0003a0 32 f6 ba be 92 5e 67 be c3 5a 04 3e a1 71 45 3c
       -0.36515957 -0.2259467 0.12925248 0.012051017
0003b0 59 6c cb be f2 17 fa bd a1 c0 06 be 85 8f 6a be
       -0.397311 -0.122115985 -0.1315942 -0.22906311
0003c0 69 27 9e be ce 35 17 3d b6 30 6b be de 95 9d bd
       -0.30889443 0.036916547 -0.229678 -0.076946005
0003d0 6c 10 8d 3e e3 e9 3c 3e 18 1f a4 3c 93 0f 9a 3d
       0.2755159 0.18448596 0.020034358 0.07522502
0003e0 c9 5a cc bd 3b 3c e4 3b 7a 01 3e be 28 76 0b 3c
       -0.099782534 0.006965188 -0.18555251 0.008512057
0003f0 2e 6a 2c 3d 8b 68 75 be 6b 25 32 3e 54 a4 84 3b
       0.04209345 -0.23965661 0.17397086 0.0040479098

mlp_extractor.value_net.2.bias f4 [64]
000000 00 00 00 00 00 00 00 00 00 00 00 00 00 00 00 00
       0.0 0.0 0.0 0.0
000010 00 00 00 00 00 00 00 00 00 00 00 00 00 00 00 00
       0.0 0.0 0.0 0.0
000020 00 00 00 00 00 00 00 00 00 00 00 00 00 00 00 00
       0.0 0.0 0.0 0.0
000030 00 00 00 00 00 00 00 00 00 00 00 00 00 00 00 00
       0.0 0.0 0.0 0.0
000040 00 00 00 00 00 00 00 00 00 00 00 00 00 00 00 00
       0.0 0.0 0.0 0.0
000050 00 00 00 00 00 00 00 00 00 00 00 00 00 00 00 00
       0.0 0.0 0.0 0.0
000060 00 00 00 00 00 00 00 00 00 00 00 00 00 00 00 00
       0.0 0.0 0.0 0.0
000070 00 00 00 00 00 00 00 00 00 00 00 00 00 00 00 00
       0.0 0.0 0.0 0.0
000080 00 00 00 00 00 00 00 00 00 00 00 00 00 00 00 00
       0.0 0.0 0.0 0.0
000090 00 00 00 00 00 00 00 00 00 00 00 00 00 00 00 00
       0.0 0.0 0.0 0.0
0000a0 00 00 00 00 00 00 00 00 00 00 00 00 00 00 00 00
       0.0 0.0 0.0 0.0
0000b0 00 00 00 00 00 00 00 00 00 00 00 00 00 00 00 00
       0.0 0.0 0.0 0.0
0000c0 00 00 00 00 00 00 00 00 00 00 00 00 00 00 00 00
       0.0 0.0 0.0 0.0
0000d0 00 00 00 00 00 00 00 00 00 00 00 00 00 00 00 00
       0.0 0.0 0.0 0.0
0000e0 00 00 00 00 00 00 00 00 00 00 00 00 00 00 00 00
       0.0 0.0 0.0 0.0
0000f0 00 00 00 00 00 00 00 00 00 00 00 00 00 00 00 00
       0.0 0.0 0.0 0.0

action_net.weight f4 [2, 64]
000000 9a 6c 9e 3d 56 65 a2 ba 5d 0c 5c bd 2a 3e 2e 3c
       0.07735558 -0.001238982 -0.053722728 0.010634938
000010 47 bd e4 3b b7 57 7c bb 8c 4d 9e 3c ea 50 36 b9
       0.0069805714 -0.003850443 0.019324087 -0.00017387015
000020 e8 1b 72 b9 85 39 03 bd 28 c5 cb 3b 74 8e 86 3c
       -0.00023089314 -0.032037277 0.006218571 0.016425349
000030 2a e2 26 bc 17 50 a4 bb a8 90 76 3b 4f 65 27 bc
       -0.010185758 -0.0050144303 0.0037622843 -0.010217025
000040 c6 f1 ca bb d7 45 35 bc 3f 35 e0 bd cd 9d 3d bd
       -0.0061933724 -0.011064014 -0.10947656 -0.04629307
000050 c9 03 54 bc 10 2a cf bc 83 d0 48 bd 4c 40 9d ba
       -0.012940356 -0.025288612 -0.049026977 -0.0011997311
000060 57 cb 03 3b 76 d8 6c bc 64 a3 d0 bc 1c 35 37 bd
       0.0020110214 -0.014455905 -0.025468536 -0.044728383
000070 d4 d9 56 bc d1 2c fd bb cb f7 5a 3d 91 ce 1a bd
       -0.013113458 -0.00772629 0.05345897 -0.037794653
000080 2f 3c 50 bc 91 15 45 3d c6 6f 3b bb 0d 31 e8 3b
       -0.012709661 0.04811627 -0.0028600558 0.0070859254
000090 a1 88 f2 3b e2 e6 bd 3b 59 59 f1 3d 75 4b 8a bc
       0.0074015413 0.0057953456 0.1178462 -0.016881684
0000a0 ca 23 f4 bb 1f 4c 91 bc e4 5b ce 3a a0 2f 24 3c
       -0.0074505555 -0.017736493 0.0015743938 0.01002112
0000b0 d1 12 d4 3b 5b a7 02 bc e4 84 1b ba 7f a0 e0 bb
       0.0064719697 -0.007974471 -0.0005932583 -0.00685507
0000c0 f9 48 95 3c a5 dd 8d ba dc 3b cb bc a2 e5 c7 bd
       0.018223273 -0.0010823502 -0.024808817 -0.09760596
0000d0 12 a9 58 bc fa a8 01 3e 74 3e 93 3d 68 f9 29 3c
       -0.013223903 0.12662116 0.07189646 0.0103744045
0000e0 4c 33 1e 3d a6 71 87 bb ee e8 d4 39 fd 42 3c 3c
       0.03862314 -0.004133421 0.00040609337 0.011490581
0000f0 9f 04 7b bc fb 14 cf ba b2 23 94 bb 36 0e 39 3c
       -0.015320926 -0.0015799099 -0.004520857 0.011294892
000100 84 35 6b bd d4 24 4e bc 44 a1 a6 3d 25 10 90 3b
       -0.057424083 -0.012582023 0.08136228 0.004396456
000110 f1 ec 82 bb 56 b4 41 bc ff 32 e4 3b 8b c5 1f 3b
       -0.003995531 -0.011822781 0.006964087 0.002437922
000120 56 71 ac 3b 2d c7 9b 3b a4 80 61 bb 2d 74 8a 3c
       0.005262534 0.004753968 -0.0034408951 0.0169011
000130 44 c4 cd bb 8b 89 75 bb 06 b1 d0 3b 2c ce 57 3b
       -0.0062795 -0.0037466015 0.006368759 0.0032929284
000140 10 f8 33 3a e1 42 48 ba a3 c5 db 3d f1 62 88 3d
       0.00068652723 -0.000763936 0.107310556 0.066594966
000150 1a 41 93 3c 62 ad 63 3c 0c f2 8e 3d 65 19 09 bd
       0.017975379 0.013896318 0.069797605 -0.033471484
000160 65 7f cf 3c 4c d2 81 3a 54 1e 96 bc 14 95 5e bd
       0.025329301 0.0009904592 -0.018325008 -0.05434139
000170 29 e3 eb 3b de 24 4f 3c 78 23 a3 3c 88 af 01 3d
       0.0071987105 0.012643067 0.019914374 0.03166154
000180 78 5d b4 bb cc 7b 4c 3d ae e6 d6 bb f8 29 90 bb
       -0.0055043064 0.04992275 -0.006558261 -0.0043995343
000190 c0 9b a7 3c f2 73 15 bc cd 22 0c 3e e3 27 55 bc
       0.02046001 -0.009121882 0.1368515 -0.013009998
0001a0 07 e5 2d bc a2 d7 09 3c ae a0 42 bc 63 32 5e be
       -0.010613686 0.008413227 -0.011879129 -0.21698909
0001b0 83 4e 21 bc c0 39 19 bc 0d 1e 7e bc d5 b5 a3 3c
       -0.009845379 -0.009352148 -0.015510094 0.019984165
0001c0 f8 27 11 bb 42 05 32 bc 4b e0 8b 3c cd d2 8e 3d
       -0.0022149067 -0.010865511 0.017074725 0.06973801
0001d0 5e 86 6e bc 12 ab 02 3e da c4 c4 3d 68 32 83 3a
       -0.014558403 0.1276057 0.09607859 0.0010009529
0001e0 ae 16 a5 bb d6 8a 5e 3c 08 9b 00 3d 9b 58 b3 bc
       -0.005038104 0.013582906 0.03139785 -0.021892836
0001f0 9a 78 6b bb 7b c1 8f 3c ae 3a 17 bc da 1e e9 bc
       -0.0035930038 0.017548313 -0.009230299 -0.028457094

action_net.bias f4 [2]
000000 61 d2 46 3c d4 80 18 3c
       0.012135119 0.009308059

value_net.weight f4 [1, 64]
000000 00 a6 31 bd 1f 23 fd 3d fc 79 97 3c 22 6b a8 be
       -0.0433712 0.123602144 0.018490784 -0.32894236
000010 b9 87 66 bd e4 d4 70 be 1a 80 33 3e aa 2f e0 3d
       -0.05628178 -0.23518711 0.17529336 0.10946591
000020 6b 0f 5c be 65 fe 01 3e 5e 83 f0 bc f1 dc a1 bd
       -0.21490256 0.126947 -0.029359516 -0.07903469
000030 23 dc 32 bd 7a 8d e6 3d 8e f7 78 be e0 1b a7 3d
       -0.04366697 0.11257453 -0.24313185 0.081596136
000040 b9 c2 13 be 64 42 4e bc 52 e0 57 3e 97 57 79 bd
       -0.1442975 -0.012589071 0.21081665 -0.060874548
000050 04 31 96 bd da 60 ff bd c1 cf 9f bc 00 5f b4 bd
       -0.07333568 -0.12469645 -0.019508244 -0.08807182
000060 53 7d 6b bd 06 dd 3b 3e 76 91 63 ba 0a ce 70 bd
       -0.057492565 0.18346033 -0.0008681038 -0.058790244
000070 c2 c6 02 3e a9 89 eb bd d2 d2 b1 3d 4b c1 af 3c
       0.12771133 -0.11500866 0.08682789 0.021454474
000080 b9 8c 29 3e 82 be fb 3d 8b ed 01 3e b6 43 cf bd
       0.16557588 0.12292196 0.12688272 -0.10120337
000090 f6 9a c6 bd 99 c4 ae 3c 8c eb cb 3d 7d 00 ca 3d
       -0.09697525 0.02133398 0.099570364 0.098633744
0000a0 bc 8f 94 3c 5a 04 09 be d7 8c b6 bd 90 50 c0 3d
       0.018134944 -0.13380566 -0.08913582 0.09390366
0000b0 5c a6 99 bb 58 84 09 3d 0d 25 5f be f2 ad 71 3d
       -0.004689021 0.03357348 -0.21791478 0.059003778
0000c0 c5 3d 39 be 49 ce 32 3e 9b 30 41 be 3f 5f c3 3c
       -0.1808997 0.17461504 -0.18866198 0.023849128
0000d0 a7 87 16 bc 54 22 f4 3c 03 9e 32 3e cf 78 23 3e
       -0.0091876155 0.029801525 0.17443089 0.15964054
0000e0 38 8b 1f be 93 1a 2d bb bc a1 41 be d6 ee aa 3d
       -0.15580451 -0.0026413545 -0.18909353 0.083463356
0000f0 1a 0b 06 3e a5 51 09 be da d6 18 bd b8 54 34 3d
       0.13090172 -0.13410051 -0.037314273 0.044026107
