policies/LunarLander/good_ppo.pt (torch, 43597 bytes, 12 tensors)

log_std f4 [2]
-3.913059 -3.9221046
00000000: 8f6f 7ac0 c303 7bc0

mlp_extractor.policy_net.0.weight f4 [64, 8]
-0.0022026254 0.0029365513 -0.0038508305 0.002093864 0.0023081629 -0.0041904747 0.0012820483 0.009331513
0.001433694 -0.0022252176 0.00860445 -0.00665293 0.004303004 0.007422459 0.0004011231 -0.006449153
0.0014774374 -0.003716237 -0.006111869 0.0063226223 -0.0035009296 -0.0023093747 -0.006170884 -0.010502021
0.0024482638 0.002659735 0.0045335284 -0.0021904951 -0.004259452 0.0013275518 0.004338247 0.0035153888
0.0022072764 -0.0026785429 0.0032729527 0.0059716576 1.0306495 -0.0028921631 0.0032274302 -0.006409094
-0.0022085714 0.0036412848 0.003715859 -0.0043306407 0.0037742911 0.00024380362 0.0057792584 0.010819645
0.16302386 -0.008871197 0.0034143156 0.0035650139 -1.6423613 0.0022217536 0.002320603 -0.00251677
-0.0042000837 -0.0049397284 -0.010875589 0.010350479 -0.0013511856 -0.007238018 -0.020240467 -0.028634245
0.0073411264 0.0076215803 0.0066465214 -0.0023675032 -0.010820184 -0.00035283164 0.013606979 0.023946138
0.0028042074 0.005005904 0.0045163217 -0.0032475856 -0.002624474 0.00023532409 0.010464002 0.017778965
-0.0020229372 0.003137309 0.0026633556 -0.00332198 0.004334642 -0.0005678699 0.005684792 0.010648083
0.00092292344 0.0059407135 -0.0009457967 0.0023179553 -0.0007446736 -0.0025695874 0.005802554 0.014545559
0.0008175858 0.0039395876 0.012048814 -0.010737818 0.0053280746 0.0067040087 0.011003746 0.014258542
-0.05290632 0.0036568663 -0.00082698284 0.00026750224 -0.8517869 0.0004009477 -0.0067388345 0.008482739
0.0044285264 0.0032296057 0.010351651 -0.007128945 0.0023170302 0.0065623685 0.011568083 0.011044693
-0.00062777003 0.0006221099 -0.0012941894 0.0008517997 0.0053377054 -0.0020075152 -0.00038085555 0.0044243727
-0.0017002585 -0.006381142 0.0016211622 -0.0025872493 0.004624324 0.004071536 0.0022810295 -0.009075998
-0.001974469 0.004753006 0.001856131 -0.0031121243 0.00048047223 0.0011134591 0.002140609 0.00084726955
0.0489963 -0.0041927495 0.00080787146 0.0008472188 0.8822117 -0.0009966638 0.0058132866 -0.009361545
-0.0018551133 0.0042702034 -0.0016930638 0.00010695937 0.0023920408 -0.0031921014 0.005177811 0.015077311
0.004889516 0.004864414 0.0042197676 -0.0041193394 -0.008712831 0.0013003616 0.013749189 0.008534748
-0.03607411 0.004007984 -0.0018028172 -0.0032594765 -0.93859434 0.0020823316 -0.0029752112 0.009868706
-0.05476068 0.0022522772 -0.0015981924 0.0014774184 -0.80728716 -0.00039206434 -0.0063488777 0.007386567
-0.0008211087 0.0020033724 -0.008836186 0.0072543356 -0.0062942216 -0.007666281 -0.0029119703 0.0052981596
-0.001323691 -0.00599435 0.0014777161 -0.0014658477 0.0044124057 0.0034382977 0.000802675 -0.009270863
-0.0047154897 0.00049173314 -0.009346332 0.009017099 -0.003911436 -0.008239067 -0.012883937 -0.009945488
0.0015552101 0.0052048704 0.010932775 -0.00945505 0.001018168 0.0062750415 0.0080452245 0.0111503005
0.0010667319 0.0014585078 0.006130959 -0.0045775515 0.004605992 0.0025259173 0.006999303 0.008792554
-1.0147651 0.008618463 0.0006682123 0.0002781062 -0.41307884 -0.0054932977 -0.00971758 0.013165983
-0.23208742 0.0018366124 0.0053425436 0.0032625378 0.4355335 -0.0054089464 -0.005405792 0.00044901084
0.0028789646 0.0060853288 0.010874006 -0.009409116 0.0031340069 0.005656067 0.016511735 0.023796923
0.0042988867 0.0054519735 0.0033597297 -0.0024923494 -0.0058918674 0.00026179967 0.010161144 0.019333508
00000000: ec59 10bb 2873 403b 375e 7cbb 3539 093b
00000010: 8c44 173b 4050 89bb 670a a83a 34e3 183c
00000020: caea bb3a f5d4 11bb aef9 0c3c d200 dabb
00000030: 3700 8d3b 1938 f33b d54d d239 6b53 d3bb
00000040: 93a6 c13a 1c8c 73bb 1346 c8bb 002e cf3b
00000050: da6f 65bb e158 17bb 2035 cabb ab10 2cbc
00000060: 0d73 203b f34e 2e3b fe8d 943b 698e 0fbb
00000070: e092 8bbb 3f01 ae3a da27 8e3b 7062 663b
00000080: f4a7 103b 7e8a 2fbb 097f 563b e5ad c33b
00000090: 53ec 833f 728a 3dbb 4b83 533b 6103 d2bb
000000a0: aebd 10bb 9fa2 6e3b c585 733b 0ce8 8dbb
000000b0: 195a 773b 89a5 7f39 ef5f bd3b e144 313c
000000c0: baef 263e 7f58 11bc b6c2 5f3b 02a3 693b
000000d0: e538 d2bf d79a 113b 4215 183b 65f0 24bb
000000e0: dba0 89bb 72dd a1bb 872f 32bc 0e95 293c
000000f0: 441a b1ba e52c edbb 56cf a5bc 5d92 eabc
00000100: d58d f03b 73be f93b 10cb d93b 1d28 1bbb
00000110: 2447 31bc 43fc b8b9 ceef 5e3c b12a c43c
00000120: cbc6 373b 9108 a43b a7fd 933b 72d5 54bb
00000130: 5eff 2bbb 54c1 7639 3571 2b3c 31a5 913c
00000140: 4193 04bb 509b 4d3b b18b 2e3b 93b5 59bb
00000150: 9d09 8e3b 1bdd 14ba 7e47 ba3b 4c75 2e3c
00000160: 58f0 713a 51aa c23b 58ef 77ba d6e8 173b
00000170: 3336 43ba 8666 28bb 5a23 be3b 7f50 6e3c
00000180: 4153 563a a817 813b 6468 453c aced 2fbc
00000190: 2197 ae3b 4dad db3b 0e49 343c a99c 693c
000001a0: 4cb4 58bd 09a8 6f3b e1c9 58ba 8b3f 8c39
000001b0: b50e 5abf 4a36 d239 71d1 dcbb 30fb 0a3c
000001c0: 2c1d 913b cba7 533b f999 293c ed99 e9bb
000001d0: 51d9 173b 2309 d73b 0f88 3d3c cdf4 343c
000001e0: ef90 24ba 1715 233a caa1 a9ba 4f4b 5f3a
000001f0: ebe7 ae3b 8490 03bb 91ad c7b9 54fa 903b
00000200: 35db deba e618 d1bb 2d7d d43a d78e 29bb
00000210: a487 973b 856a 853b 537d 153b 7fb3 14bc
00000220: 1866 01bb 1bbf 9b3b 6c49 f33a c8f4 4bbb
00000230: e4e7 fb39 7df1 913a 7649 0c3b 4c1b 5e3a
00000240: 58b0 483d 5563 89bb 56c7 533a e417 5e3a
00000250: a0d8 613f 7da2 82ba 627d be3b 2a61 19bc
00000260: 4627 f3ba 10ed 8b3b cbe9 ddba 604f e038
00000270: c9c3 1c3b 9332 51bb a0aa a93b d306 773c
00000280: 3c38 a03b aa65 9f3b fa45 8a3b 86fb 86bb
00000290: 43c0 0ebc e570 aa3a 4744 613c 54d5 0b3c
000002a0: 72c2 13bd 6855 833b 824c ecba f19c 55bb
000002b0: b847 70bf ba77 083b c3fb 42bb 5ab0 213c
000002c0: bc4c 60bd f19a 133b 707a d1ba efa5 c13a
000002d0: 5faa 4ebf fc8d cdb9 3f0a d0bb 040b f23b
000002e0: ac3f 57ba 034b 033b a6c5 10bc c7b5 ed3b
000002f0: c23f cebb 6d35 fbbb c1d6 3ebb 2f9c ad3b
00000300: b37f adba 416c c4bb edaf c13a b021 c0ba
00000310: f195 903b 1055 613b 9b6a 523a d1e4 17bc
00000320: 6584 9abb a7e7 003a 5c21 19bc 74bc 133c
00000330: 812b 80bb 27fd 06bc 2617 53bc 66f2 22bc
00000340: 31d8 cb3a 9e8d aa3b 621f 333c 5be9 1abc
00000350: 0d74 853a dd9e cd3b 1ed0 033c c0af 363c
00000360: 95d1 8b3a 672b bf3a 36e6 c83b 49ff 95bb
00000370: dded 963b dc89 253b 695a e53b a50e 103c
00000380: d3e3 81bf 7434 0d3c f82a 2f3a c8ce 9139
00000390: 127f d3be 1f01 b4bb 7c36 1fbc 23b6 573c
000003a0: 53a8 6dbe 7cba f03a 8110 af3b 4dd0 553b
000003b0: 3ffe de3e 883d b1bb 1223 b1bb 3769 eb39
000003c0: 03ad 3c3b 7067 c73b e328 323c b128 1abc
000003d0: e963 4d3b 8756 b93b 9e43 873c c4f1 c23c
000003e0: addd 8c3b 78a6 b23b e92e 5c3b af56 23bb
000003f0: 9110 c1bb 2842 8939 ed7a 263c 4e61 9e3c

mlp_extractor.policy_net.0.bias f4 [64]
0.0019062461 -0.0029631164 -0.0028903258 0.0059675784 0.11798856 0.0025136191 0.4994898 -0.011697899
0.017692026 0.010739717 0.002948772 0.0031124556 0.0036567245 -0.001762978 0.0033344452 0.002602869
-0.011535601 0.005236784 0.0092462385 0.0028444205 0.010770082 -0.045621756 -0.0043267743 0.0055793603
-0.011680642 -0.004080074 0.004569437 0.0018471362 0.006812933 -0.007832851 0.009090932 0.0125319585
0.33159187 0.0038329726 0.006846367 0.45945248 -0.0057460773 0.0038919144 0.0004326704 -0.001627063
-0.02877521 -0.0047678505 0.34301832 0.006099985 0.0070838057 0.009462807 -0.003763814 -0.0066027977
-0.0016545205 -0.11362202 0.0014865365 0.0022812702 -0.001008046 0.00083796785 -0.008758387 0.0031648856
0.0045202686 0.0035161655 0.0021134282 -0.0021689206 0.002649403 -0.0035235856 0.004059022 -0.0012768584
00000000: 01db f93a d830 42bb 9f6b 3dbb ad8b c33b
00000010: fca3 f13d 88bb 243b 21bd ff3e 8ba8 3fbc
00000020: deee 903c a3f5 2f3c 2f40 413b 57fa 4b3b
00000030: a8a5 6f3b ba13 e7ba b586 5a3b e594 2a3b
00000040: d1ff 3cbc 5499 ab3b 897d 173c 7569 3a3b
00000050: ff74 303c e1dd 3abd 9dc7 8dbb 11d3 b63b
00000060: 2a60 3fbc 24b2 85bb 37bb 953b 9b1b f23a
00000070: 063f df3b 5c55 00bc 22f2 143c d852 4d3c
00000080: 69c6 a93e 9c32 7b3b 7d57 e03b 5b3d eb3e
00000090: 9749 bcbb 7d0f 7f3b 0ad8 e239 2d43 d5ba
000000a0: fdb9 ebbc a13b 9cbb 19a0 af3e 62e2 c73b
000000b0: 451f e83b e409 1b3c 52aa 76bb 485c d8bb
000000c0: 7fdc d8ba a9b2 e8bd e3d7 c23a 5d81 153b
000000d0: 6920 84ba 12ab 5b3a 567f 0fbc f869 4f3b
000000e0: c31e 943b 786f 663b 7181 0a3b 7324 0ebb
000000f0: 9ba1 2d3b f5eb 66bb 8b01 853b 425c a7ba

mlp_extractor.policy_net.2.weight f4 [64, 64]
-0.0014333783 0.0005681453 0.0011519571 0.000115814226 0.0036652493 -0.0011497607 0.0010879567 0.0013805676
-0.002180296 -0.00092804496 -0.0011935068 -0.00017002843 -0.0010068519 -0.0031692863 0.0004432127 -0.00044207938
0.0013959522 -0.0010308371 0.0031478067 -0.0013875436 -0.001276841 -0.0032580006 -0.0032656323 -0.00063727185
0.0015010198 0.00014064828 -0.0006012479 -0.00061099365 -0.0020324767 0.0017962029 -0.0009264787 -0.0012837352
-0.00016334884 -0.00049807766 -0.0008277393 0.0058119157 -0.0033094266 -0.00141148 -0.0004051936 0.0004066172
0.0028741027 0.00048895687 0.005217303 -0.0005967577 -0.0015266064 -0.0020473404 -0.003208416 0.00046596915
0.0014695822 0.002068116 -0.0009789057 -0.0031649703 -6.9656766e-05 -0.0002807608 -0.0010934628 -0.0011931737
0.00010961731 -0.00093915354 -0.0005056472 0.001106493 -0.00078333693 0.0012314207 0.003202831 -0.001369662
0.001969856 -0.00192034 0.0018099527 -0.0028307117 -0.47020918 -0.0014073286 0.27153707 0.0035707958
-0.0001557775 -0.0026576647 -0.0009819648 -0.0035917251 -0.0033868747 0.29954636 -0.0054733227 0.0005909156
-0.0018306177 -0.0012721298 -0.32213387 0.00048739198 -0.0015729445 0.37584713 0.27395198 0.0031618532
-0.0015688237 0.005329338 -0.003771406 -0.0016845617 0.51580983 -0.036270075 -0.004149653 -0.00091835257
0.31993133 -0.0042077773 -0.00341469 -1.0277199 0.2624053 0.0005407704 -0.0016917834 0.004898639
-0.32274076 0.0042846166 -0.8083292 0.0014650428 -0.0019822242 -0.0038048537 0.29094493 0.004333971
0.00435452 -0.33498093 -0.0003651175 0.29318044 0.0039159246 -0.0038652392 -1.2665557 -0.0011160705
-0.0046273707 -0.001823282 -0.0038616308 0.0013748419 0.0031954916 0.001961472 -0.2932637 0.0033222497
0.000103969884 5.4673495e-05 -0.00024767508 -5.285542e-05 -0.000791857 0.00023679028 -7.048689e-05 0.00042575036
0.00064180844 -2.9488658e-05 0.00023787291 -0.0002401677 0.0002942654 0.0005739432 -0.00056103483 0.00014054531
-5.2963882e-05 0.00022447704 -0.0005945781 0.0001626823 0.00011073524 0.0006680783 0.00056696084 -8.076414e-05
-9.408367e-05 -0.00012171869 1.4102093e-05 8.616671e-06 0.00073428627 -0.00048575856 -0.00016190078 -4.831339e-05
6.674046e-05 1.5553635e-05 -0.00020133125 -0.001061015 0.00056468725 0.0001445495 0.00023218687 1.8878702e-05
-0.00054089114 -7.093801e-05 -0.001021903 9.158044e-05 0.00018944632 -0.00016704753 0.0005731095 8.542303e-05
-0.00021164955 -0.00041456704 0.00016190826 0.00056540134 1.0593399e-05 8.930994e-05 0.00042358428 0.00024088775
-0.00029726597 0.00038844015 0.00017272026 -0.00021085527 -3.1962394e-05 -0.00027571604 -0.0005745247 1.199343e-05
-0.00012932257 -0.0002256164 0.00032940521 0.00017760792 0.00087763596 -0.00028803208 -0.00038582535 -0.00030647533
-0.00093121623 0.00019430467 -0.00028867717 0.00041347972 -0.00043718578 -0.00076220237 0.00073239714 -0.00017883489
-4.9369746e-06 -0.00033745822 0.0007811072 -0.00016360903 -0.00018068774 -0.0008315277 -0.00075179146 0.00020795657
6.0233117e-05 6.532623e-05 -3.8983297e-05 -1.8181052e-05 -0.0009392125 0.0008198813 0.00019453019 0.00012816513
-0.00047411118 1.8813387e-06 0.0003322706 0.00074023544 -0.00074866664 -0.00012650387 -0.000442427 9.598015e-05
0.0007543666 0.00011986709 0.00081462535 -5.1839612e-05 -0.00022186991 -0.00022776696 -0.0007593928 -8.909818e-05
0.0003986563 0.0007045809 -0.00013550612 -0.0007551032 3.6725341e-06 -0.000239798 -0.0008309182 -0.00029584128
0.0004165974 -0.0006216223 -0.00033196836 0.00023711812 6.522424e-05 0.0003932248 0.0007608694 -5.908494e-05
00000000: 32e0 bbba 96ef 143a 44fd 963a 4ae1 f238
00000010: ae34 703b 91b3 96ba c599 8e3a 29f4 b43a
00000020: 4ce3 0ebb 0b48 73ba 716f 9cba a949 32b9
00000030: 58f8 83ba cdb3 4fbb 005f e839 e4c6 e7b9
00000040: 62f8 b63a 271d 87ba 6f4b 4e3b 3dde b5ba
00000050: ad5b a7ba 2e84 55bb 3804 56bb 970e 27ba
00000060: debd c43a fc7a 1339 109d 1dba 172b 20ba
00000070: 4d33 05bb 916e eb3a efde 72ba 0143 a8ba
00000080: 9f48 2bb9 6d91 02ba a5fc 58ba e271 be3b
00000090: f7e2 58bb 6901 b9ba 2a70 d4b9 3d2f d539
000000a0: 715b 3c3b 572d 003a e9f5 aa3b bb6f 1cba
000000b0: 6918 c8ba ac2c 06bb 4a44 52bb 524d f439
000000c0: ff9e c03a 3b89 073b a04e 80ba 646b 4fbb
000000d0: b114 92b8 1433 93b9 8652 8fba 4464 9cba
000000e0: 58e2 e538 8731 76ba 698d 04ba be07 913a
000000f0: da58 4dba 9f67 a13a 96e6 513b 3b86 b3ba
00000100: b318 013b ebb3 fbba ef3b ed3a 7683 39bb
00000110: 42bf f0be 1d76 b8ba e806 8b3e 0304 6a3b
00000120: 3458 23b9 372c 2ebb 45b5 80ba 2663 6bbb
00000130: 54f6 5dbb 245e 993e 8f59 b3bb ade7 1a3a
00000140: 56f1 efba 98bd a6ba bbee a4be a588 ff39
00000150: 422b ceba 096f c03e 6f43 8c3e 1837 4f3b
00000160: fda0 cdba baa1 ae3b b129 77bb 83cc dcba
00000170: 1d0c 043f ee8f 14bd d0f9 87bb 99bd 70ba
00000180: 0ace a33e 65e1 89bb fec8 5fbb 538c 83bf
00000190: fd59 863e 7dc2 0d3a d5be ddba c384 a03b
000001a0: 473e a5be f865 8c3b aaee 4ebf ae06 c03a
000001b0: 34e8 01bb da5a 79bb bcf6 943e fc03 8e3b
000001c0: 5cb0 8e3b 9f82 abbe 3e6d bfb9 bf1b 963e
000001d0: 2851 803b f44f 7dbb 7f1e a2bf 1d49 92ba
000001e0: 33a1 97bb 31fb eeba 6a13 7dbb 0a34 b43a
000001f0: 746b 513b 0a8c 003b a926 96be 1aba 593b
00000200: 680a da38 3851 6538 63da 81b9 13b1 5db8
00000210: a094 4fba e84a 7839 5cd2 93b8 3f37 df39
00000220: 093f 283a 695e f7b7 866d 7939 87d5 7bb9
00000230: a247 9a39 ad74 163a 6912 13ba 585f 1339
00000240: 8925 5eb8 9961 6b39 76dd 1bba b395 2a39
00000250: 873a e838 fa21 2f3a 19a0 143a eb5f a9b8
00000260: c94e c5b8 3943 ffb8 0798 6c37 5290 1037
00000270: 1e7d 403a 69ad feb9 e9c3 29b9 1ca4 4ab8
00000280: 03f7 8b38 2d79 8237 721c 53b9 c111 8bba
00000290: 8507 143a 3692 1739 3077 7339 b45d 9e37
000002a0: 97ca 0dba 8ec4 94b8 60f1 85ba e00e c038
000002b0: 1ca6 4639 7b29 2fb9 ba3c 163a 2425 b338
000002c0: 3eee 5db9 3f5a d9b9 ebc5 2939 7137 143a
000002d0: 4dba 3137 e94b bb38 8514 de39 d096 7c39
000002e0: 5dda 9bb9 8ea7 cb39 3e1c 3539 0819 5db9
000002f0: 5c0f 06b8 fb8d 90b9 b39b 16ba 6437 4937
00000300: c39a 07b9 7193 6cb9 05b4 ac39 433c 3a39
00000310: 2711 663a 0303 97b9 9a48 cab9 6cae a0b9
00000320: dd1c 74ba 43be 4b39 9859 97b9 4fc8 d839
00000330: 1536 e5b9 89ce 47ba 57fe 3f3a a085 3bb9
00000340: 4aa8 a5b6 e0ec b0b9 38c3 4c3a 778e 2bb9
00000350: ff76 3db9 e1fa 59ba df13 45ba eb0e 5a39
00000360: d1a2 7c38 c1ff 8838 ff81 23b8 8383 98b7
00000370: 7c35 76ba 4ded 563a cdfa 4b39 1164 0639
00000380: 2092 f8b9 4e82 fc35 9b34 ae39 5c0c 423a
00000390: 2b42 44ba 20a6 04b9 8cf5 e7b9 f348 c938
000003a0: b0c0 453a 2761 fb38 958c 553a 5c6e 59b8
000003b0: c0a5 68b9 bad4 6eb9 fd11 47ba 39da bab8
000003c0: be02 d139 a0b3 383a a616 0eb9 1ef2 45ba
000003d0: a875 7636 4972 7bb9 fad1 59ba 251b 9bb9
000003e0: c26a da39 5ef4 22ba 0a0c aeb9 e9a2 7839
000003f0: ffc8 8838 bd29 ce39 1575 473a f9d1 77b8

mlp_extractor.policy_net.2.bias f4 [64]
0.0041909344 -0.63987243 -0.0015493907 0.0012903871 0.00034305832 -0.00036740876 0.0018253436 -0.0011799124
0.00096286554 -0.0012069745 0.00089543825 -0.6315545 -0.00853231 0.0006056069 -0.0021765777 0.0024174077
-0.0001353288 -0.013017559 0.0003779768 0.0010253583 -0.0081136385 0.006450144 0.005332545 0.00072450656
0.0013186792 0.001169822 0.0007400416 0.0018980269 -0.00011271447 0.006219108 -0.0003779664 -0.6324899
-0.03859299 -0.02934933 0.00074498996 -0.0027767115 0.010516977 -3.770829e-05 -0.00068673975 -0.007028844
-0.0021054165 0.00041990122 0.00083754933 0.00019109054 0.0060145026 -0.039722763 -0.00050990767 -0.0006478022
-9.9653815e-05 -0.0004957396 0.64379966 -0.0008951779 0.0033789617 -0.001214045 0.0070162467 0.09739383
-0.00085799297 -0.00022815584 -0.00020999106 -0.005357077 -0.000100623685 -0.00021483278 -0.004447659 -0.00084592745
00000000: 1b54 893b aece 23bf ed14 cbba 3522 a93a
00000010: 82dc b339 c5a0 c0b9 5e40 ef3a 4aa7 9aba
00000020: d068 7c3a 5833 9eba d8bb 6a3a 8ead 21bf
00000030: 1acb 0bbc 97c1 1e3a eaa4 0ebb 5f6d 1e3b
00000040: 0ce7 0db9 9a47 55bc 302b c639 5165 863a
00000050: 11ef 04bc bb5b d33b a1bc ae3b d0ec 3d3a
00000060: 88d7 ac3a b654 993a 5aff 413a 37c7 f83a
00000070: 1f61 ecb8 a9c9 cb3b cb29 c6b9 dcea 21bf
00000080: af13 1ebd 026e f0bc 6e4b 433a 7df9 35bb
00000090: 664f 2c3c f828 1eb8 5306 34ba 3852 e6bb
000000a0: 07fb 09bb 3026 dc39 fc8e 5b3a 7a5f 4839
000000b0: 4e15 c53b 56b4 22bd 53ab 05ba 45d1 29ba
000000c0: 3cfd d0b8 85f4 01ba 0ed0 243f 5faa 6aba
000000d0: 9271 5d3b 9720 9fba 8be8 e53b 6b76 c73d
000000e0: efea 60ba 1e3d 6fb9 0c31 5cb9 6b8a afbb
000000f0: ee05 d3b8 bc44 61b9 abbd 91bb 3bc1 5dba

mlp_extractor.value_net.0.weight f4 [64, 8]
-0.05451796 0.14210685 0.0939859 0.30730096 0.25058928 -0.1521501 0.010887608 0.2651812
0.07506441 -0.03998734 -0.39496678 0.0037580037 -0.20030174 0.15212482 0.0119339265 0.15102488
0.6202431 0.113603465 -0.08837192 0.037753996 0.15384766 0.045644753 -0.10524674 0.0057017147
0.033738524 -0.1697605 0.011282056 -0.29357487 0.26209527 -0.21487242 -0.32282677 0.19052964
0.004453369 -0.18433541 0.25302288 0.0413153 0.0017099498 0.17422421 -0.023995904 -0.11760072
0.055043995 -0.024921587 0.001355485 -0.13215722 -0.14691816 -0.05709441 0.008446452 -0.082269974
-0.13989693 0.2605473 -0.2903814 0.08874179 -0.10744334 0.2164167 -0.026505671 0.3149402
0.042766497 -0.08767973 0.16703962 -0.28392312 -0.07881244 0.20531692 -0.10471735 0.17160097
0.014017082 0.10825828 -0.016597917 0.12551609 -0.0114197545 -0.32619005 -0.3622938 0.098921716
0.07984832 0.32180417 0.101334006 0.009167742 0.1489579 -0.28419343 0.30453077 0.118014
-0.20652258 -0.100365154 -0.13033101 0.14139977 -0.082720004 0.09463451 -0.01141498 0.106672324
0.07856557 0.4007953 -0.23594637 -0.28178284 0.04629691 0.04111248 0.115448214 0.020810682
0.08740815 0.14598829 0.10841437 0.06210702 0.18130729 -0.09088444 -0.13695908 -0.26390913
0.025535129 -0.015383485 0.263818 -0.20013684 0.36043778 0.15207356 -0.29163826 0.238141
0.110358 0.085573636 0.2120277 -0.1147064 -0.3472428 -0.24503136 -0.063255735 0.11140749
0.05508464 -0.30081037 0.18045352 -0.22770654 0.015464788 0.063667096 0.41077372 0.2854267
-0.07046499 0.14919761 0.16747941 0.0425134 0.19584918 0.21915261 -0.20215723 -0.11851625
0.030585805 -0.16324806 0.03487626 0.13168554 -0.27283463 -0.2830759 -0.0016488436 0.1512446
-0.29384622 -0.21862608 0.087691076 -0.11785316 0.16301428 0.001527094 0.04877913 -0.02547106
0.15952332 -0.23333362 0.14973596 -0.3281393 -0.08041705 0.265457 0.025925616 -0.20152661
0.00598839 0.10571943 -0.20270944 -0.10410687 0.07040333 -0.0606805 0.077916175 0.1603315
-0.21797572 0.015083104 -0.2508268 0.0195552 0.22903271 0.04660523 -0.09357053 0.14930499
-0.1569409 0.2013447 -0.040018454 -0.24463934 0.024454089 0.3154491 -0.14097117 -0.36205214
-0.047224842 -0.062389653 0.07751057 -0.09229174 0.18274732 0.015047352 -0.10838448 0.10747453
0.12540913 0.1346902 -0.04383438 0.032957975 0.035823233 -0.1651636 0.24897781 0.04912313
0.08401667 -0.001391321 -0.06879211 0.27790704 0.35904926 -0.053033832 0.13143362 -0.13990842
0.068212144 0.37768537 -0.20475166 -0.08741936 0.0032713586 0.31101397 0.12079735 0.15914582
-0.17662582 0.14182168 0.27852693 -0.42650613 -0.055411737 -0.04333168 -0.06611809 0.282196
0.18715096 0.037356928 -0.05833378 -0.19908307 -0.11526657 -0.13049051 0.029791377 -0.22936197
0.20343809 0.0121667 0.32697266 0.040862564 0.19985479 0.05753283 0.29380497 0.1011156
-0.272172 -0.04885633 -0.039209243 -0.048174743 -0.077179864 0.08038443 -0.053314798 -0.20652212
-0.18988326 -0.13262996 0.16877332 0.221166 -0.34959635 -0.1799452 -0.13576004 -0.33015287
00000000: 394e 5fbd 7584 113e ae7b c03d 8d56 9d3e
00000010: 3d4d 803e 3ccd 1bbe f061 323c d5c5 873e
00000020: 5fbb 993d c4c9 23bd 1639 cabe d748 763b
00000030: e61b 4dbe 9cc6 1b3e 8486 433c 44a6 1a3e
00000040: 40c8 1e3f efa8 e83d 56fc b4bd efa3 1a3d
00000050: 3e8a 1d3e fef5 3a3d 9a8b d7bd 73d5 ba3b
00000060: 6831 0a3d b2d5 2dbe 5fd8 383c 724f 96be
00000070: 5a31 863e 8407 5cbe 8d49 a5be 341a 433e
00000080: 91ed 913b 6cc2 3cbe 378c 813e 3b3a 293d
00000090: 6520 e03a d567 323e 0f93 c4bc a5d8 f0bd
000000a0: d075 613d 5b28 ccbc 87aa b13a 3954 07be
000000b0: b771 16be d4db 69bd fd62 0a3c 297d a8bd
000000c0: 2441 0fbe 7566 853e dfac 94be 41be b53d
000000d0: 410b dcbd 579c 5d3e 6c22 d9bc d83f a13e
000000e0: ec2b 2f3d 6e91 b3bd 6f0c 2b3e 5f5e 91be
000000f0: 6b68 a1bd 993e 523e 0d76 d6bd 2ab8 2f3e
00000100: e7a7 653c 84b6 dd3d 5bf8 87bc 4a87 003e
00000110: ec19 3bbc 6202 a7be 937e b9be 7897 ca3d
00000120: 8487 a33d 84c3 a43e 3488 cf3d 4c34 163c
00000130: 6b88 183e cd81 91be 75eb 9b3e 53b1 f13d
00000140: a87a 53be 3f8c cdbd 7e75 05be 1acb 103e
00000150: 1b69 a9bd bdcf c13d e505 3bbc 0577 da3d
00000160: fce6 a03d 0b35 cd3e ed9b 71be d745 90be
00000170: d4a1 3d3d 8f65 283d 1d70 ec3d 2a7b aa3c
00000180: 0b03 b33d f47d 153e 5a08 de3d ee63 7e3d
00000190: 9ea8 393e 9f21 babd 003f 0cbe 191f 87be
000001a0: 0c2f d13c 030b 7cbc 2713 873e acf0 4cbe
000001b0: 4d8b b83e 2cb9 1b3e 9c51 95be 3cdb 733e
000001c0: 6003 e23d 3b41 af3d ca1d 593e 30eb eabd
000001d0: cfc9 b1be 80e9 7abe 398c 81bd 9c29 e43d
000001e0: 6ea0 613d d103 9abe cfc8 383e e72b 69be
000001f0: 0660 7d3c e563 823d ef50 d23e 7323 923e
00000200: f34f 90bd 42c7 183e b97f 2b3e 8822 2e3d
00000210: b08c 483e 8b69 603e 4e02 4fbe a6b8 f2bd
00000220: 158f fa3c 802a 27be 69da 0e3d 93d8 063e
00000230: fbb0 8bbe 53ef 90be 031e d8ba dddf 1a3e
00000240: 0373 96be 84df 5fbe 6197 b33d ff5c f1bd
00000250: 37ed 263e c628 c83a a0cc 473d afa8 d0bc
00000260: 155a 233e 02ef 6ebe 6254 193e e001 a8be
00000270: b2b1 a4bd fbe9 873e f561 d43c fe5c 4ebe
00000280: 423a c43b 6e83 d83d 1093 4fbe fc35 d5bd
00000290: 9f2f 903d 1e8c 78bd 8492 9f3d f12d 243e
000002a0: 0735 5fbe 201f 773c 5f6c 80be 3a32 a03c
000002b0: 8d87 6a3e 20e5 3e3d e8a1 bfbd 68e3 183e
000002c0: 1eb5 20be 4e2d 4e3e 64ea 23bd bc82 7abe
000002d0: f153 c83c 8b82 a13e bf5a 10be e65e b9be
000002e0: d66e 41bd 4b8c 7fbd ddbd 9e3d 7403 bdbd
000002f0: 1d22 3b3e 2b89 763c aff8 ddbd 9b1b dc3d
00000300: 406b 003e 3aec 093e ae8b 33bd f1fe 063d
00000310: 62bb 123d a620 29be 0af4 7e3e 5635 493d
00000320: ef10 ac3d fc5c b6ba e1e2 8cbd d549 8e3e
00000330: 4ed5 b73e 013a 59bd 8996 063e 2744 0fbe
00000340: cfb2 8b3d fa5f c13e 6baa 51be ec08 b3bd
00000350: 4a64 563b 393d 9f3e 9a64 f73d 1ff7 223e
00000360: 66dd 34be b439 113e 159b 8e3e 035f dabe
00000370: 6bf7 62bd 8f7c 31bd ec68 87bd fe7b 903e
00000380: 80a4 3f3e 9403 193d 67ef 6ebd 6fdc 4bbe
00000390: e110 ecbd 4e9f 05be 0c0d f43c dddd 6abe
000003a0: 1352 503e d756 473c f668 a73e 815f 273d
000003b0: bca6 4c3e 8ba7 6b3d 9b6d 963e b215 cf3d
000003c0: 215a 8bbe 931d 48bd df99 20bd e152 45bd
000003d0: 7a10 9ebd 98a0 a43d 9e60 5abd 897a 53be
000003e0: c270 42be 26d0 07be ead2 2c3e 5779 623e
000003f0: 4bfe b2be 8e43 38be ae04 0bbe cc09 a9be

mlp_extractor.value_net.0.bias f4 [64]
0.0 0.0 0.0 0.0 0.0 0.0 0.0 0.0
0.0 0.0 0.0 0.0 0.0 0.0 0.0 0.0
0.0 0.0 0.0 0.0 0.0 0.0 0.0 0.0
0.0 0.0 0.0 0.0 0.0 0.0 0.0 0.0
0.0 0.0 0.0 0.0 0.0 0.0 0.0 0.0
0.0 0.0 0.0 0.0 0.0 0.0 0.0 0.0
0.0 0.0 0.0 0.0 0.0 0.0 0.0 0.0
0.0 0.0 0.0 0.0 0.0 0.0 0.0 0.0
00000000: 0000 0000 0000 0000 0000 0000 0000 0000
00000010: 0000 0000 0000 0000 0000 0000 0000 0000
00000020: 0000 0000 0000 0000 0000 0000 0000 0000
00000030: 0000 0000 0000 0000 0000 0000 0000 0000
00000040: 0000 0000 0000 0000 0000 0000 0000 0000
00000050: 0000 0000 0000 0000 0000 0000 0000 0000
00000060: 0000 0000 0000 0000 0000 0000 0000 0000
00000070: 0000 0000 0000 0000 0000 0000 0000 0000
00000080: 0000 0000 0000 0000 0000 0000 0000 0000
00000090: 0000 0000 0000 0000 0000 0000 0000 0000
000000a0: 0000 0000 0000 0000 0000 0000 0000 0000
000000b0: 0000 0000 0000 0000 0000 0000 0000 0000
000000c0: 0000 0000 0000 0000 0000 0000 0000 0000
000000d0: 0000 0000 0000 0000 0000 0000 0000 0000
000000e0: 0000 0000 0000 0000 0000 0000 0000 0000
000000f0: 0000 0000 0000 0000 0000 0000 0000 0000

mlp_extractor.value_net.2.weight f4 [64, 64]
-0.015546961 0.016157726 0.33641443 0.054746605 0.0021633555 0.1088942 -0.02042098 -0.050282687
0.035606187 0.25827825 -0.11705098 0.15808256 0.0030892058 0.14988895 -0.11395013 0.09775982
0.20236568 -0.17674886 0.08473141 -0.17090382 0.104721285 -0.06306289 0.19975612 0.22952889
-0.26287502 0.090762496 -0.11733647 0.24462697 0.14727992 0.14776005 0.3040021 -0.13050047
-0.17763798 0.16120152 0.10035706 0.0046362206 0.10746691 -0.35012355 -0.47848296 -0.027598238
0.024964785 0.059064027 0.29464984 -0.28654784 -0.032301296 0.10941979 0.25479096 0.0868044
0.08678435 0.039247736 -0.15217757 0.19664027 -0.33486786 -0.0026351656 0.03893547 -0.27954435
0.11998148 -0.40968755 0.19154388 -0.101156384 -0.0129162185 -0.05702107 0.07578326 0.07608683
0.004301308 -0.042675707 -0.074468434 -0.120845854 0.0037158222 -0.4129319 0.11935043 -0.12001261
-0.009316204 -0.25926304 0.14809749 -0.15065064 -0.21736577 0.11234626 0.025873167 0.06875115
-0.10687031 -0.044405125 0.00042664158 -0.045227252 -0.10261761 -0.012000406 0.088024385 0.2713639
-0.10165724 0.07354508 -0.10434765 -0.102679655 -0.057665717 0.11456024 -0.030870216 -0.40561655
0.2367254 0.2504808 -0.092295125 -0.031494603 0.117228635 -0.20745172 0.010503611 -0.24550235
-0.29855004 0.34058347 -0.2626447 -0.14939988 0.06129484 -0.15415506 0.29157937 -0.0017806942
-0.37192604 0.019413898 0.13639255 0.1929797 0.0439676 -0.19576831 0.25738385 0.24412636
-0.116329156 -0.17698339 -0.0504116 0.19246915 -0.0662412 0.40204048 -0.08993151 0.037502527
-0.07750696 0.0640563 0.06243162 0.09095485 0.2740085 0.07035971 -0.029373642 0.1295185
-0.060378868 -0.2548889 -0.2470825 -0.083107285 -0.038663488 0.07237635 -0.070426315 0.11860614
0.09582238 -0.20828933 -0.058160868 0.062467504 -0.25358856 0.42726114 0.17204912 -0.23223838
0.030144665 -0.25966513 -0.09651881 0.022883963 0.010982299 0.4566077 0.14997058 0.22289158
-0.13146783 -0.055993356 -0.33289877 -0.03226449 -0.044045296 -0.05119636 -0.013220738 0.022740562
0.06556276 -0.10785855 0.019073673 0.0060212067 0.4017275 -0.2036825 0.08845855 -0.1858425
-0.14245635 0.0645964 -0.035829116 -0.04737799 -0.10682508 -0.010421477 0.27044964 0.07585114
0.03246052 0.05165506 0.21450862 0.2289162 -0.2846711 -0.1853261 -0.111197695 -0.4702303
0.27906737 0.14302827 0.0053184116 0.027855864 -0.10784821 -0.090350516 -0.07117497 0.14958863
0.23305722 -0.10115178 0.007645366 0.015099944 0.14355892 0.2760319 -0.017618518 0.12502657
-0.07795706 0.1621727 0.32206115 0.01694965 -0.2870676 0.2304932 -0.2317857 0.20900373
-0.1468975 0.07813857 -0.008976294 0.33214515 -0.09879668 0.073264234 0.1367412 0.05901932
0.015397688 -0.053148188 0.10612259 -0.31049547 -0.18656865 -0.33406606 0.054024007 0.14835402
-0.36515957 -0.2259467 0.12925248 0.012051017 -0.397311 -0.122115985 -0.1315942 -0.22906311
-0.30889443 0.036916547 -0.229678 -0.076946005 0.2755159 0.18448596 0.020034358 0.07522502
-0.099782534 0.006965188 -0.18555251 0.008512057 0.04209345 -0.23965661 0.17397086 0.0040479098
00000000: aeb8 7ebc 355d 843c 833e ac3e fa3d 603d
00000010: 15c7 0d3b ec03 df3d e649 a7bc 38f5 4dbd
00000020: cbd7 113d 0c3d 843e 6db8 efbd 65e0 213e
00000030: 4674 4a3b 7d7c 193e b05e e9bd 4d36 c83d
00000040: f338 4f3e a7fd 34be a987 ad3d 6901 2fbe
00000050: 1d78 d63d 1e27 81bd de8c 4c3e 9f09 6b3e
00000060: 8e97 86be b0e1 b93d 1a4e f0bd 7e7f 7a3e
00000070: 8cd0 163e 694e 173e 2aa6 9b3e eaa1 05be
00000080: bbe6 35be 0312 253e 0188 cd3d 70eb 973b
00000090: 9c17 dc3d 6543 b3be b8fb f4be b315 e2bc
000000a0: f382 cc3c 1fed 713d 58dc 963e 66b6 92be
000000b0: 5d4e 04bd 7c17 e03d f673 823e 81c6 b13d
000000c0: febb b13d 3cc2 203d 70d4 1bbe 115c 493e
000000d0: cd73 abbe beb2 2cbb cd7a 1f3d 7020 8fbe
000000e0: dab8 f53d 91c2 d1be 1424 443e 142b cfbd
000000f0: 8c9e 53bc ed8e 69bd 4134 9b3d 69d3 9b3d
00000100: fdf1 8c3b b9cc 2ebd e882 98bd 087e f7bd
00000110: 2785 733b cf6b d3be 006e f43d 2cc9 f5bd
00000120: fea2 18bc 20be 84be dea6 173e 2944 1abe
00000130: 2295 5ebe cc15 e63d f7f3 d33c 67cd 8c3d
00000140: d2de dabd 26e2 35bd ddae df39 3640 39bd
00000150: 2e29 d2bd 5a9d 44bc 2146 b43d 36f0 8a3e
00000160: ac31 d0bd ce9e 963d 39b4 d5bd b649 d2bd
00000170: e332 6cbd 8f9e ea3d 89e3 fcbc f9ac cfbe
00000180: 2568 723e 053f 803e 3a05 bdbd 7c00 01bd
00000190: 9115 f03d 396e 54be 5617 2c3c f864 7bbe
000001a0: 8ddb 98be f560 ae3e 5e79 86be 48fc 18be
000001b0: 4c10 7b3d d3da 1dbe e449 953e 2f66 e9ba
000001c0: 176d bebe e509 9f3c 7daa 0b3e 789c 453e
000001d0: 5f17 343d 7d77 48be d1c7 833e 43fc 793e
000001e0: fb3d eebd 223b 35be 657c 4ebd a216 453e
000001f0: 77a9 87bd 40d8 cd3e 032e b8bd 409c 193d
00000200: f8bb 9ebd f32f 833d 4cb8 7f3d 8946 ba3d
00000210: d84a 8c3e c018 903d fea0 f0bc 7fa0 043e
00000220: d54f 77bd cc80 82be 3203 7dbe 2734 aabd
00000230: 9b5d 1ebd 0d3a 943d ac3b 90bd c7e7 f23d
00000240: 863e c43d cc49 55be 173a 6ebd eddd 7f3d
00000250: 5cd6 81be f9c1 da3e a52d 303e e6cf 6dbe
00000260: f2f1 f63c d4f2 84be a7ab c5bd 2677 bb3c
00000270: 1aef 333c 7cc8 e93e e391 193e b13d 643e
00000280: 819f 06be 4a59 65bd b571 aabe c527 04bd
00000290: d768 34bd 46b3 51bd cb9b 58bc 6a4a ba3c
000002a0: c545 863d f2e4 dcbd 6440 9c3c 8b4d c53b
000002b0: 3aaf cd3e 2592 50be c229 b53d 7f4d 3ebe
000002c0: 14e0 11be 1e4b 843d 8dc1 12bd 6c0f 42bd
000002d0: 1cc7 dabd d8be 2abc 6078 8a3e d857 9b3d
000002e0: 52f5 043d 4294 533d 26a8 5b3e 0269 6a3e
000002f0: 69c0 91be 20c6 3dbe 9ebb e3bd 07c2 f0be
00000300: ebe1 8e3e 0176 123e 1246 ae3b fb31 e43c
00000310: 86df dcbd b109 b9bd 2fc4 91bd c32d 193e
00000320: 8da6 6e3e aa28 cfbd fa85 fa3b c165 773c
00000330: 1c01 133e 0e54 8d3e b654 90bc f706 003e
00000340: f3a7 9fbd 9a10 263e 33e5 a43e fed9 8a3c
00000350: 86fa 92be 6906 6c3e 3b59 6dbe 1305 563e
00000360: 4c6c 16be 1d07 a03d 4e11 13bc ee0e aa3e
00000370: ea55 cabd 8f0b 963d e305 0c3e 3ebe 713d
00000380: 9646 7c3c eab1 59bd cd56 d93d 43f9 9ebe
00000390: da0b 3fbe b50a abbe 4748 5d3d 1eea 173e
000003a0: 32f6 babe 925e 67be c35a 043e a171 453c
000003b0: 596c cbbe f217 fabd a1c0 06be 858f 6abe
000003c0: 6927 9ebe ce35 173d b630 6bbe de95 9dbd
000003d0: 6c10 8d3e e3e9 3c3e 181f a43c 930f 9a3d
000003e0: c95a ccbd 3b3c e43b 7a01 3ebe 2876 0b3c
000003f0: 2e6a 2c3d 8b68 75be 6b25 323e 54a4 843b

mlp_extractor.value_net.2.bias f4 [64]
0.0 0.0 0.0 0.0 0.0 0.0 0.0 0.0
0.0 0.0 0.0 0.0 0.0 0.0 0.0 0.0
0.0 0.0 0.0 0.0 0.0 0.0 0.0 0.0
0.0 0.0 0.0 0.0 0.0 0.0 0.0 0.0
0.0 0.0 0.0 0.0 0.0 0.0 0.0 0.0
0.0 0.0 0.0 0.0 0.0 0.0 0.0 0.0
0.0 0.0 0.0 0.0 0.0 0.0 0.0 0.0
0.0 0.0 0.0 0.0 0.0 0.0 0.0 0.0
00000000: 0000 0000 0000 0000 0000 0000 0000 0000
00000010: 0000 0000 0000 0000 0000 0000 0000 0000
00000020: 0000 0000 0000 0000 0000 0000 0000 0000
00000030: 0000 0000 0000 0000 0000 0000 0000 0000
00000040: 0000 0000 0000 0000 0000 0000 0000 0000
00000050: 0000 0000 0000 0000 0000 0000 0000 0000
00000060: 0000 0000 0000 0000 0000 0000 0000 0000
00000070: 0000 0000 0000 0000 0000 0000 0000 0000
00000080: 0000 0000 0000 0000 0000 0000 0000 0000
00000090: 0000 0000 0000 0000 0000 0000 0000 0000
000000a0: 0000 0000 0000 0000 0000 0000 0000 0000
000000b0: 0000 0000 0000 0000 0000 0000 0000 0000
000000c0: 0000 0000 0000 0000 0000 0000 0000 0000
000000d0: 0000 0000 0000 0000 0000 0000 0000 0000
000000e0: 0000 0000 0000 0000 0000 0000 0000 0000
000000f0: 0000 0000 0000 0000 0000 0000 0000 0000

action_net.weight f4 [2, 64]
0.00032597422 -0.8247903 0.0001135247 -0.0005495421 0.0018242303 0.0011843456 -0.0014067574 0.0012215514
-0.0014984474 -0.0020966562 -0.00011899084 0.28209034 0.0017796966 -0.0014378461 0.0015188036 0.0011934001
-0.00028822452 0.0039221332 -0.0012990078 -0.00034201946 0.0018135301 0.0009038496 -0.0019621192 -0.0015213173
-0.00090512156 -0.00090340537 -0.0009417946 -0.0007670547 0.0014028988 -0.0025933213 0.00016881089 0.30932406
-0.3475509 -0.3440297 -0.0001677519 0.00074943365 0.0017895286 0.0020167683 0.0017014494 -0.0012236255
0.0008589935 0.001114456 0.003019476 0.00051972014 0.0008333646 0.058836058 0.00031204955 0.0016884775
0.0008766933 -0.00033678982 0.7995153 0.000108907254 -0.00066912913 0.0014435502 0.0028219847 -0.13458513
0.0014383168 0.0014487621 0.002999238 -0.00013850823 0.0011609405 0.0014860163 -0.0004882269 -0.000107788204
-0.0022728723 -1.2114774 0.0006144696 -0.0005286402 0.0006266269 0.0004171901 -0.00033331965 0.00048725723
0.00046576772 0.0011378594 -0.00023149663 -0.9574265 0.0037851643 0.00049924565 -0.00087254524 -0.00083292264
4.514905e-06 0.8201295 0.0007596518 -0.00021601903 0.0036949164 -0.0009949123 -0.0013194705 0.0009034529
8.865391e-05 0.00020033066 0.00020432696 -0.0009032544 -0.000583192 -0.0039979555 -8.636642e-06 0.96615356
-0.14199503 0.13525023 6.0993956e-05 0.0011346705 -0.0010328556 -0.0010484597 -0.0009808209 0.0014036791
-0.00029837302 0.00053878606 -0.001459917 0.00027191057 -0.00088190404 -0.16982202 7.792734e-05 -0.00069277134
0.0001758583 9.032272e-05 -1.18392 -2.3271972e-05 0.000198449 -0.00082379027 -0.0017836817 -0.067591816
-0.0002523146 -0.0008746382 -0.001361518 0.00045238703 -0.0004365615 -0.0006400828 0.00086866244 0.00025353848
00000000: 85e7 aa39 7525 53bf 1c14 ee38 250f 10ba
00000010: 031b ef3a 0b3c 9b3a f262 b8ba 771c a03a
00000020: 8d67 c4ba 0e68 09bb b98a f9b8 256e 903e
00000030: b544 e93a 1c76 bcba 9812 c73a dd6b 9c3a
00000040: d71c 97b9 3d85 803b 7843 aaba 1351 b3b9
00000050: f9b3 ed3a 52f0 6c3a e696 00bb f066 c7ba
00000060: ae45 6dba 82d2 6cba c4e2 76ba 2b14 49ba
00000070: 79e1 b73a b6f4 29bb d402 3139 b95f 9e3e
00000080: 31f2 b1be a924 b0be 8fe6 2fb9 a475 443a
00000090: 9e8e ea3a c22b 043b 2b03 df3a 0f62 a0ba
000000a0: 142e 613a f012 923a 67e2 453b d43d 083a
000000b0: 2776 5a3a 14fe 703d 959a a339 e74f dd3a
000000c0: e4d1 653a 2a93 b0b9 09ad 4c3f 2365 e438
000000d0: 7f68 2fba 8235 bd3a 0cf1 383b afd0 09be
000000e0: e785 bc3a 64e4 bd3a dd8e 443b 853c 11b9
000000f0: b32a 983a 6fc6 c23a b5f8 ffb9 5a0c e2b8
00000100: 78f4 14bb b111 9bbf 5b14 213a 7194 0aba
00000110: 3844 243a 4fba da39 68c1 aeb9 8f76 ff39
00000120: 4932 f439 3a24 953a e7bd 72b9 e719 75bf
00000130: 8510 783b cfdf 023a 85bb 64ba 7e58 5aba
00000140: bd7e 9736 02f4 513f 5f23 473a 2b83 62b9
00000150: 6926 723b b867 82ba 15f2 acba b3d5 6c3a
00000160: b5eb b938 da0f 5239 9a40 5639 60c8 6cba
00000170: 5ae1 18ba 4801 83bb 18e6 10b7 d755 773f
00000180: 2567 11be 097f 0a3e c3d3 7f38 39b9 943a
00000190: e260 87ba 786c 89ba e38e 80ba a8fb b73a
000001a0: f36e 9cb9 523d 0d3a b05a bfba 388f 8e39
000001b0: 942f 67ba d3e5 2dbe ec6c a338 199b 35ba
000001c0: 9a66 3839 a46b bd38 b18a 97bf 2e38 c3b7
000001d0: bf16 5039 a1f3 57ba 6dca e9ba 946d 8abd
000001e0: 1849 84b9 fa47 65ba f774 b2ba 5c2e ed39
000001f0: 4be2 e4b9 3bcb 27ba f3b6 633a 5ced 8439

action_net.bias f4 [2]
0.016112002 -0.0018641684
00000000: 51fd 833c 1d57 f4ba

value_net.weight f4 [1, 64]
-0.0433712 0.123602144 0.018490784 -0.32894236 -0.05628178 -0.23518711 0.17529336 0.10946591
-0.21490256 0.126947 -0.029359516 -0.07903469 -0.04366697 0.11257453 -0.24313185 0.081596136
-0.1442975 -0.012589071 0.21081665 -0.060874548 -0.07333568 -0.12469645 -0.019508244 -0.08807182
-0.057492565 0.18346033 -0.0008681038 -0.058790244 0.12771133 -0.11500866 0.08682789 0.021454474
0.16557588 0.12292196 0.12688272 -0.10120337 -0.09697525 0.02133398 0.099570364 0.098633744
0.018134944 -0.13380566 -0.08913582 0.09390366 -0.004689021 0.03357348 -0.21791478 0.059003778
-0.1808997 0.17461504 -0.18866198 0.023849128 -0.0091876155 0.029801525 0.17443089 0.15964054
-0.15580451 -0.0026413545 -0.18909353 0.083463356 0.13090172 -0.13410051 -0.037314273 0.044026107
00000000: 00a6 31bd 1f23 fd3d fc79 973c 226b a8be
00000010: b987 66bd e4d4 70be 1a80 333e aa2f e03d
00000020: 6b0f 5cbe 65fe 013e 5e83 f0bc f1dc a1bd
00000030: 23dc 32bd 7a8d e63d 8ef7 78be e01b a73d
00000040: b9c2 13be 6442 4ebc 52e0 573e 9757 79bd
00000050: 0431 96bd da60 ffbd c1cf 9fbc 005f b4bd
00000060: 537d 6bbd 06dd 3b3e 7691 63ba 0ace 70bd
00000070: c2c6 023e a989 ebbd d2d2 b13d 4bc1 af3c
00000080: b98c 293e 82be fb3d 8bed 013e b643 cfbd
00000090: f69a c6bd 99c4 ae3c 8ceb cb3d 7d00 ca3d
000000a0: bc8f 943c 5a04 09be d78c b6bd 9050 c03d
000000b0: 5ca6 99bb 5884 093d 0d25 5fbe f2ad 713d
000000c0: c53d 39be 49ce 323e 9b30 41be 3f5f c33c
000000d0: a787 16bc 5422 f43c 039e 323e cf78 233e
000000e0: 388b 1fbe 931a 2dbb bca1 41be d6ee aa3d
000000f0: 1a0b 063e a551 09be dad6 18bd b854 343d
