policies/LunarLander/he_ppo_initialization.pt (torch, 43664 bytes, 12 tensors)

log_std f4 [2]
00000000: 0000 0000 0000 0000
0.0 0.0

mlp_extractor.policy_net.0.weight f4 [64, 8]
00000000: 51b0 d2be b47a 0e3e da21 fc3e 20f2 73be
00000010: 693b 153f 7093 84be 4ff3 253f 055e 283f
00000020: 6710 123f 193d 48bf c14f 493f 507c afbd
00000030: e887 09bf 110c 093f 07dd 48bf ecc1 123e
00000040: 000e fa3a 749c 453e 950b 4e3f 1988 fdbe
00000050: 53c2 fdbe 48f5 8f3d 6cdc 583e 53c9 2abf
00000060: 6637 ff3e 481d 44be 7fce 1cbf 80cb f5bd
00000070: 6103 32bf 9e67 d23e cc4c 3ebf de5f 933e
00000080: 19f1 eabe 0efe cf3e cd5b 203f 00d6 c0bd
00000090: 96b8 f13e d56e 2c3f 89d4 553f 574d 403f
000000a0: a4f3 0ebe 5020 46bf 6af0 c83e c087 93bc
000000b0: e8a8 e3bd 525e ab3e f7ba 0a3f dd41 3abf
000000c0: 48b3 babd b692 14bf 5d8a 473f 70ac 59bf
000000d0: 383d d23d 7255 fb3e a100 42bf c6e0 bf3e
000000e0: ce43 b63e 9449 233e 501e 5a3d fa46 4dbf
000000f0: ee20 c03e 5176 443f 1e2a 9b3e 5013 e7be
00000100: 54fc 143e fa84 91be 20b5 4cbf 28a0 8b3d
00000110: db3a 533f d30c e1be fc56 dfbe 30e7 0ebf
00000120: 5652 83be f5f3 543f f68b b33e ee0d 8b3e
00000130: 0767 473f 328b d33e 0499 3dbe b9e1 38bf
00000140: c56c 223f 906b 9bbe 2beb 4b3f 26b7 873e
00000150: e6e7 b4be 050a 533f f64d d03e 1b8e 133f
00000160: c987 44bf 5c1e c4be cee1 f53e 5cf6 5b3e
00000170: 65b6 493f 5a8c d53e ea9d 853e fda7 213f
00000180: 4a49 e23e d647 b63e 3bfe 593f 1686 a83e
00000190: c5cd 183f 813f 38bf 7ca8 633e c0ad e93c
000001a0: 0024 093d 3e1e 4ebf b6c8 10bf fecf cb3e
000001b0: 2fbe 1e3f 6ca8 81be 8b19 233f ee3e b33e
000001c0: d3d6 193f c21e 5cbf a275 c0be a480 243e
000001d0: 53a0 213f ced0 fc3e 2f69 2abf 2a21 0bbf
000001e0: 8a8e ebbe aef9 85be c024 993d 7886 0ebf
000001f0: 9968 153f 09bf 1f3f c67c 923e 87a3 ebbe
00000200: 888c c23d a2f7 cd3e 40de 8b3c 800d 433d
00000210: 4479 06bf c055 073c 0df1 53bf 96d0 e6be
00000220: 878e ccbe 2a22 cb3e 705b 4fbf 941e 7c3e
00000230: a156 523f 9b02 cebe eca8 353e 3d71 dbbe
00000240: c03c ed3d 2615 833e e6e6 963e b9a6 d7be
00000250: 581a c73d 870d d9be 2355 183f 80b3 403c
00000260: 000d 42be 444f 7fbe 262c f63e d489 81be
00000270: 004f e4bc 70be 883d 5062 ffbe 5329 393f
00000280: 24a0 44bf 9a6e f93e c1f6 35bf 48d7 afbd
00000290: 4030 06be 38cc d53d a7eb e6be ea0d 32bf
000002a0: 4d4a bdbe ab5f 2c3f 30a9 69be 0260 a1be
000002b0: e775 403f 1974 033f 3347 5b3f 10c2 14be
000002c0: 5441 09bf f987 173f b46c 37be 32f6 ab3e
000002d0: 0ddd 4b3f 00bc 00be 1931 ffbe 6c4e 463e
000002e0: 427f dd3e ed47 5cbf 14a3 6d3e a117 fcbe
000002f0: 368a 16bf cfdb 263f d4c5 b0be 940f 0a3e
00000300: 0010 f439 5fea 0fbf 9e07 9d3e 2923 2e3f
00000310: 7035 ba3d 3294 50bf c30e e6be 669c d03e
00000320: 8062 1e3c 6835 d7bd 7299 8f3e 502c 5abe
00000330: 9f1f 24bf f4ef a8be 40d3 40bf 80e3 77bd
00000340: 58f3 8dbe 9e9c f33e 5c3a 7cbe f201 933e
00000350: 435d 0b3f eba1 303f c1a5 143f 1207 dd3e
00000360: 94ae 673e 90e5 c7bd 4e65 19bf 3078 3dbf
00000370: be4a a7be 9737 013f 8f93 433f 2b29 28bf
00000380: 7174 2d3f 105f 063d d025 36be 18b2 73be
00000390: 45c7 253f a447 6b3e 5f57 363f 0a10 ad3e
000003a0: acd0 6a3e 4a96 1ebf c43a abbe ea7c c93e
000003b0: cdab 363f cf4d 1f3f 0111 f0be 3873 31be
000003c0: 20de c63d 5a4f 57bf a41a 7f3e c83a a4bd
000003d0: 90c4 0cbe f5cb 10bf f530 bdbe 707c efbd
000003e0: fde1 fdbe 98f5 d43d d776 1d3f 2b56 1c3f
000003f0: b070 c4be c9b7 2cbf aa06 d53e 2454 6b3e
-0.41150144 0.13913995 0.49244577 -0.23822832 0.5829378 -0.25893736 0.64824384 0.6576846
0.5705628 -0.7821823 0.7863732 -0.085686326 -0.53723 0.53534037 -0.7846226 0.14331788
0.0019077659 0.19297963 0.8048642 -0.49517897 -0.4956232 0.070292056 0.21177834 -0.66713446
0.49846953 -0.19151795 -0.6125259 -0.12001705 -0.69536406 0.4109468 -0.7433593 0.28784078
-0.45887068 0.40623516 0.62640077 -0.09415817 0.4721114 0.67356616 0.8352743 0.7511801
-0.13960129 -0.77393055 0.3924592 -0.018009067 -0.11116201 0.33470398 0.54191536 -0.7275675
-0.091162264 -0.58036363 0.779455 -0.85028744 0.10265583 0.49088627 -0.7578221 0.37476176
0.35598606 0.15946037 0.053251565 -0.80186427 0.37525123 0.76743037 0.3030557 -0.45131922
0.1454938 -0.28421766 -0.79963875 0.06817657 0.8251168 -0.43955097 -0.4362105 -0.55821514
-0.25648755 0.8318475 0.3506772 0.27159065 0.7789158 0.41317135 -0.18515402 -0.72219425
0.6344722 -0.303555 0.7965571 0.2650692 -0.35333174 0.82437164 0.4068448 0.5763871
-0.7676969 -0.38304412 0.48023838 0.21480697 0.78793937 0.41708642 0.2609704 0.63146955
0.4419654 0.3560168 0.8515355 0.329148 0.5968898 -0.719719 0.2223224 0.028525233
0.033481598 -0.80514896 -0.5655626 0.39807123 0.6200895 -0.25323808 0.6371085 0.3500895
0.6009342 -0.8598443 -0.37589747 0.16064698 0.6313526 0.49378055 -0.6656675 -0.5434748
-0.46007186 -0.26167053 0.07477713 -0.55673933 0.5836273 0.6240087 0.2861082 -0.460232
0.094994605 0.4022799 0.01707375 0.047620296 -0.52528787 0.0082601905 -0.8278969 -0.45081013
-0.3995249 0.39674503 -0.809989 0.2462104 0.82163435 -0.40236363 0.1774022 -0.4285983
0.11583853 0.25602072 0.29473037 -0.42119387 0.097218215 -0.42393133 0.5950491 0.011761546
-0.18950272 -0.24932581 0.48080558 -0.25300467 -0.027869701 0.06676948 -0.49879694 0.7232868
-0.76806855 0.48717195 -0.7107964 -0.085859835 -0.13104343 0.10439342 -0.45101663 -0.6955248
-0.3697075 0.6733348 -0.22818446 -0.3151856 0.75179905 0.51349026 0.85655516 -0.14527154
-0.5361531 0.5919185 -0.1791256 0.3358627 0.7963417 -0.12571716 -0.49842146 0.19365853
0.43261153 -0.8604725 0.2320674 -0.49236777 -0.58804643 0.6517915 -0.3452593 0.13482505
0.00046551228 -0.56216997 0.30669874 0.680224 0.09092224 -0.8147613 -0.44933137 0.40744323
0.009667039 -0.10508233 0.28046757 -0.21305966 -0.6411075 -0.3299557 -0.7532234 -0.060519695
-0.2772472 0.47580427 -0.24631637 0.28712422 0.5443918 0.6899707 0.5806542 0.43169457
0.2262519 -0.097605824 -0.59920204 -0.74011517 -0.3267421 0.5047545 0.7639703 -0.6568782
0.677558 0.032805502 -0.17787862 -0.23798406 0.64757186 0.22976547 0.7122707 0.338013
0.22931165 -0.6194807 -0.33443272 0.39353114 0.713559 0.622281 -0.46887973 -0.17329109
0.09710336 -0.84105456 0.24912506 -0.08019024 -0.13746858 -0.56561214 -0.36951414 -0.116936564
-0.49586478 0.10398406 0.6150946 0.6106898 -0.38367224 -0.67467934 0.41606647 0.22981316

mlp_extractor.policy_net.0.bias f4 [64]
00000000: 0000 0000 0000 0000 0000 0000 0000 0000
00000010: 0000 0000 0000 0000 0000 0000 0000 0000
00000020: 0000 0000 0000 0000 0000 0000 0000 0000
00000030: 0000 0000 0000 0000 0000 0000 0000 0000
00000040: 0000 0000 0000 0000 0000 0000 0000 0000
00000050: 0000 0000 0000 0000 0000 0000 0000 0000
00000060: 0000 0000 0000 0000 0000 0000 0000 0000
00000070: 0000 0000 0000 0000 0000 0000 0000 0000
00000080: 0000 0000 0000 0000 0000 0000 0000 0000
00000090: 0000 0000 0000 0000 0000 0000 0000 0000
000000a0: 0000 0000 0000 0000 0000 0000 0000 0000
000000b0: 0000 0000 0000 0000 0000 0000 0000 0000
000000c0: 0000 0000 0000 0000 0000 0000 0000 0000
000000d0: 0000 0000 0000 0000 0000 0000 0000 0000
000000e0: 0000 0000 0000 0000 0000 0000 0000 0000
000000f0: 0000 0000 0000 0000 0000 0000 0000 0000
0.0 0.0 0.0 0.0 0.0 0.0 0.0 0.0
0.0 0.0 0.0 0.0 0.0 0.0 0.0 0.0
0.0 0.0 0.0 0.0 0.0 0.0 0.0 0.0
0.0 0.0 0.0 0.0 0.0 0.0 0.0 0.0
0.0 0.0 0.0 0.0 0.0 0.0 0.0 0.0
0.0 0.0 0.0 0.0 0.0 0.0 0.0 0.0
0.0 0.0 0.0 0.0 0.0 0.0 0.0 0.0
0.0 0.0 0.0 0.0 0.0 0.0 0.0 0.0

mlp_extractor.policy_net.2.weight f4 [64, 64]
00000000: 2007 ac3c e0c1 2bbc 58e2 303d a5c4 1dbe
00000010: fb94 9a3e e01b aebd 5cbd 46be 8600 233e
00000020: 51f1 06be 76cc 7f3e de2d 773e 06ee 603e
00000030: 2899 193e 003a eb3c abc1 23be a45b e03d
00000040: b848 41bd 14ad 93bd 71b0 863e 40f2 e13d
00000050: 0342 933e ea98 9dbd 74cd 423e f8f3 fd3d
00000060: d62e 42be 50c4 43be 4c2f bfbd 5e3b 54be
00000070: 841f ab3d b07b 90be 6e1d 583e fe97 213e
00000080: 8a3e d9bd 1894 1b3e cdbb 1ebe 8d81 09be
00000090: 5686 043e 00be d63b 80e9 c5bb cb75 9b3e
000000a0: b0cb 25be c0d9 283d 2236 d3bd cb3d 813e
000000b0: e1df 40be e0d1 f83d 9062 dabc a6fc 773e
000000c0: ef84 843e 7c63 1bbe 3419 76be 5eb0 e9bd
000000d0: b07e 4dbd ba6e 653e d428 8c3d 2099 113d
000000e0: 78a2 2dbd 8e26 babd 6c3d 103e 0b4e 933e
000000f0: e7ce 0bbe c001 b8bb 43cc 8ebe 3fee 833e
00000100: 80f8 c2bc 1b25 973e 7d99 31be b67e 7a3e
00000110: 6705 68be b395 85be ce6f 503e a052 2b3c
00000120: ce0d b7bd 8594 26be 1342 1fbe b0d1 4d3d
00000130: 0d92 883e b849 ebbd 002c d039 aa3f 333e
00000140: b615 c9bd daa5 753e 5e46 4ebe 34b3 a0bd
00000150: 505b 033e 5af7 ffbd 3d2f 2abe a4ac eb3d
00000160: 4e52 81be fca9 80be 8a88 7c3e 23e4 8a3e
00000170: 1d85 27be 541f 45be 707f 4dbd 2821 133d
00000180: 5b98 873e 771e 72be 466f 51be 588c 093d
00000190: c6a5 15be b540 8cbe f953 8d3e 5fbb 943e
000001a0: 523b 5f3e 36e4 0c3e 48ad fb3d e073 66be
000001b0: 8475 9c3d 7a8f 653e 0a00 2c3e be41 9cbe
000001c0: 0031 113e 31f7 933e 5a57 593e 8088 b03c
000001d0: 7003 d5bc 76a8 583e e85d 193e 6093 4ebd
000001e0: 48b4 ec3d 1ca8 04be 2f74 09be fccf c63d
000001f0: bf94 20be b26f acbd b66a 793e 40ae 0a3d
00000200: 2bb5 933e 387f 0e3d 7386 88be 80e9 a53b
00000210: a04d e0bc ccba 6cbd 10ce 3bbd e37f 3cbe
00000220: 3af1 223e 54c8 1dbe 60f9 cebd 16c6 78be
00000230: bee3 90be 75b5 943e 7e5a 68be 4050 613d
00000240: 7511 983e c222 063e a6af 2c3e ca9f 0ebe
00000250: 685c 5d3d 8c20 c03d ff6c 92be 70fa 973d
00000260: e000 31be d0c0 073d 860b 303e c6b1 473e
00000270: 7ca2 82bd 700e cf3d 0025 9d3d 44a7 133e
00000280: 1606 bebd 1089 c83d b847 65be 2436 01be
00000290: 1033 a63d 4083 bc3b 4ad4 7e3e 9832 72be
000002a0: 526b 42be 10a3 083e 12a4 463e 43e8 5cbe
000002b0: 3d86 92be bc1c 853d 4093 bcbb a082 66bd
000002c0: 50b0 89be cc39 77bd 55c7 84be adf0 30be
000002d0: f001 bbbd dabe d0bd 08ad 2c3e 767b 443e
000002e0: 684b 003d 312d 8f3e 904a 8ebe 7d38 973e
000002f0: 4427 58be 985f 33bd 3c8a 8f3d 1638 053e
00000300: ec89 303e 207c 443d 8012 ea3c 681c 88be
00000310: 03b4 64be f09d ba3c a81f 8a3d 0017 673c
00000320: 40fd c9bb c371 893e 8930 02be f253 713e
00000330: a6b1 8abe aa59 493e 6073 41be 6063 0b3c
00000340: f092 083e 9ab6 1a3e 48f7 d1bd 1241 91be
00000350: 5da2 9b3e df4b 1fbe a2af 22be 0561 993e
00000360: 4cde 68be 2644 013e 74b2 38be e381 8ebe
00000370: 2491 e7bd 80f7 46bc 4858 8d3d 5a5c 143e
00000380: 7a03 443e 7b0e 1abe fc2f 843d ae5d 733e
00000390: 560b 7a3e ca6b c7bd 3ff8 0bbe a71c 83be
000003a0: 40a6 ee3d 4ab6 123e 58b8 98bd c6b5 88bd
000003b0: d4ec c93d ba12 143e b568 94be 6076 863d
000003c0: c7b7 82be 94fd 91be 981e 49be 2c1d 433e
000003d0: 4508 8d3e f658 6f3e 28fd 2a3e 3681 47be
000003e0: 3c04 c43d 6202 7a3e fc3b 6fbe 78cf 42bd
000003f0: 12e8 77be 60cd 39bc fa1f 4d3e 60a7 96be
0.020999491 -0.010483235 0.04318461 -0.15407045 0.30191788 -0.085014105 -0.19408172 0.15918168
-0.13177992 0.2498034 0.2413859 0.21965799 0.1499983 0.02871418 -0.15991847 0.10954979
-0.04718849 -0.072107464 0.2630649 0.11032534 0.287613 -0.07695182 0.19023687 0.12400049
-0.18963179 -0.19117856 -0.09335193 -0.20725772 0.083556205 -0.28219366 0.21104977 0.15780637
-0.106076315 0.15193212 -0.15501328 -0.13428326 0.1294187 0.0065534115 -0.0060397983 0.30363306
-0.16190982 0.041223288 -0.103130594 0.25242457 -0.18835403 0.121494055 -0.026658326 0.24217471
0.2588267 -0.15174669 -0.24033052 -0.114105925 -0.050169647 0.2240552 0.06843725 0.035546422
-0.04239127 -0.09089385 0.1408593 0.2877048 -0.13653146 -0.005615443 -0.27890214 0.25767705
-0.023800135 0.29520497 -0.17343707 0.24462399 -0.22658311 -0.26090774 0.2035515 0.010456711
-0.0893818 -0.16267593 -0.15552549 0.0502488 0.26673928 -0.1148867 0.00039705634 0.17504755
-0.09818594 0.23989049 -0.2014403 -0.0784668 0.12827802 -0.124983504 -0.16619582 0.11507538
-0.25258106 -0.25129688 0.2466146 0.2712718 -0.16359372 -0.19250232 -0.050170362 0.035920292
0.26483425 -0.23644434 -0.20452604 0.033581108 -0.14614019 -0.27393118 0.2760313 0.29049203
0.21799973 0.1375893 0.1228891 -0.2250514 0.07639602 0.22418013 0.1679689 -0.30518907
0.14178848 0.2889953 0.21224728 0.021549463 -0.026002616 0.21158013 0.14977229 -0.050433517
0.115578234 -0.12954754 -0.13423227 0.097076386 -0.15681742 -0.08419742 0.24357113 0.033857584
0.28849158 0.034789294 -0.26665077 0.0050632358 -0.027380764 -0.05779533 -0.045850813 -0.1840816
0.15912333 -0.1540845 -0.10106158 -0.24294314 -0.28298753 0.2904469 -0.2269077 0.055008173
0.2970082 0.13099197 0.1686388 -0.13928142 0.054043204 0.09381208 -0.28598782 0.07420814
-0.1728549 0.033142865 0.17191896 0.19501409 -0.06378648 0.101101756 0.07673073 0.14419276
-0.092785046 0.097917676 -0.2239064 -0.1261831 0.08115208 0.005752951 0.2488567 -0.23652112
-0.18986252 0.13343453 0.19398525 -0.21572976 -0.2861804 0.06499621 -0.0057548583 -0.056276917
-0.26892328 -0.060357854 -0.25933328 -0.1727931 -0.09131229 -0.10192652 0.16862881 0.19187722
0.031321913 0.27964166 -0.27791262 0.29535285 -0.21108729 -0.043792337 0.07008788 0.13009676
0.17240113 0.047969937 0.028573275 -0.26584172 -0.22334294 0.022780389 0.06744319 0.014104605
-0.006164223 0.26844606 -0.12713827 0.23567179 -0.2708866 0.1966311 -0.18891668 0.00850758
0.13337302 0.1510872 -0.10252243 -0.28369957 0.3039731 -0.15556286 -0.15887311 0.29956833
-0.2274105 0.12623653 -0.18036824 -0.2783347 -0.1130698 -0.01214397 0.06901604 0.14488354
0.19141951 -0.15044586 0.06454465 0.23766205 0.24418387 -0.09737356 -0.13668917 -0.25607798
0.116528034 0.1432735 -0.07457036 -0.066752955 0.098596245 0.14460269 -0.28986135 0.06565547
-0.25530836 -0.28513777 -0.19640577 0.19054097 0.27545372 0.2337378 0.16698134 -0.19482884
0.0957112 0.24414971 -0.23362726 -0.04756114 -0.24209622 -0.011340469 0.2003173 -0.29424572

mlp_extractor.policy_net.2.bias f4 [64]
00000000: 0000 0000 0000 0000 0000 0000 0000 0000
00000010: 0000 0000 0000 0000 0000 0000 0000 0000
00000020: 0000 0000 0000 0000 0000 0000 0000 0000
00000030: 0000 0000 0000 0000 0000 0000 0000 0000
00000040: 0000 0000 0000 0000 0000 0000 0000 0000
00000050: 0000 0000 0000 0000 0000 0000 0000 0000
00000060: 0000 0000 0000 0000 0000 0000 0000 0000
00000070: 0000 0000 0000 0000 0000 0000 0000 0000
00000080: 0000 0000 0000 0000 0000 0000 0000 0000
00000090: 0000 0000 0000 0000 0000 0000 0000 0000
000000a0: 0000 0000 0000 0000 0000 0000 0000 0000
000000b0: 0000 0000 0000 0000 0000 0000 0000 0000
000000c0: 0000 0000 0000 0000 0000 0000 0000 0000
000000d0: 0000 0000 0000 0000 0000 0000 0000 0000
000000e0: 0000 0000 0000 0000 0000 0000 0000 0000
000000f0: 0000 0000 0000 0000 0000 0000 0000 0000
0.0 0.0 0.0 0.0 0.0 0.0 0.0 0.0
0.0 0.0 0.0 0.0 0.0 0.0 0.0 0.0
0.0 0.0 0.0 0.0 0.0 0.0 0.0 0.0
0.0 0.0 0.0 0.0 0.0 0.0 0.0 0.0
0.0 0.0 0.0 0.0 0.0 0.0 0.0 0.0
0.0 0.0 0.0 0.0 0.0 0.0 0.0 0.0
0.0 0.0 0.0 0.0 0.0 0.0 0.0 0.0
0.0 0.0 0.0 0.0 0.0 0.0 0.0 0.0

mlp_extractor.value_net.0.weight f4 [64, 8]
00000000: bee5 d43e 5e97 06bf 40a2 e93d 83ab 403f
00000010: 61c5 dbbe 1791 043f fa73 88be 6bf9 efbe
00000020: 49b8 d4be 7ecb 2dbf e297 fc3e 44ea 273e
00000030: 0cf5 91be ea22 f1be a9dc d2be 750d 1ebf
00000040: 3e42 0cbf 090e 3d3f 424d 8a3e 845c 00bf
00000050: 5892 b0be 1aa0 d6be f06b 2f3d b9cb bbbe
00000060: ecde 0b3e 5518 e7be 1f4d 033f 860f eabe
00000070: 2aaa c8be 3eda e33e 7895 65be ca25 a93e
00000080: 604b 20bf 87e1 0d3f 0451 7dbe 6222 803e
00000090: 36c3 e63e 409d febd e32b 183f 0020 02bc
000000a0: 280e d43d 57b8 c7be 91e8 e1be 05a5 183f
000000b0: e0f8 57bf 4083 e33d b031 ad3d 7770 37bf
000000c0: 564c 863e 3166 183f cb18 543f 4346 4d3f
000000d0: 7aac df3e 6fce 493f ad62 48bf 4c44 0dbe
000000e0: d1f4 0a3f c688 c23e 5001 babe 190a 413f
000000f0: 40bc 7cbc 4472 15be bb69 503f 9f46 2e3f
00000100: e809 3cbf c06c 64bc 846b 4ebe 3209 9f3e
00000110: 36ec 43bf b942 3b3f 83db 543f 8f72 35bf
00000120: a8b9 51be 6ce1 2a3e 101d b0be 4cbd 14be
00000130: 0e73 843e ced2 a33e b04f 46be 5c9b d0be
00000140: a6ab 09bf b7eb 443f 2db5 233f 0a8f c53e
00000150: 8040 6e3c 6f1f 233f fc0f 5c3e 9772 1c3f
00000160: b5a8 583f 6424 653e 7841 aebd 5403 2dbe
00000170: 7177 163f 330d 513f cc8c 31be 9987 173f
00000180: 36b5 17bf 7424 20be e919 1e3f 801d 153c
00000190: e365 453f 4636 ff3e d0f1 f1be 9669 bc3e
000001a0: 0198 223f 8044 98bd 52a8 973e fffe 5a3f
000001b0: a91d 073f 290c 3a3f fabc d13e a472 563e
000001c0: c2cf 58bf a057 30bf 4bad 2cbf 4272 f03e
000001d0: 13b9 40bf 6a0e eb3e 00d2 8cba 243a 593e
000001e0: 5474 2fbe 82d0 e03e c981 1f3f 96fd 21bf
000001f0: b12e 583f 52ac cf3e f606 1ebf 7829 9abe
00000200: df53 5a3f f634 83be 7848 0cbf eed1 d53e
00000210: 7c0f 313e d50f 52bf 27ef c1be 4d73 4fbf
00000220: 064e e63e 5051 4cbd c65b a73e 9d4f 4e3f
00000230: d381 093f bcf1 343e e832 89be 1e18 a33e
00000240: dbe1 1abf 5bc8 09bf 5215 b83e 7c82 4b3e
00000250: 0d48 ebbe b334 1ebf 8a6a ee3e aaa4 e03e
00000260: 70b2 87bd 33ab 043f 5d90 e8be 7a0c af3e
00000270: e03c 4cbf 748e 3abe d319 5dbf a157 563f
00000280: 0731 5b3f 48f4 bf3d c84d 96be 515a ddbe
00000290: 84e7 493e b01a 5dbe 70cb 0cbd 477a 373f
000002a0: 1fd9 0dbf 0871 c5bd fbed 293f 3e26 ff3e
000002b0: 35fa 1abf 19f6 023f 80cf 4ebf 10f1 65bd
000002c0: 08be eabe 5949 253f 5fdd 593f 4481 34bf
000002d0: 5c7f 3ebf c908 3bbf 7d60 503f bd16 243f
000002e0: ce70 f43e 4b08 28bf 4235 32bf 3cb0 61be
000002f0: 4eae a13e 060f ecbe 44ec 3b3e 2f91 21bf
00000300: 764a cd3e da79 a33e bcda 3cbe 94a2 3e3e
00000310: 3f3f 58bf af30 493f b81d e43d 46d3 eabe
00000320: 4fe9 f3be 111c 423f a493 b5be 005b e2bd
00000330: 90ec 45bd 1020 01bd ae8e ce3e 4520 4b3f
00000340: 98c0 6fbe 6129 473f 4f52 043f 9309 4c3f
00000350: 1025 00be dd82 283f 4cbc c6be c6fe 963e
00000360: 1644 a13e f0d6 653d 4fab 1bbf 9039 973d
00000370: 6702 433f 48be 24bf 8e44 893e ac58 0f3e
00000380: 63c2 efbe 46ed c23e 9e0f 933e a76f 43bf
00000390: eba1 50bf 8235 c13e 0c57 413e a96e 0f3f
000003a0: 949c 37be 64de 3a3e 3058 3c3d 7aee cebe
000003b0: 36a7 09bf a408 afbe 482b 4fbe dd0b 1c3f
000003c0: 8c4e 50bf 7db1 113f 41d3 3e3f 8cee 08be
000003d0: da38 10bf f50c 053f 26f2 a93e c82f 15be
000003e0: 16fe 44bf 64ea 653e 9451 333e 1e1b 26bf
000003f0: 44e8 f8be b95f 243f 0010 df3b e86f 8fbe
0.4158153 -0.5257472 0.114079 0.75261706 -0.42924026 0.5178389 -0.26650983 -0.46869978
-0.41546848 -0.6788863 0.49334627 0.16397959 -0.28507268 -0.4709695 -0.41183975 -0.61739284
-0.5478858 0.7384954 0.27012068 -0.5014117 -0.3448665 -0.41919023 0.042827547 -0.36678866
0.13659257 -0.4513575 0.5128955 -0.45714968 -0.39192325 0.44502443 -0.22420299 0.33036643
-0.62615013 0.5542225 -0.24737936 0.25026232 0.4507081 -0.12432337 0.59441966 -0.0079422
0.103542626 -0.39007828 -0.44122747 0.596268 -0.8436413 0.11109018 0.08456743 -0.7165598
0.26230115 0.5953093 0.8285033 0.80185336 0.43686277 0.7883062 -0.7827557 -0.13795584
0.5427981 0.37994975 -0.36329126 0.7540603 -0.015425742 -0.1459437 0.8141133 0.6807651
-0.73452616 -0.013941944 -0.20158201 0.31061703 -0.76532304 0.73148686 0.8314745 -0.7087793
-0.20480978 0.16687554 -0.34397173 -0.14525336 0.2586903 0.3199677 -0.19366336 -0.4074353
-0.5377754 0.7692217 0.6394833 0.38585693 0.014541745 0.6371984 0.21490473 0.6111235
0.84632427 0.22377163 -0.08508581 -0.16895801 0.58776003 0.81660765 -0.17338866 0.5919128
-0.5926088 -0.15638906 0.61758286 0.009101272 0.7710859 0.49846095 -0.472548 0.36799306
0.6351319 -0.0743494 0.29620606 0.85545343 0.5277963 0.72674805 0.4096449 0.2094217
-0.84692013 -0.68883705 -0.67451924 0.46962172 -0.752824 0.45909435 -0.0010743737 0.21213585
-0.1713422 0.4390908 0.6230741 -0.63277566 0.84446245 0.40561157 -0.6172937 -0.30109763
0.8528423 -0.25626343 -0.5479808 0.41761726 0.17291063 -0.8205541 -0.3787777 -0.8103531
0.44981402 -0.049882233 0.32687205 0.8059023 0.5371372 0.1767034 -0.2679665 0.31854337
-0.6050088 -0.53821343 0.35953766 0.19873995 -0.45953408 -0.6179916 0.46565658 0.4387563
-0.06625831 0.5182373 -0.4542264 0.34189206 -0.7978039 -0.18218404 -0.8636753 0.8372746
0.85621685 0.09372765 -0.29356217 -0.43232968 0.19717222 -0.21592212 -0.0343737 0.71670955
-0.55409425 -0.096406996 0.66378754 0.49833864 -0.60538036 0.51156765 -0.8078537 -0.0561381
-0.45848107 0.64565045 0.8510341 -0.70509744 -0.74413085 -0.7306028 0.8139723 0.64097196
0.47742313 -0.65637654 -0.69612515 -0.22039884 0.31578296 -0.46105212 0.18351847 -0.6311216
0.40095872 0.31928903 -0.18442816 0.18616706 -0.84471506 0.7858991 0.11138481 -0.45864314
-0.47638938 0.75824076 -0.35464203 -0.11052513 -0.048321307 -0.031524718 0.4034323 0.79346114
-0.23413312 0.77797514 0.5168809 0.7970211 -0.12514138 0.6582468 -0.38815534 0.29491252
0.31497258 0.056113183 -0.6080827 0.07384026 0.7617554 -0.64352846 0.26810116 0.1399867
-0.46827993 0.3807165 0.28722852 -0.7634224 -0.8149707 0.37736136 0.18880862 0.5602823
-0.17930824 0.18248898 0.04598254 -0.40416318 -0.5377077 -0.3418628 -0.20231354 0.609556
-0.81369853 0.5691145 0.745411 -0.13372248 -0.5633675 0.51972896 0.33192557 -0.14569008
-0.76950204 0.22452694 0.17511588 -0.6488513 -0.48614705 0.6420856 0.0068073273 -0.28015065

mlp_extractor.value_net.0.bias f4 [64]
00000000: 0000 0000 0000 0000 0000 0000 0000 0000
00000010: 0000 0000 0000 0000 0000 0000 0000 0000
00000020: 0000 0000 0000 0000 0000 0000 0000 0000
00000030: 0000 0000 0000 0000 0000 0000 0000 0000
00000040: 0000 0000 0000 0000 0000 0000 0000 0000
00000050: 0000 0000 0000 0000 0000 0000 0000 0000
00000060: 0000 0000 0000 0000 0000 0000 0000 0000
00000070: 0000 0000 0000 0000 0000 0000 0000 0000
00000080: 0000 0000 0000 0000 0000 0000 0000 0000
00000090: 0000 0000 0000 0000 0000 0000 0000 0000
000000a0: 0000 0000 0000 0000 0000 0000 0000 0000
000000b0: 0000 0000 0000 0000 0000 0000 0000 0000
000000c0: 0000 0000 0000 0000 0000 0000 0000 0000
000000d0: 0000 0000 0000 0000 0000 0000 0000 0000
000000e0: 0000 0000 0000 0000 0000 0000 0000 0000
000000f0: 0000 0000 0000 0000 0000 0000 0000 0000
0.0 0.0 0.0 0.0 0.0 0.0 0.0 0.0
0.0 0.0 0.0 0.0 0.0 0.0 0.0 0.0
0.0 0.0 0.0 0.0 0.0 0.0 0.0 0.0
0.0 0.0 0.0 0.0 0.0 0.0 0.0 0.0
0.0 0.0 0.0 0.0 0.0 0.0 0.0 0.0
0.0 0.0 0.0 0.0 0.0 0.0 0.0 0.0
0.0 0.0 0.0 0.0 0.0 0.0 0.0 0.0
0.0 0.0 0.0 0.0 0.0 0.0 0.0 0.0

mlp_extractor.value_net.2.weight f4 [64, 64]
00000000: e9fc 76be 0c1e dbbd 8667 78be 1a85 83bd
00000010: 4bf4 8b3e d505 1bbe fc62 72be 04e4 15be
00000020: b030 9cbc 0c0d f2bd f109 963e 224d 713e
00000030: 147b 72be 3c42 b7bd 6698 173e be81 303e
00000040: 842d f33d fa0b 7c3e 6dc2 54be 08a5 1c3d
00000050: 344a 243e 6863 5c3d bce6 60be e10b 8c3e
00000060: f2fe acbd dcda 6bbd 3cee 313e e384 933e
00000070: 8685 3abe 441b 99be 5e39 4a3e b6d5 74be
00000080: 0421 a83d 9c18 973d 0e80 293e 65ca 98be
00000090: 8824 2c3e 646a 2a3e b0ad 96be 2893 0f3e
000000a0: d29b 7e3e 3c27 f73d b29f adbd bad8 313e
000000b0: bbba 9b3e 2602 56be e627 183e dc25 dabd
000000c0: 00a7 bebd 9c7a 61be c4c8 7cbe 9a53 9bbe
000000d0: f4d4 893d bd76 9c3e d071 c3bd 8833 df3d
000000e0: f01b 6a3d 000c e63d 4058 3e3e cce6 cbbd
000000f0: c8af 1f3e 4b69 843e 6630 503e 8462 923d
00000100: 7da1 34be 0028 28ba 1ad5 3d3e a285 ddbd
00000110: b664 ecbd dac7 0f3e 5e4d 703e 6a5a 19be
00000120: 228a 363e 7ab7 6b3e 5b51 873e f198 813e
00000130: a97b 8dbe a8c3 603d 5ecc 3bbe 964f 9abe
00000140: 1f0b 873e 4217 febd 9c1a 56be ce94 babd
00000150: 8040 233d 2c60 86be 80b3 3b3e c939 903e
00000160: 80b2 bebc 0047 183c 1a57 95be 1a3f 93be
00000170: baf4 90be c7ed 963e e0a1 ae3c bc91 10be
00000180: e83b e53d c1d8 8ebe 10b8 a03d c814 ae3d
00000190: dd10 973e 159a 17be 5697 373e 518f 77be
000001a0: 98be 073e 296c 9c3e 5cde d8bd 7d26 7fbe
000001b0: 0838 3fbd 5b4c 963e 2eab d9bd 884e 263e
000001c0: 4028 e9bb 78c1 8cbe 04c1 b73d f339 983e
000001d0: 1a83 643e f44e a7bd 7423 da3d 0062 a03a
000001e0: 6dd3 4ebe 3a59 80bd 040d 78be 3e28 5a3e
000001f0: 9cd9 22be 6268 aabd cc8c 883d 90d0 97bd
00000200: 0f1a 09be a9c2 933e 65d9 88be c484 4ebe
00000210: 40af 063d 10ae b6bd aaf8 523e 6a3e 4c3e
00000220: 667e 1e3e 9000 23bd 581d 763d 44c2 de3d
00000230: 9283 86be b086 b5bd cced 84be 6e18 33be
00000240: 40ba ec3d 8012 f8bb 50b6 b4bd b66d 97be
00000250: 6213 71be ae1b d6bd 0873 2ebe ecd8 45be
00000260: a097 61bd 0072 24bb 5008 df3d 7629 003e
00000270: 38e2 b03d 3c1f c23d 193e 893e 301e f6bc
00000280: adab 823e a733 8e3e 32b0 5b3e 60be f63c
00000290: 355c 0fbe 310b 08be ac65 8e3d 4006 e7bc
000002a0: d0af e6bc 29e2 973e ca37 473e e691 543e
000002b0: 6012 2c3c 30bc 3b3d 9c79 bebd e69a 87be
000002c0: 00a8 64b9 2131 9cbe f0ac 17bd b841 d83d
000002d0: 10f7 803d a8da 44be a77c 37be 8eea 1e3e
000002e0: f088 9c3c 0423 3cbe 2291 2a3e 5009 e1bc
000002f0: 44d0 f63d e0bf 43bc 65c1 71be a983 993e
00000300: d0e9 babc 9ac5 3abe 4e83 4e3e a659 603e
00000310: 8490 093e 4c4a 6fbd 6702 16be 609f c23d
00000320: 7042 623d b517 8abe e848 183e 8ce5 353e
00000330: 3e51 243e 3b99 4dbe c471 fe3d b8bd dbbd
00000340: 2029 6b3c e0c7 08bd 28eb 05be 2063 0cbe
00000350: 584e 273e 0426 7fbd 60f7 313e 427f 133e
00000360: becb 613e ce2a 1fbe 74cf dd3d 0e9f 253e
00000370: cebb 0ebe d9d3 21be 1efb 263e 14f8 e83d
00000380: 5894 2fbd 70bc 413e 606d 60bc f6ff 473e
00000390: c0d6 cdbc 623e 263e d002 ff3d 02e7 71be
000003a0: 3758 963e 3e2c 7d3e f82e 0b3e fcf6 fd3d
000003b0: 02a1 4e3e 6e73 adbd d38b 803e b768 83be
000003c0: 9714 93be d046 4abd 2d05 5cbe f4a9 db3d
000003d0: c039 ca3c a0e0 c73d 159a 803e c25e e4bd
000003e0: eb32 973e b0fd 173e 2c39 7abe 0250 10be
000003f0: 6160 24be c097 f83d fa6c 413e 6c68 48be
-0.24119915 -0.1069909 -0.24258241 -0.064218715 0.27334818 -0.15138943 -0.23670572 -0.14637762
-0.019066185 -0.11818895 0.2930446 0.2356458 -0.23679763 -0.0894818 0.14804229 0.17236993
0.11873916 0.24613944 -0.20777293 0.038243324 0.16043931 0.05380574 -0.21963018 0.27352813
-0.084470645 -0.057581767 0.17376035 0.28812322 -0.18214998 -0.29903615 0.19748446 -0.23909649
0.08209422 0.07377741 0.16552755 -0.29841915 0.1681081 0.16642147 -0.29429388 0.1402098
0.24864128 0.1206803 -0.08477725 0.17367831 0.30415902 -0.20899257 0.1485897 -0.10651752
-0.093091965 -0.22019428 -0.24685961 -0.3033722 0.06730071 0.3055934 -0.095431924 0.10898501
0.05715555 0.112327576 0.18588352 -0.099561304 0.15594399 0.25861582 0.20330963 0.071476966
-0.17639728 -0.0006414652 0.18538323 -0.10816504 -0.115426466 0.14041081 0.23467013 -0.14975896
0.17826131 0.2301921 0.26429257 0.25311998 -0.27633408 0.054874092 -0.18339679 -0.30138844
0.26375672 -0.1240678 -0.20908588 -0.091104135 0.039856434 -0.26245248 0.18330193 0.28169087
-0.023278475 0.0092942715 -0.29168016 -0.2875908 -0.28311712 0.29478285 0.021317422 -0.14118093
0.11193067 -0.27899745 0.07847607 0.085000575 0.29505053 -0.14804871 0.17928824 -0.24175765
0.132563 0.3055127 -0.10589287 -0.24917026 -0.046684295 0.2935513 -0.10628353 0.16240895
-0.007115394 -0.27491355 0.08972362 0.29731712 0.22315636 -0.08169356 0.106512934 0.0012236238
-0.2019784 -0.062670186 -0.24223715 0.21304414 -0.15903324 -0.08320691 0.0666748 -0.07412827
-0.13388847 0.2885945 -0.2672836 -0.20167834 0.032881975 -0.089199185 0.2060267 0.19945684
0.15477905 -0.03979546 0.060086578 0.10876897 -0.26272255 -0.0886358 -0.25962675 -0.17489788
0.11558962 -0.0075705647 -0.08823836 -0.2957589 -0.2354255 -0.10454498 -0.17036068 -0.1932103
-0.05507624 -0.0025092363 0.10890257 0.12515816 0.08636898 0.09478614 0.2680519 -0.030043691
0.25521603 0.27773783 0.21453932 0.030120075 -0.14000018 -0.13285519 0.06952986 -0.028201222
-0.028160006 0.29664734 0.19454876 0.20758781 0.010502428 0.045833766 -0.09300539 -0.26485366
-0.0002180636 -0.30506232 -0.03703016 0.1055941 0.062971234 -0.19224036 -0.17918645 0.15519163
0.019108266 -0.18372732 0.16656926 -0.02747026 0.12051442 -0.011947602 -0.2360893 0.2998326
-0.022816569 -0.18239442 0.20167276 0.21909198 0.13434035 -0.058420464 -0.14649354 0.095030546
0.05523914 -0.26971212 0.14871562 0.17763346 0.16046616 -0.20077984 0.12424043 -0.10729545
0.014353067 -0.03339374 -0.13077986 -0.13709688 0.1633848 -0.062292114 0.17379522 0.14404014
0.22050378 -0.15543672 0.10830584 0.16173956 -0.1393883 -0.1580347 0.16306731 0.11375442
-0.04286608 0.1891954 -0.013697952 0.19531235 -0.025126815 0.16234735 0.12451708 -0.23623279
0.29364178 0.24723908 0.13592136 0.12400624 0.20178607 -0.08469282 0.25106677 -0.2566583
-0.28726646 -0.04938394 -0.2148635 0.10725775 0.02468574 0.09759641 0.25117555 -0.11150886
0.29531035 0.14842868 -0.24435872 -0.1409302 -0.1605239 0.12138319 0.18889228 -0.19571084

mlp_extractor.value_net.2.bias f4 [64]
00000000: 0000 0000 0000 0000 0000 0000 0000 0000
00000010: 0000 0000 0000 0000 0000 0000 0000 0000
00000020: 0000 0000 0000 0000 0000 0000 0000 0000
00000030: 0000 0000 0000 0000 0000 0000 0000 0000
00000040: 0000 0000 0000 0000 0000 0000 0000 0000
00000050: 0000 0000 0000 0000 0000 0000 0000 0000
00000060: 0000 0000 0000 0000 0000 0000 0000 0000
00000070: 0000 0000 0000 0000 0000 0000 0000 0000
00000080: 0000 0000 0000 0000 0000 0000 0000 0000
00000090: 0000 0000 0000 0000 0000 0000 0000 0000
000000a0: 0000 0000 0000 0000 0000 0000 0000 0000
000000b0: 0000 0000 0000 0000 0000 0000 0000 0000
000000c0: 0000 0000 0000 0000 0000 0000 0000 0000
000000d0: 0000 0000 0000 0000 0000 0000 0000 0000
000000e0: 0000 0000 0000 0000 0000 0000 0000 0000
000000f0: 0000 0000 0000 0000 0000 0000 0000 0000
0.0 0.0 0.0 0.0 0.0 0.0 0.0 0.0
0.0 0.0 0.0 0.0 0.0 0.0 0.0 0.0
0.0 0.0 0.0 0.0 0.0 0.0 0.0 0.0
0.0 0.0 0.0 0.0 0.0 0.0 0.0 0.0
0.0 0.0 0.0 0.0 0.0 0.0 0.0 0.0
0.0 0.0 0.0 0.0 0.0 0.0 0.0 0.0
0.0 0.0 0.0 0.0 0.0 0.0 0.0 0.0
0.0 0.0 0.0 0.0 0.0 0.0 0.0 0.0

action_net.weight f4 [2, 64]
00000000: 9686 3bbe f440 ca3d 0b27 06be 40f4 123d
00000010: 60af 4bbd a219 d6bd f095 d23d 1e6c 6c3e
00000020: 68bf 31be 623d 80be 805c 62bd 3b62 953e
00000030: cb6e 76be 5acf 5d3e 1052 753d 960f 433e
00000040: 4a1c 363e 409f 623c b711 20be 6026 3ebc
00000050: 9080 8d3c 0743 02be acb4 873d 5eac 82be
00000060: 96aa 6c3e 4a78 7c3e 809a 01bd a069 1f3c
00000070: 5aa7 81be debc 88be 603a 0abd 9803 20bd
00000080: 7490 6fbe a00e a83d 50ff 1ebd 1019 1ebe
00000090: e066 c6bc c81e b4bd 5a4c 563e a914 99be
000000a0: a00d e4bc 3258 87be b0d6 813c 1ebe 01be
000000b0: 6e77 2d3e 70f4 6bbe 4e56 383e f07a 453d
000000c0: b2db 613e 0f28 98be c269 47be b0b9 053e
000000d0: 4e33 743e 2242 043e fdb6 84be 3a9d 333e
000000e0: bf02 9c3e a390 80be 3ed6 11be 039a 2dbe
000000f0: 143f 53be a790 3fbe d8f1 e6bd 777a 82be
00000100: f280 503e 488c b4bd 1f8b 0bbe 5e33 753e
00000110: 46cc 4d3e 38ea eb3d c0de c93b f89b d83d
00000120: 1a51 1c3e b0f5 c63c 8858 b7bd 0985 8fbe
00000130: 72d1 683e 9785 953e f240 fbbd ff3c 0ebe
00000140: 74ab 42be 9387 11be b844 3abd 9ad2 4dbe
00000150: a890 65be cac9 653e 151c 993e e188 21be
00000160: d037 b03d 5051 aebc 6879 a43d 005c 653d
00000170: 4650 7a3e e39f 88be 4003 6b3c 54d2 883d
00000180: dc8e b73d 5ab1 6a3e 5e9b a3bd 1088 253d
00000190: f095 073e 812d 823e 9212 6dbe a951 8c3e
000001a0: c2ef 4e3e 5534 82be 106c 32bd 809b 44bd
000001b0: 4004 7ebe fadb f8bd e2ec 153e 10cf 9a3c
000001c0: 94bf 7cbe f9e0 903e 0f6b 9bbe 2673 1d3e
000001d0: 20b8 b8bd e0d4 d5bd 84c8 60be c6df 6dbe
000001e0: 5a74 353e 7a99 193e a7a1 903e e0f8 afbd
000001f0: 26fb 583e 00c1 b0bb 6e29 643e 47fd 9abe
-0.18313059 0.0987567 -0.13100831 0.035877466 -0.049727798 -0.10454108 0.102825046 0.23088118
-0.17358172 -0.2504683 -0.055263996 0.29176506 -0.24065702 0.2166113 0.059892714 0.19048914
0.17784229 0.0138319135 -0.15631758 -0.011605829 0.017273217 -0.12720881 0.06626257 -0.2552213
0.23111948 0.24655262 -0.031641483 0.009729773 -0.25322992 -0.26706594 -0.033747077 -0.039065927
-0.23394948 0.082059145 -0.038817704 -0.15439248 -0.024218976 -0.087949336 0.20927563 -0.29898575
-0.027838528 -0.26434475 0.015849441 -0.1267018 0.1694009 -0.23042464 0.18001673 0.048212945
0.22056463 -0.29718062 -0.19473937 0.13059115 0.23847696 0.12915853 -0.2592086 0.17540446
0.30470845 -0.2511035 -0.14241883 -0.16953282 -0.20629531 -0.18707524 -0.11276597 -0.25484058
0.20361689 -0.08815819 -0.13627289 0.23945376 0.20097455 0.11519283 0.006160587 0.10576624
0.15265313 0.024287075 -0.08952433 -0.28031185 0.22736147 0.29203483 -0.12268247 -0.13890456
-0.19010717 -0.14211874 -0.04547569 -0.2009987 -0.22418463 0.22440258 0.29904237 -0.15774871
0.086043954 -0.021279007 0.08030969 0.05599594 0.24444684 -0.26684484 0.014344037 0.06680742
0.08962795 0.22919217 -0.07988618 0.040412962 0.1324079 0.25425342 -0.23151615 0.27406052
0.20208648 -0.2543055 -0.043560088 -0.04799986 -0.24806309 -0.12151332 0.14641145 0.018897563
-0.24682456 0.2829664 -0.30355117 0.15375957 -0.09019494 -0.10440993 -0.2195149 -0.23229894
0.17720166 0.14999953 0.2824833 -0.08592391 0.21189556 -0.005394101 0.22281429 -0.3027136

action_net.bias f4 [2]
00000000: 0000 0000 0000 0000
0.0 0.0

value_net.weight f4 [1, 64]
00000000: 8834 70be dcd9 0d3e 6c5f 203e 48e2 bdbd
00000010: c676 b8bd 08af 70be e0d1 12bc 3fc2 943e
00000020: aa55 4d3e 0ca4 e03d 461e 81be 4083 6c3d
00000030: dc16 333e 00e4 783b 52e3 013e 8063 823b
00000040: 40a9 ce3b ddea 993e d9a8 1dbe aeb6 cebd
00000050: 80e3 673d 9847 183e e4a7 cabd c899 a1bd
00000060: 6c04 ba3d c4a7 233e 3668 9bbe 1c27 93be
00000070: 228b 45be 1883 2abd 485f b63d 46dd 93be
00000080: e898 7bbe 7c9c 3c3e c67c febd 3ce7 7ebe
00000090: 4e12 5abe 0013 2d3d 25b1 8a3e c885 6dbe
000000a0: 09f4 85be 4014 e0bc 5619 493e aeb5 f4bd
000000b0: 82a7 6bbe ab79 9c3e 2a03 8abe 1e59 383e
000000c0: 38a4 a0bd 3805 1a3e 47e2 1ebe b30f 90be
000000d0: bea5 14be 7cc9 48be 1091 e23c b28c 4a3e
000000e0: f621 723e 78df f3bd 6302 803e 623b 4fbe
000000f0: c8c2 9abe 96ac 89be 28b3 3fbe 54fe 2c3e
-0.23457539 0.13852638 0.156614 -0.09271675 -0.09007029 -0.23504269 -0.008961171 0.29054448
0.2005221 0.109687895 -0.2521841 0.057742357 0.17489189 0.0037977695 0.12684372 0.0039791465
0.0063067973 0.30062 -0.15396442 -0.10093437 0.056613445 0.14871061 -0.09895304 -0.078906596
0.09082875 0.15981966 -0.30352944 -0.28740776 -0.19291356 -0.041628927 0.08904892 -0.28879756
-0.24570048 0.18419069 -0.124261424 -0.24892896 -0.21296045 0.042254448 0.27088276 -0.23195565
-0.26162747 -0.027353406 0.19638571 -0.11948715 -0.23013118 0.30561575 -0.2695554 0.18002746
-0.07843822 0.15041053 -0.15516005 -0.28136978 -0.1451635 -0.1960811 0.027657062 0.19780234
0.23645768 -0.11907858 0.2500182 -0.20237496 -0.3022673 -0.26889485 -0.18720686 0.16893893
