policies/LunarLander/pure_random_a2c.pt (torch, 44151 bytes, 12 tensors)

log_std f4 [2]
-1.9716582 -1.9503516
00000000: 4c5f fcbf 1fa5 f9bf

mlp_extractor.policy_net.0.weight f4 [64, 8]
-2.9046155e-06 -2.5126081e-07 4.6542291e-07 3.8988645e-07 1.667031e-06 2.8535826e-06 -1.9935642e-06 2.4847083e-07
-1.4512797e-06 -1.0191683e-06 4.8981387e-06 1.4591714e-06 8.9071136e-07 4.0181076e-06 2.14141e-07 5.25583e-07
-1.28965e-07 6.677559e-07 9.509099e-07 4.570299e-06 -2.6249327e-06 -3.3974374e-07 -9.201604e-07 -8.8258264e-07
2.0561408e-06 3.247305e-06 -1.6126778e-06 1.4114336e-06 3.236545e-06 2.106247e-06 4.955177e-07 2.0544459e-07
-1.1233174e-07 -3.9492356e-06 -8.207219e-07 6.479805e-06 -1.0670855e-06 -7.010693e-07 1.5447397e-06 1.0543503e-06
-1.6290282e-06 7.696881e-07 2.224258e-06 3.1332706e-06 -6.756523e-07 1.1236573e-06 -1.4875806e-06 -1.0800624e-06
-7.404251e-08 -7.5277296e-07 3.952396e-08 -2.8402258e-06 2.9219336e-07 -1.114806e-06 3.7310613e-07 3.6169078e-07
4.6484624e-06 3.2868868e-06 -5.1580832e-06 -2.7694666e-06 -6.094113e-06 -4.2195663e-07 1.6723341e-06 -3.085518e-06
-1.4462516e-06 -3.242837e-06 3.9662687e-06 -3.9210835e-07 9.659757e-07 -1.6252225e-06 1.3187697e-06 2.1717744e-06
5.3049876e-06 2.3703244e-06 -1.0185348e-06 -3.609864e-06 -4.110416e-06 -1.3267681e-06 6.333693e-07 1.1403321e-06
-1.3523726e-06 -2.8444051e-06 -1.408023e-06 6.2836943e-07 -1.6482912e-06 -2.2401405e-06 -2.5424063e-07 -1.5869838e-06
-3.0556705e-06 -2.5313932e-08 -9.020903e-07 3.5119501e-06 -1.3699561e-07 -3.2458265e-06 4.5338678e-07 -7.400465e-07
-1.6053806e-06 -2.1558656e-06 -1.8934519e-06 3.7920922e-06 1.2584036e-06 -9.076559e-07 -1.6374514e-06 -4.2815668e-07
1.2520937e-06 -5.2276596e-06 -1.655162e-05 -1.2713411e-05 -6.2712875e-06 -1.8843152e-06 -2.0109119e-06 3.232668e-06
1.0367964e-06 6.5562745e-08 -1.8258301e-07 -1.2762769e-06 -3.0772023e-07 -1.3108312e-06 1.5433217e-07 5.767139e-07
-5.150499e-07 -1.234253e-06 3.6971871e-06 -2.4481496e-06 -9.856308e-06 4.2308507e-06 -7.727141e-07 -1.6922575e-06
-9.939341e-07 -1.2988128e-06 1.4083712e-06 1.124189e-05 2.1808886e-07 1.1827684e-06 -3.9964584e-07 3.686668e-07
-2.4501605e-07 -2.7841254e-06 3.9145525e-06 -3.055579e-06 -6.260351e-06 -1.0350885e-06 2.6997208e-08 2.0999132e-06
5.774064e-06 1.5497999e-06 -6.4044675e-06 -4.2372617e-06 5.4694834e-07 -1.7249704e-06 -1.8243738e-06 -6.9550475e-07
-1.189409e-06 -1.823338e-07 3.322129e-08 3.2619805e-06 -3.974839e-07 1.6903797e-06 7.5764666e-07 -1.0703667e-06
-2.9318014e-06 4.9203054e-06 6.226366e-06 1.6064087e-05 2.079554e-06 8.540788e-07 -4.2180627e-06 -1.424162e-06
-3.2261843e-07 1.2778411e-06 3.1695367e-07 -1.071121e-06 4.018568e-07 2.6420041e-06 2.8574541e-07 -3.184999e-06
-2.8995196e-06 -4.156498e-06 -2.5186375e-06 5.0966396e-06 -4.812033e-06 2.2222974e-07 2.2409515e-06 2.8485722e-06
3.91825e-06 5.9019635e-06 -3.6610056e-06 -2.7803785e-06 4.971374e-06 -3.9032e-06 -1.6163692e-06 2.5367028e-06
-1.5646484e-06 -2.2439292e-06 5.3687654e-06 -1.431549e-07 3.533292e-06 -1.9641398e-06 2.3551472e-06 -1.1357695e-06
-3.8321486e-06 -5.6717136e-06 -6.490776e-07 2.452678e-06 -5.1756206e-06 4.732525e-06 -1.7513373e-06 -2.0761825e-06
-4.7188673e-06 -3.2998537e-06 2.9589712e-06 1.403582e-06 4.4965202e-07 5.2095206e-06 1.2684694e-06 -1.0090041e-06
2.598704e-07 9.805412e-07 -4.010889e-06 8.349915e-06 -3.799086e-06 -1.2619617e-05 -8.027242e-07 1.9699144e-06
4.8737135e-08 7.8025846e-07 1.9878041e-06 -9.545782e-06 -1.3137118e-06 1.7227144e-06 1.7356676e-06 2.5738248e-06
-3.042664e-07 -1.1998427e-08 -1.6316878e-07 1.5812871e-07 9.121893e-07 -5.8248327e-07 -6.341999e-07 1.4502419e-06
1.9481117e-06 6.0494436e-08 1.6496193e-06 -1.6729018e-06 -4.391726e-07 1.2730095e-06 1.8441518e-06 1.2637088e-07
1.18103685e-07 3.3965293e-07 3.30261e-07 9.673703e-07 -1.2035038e-06 -2.1831212e-07 2.781648e-07 -5.5681845e-08
00000000: eaec 42b6 06e5 86b4 3ddf f934 9651 d134
00000010: c0be df35 2d80 3f36 2cc9 05b6 9265 8534
00000020: 97c9 c2b5 5bca 88b5 b15a a436 bfd8 c335
00000030: 3819 6f35 48d3 8636 a1ee 6534 ca15 0d35
00000040: a179 0ab4 d63f 3335 0842 7f35 925a 9936
00000050: 0028 30b6 0666 b6b4 f100 77b5 9eea 6cb5
00000060: 3bfc 0936 46ec 5936 3073 d8b5 7d70 bd35
00000070: 6b33 5936 0c59 0d36 b803 0535 2e98 5c34
00000080: 073b f1b3 ad83 84b6 944f 5cb5 1a6d d936
00000090: c738 8fb5 1e31 3cb5 da54 cf35 3383 8d35
000000a0: fca4 dab5 909c 4e35 7644 1536 2e45 5236
000000b0: 795e 35b5 92d0 9635 e1a8 c7b5 a9f6 90b5
000000c0: 4d01 9fb3 2a12 4ab5 0ec1 2933 b59a 3eb6
000000d0: c0de 9c34 71a0 95b5 514f c834 672e c234
000000e0: fdf9 9b36 4994 5c36 9913 adb6 13db 39b6
000000f0: 087c ccb6 4789 e2b4 f674 e035 cc10 4fb6
00000100: d41c c2b5 849f 59b6 fd15 8536 f682 d2b4
00000110: aca6 8135 3822 dab5 9500 b135 cdbe 1136
00000120: 7f01 b236 dd11 1f36 97b4 88b5 fe40 72b6
00000130: 34ec 89b6 6813 b2b5 cf04 2a35 830d 9935
00000140: 2b83 b5b5 82e2 3eb6 4dfb bcb5 38ad 2835
00000150: db3a ddb5 5255 16b6 917e 88b4 5900 d5b5
00000160: 0510 4db6 ed71 d9b2 2c27 72b5 d8ae 6b36
00000170: 1119 13b4 e0d2 59b6 0169 f334 9ca7 46b5
00000180: 7578 d7b5 7dad 10b6 8322 feb5 a67b 7e36
00000190: 6be6 a835 a3a5 73b5 67c6 dbb5 68dd e5b4
000001a0: 9d0d a835 4169 afb6 55d8 8ab7 af4b 55b7
000001b0: f36d d2b6 94e8 fcb5 34f3 06b6 d0f0 5836
000001c0: 0e28 8b35 80cb 8c33 090c 44b4 8a4c abb5
000001d0: bf34 a5b4 d1ef afb5 81b6 2534 7acf 1a35
000001e0: f641 0ab5 9ca8 a5b5 311d 7836 e44a 24b6
000001f0: 855c 25b7 bbf6 8d36 826c 4fb5 8621 e3b5
00000200: 5167 85b5 de52 aeb5 4407 bd35 8d9b 3c37
00000210: cf2b 6a34 9dbf 9e35 e88e d6b4 2eed c534
00000220: c08a 83b4 e9d6 3ab6 c059 8336 730e 4db6
00000230: 0110 d2b6 5fed 8ab5 7de7 e732 3cec 0c36
00000240: d5be c136 b802 d035 f5e5 d6b6 cd2d 8eb6
00000250: 01d2 1235 8885 e7b5 02dd f4b5 b9b2 3ab5
00000260: c8a3 9fb5 89c7 43b4 32af 0e33 66e8 5a36
00000270: c565 d5b4 01e1 e235 1561 4b35 85a9 8fb5
00000280: f7bf 44b6 1a19 a536 14ec d036 5dc1 8637
00000290: 778e 0b36 d943 6535 e288 8db6 d525 bfb5
000002a0: 5734 adb4 4982 ab35 c829 aa34 70c3 8fb5
000002b0: c7be d734 494d 3136 8d68 9934 debd 55b6
000002c0: 5e95 42b6 0c78 8bb6 dd05 29b6 cd03 ab36
000002d0: 0c77 a1b6 0c9e 6e34 4163 1636 192a 3f36
000002e0: 8379 8336 7b09 c636 99af 75b6 8a96 3ab6
000002f0: c7cf a636 3cf8 82b6 06f2 d8b5 393c 2a36
00000300: e900 d2b5 6996 16b6 5825 b436 1fb6 19b4
00000310: 7f1d 6d36 aacf 03b6 1f0d 1e36 be70 98b5
00000320: e895 80b6 a64f beb6 463c 2eb5 b098 2436
00000330: 3eaa adb6 15cc 9e36 7e0f ebb5 8b54 0bb6
00000340: c356 9eb6 0e73 5db6 bd92 4636 b662 bc35
00000350: b467 f134 71cd ae36 4740 aa35 1e6d 87b5
00000360: 5184 8b34 249b 8335 4695 86b6 9d16 0c37
00000370: cdf3 7eb6 d8b8 53b7 c97a 57b5 df32 0436
00000380: 0c53 5133 f472 5135 3766 0536 d226 20b7
00000390: cb52 b0b5 0438 e735 16f5 e835 f9b9 2c36
000003a0: 0e5a a3b4 a421 4eb2 7e33 2fb4 17ca 2934
000003b0: 2cdd 7435 f25b 1cb5 e33d 2ab5 efa5 c235
000003c0: 4ebc 0236 2be9 8133 7d68 dd35 7888 e0b5
000003d0: 6cc7 ebb4 46dc aa35 9384 f735 90b0 0734
000003e0: 30a0 fd33 8b59 b634 ba4e b134 97d6 8135
000003f0: 1388 a1b5 2e69 6ab4 ae56 9534 d626 6fb3

mlp_extractor.policy_net.0.bias f4 [64]
4.9498667e-06 5.7711077e-07 3.4334932e-06 6.5738664e-06 -6.1399537e-06 -1.93212e-06 -1.5134688e-07 3.573371e-06
-4.4838107e-06 1.201085e-06 -5.4027514e-06 7.308817e-07 5.367497e-07 1.1834562e-05 -4.0105988e-08 -4.659964e-06
-2.1025407e-06 -5.8501187e-06 1.4154207e-06 2.960879e-07 5.568177e-07 8.8433603e-07 -6.2951053e-06 5.567769e-06
-4.610631e-06 -1.5758052e-06 -3.1535294e-06 7.061515e-07 1.7354473e-06 6.5042934e-07 -2.213728e-06 -3.7572481e-06
-6.7451588e-06 1.2175403e-06 -1.470219e-06 3.7229568e-06 6.5939696e-07 3.5804178e-06 -9.176119e-07 3.0750596e-06
-3.6880333e-06 2.6028567e-06 -1.6131664e-06 1.340017e-06 -3.8598746e-06 -7.266019e-07 6.241111e-08 -9.715354e-07
1.9606246e-06 -1.3944323e-06 -2.147382e-06 1.9218476e-06 -1.8131977e-06 -2.092501e-06 -8.054859e-06 4.1110567e-07
1.1110192e-06 -4.8408706e-06 1.4370512e-07 6.0337544e-07 6.7152445e-07 1.5643179e-06 -2.590523e-06 3.3603092e-06
00000000: 0817 a636 c0ea 1a35 f76a 6636 1595 dc36
00000010: cd05 ceb6 92a9 01b6 ea81 22b4 0cce 6f36
00000020: a473 96b6 f734 a135 4849 b5b6 cf31 4435
00000030: 2915 1035 0f8d 4637 0041 2cb3 c95c 9cb6
00000040: 6019 0db6 234c c4b6 7cf9 bd35 03f6 9e34
00000050: 3978 1535 1c63 6d35 8b3a d3b6 c6d2 ba36
00000060: 05b5 9ab6 4180 d3b5 39a1 53b6 5d8e 3d35
00000070: 84ed e835 2a99 2e35 8f8f 14b6 0825 7cb6
00000080: 7954 e2b6 5e6a a335 5754 c5b5 e9d7 7936
00000090: 6a01 3135 1c47 7036 cf51 76b5 1f5d 4e36
000000a0: ee7f 77b6 bdac 2e36 fa83 d8b5 a2da b335
000000b0: 1284 81b6 b40b 43b5 df06 8633 b465 82b5
000000c0: 4693 0336 5428 bbb5 be1b 10b6 17f9 0036
000000d0: 005d f3b5 e56c 0cb6 5b23 07b7 efb5 dc34
000000e0: 541e 9535 c36e a2b6 5d4d 1a34 a5f7 2135
000000f0: cf42 3435 8ef5 d135 d9d8 2db6 ac81 6136

mlp_extractor.policy_net.2.weight f4 [64, 64]
3.0000823e-13 -3.174809e-14 -4.2218328e-13 1.499527e-13 -1.9457158e-15 -1.7413137e-14 5.077638e-14 2.839132e-13
-1.0782982e-13 -2.0086724e-13 3.8398085e-13 -8.479611e-14 7.2891156e-14 3.4506697e-13 -6.522222e-14 -1.0158095e-12
4.909239e-13 5.6632867e-13 4.5817647e-13 3.358822e-13 4.875671e-13 4.0408332e-13 3.1598349e-13 2.6371193e-13
1.0774962e-13 -1.709198e-13 -5.4297688e-15 2.463131e-13 -4.1167053e-13 2.2053472e-14 -2.9528788e-13 1.2606451e-14
-1.6967582e-13 4.047477e-13 -2.8516344e-13 -6.239625e-14 2.4627994e-13 1.0368349e-12 -2.011365e-13 -5.170443e-14
4.895701e-13 5.2885994e-13 -5.5851607e-13 -2.1099611e-13 5.3718873e-13 -2.2943087e-13 -2.2261857e-13 -1.313863e-14
4.0901798e-13 3.3147435e-14 -1.801271e-13 1.1061446e-13 -1.8392808e-13 -4.1103308e-13 -2.5677315e-13 1.1615746e-13
-2.9008176e-15 -2.2181717e-13 -1.6552893e-13 -1.9411247e-14 1.4658552e-13 5.9585794e-13 -9.006106e-14 1.4554521e-14
2.4394456e-10 5.9088257e-10 -1.290063e-10 1.830472e-10 -5.492582e-10 -8.469119e-11 8.8184494e-11 -3.452661e-10
1.5225607e-10 2.3315525e-10 -2.6672356e-10 5.31718e-11 -2.5252205e-11 6.2141176e-10 4.874898e-11 2.8529917e-10
-2.1051326e-10 -1.0730686e-10 9.6929215e-11 -4.8705887e-11 -4.5325563e-10 -1.8829353e-10 -1.7426541e-10 -1.3525181e-10
1.350724e-10 3.0148446e-11 1.36369535e-11 -4.24932e-10 2.702554e-10 -4.5894642e-11 -1.2170548e-10 -2.4166125e-10
-1.0071388e-09 -2.6184166e-11 -4.6157922e-10 2.5066407e-10 -1.4511493e-10 -8.265874e-10 3.97525e-10 -7.15647e-11
-2.6157387e-10 3.4576225e-10 1.6678775e-10 1.9532628e-10 -3.9604744e-10 1.741734e-09 -4.472554e-11 -1.7368339e-10
-2.8226293e-11 2.5659377e-10 7.308606e-11 1.3220453e-10 -7.311686e-11 1.8749396e-10 -6.9472844e-11 1.0356335e-10
-4.8416014e-06 1.0233161e-09 2.0135242e-10 3.5500092e-11 6.05796e-10 -3.744533e-10 -1.4267681e-10 -6.615771e-11
-3.9145325e-06 4.6464856e-06 -1.8022039e-06 -2.5119355e-06 -7.872031e-06 5.666335e-07 1.3310396e-06 3.0770613e-07
3.1978063e-06 3.4115276e-06 -3.4302595e-06 -5.1151223e-06 -1.0775119e-05 -2.4671501e-06 -7.0044246e-07 -5.0785925e-06
5.5185897e-06 8.01366e-07 -9.115382e-06 -2.3369498e-06 1.0469181e-05 -4.526056e-06 2.8784423e-06 -3.6951621e-06
7.20973e-06 2.8524275e-06 2.0464422e-06 -1.0598191e-05 -2.6609134e-06 -6.0503254e-08 4.392068e-06 1.2441857e-06
-7.1003938e-06 4.571878e-06 -5.0017456e-06 1.2810638e-06 -3.5936694e-06 -2.123176e-06 7.6798415e-06 -1.0663674e-06
-2.270359e-06 2.7065666e-06 7.198461e-06 5.874809e-06 1.9917484e-06 8.450627e-07 3.2241985e-06 -4.387952e-06
-5.502239e-06 5.1174493e-06 2.0074383e-06 -4.530961e-07 -2.6084194e-07 4.8321167e-06 1.6897847e-06 5.4703323e-06
-1.4903503e-06 4.0491113e-06 -3.5740575e-06 -8.035541e-07 7.1546483e-06 3.2162795e-06 -4.2791447e-07 -2.7720582e-06
-5.5154615e-08 8.1759115e-09 -3.688557e-08 -2.8456097e-09 1.4872178e-08 1.1020022e-08 5.5831105e-08 -5.2137302e-08
1.3572623e-08 4.5893138e-08 -2.0751699e-08 -5.366502e-08 -1.7268398e-08 6.767792e-08 1.7948484e-08 2.4607683e-08
1.7972633e-07 8.01713e-08 9.113449e-08 1.6874235e-08 1.0331681e-07 -1.311272e-07 3.5619756e-08 4.5440365e-07
-1.11994495e-07 1.8917438e-08 7.54553e-08 3.8661195e-08 -8.863053e-08 8.1710525e-08 -3.493313e-08 1.0970801e-08
2.4525109e-08 3.000985e-08 1.0068628e-07 -1.1443421e-08 -1.4315904e-08 4.5844857e-08 -1.3928884e-08 4.2401776e-08
2.3098162e-08 -8.4664925e-10 2.2706573e-08 -1.8599518e-08 1.2156072e-07 -6.30186e-08 -1.8718181e-07 2.551321e-08
-3.7924764e-08 2.1672667e-08 -3.695652e-08 -6.558504e-08 2.1421272e-08 -1.7303675e-07 -1.7822481e-08 -2.0067278e-08
-8.9270706e-08 4.466573e-08 -3.2982992e-08 -4.8415266e-08 2.8142457e-08 -7.839885e-08 1.0369072e-07 -6.6859315e-08
00000000: bee3 a82a 0efb 0ea9 06ab edaa ecd4 282a
00000010: 1f34 0ca7 f6d7 9ca8 2ead 6429 34d4 9f2a
00000020: a9cf f2a9 0a28 62aa 7929 d82a a1f1 bea9
00000030: e422 a429 6441 c22a 0dde 92a9 65f6 8eab
00000040: cc2e 0a2b 4868 1f2b 18f7 002b ba15 bd2a
00000050: ea3c 092b 8b7a e32a 05e2 b12a e574 942a
00000060: 6da1 f229 4770 40aa c7a0 c3a7 75a9 8a2a
00000070: fabf e7aa d8a3 c628 783b a6aa fe18 6328
00000080: ba09 3faa 4ada e32a 6288 a0aa fd80 8ca9
00000090: aea4 8a2a eaeb 912b a675 62aa 26db 68a9
000000a0: 3ecd 092b 60dc 142b 5335 1dab 7d8f 6daa
000000b0: 8734 172b 7928 81aa 6fa5 7aaa 3caf 6ca8
000000c0: b441 e62a 6448 1529 1ace 4aaa e514 f929
000000d0: a915 4faa 1c64 e7aa e98c 90aa 1cc8 022a
000000e0: a406 51a7 72be 79aa 775e 3aaa 4ad7 aea8
000000f0: 660a 252a 17b8 272b abcc caa9 7118 8328
00000100: 251c 862f aa6b 2230 0cd8 0daf 3543 492f
00000110: 9cfa 16b0 e73c baae 75eb c12e e2cf bdaf
00000120: 4668 272f af2d 802f 01a2 92af 20da 692e
00000130: e91e dead f7cf 2a30 7966 562e 4ad8 9c2f
00000140: 3776 67af 64f8 ebae 4c26 d52e f435 56ae
00000150: 0f2e f9af eb07 4faf 5a9b 3faf 00b6 14af
00000160: 8083 142f 2298 042e 61e7 6f2d dd9b e9af
00000170: 1193 942f c6d8 49ae 0cd1 05af ccda 84af
00000180: 8c6b 8ab0 8051 e6ad 80c1 fdaf d5cd 892f
00000190: 398e 1faf eb35 63b0 ac8a da2f 585f 9dae
000001a0: 40cd 8faf b615 be2f 9462 372f 76c3 562f
000001b0: b9ba d9af d161 ef30 7bb4 44ae 87f7 3eaf
000001c0: f647 f8ad 5d10 8d2f cbb7 a02e 445c 112f
000001d0: 22c9 a0ae dc26 4e2f bcc5 98ae fcbc e32e
000001e0: 0a75 a2b6 bca4 8c30 ab63 5d2f 8d21 1c2e
000001f0: 1b85 2630 9edb cdaf f4df 1caf 7b7b 91ae
00000200: 9459 83b6 02e9 9b36 41e3 f1b5 b992 28b6
00000210: 1e12 04b7 c21a 1835 2ca6 b235 cf32 a534
00000220: e599 5636 99f1 6436 6933 66b6 91a2 abb6
00000230: c9c6 34b7 5191 25b6 0a06 3cb5 c768 aab6
00000240: 532c b936 741d 5735 45ee 18b7 7ed4 1cb6
00000250: caa4 2f37 86de 97b6 432b 4136 67fa 77b6
00000260: 1ceb f136 556c 3f36 9c55 0936 e2ce 31b7
00000270: 2592 32b6 04ee 81b3 945f 9336 e5fd a635
00000280: eb3f eeb6 2268 9936 abd4 a7b6 04f1 ab35
00000290: c52a 71b6 e37b 0eb6 abd8 0037 1b20 8fb5
000002a0: 785c 18b6 76a2 3536 4f8a f136 3a20 c536
000002b0: faa9 0536 44d8 6235 4f5f 5836 383c 93b6
000002c0: e09f b8b6 8eb6 ab36 87b7 0636 0e41 f3b4
000002d0: d809 8cb4 9123 a236 8fcc e235 cc8d b736
000002e0: 0c08 c8b5 9add 8736 d7d9 6fb6 d1b3 57b5
000002f0: f611 f036 43d7 5736 1ebc e5b4 9907 3ab6
00000300: 24e3 6cb3 0a76 0c32 1d6c 1eb3 7f8c 43b1
00000310: 8880 7f32 9252 3d32 f3ca 6f33 92ed 5fb3
00000320: 072d 6932 0a1c 4533 7841 b2b2 507d 66b3
00000330: 9c55 94b2 5456 9133 222d 9a32 de60 d332
00000340: ccfa 4034 a32a ac33 b7b5 c333 d6f2 9032
00000350: 04df dd33 f8cb 0cb4 56fc 1833 c3f4 f334
00000360: a081 f0b3 e37f a232 fd09 a233 6f0c 2633
00000370: 2655 beb3 d678 af33 6209 16b3 187a 3c32
00000380: 49ab d232 2ee4 0033 de38 d833 b398 44b2
00000390: 03f2 75b2 f4e6 4433 e14b 6fb2 3f1d 3633
000003a0: 6569 c632 a5b9 68b0 480c c332 c6c4 9fb2
000003b0: 5b86 0234 d754 87b3 25fc 48b4 2428 db32
000003c0: b8e2 22b3 b32a ba32 20ba 1eb3 c2d7 8cb3
000003d0: e001 b832 fbcb 39b4 0d18 99b2 6960 acb2
000003e0: 17b5 bfb3 7dd6 3f33 2fa9 0db3 26f1 4fb3
000003f0: ebbd f132 395c a8b3 93ac de33 4c94 8fb3

mlp_extractor.policy_net.2.bias f4 [64]
2.4843297e-10 -4.6420277e-07 -0.010702195 5.482817e-05 -0.0009552416 -0.0049775434 0.001616689 0.00078275206
-0.0023792165 0.00044150816 -0.0016597882 -0.0033283026 -4.2743326e-05 0.002671635 -0.006720052 0.000815696
-0.013260438 -0.003925013 0.004696491 5.0810886e-06 -1.5110672e-05 -0.00793814 0.0002899392 0.0021046102
0.00022510535 -0.0002518968 0.0026324114 0.0037617674 -3.14815e-05 -0.009591644 -3.8162256e-05 0.0008543004
5.9344455e-08 1.2768455e-05 -0.0035123662 0.009348598 0.00028275527 0.00037766862 -0.012412591 0.0068554184
-1.1186237e-07 0.015523625 -7.39272e-05 0.0023075778 -0.0018882711 0.0018353296 0.00016736938 -4.8202914e-05
7.467669e-05 0.00090456184 -0.0046058134 -2.8536095e-05 0.00019688472 0.00209604 -0.00059751194 0.0005263844
0.0015628684 -0.0046978565 -4.9066904e-05 0.0004989768 0.00010410631 -0.0074205766 0.0006009205 0.005388475
00000000: d593 882f 8b37 f9b4 4258 2fbc 4df7 6538
00000010: 2e69 7aba a91a a3bb 15e7 d33a 9a31 4d3a
00000020: a1ec 1bbb 397a e739 408d d9ba a71f 5abb
00000030: 4c47 33b8 9916 2f3b e233 dcbb 6fd4 553a
00000040: 4f42 59bc 659d 80bb 06e5 993b 387e aa36
00000050: d883 7db7 f90e 02bc fb02 9839 80ed 093b
00000060: 420a 6c39 0411 84b9 8984 2c3b fc87 763b
00000070: 010b 04b8 4526 1dbc 6910 20b8 21f3 5f3a
00000080: ebe1 7e33 1938 5637 ba2f 66bb dd2a 193c
00000090: c53e 9439 d301 c639 2e5e 4bbc 6ba3 e03b
000000a0: fd38 f0b3 cd56 7e3c 5d09 9bb8 bb3a 173b
000000b0: dd7f f7ba 718f f03a e07f 2f39 7c2d 4ab8
000000c0: be9b 9c38 1e20 6d3a 5dec 96bb cc60 efb7
000000d0: d772 4e39 b75d 093b 59a2 1cba 0ffd 093a
000000e0: 29d9 cc3a 7af0 99bb 30cd 4db8 c4cd 023a
000000f0: a653 da38 4f28 f3bb 1887 1d3a ce91 b03b

mlp_extractor.value_net.0.weight f4 [64, 8]
-0.05451796 0.14210685 0.09398592 0.30730096 0.2505892 -0.15215011 0.010887663 0.26518118
0.07506441 -0.03998734 -0.39496684 0.0037580575 -0.2003017 0.15212484 0.011933892 0.15102488
0.6202431 0.113603465 -0.08837192 0.037754025 0.15384762 0.045644727 -0.10524677 0.0057017975
0.033738524 -0.1697605 0.011282056 -0.29357487 0.2620952 -0.21487242 -0.32282674 0.19052967
0.004453369 -0.18433541 0.2530229 0.041315295 0.0017098 0.17422414 -0.023995902 -0.117600694
0.055043995 -0.024921587 0.0013554848 -0.13215722 -0.14691813 -0.057094403 0.0084464485 -0.08227001
-0.13989693 0.2605473 -0.29038143 0.08874179 -0.1074433 0.21641673 -0.026505668 0.3149402
0.042766497 -0.08767973 0.16703963 -0.28392315 -0.078812435 0.20531692 -0.104717344 0.17160097
0.014017082 0.10825828 -0.01659792 0.12551607 -0.011419753 -0.32619008 -0.36229375 0.09892169
0.07984832 0.32180417 0.10133401 0.009167729 0.14895788 -0.28419343 0.30453077 0.11801398
-0.20652258 -0.100365154 -0.13033104 0.14139979 -0.08271998 0.09463452 -0.011414983 0.10667231
0.07856557 0.4007953 -0.23594642 -0.28178284 0.046296917 0.04111248 0.11544822 0.020810673
0.08740815 0.14598829 0.10841439 0.062107004 0.18130727 -0.09088444 -0.13695908 -0.26390907
0.025535129 -0.015383485 0.263818 -0.20013686 0.3604377 0.15207355 -0.29163823 0.23814094
0.110358 0.085573636 0.21202773 -0.11470642 -0.34724277 -0.24503133 -0.063255735 0.111407466
0.05508464 -0.30081037 0.18045357 -0.22770652 0.015464786 0.063667096 0.41077366 0.28542668
-0.07046499 0.14919761 0.16747944 0.042513393 0.19584914 0.21915264 -0.20215723 -0.11851622
0.030585805 -0.16324806 0.034876265 0.13168554 -0.2728346 -0.2830759 -0.0016488528 0.15124458
-0.29384622 -0.21862608 0.08769108 -0.11785316 0.1630143 0.0015270872 0.048779123 -0.025471045
0.15952332 -0.23333362 0.14973597 -0.3281393 -0.08041705 0.265457 0.025925608 -0.20152657
0.00598839 0.10571943 -0.20270945 -0.104106866 0.07040333 -0.06068051 0.07791617 0.1603315
-0.21797572 0.015083104 -0.25082684 0.019555213 0.2290327 0.046605222 -0.093570516 0.14930499
-0.1569409 0.2013447 -0.040018458 -0.24463934 0.024454096 0.3154491 -0.14097115 -0.36205208
-0.047224842 -0.062389653 0.07751059 -0.09229174 0.18274732 0.015047348 -0.10838452 0.10747451
0.12540913 0.1346902 -0.04383439 0.032957975 0.03582323 -0.1651636 0.24897781 0.049123127
0.08401667 -0.001391321 -0.06879212 0.27790704 0.3590492 -0.05303385 0.13143362 -0.13990839
0.068212144 0.37768537 -0.20475169 -0.08741936 0.0032713732 0.31101394 0.12079735 0.15914582
-0.17662582 0.14182168 0.27852696 -0.42650613 -0.055411715 -0.043331686 -0.06611808 0.28219593
0.18715093 0.037356924 -0.05833379 -0.19908307 -0.11526657 -0.13049048 0.029791376 -0.22936192
0.20343809 0.0121667 0.32697272 0.04086255 0.19985479 0.05753283 0.293805 0.1011156
-0.272172 -0.04885633 -0.03920924 -0.048174743 -0.077179864 0.080384426 -0.053314798 -0.20652206
-0.18988326 -0.13262996 0.16877335 0.22116598 -0.3495963 -0.17994519 -0.13576005 -0.33015278
00000000: 394e 5fbd 7584 113e b17b c03d 8d56 9d3e
00000010: 3a4d 803e 3dcd 1bbe 2b62 323c d4c5 873e
00000020: 5fbb 993d c4c9 23bd 1839 cabe be49 763b
00000030: e41b 4dbe 9dc6 1b3e 5f86 433c 44a6 1a3e
00000040: 40c8 1e3f efa8 e83d 56fc b4bd f7a3 1a3d
00000050: 3b8a 1d3e f7f5 3a3d 9e8b d7bd 25d6 ba3b
00000060: 6831 0a3d b2d5 2dbe 5fd8 383c 724f 96be
00000070: 5831 863e 8407 5cbe 8c49 a5be 361a 433e
00000080: 91ed 913b 6cc2 3cbe 388c 813e 3a3a 293d
00000090: 5e1b e03a d067 323e 0e93 c4bc a2d8 f0bd
000000a0: d075 613d 5b28 ccbc 86aa b13a 3954 07be
000000b0: b571 16be d2db 69bd f962 0a3c 2e7d a8bd
000000c0: 2441 0fbe 7566 853e e0ac 94be 41be b53d
000000d0: 3c0b dcbd 599c 5d3e 6a22 d9bc d83f a13e
000000e0: ec2b 2f3d 6e91 b3bd 700c 2b3e 605e 91be
000000f0: 6a68 a1bd 993e 523e 0c76 d6bd 2ab8 2f3e
00000100: e7a7 653c 84b6 dd3d 5cf8 87bc 4987 003e
00000110: ea19 3bbc 6302 a7be 917e b9be 7497 ca3d
00000120: 8487 a33d 84c3 a43e 3588 cf3d 3e34 163c
00000130: 6a88 183e cd81 91be 75eb 9b3e 50b1 f13d
00000140: a87a 53be 3f8c cdbd 8075 05be 1bcb 103e
00000150: 1869 a9bd becf c13d e905 3bbc 0377 da3d
00000160: fce6 a03d 0b35 cd3e f09b 71be d745 90be
00000170: d6a1 3d3d 8f65 283d 1e70 ec3d 257b aa3c
00000180: 0b03 b33d f47d 153e 5d08 de3d ea63 7e3d
00000190: 9da8 393e 9f21 babd 003f 0cbe 171f 87be
000001a0: 0c2f d13c 030b 7cbc 2713 873e adf0 4cbe
000001b0: 4a8b b83e 2bb9 1b3e 9b51 95be 38db 733e
000001c0: 6003 e23d 3b41 af3d cc1d 593e 33eb eabd
000001d0: cec9 b1be 7ee9 7abe 398c 81bd 9929 e43d
000001e0: 6ea0 613d d103 9abe d2c8 383e e62b 69be
000001f0: 0460 7d3c e563 823d ed50 d23e 7223 923e
00000200: f34f 90bd 42c7 183e bb7f 2b3e 8622 2e3d
00000210: ad8c 483e 8d69 603e 4e02 4fbe a2b8 f2bd
00000220: 158f fa3c 802a 27be 6ada 0e3d 93d8 063e
00000230: fab0 8bbe 53ef 90be 521e d8ba dcdf 1a3e
00000240: 0373 96be 84df 5fbe 6297 b33d ff5c f1bd
00000250: 38ed 263e 8b28 c83a 9ecc 473d a7a8 d0bc
00000260: 155a 233e 02ef 6ebe 6354 193e e001 a8be
00000270: b2b1 a4bd fbe9 873e f161 d43c fb5c 4ebe
00000280: 423a c43b 6e83 d83d 1193 4fbe fb35 d5bd
00000290: 9f2f 903d 208c 78bd 8392 9f3d f12d 243e
000002a0: 0735 5fbe 201f 773c 606c 80be 4132 a03c
000002b0: 8c87 6a3e 1ee5 3e3d e6a1 bfbd 68e3 183e
000002c0: 1eb5 20be 4e2d 4e3e 65ea 23bd bc82 7abe
000002d0: f553 c83c 8b82 a13e be5a 10be e45e b9be
000002e0: d66e 41bd 4b8c 7fbd dfbd 9e3d 7403 bdbd
000002f0: 1d22 3b3e 2789 763c b4f8 ddbd 991b dc3d
00000300: 406b 003e 3aec 093e b08b 33bd f1fe 063d
00000310: 61bb 123d a620 29be 0af4 7e3e 5535 493d
00000320: ef10 ac3d fc5c b6ba e2e2 8cbd d549 8e3e
00000330: 4cd5 b73e 063a 59bd 8996 063e 2544 0fbe
00000340: cfb2 8b3d fa5f c13e 6daa 51be ec08 b3bd
00000350: 8964 563b 383d 9f3e 9a64 f73d 1ff7 223e
00000360: 66dd 34be b439 113e 169b 8e3e 035f dabe
00000370: 65f7 62bd 917c 31bd ea68 87bd fc7b 903e
00000380: 7ea4 3f3e 9303 193d 6aef 6ebd 6fdc 4bbe
00000390: e110 ecbd 4c9f 05be 0b0d f43c dadd 6abe
000003a0: 1352 503e d756 473c f868 a73e 7d5f 273d
000003b0: bca6 4c3e 8ba7 6b3d 9c6d 963e b215 cf3d
000003c0: 215a 8bbe 931d 48bd de99 20bd e152 45bd
000003d0: 7a10 9ebd 97a0 a43d 9e60 5abd 857a 53be
000003e0: c270 42be 26d0 07be ecd2 2c3e 5679 623e
000003f0: 49fe b2be 8d43 38be af04 0bbe c909 a9be

mlp_extractor.value_net.0.bias f4 [64]
0.0 0.0 0.0 0.0 0.0 0.0 0.0 0.0
0.0 0.0 0.0 0.0 0.0 0.0 0.0 0.0
0.0 0.0 0.0 0.0 0.0 0.0 0.0 0.0
0.0 0.0 0.0 0.0 0.0 0.0 0.0 0.0
0.0 0.0 0.0 0.0 0.0 0.0 0.0 0.0
0.0 0.0 0.0 0.0 0.0 0.0 0.0 0.0
0.0 0.0 0.0 0.0 0.0 0.0 0.0 0.0
0.0 0.0 0.0 0.0 0.0 0.0 0.0 0.0
00000000: 0000 0000 0000 0000 0000 0000 0000 0000
00000010: 0000 0000 0000 0000 0000 0000 0000 0000
00000020: 0000 0000 0000 0000 0000 0000 0000 0000
00000030: 0000 0000 0000 0000 0000 0000 0000 0000
00000040: 0000 0000 0000 0000 0000 0000 0000 0000
00000050: 0000 0000 0000 0000 0000 0000 0000 0000
00000060: 0000 0000 0000 0000 0000 0000 0000 0000
00000070: 0000 0000 0000 0000 0000 0000 0000 0000
00000080: 0000 0000 0000 0000 0000 0000 0000 0000
00000090: 0000 0000 0000 0000 0000 0000 0000 0000
000000a0: 0000 0000 0000 0000 0000 0000 0000 0000
000000b0: 0000 0000 0000 0000 0000 0000 0000 0000
000000c0: 0000 0000 0000 0000 0000 0000 0000 0000
000000d0: 0000 0000 0000 0000 0000 0000 0000 0000
000000e0: 0000 0000 0000 0000 0000 0000 0000 0000
000000f0: 0000 0000 0000 0000 0000 0000 0000 0000

mlp_extractor.value_net.2.weight f4 [64, 64]
-0.015546961 0.016157726 0.33641443 0.054746628 0.0021633555 0.1088942 -0.020421011 -0.050282687
0.035606183 0.25827825 -0.11705105 0.15808252 0.003089248 0.14988896 -0.11395018 0.09775984
0.20236568 -0.17674877 0.08473143 -0.17090386 0.10472125 -0.06306285 0.19975606 0.22952895
-0.26287496 0.09076254 -0.11733644 0.24462692 0.1472799 0.14776008 0.30400214 -0.13050047
-0.17763801 0.16120152 0.1003571 0.0046361913 0.10746688 -0.35012358 -0.47848293 -0.027598232
0.024964724 0.059063867 0.29465 -0.2865479 -0.032301296 0.109419815 0.2547911 0.0868044
0.08678462 0.039247718 -0.1521776 0.19664031 -0.3348678 -0.0026352154 0.038935766 -0.2795444
0.11998143 -0.40968752 0.19154389 -0.10115626 -0.012916325 -0.05702107 0.07578316 0.07608711
0.004301308 -0.042675707 -0.074468434 -0.120845854 0.0037158222 -0.4129318 0.119350456 -0.12001261
-0.009316152 -0.2592631 0.14809753 -0.15065056 -0.21736579 0.11234634 0.02587313 0.0687511
-0.106870316 -0.04440503 0.0004266219 -0.045227163 -0.102617584 -0.012000365 0.08802436 0.27136394
-0.10165728 0.07354508 -0.104347706 -0.10267965 -0.057665765 0.11456026 -0.03087017 -0.40561646
0.23672536 0.2504808 -0.0922951 -0.031494685 0.11722862 -0.20745176 0.010503648 -0.2455025
-0.2985502 0.34058344 -0.26264465 -0.14939986 0.061294835 -0.1541551 0.29157943 -0.0017805455
-0.37192607 0.019413888 0.1363925 0.19297971 0.043967497 -0.19576827 0.2573838 0.24412656
-0.11632939 -0.17698346 -0.050411686 0.192469 -0.0662411 0.4020402 -0.08993206 0.037502583
-0.07750696 0.0640563 0.06243162 0.09095485 0.2740085 0.07035971 -0.029373646 0.12951848
-0.06037884 -0.2548889 -0.24708252 -0.083107285 -0.038663454 0.072376475 -0.07042635 0.11860615
0.09582236 -0.20828938 -0.058160853 0.062467493 -0.25358853 0.42726097 0.17204899 -0.23223847
0.030144637 -0.25966513 -0.09651881 0.022883976 0.010982331 0.45660764 0.1499705 0.22289148
-0.13146782 -0.055993382 -0.33289868 -0.032264493 -0.04404516 -0.05119637 -0.0132208085 0.022740494
0.065562874 -0.10785854 0.019073635 0.0060212556 0.4017277 -0.20368247 0.08845868 -0.18584245
-0.14245631 0.06459618 -0.035829056 -0.047378067 -0.1068251 -0.0104218265 0.27044982 0.07585111
0.032460697 0.05165509 0.21450844 0.22891618 -0.2846713 -0.18532595 -0.11119701 -0.47023028
0.27906737 0.14302827 0.0053184116 0.027855864 -0.10784823 -0.09035048 -0.071174964 0.14958866
0.23305722 -0.10115177 0.007645353 0.0150999455 0.14355887 0.27603188 -0.01761855 0.12502655
-0.07795706 0.16217272 0.32206127 0.016949676 -0.2870675 0.23049313 -0.23178566 0.20900369
-0.14689748 0.078138545 -0.008976215 0.332145 -0.09879674 0.07326418 0.13674131 0.059019364
0.015397771 -0.053148214 0.10612234 -0.3104955 -0.18656878 -0.33406606 0.05402403 0.14835405
-0.36515945 -0.22594689 0.12925267 0.012051022 -0.397311 -0.12211616 -0.1315942 -0.22906308
-0.30889454 0.036916897 -0.22967792 -0.07694625 0.27551606 0.18448584 0.020034134 0.075225055
-0.099782206 0.006964988 -0.18555228 0.008511862 0.0420933 -0.23965637 0.17397112 0.004047794
00000000: aeb8 7ebc 355d 843c 833e ac3e 003e 603d
00000010: 15c7 0d3b ec03 df3d f749 a7bc 38f5 4dbd
00000020: cad7 113d 0c3d 843e 76b8 efbd 62e0 213e
00000030: fb74 4a3b 7e7c 193e b65e e9bd 5036 c83d
00000040: f338 4f3e a1fd 34be ac87 ad3d 6c01 2fbe
00000050: 1878 d63d 1827 81bd da8c 4c3e a309 6b3e
00000060: 8c97 86be b6e1 b93d 164e f0bd 7b7f 7a3e
00000070: 8bd0 163e 6b4e 173e 2ba6 9b3e eaa1 05be
00000080: bde6 35be 0312 253e 0688 cd3d 31eb 973b
00000090: 9817 dc3d 6643 b3be b7fb f4be b015 e2bc
000000a0: d282 cc3c f4ec 713d 5ddc 963e 68b6 92be
000000b0: 5d4e 04bd 7f17 e03d fb73 823e 81c6 b13d
000000c0: 23bc b13d 37c2 203d 72d4 1bbe 145c 493e
000000d0: cb73 abbe 94b3 2cbb 1c7b 1f3d 7220 8fbe
000000e0: d3b8 f53d 90c2 d1be 1524 443e 032b cfbd
000000f0: fe9e 53bc ed8e 69bd 3434 9b3d 8fd3 9b3d
00000100: fdf1 8c3b b9cc 2ebd e882 98bd 087e f7bd
00000110: 2785 733b cc6b d3be 036e f43d 2cc9 f5bd
00000120: c6a2 18bc 22be 84be e1a6 173e 2444 1abe
00000130: 2395 5ebe d715 e63d e3f3 d33c 60cd 8c3d
00000140: d3de dabd 0ce2 35bd 39ac df39 1e40 39bd
00000150: 2b29 d2bd 2e9d 44bc 1e46 b43d 37f0 8a3e
00000160: b131 d0bd ce9e 963d 40b4 d5bd b549 d2bd
00000170: f032 6cbd 929e ea3d 70e3 fcbc f6ac cfbe
00000180: 2268 723e 053f 803e 3705 bdbd 9200 01bd
00000190: 8f15 f03d 3c6e 54be 7e17 2c3c 0265 7bbe
000001a0: 92db 98be f460 ae3e 5c79 86be 47fc 18be
000001b0: 4b10 7b3d d6da 1dbe e649 953e 3161 e9ba
000001c0: 186d bebe e009 9f3c 7aaa 0b3e 799c 453e
000001d0: 4317 343d 7a77 48be cfc7 833e 50fc 793e
000001e0: 1a3e eebd 273b 35be 7c7c 4ebd 9816 453e
000001f0: 6aa9 87bd 37d8 cd3e 4d2e b8bd 4f9c 193d
00000200: f8bb 9ebd f32f 833d 4cb8 7f3d 8946 ba3d
00000210: d84a 8c3e c018 903d 00a1 f0bc 7ea0 043e
00000220: cd4f 77bd cc80 82be 3303 7dbe 2734 aabd
00000230: 925d 1ebd 1e3a 943d b13b 90bd c8e7 f23d
00000240: 833e c43d d049 55be 133a 6ebd eadd 7f3d
00000250: 5bd6 81be f3c1 da3e 9c2d 303e eccf 6dbe
00000260: e3f1 f63c d4f2 84be a7ab c5bd 2d77 bb3c
00000270: 3cef 333c 7ac8 e93e de91 193e aa3d 643e
00000280: 809f 06be 5159 65bd b271 aabe c627 04bd
00000290: b368 34bd 49b3 51bd 179c 58bc 464a ba3c
000002a0: d445 863d f0e4 dcbd 5040 9c3c f44d c53b
000002b0: 41af cd3e 2392 50be d329 b53d 7c4d 3ebe
000002c0: 11e0 11be 014b 843d 7dc1 12bd 810f 42bd
000002d0: 1ec7 dabd 4fc0 2abc 6678 8a3e d457 9b3d
000002e0: 82f5 043d 4a94 533d 1aa8 5b3e 0169 6a3e
000002f0: 70c0 91be 16c6 3dbe 42bb e3bd 06c2 f0be
00000300: ebe1 8e3e 0176 123e 1246 ae3b fb31 e43c
00000310: 88df dcbd ac09 b9bd 2ec4 91bd c52d 193e
00000320: 8da6 6e3e a928 cfbd df85 fa3b c365 773c
00000330: 1901 133e 0d54 8d3e c754 90bc f606 003e
00000340: f3a7 9fbd 9b10 263e 37e5 a43e 0cda 8a3c
00000350: 83fa 92be 6406 6c3e 3859 6dbe 1005 563e
00000360: 4b6c 16be 1a07 a03d f910 13bc e90e aa3e
00000370: f255 cabd 880b 963d ea05 0c3e 4abe 713d
00000380: ef46 7c3c f1b1 59bd ab56 d93d 44f9 9ebe
00000390: e30b 3fbe b50a abbe 4d48 5d3d 20ea 173e
000003a0: 2ef6 babe 9f5e 67be d05a 043e a671 453c
000003b0: 596c cbbe 0a18 fabd a1c0 06be 838f 6abe
000003c0: 6d27 9ebe 2c36 173d b030 6bbe ff95 9dbd
000003d0: 7110 8d3e dbe9 3c3e a01e a43c 980f 9a3d
000003e0: 9d5a ccbd 8e3a e43b 6b01 3ebe 5675 0b3c
000003f0: 066a 2c3d 7b68 75be 7c25 323e 5ba3 843b

mlp_extractor.value_net.2.bias f4 [64]
0.0 0.0 0.0 0.0 0.0 0.0 0.0 0.0
0.0 0.0 0.0 0.0 0.0 0.0 0.0 0.0
0.0 0.0 0.0 0.0 0.0 0.0 0.0 0.0
0.0 0.0 0.0 0.0 0.0 0.0 0.0 0.0
0.0 0.0 0.0 0.0 0.0 0.0 0.0 0.0
0.0 0.0 0.0 0.0 0.0 0.0 0.0 0.0
0.0 0.0 0.0 0.0 0.0 0.0 0.0 0.0
0.0 0.0 0.0 0.0 0.0 0.0 0.0 0.0
00000000: 0000 0000 0000 0000 0000 0000 0000 0000
00000010: 0000 0000 0000 0000 0000 0000 0000 0000
00000020: 0000 0000 0000 0000 0000 0000 0000 0000
00000030: 0000 0000 0000 0000 0000 0000 0000 0000
00000040: 0000 0000 0000 0000 0000 0000 0000 0000
00000050: 0000 0000 0000 0000 0000 0000 0000 0000
00000060: 0000 0000 0000 0000 0000 0000 0000 0000
00000070: 0000 0000 0000 0000 0000 0000 0000 0000
00000080: 0000 0000 0000 0000 0000 0000 0000 0000
00000090: 0000 0000 0000 0000 0000 0000 0000 0000
000000a0: 0000 0000 0000 0000 0000 0000 0000 0000
000000b0: 0000 0000 0000 0000 0000 0000 0000 0000
000000c0: 0000 0000 0000 0000 0000 0000 0000 0000
000000d0: 0000 0000 0000 0000 0000 0000 0000 0000
000000e0: 0000 0000 0000 0000 0000 0000 0000 0000
000000f0: 0000 0000 0000 0000 0000 0000 0000 0000

action_net.weight f4 [2, 64]
2.588011e-10 -5.2017407e-07 -0.008649284 4.5643574e-05 -0.00044056622 -0.004362836 0.0013337842 0.0012267339
-0.002019214 0.0005027743 -0.0013248556 -0.0041129994 -4.8092777e-05 0.0019046669 -0.0069339303 0.0010465925
-0.013566033 -0.0036285059 0.0056318236 4.5555835e-06 -3.0756953e-05 -0.0068322546 0.00027269043 0.00248079
0.00029546578 -0.00022797652 0.004053026 0.0034320028 -3.6806345e-05 -0.0073459786 -6.70334e-05 0.0009079261
2.565362e-08 1.5021996e-05 -0.0040771505 0.009471471 0.0003352135 0.00042135225 -0.012611011 0.007024562
-6.2635394e-07 0.015607383 -8.311167e-05 0.003383233 -0.0016207607 0.0017264464 0.0001875132 -5.5062734e-05
8.628992e-05 0.0009855925 -0.0055247215 -3.3189463e-05 0.00019741767 0.0017547219 -0.0006484938 0.00071532937
0.00095335144 -0.0033828525 -5.6277568e-05 0.00079841184 8.7171014e-05 -0.006729993 0.0006747145 0.006131345
8.421372e-11 -1.7732619e-07 -0.001492228 1.9445468e-05 0.00059015333 -0.0016800619 0.00031446572 0.00032199893
-0.0005517263 0.00015836177 -0.0004949802 -0.001206707 -1.6443211e-05 -1.4485776e-05 -0.0024722146 0.00028275314
-0.0050634337 -0.0010674357 0.0016167322 1.8627467e-06 -7.351653e-06 -0.0017857758 4.113561e-05 0.00080227095
9.128964e-05 -2.9759445e-05 0.0011979121 0.001342829 -1.1966818e-05 0.000834564 -1.7947114e-05 2.4096726e-05
1.7575434e-08 4.8142465e-06 -0.0011656287 0.0034615453 0.00010793145 0.00011776585 -0.004667692 0.0026031828
-1.2313016e-07 0.005660165 -2.7299204e-05 0.0009513889 -0.0003969777 0.00050400477 6.3907486e-05 -1.8114466e-05
2.621659e-05 6.35975e-05 -0.001771451 -1.0877468e-05 6.547593e-05 0.0004570529 -4.3779786e-05 0.00019598742
0.00036413723 7.647403e-05 -1.8924706e-05 0.0002076229 3.872158e-05 -0.0020076544 0.00022450152 0.0020239928
00000000: 0447 8e2f 17a2 0bb5 bab5 0dbc 6a71 3f38
00000010: ccfb e6b9 1ff6 8ebb 5fd2 ae3a 5cca a03a
00000020: ca54 04bb 9dcc 033a c7a6 adba 57c6 86bb
00000030: 3ab7 49b8 04a6 f93a 0636 e3bb d12d 893a
00000040: 1144 5ebc 3acc 6dbb 298b b83b 2adc 9836
00000050: 0701 01b8 1be1 dfbb e4f7 8e39 c094 223b
00000060: bfe8 9a39 fb0c 6fb9 3fcf 843b 74eb 603b
00000070: 8360 1ab8 89b6 f0bb 4894 8cb8 e401 6e3a
00000080: e85c dc32 fb06 7c37 9e99 85bb 3b2e 1b3c
00000090: 98bf af39 f1e8 dc39 6a9e 4ebc 4c2e e63b
000000a0: b722 28b5 1cb6 7f3c 3d4c aeb8 3bb9 5d3b
000000b0: b46f d4ba ee49 e23a 319f 4439 29f3 66b8
000000c0: 8cf6 b438 ff2e 813a b908 b5bb ea34 0bb8
000000d0: e701 4f39 b2fe e53a afff 29ba f184 3b3a
000000e0: 55ea 793a d9b2 5dbb 940b 6cb8 834c 513a
000000f0: 95cf b638 4687 dcbb 53df 303a 73e9 c83b
00000100: 1c30 b92e 0d67 3eb4 dd96 c3ba d31e a337
00000110: 85b4 1a3a 8635 dcba e0de a439 f7d1 a839
00000120: baa1 10ba ea0d 2639 8fc1 01ba 5e2a 9eba
00000130: 87ef 89b7 ef07 73b7 e104 22bb 7c3e 9439
00000140: 29eb a5bb 33e9 8bba 88e8 d33a 7d03 fa35
00000150: 38ae f6b6 b110 eaba 0689 2c38 7e4f 523a
00000160: c172 bf38 eca3 f9b7 4303 9d3a dd01 b03a
00000170: 18c5 48b7 a4c6 5a3a 228d 96b7 5323 ca37
00000180: caf8 9632 108a a136 02c8 98ba 18db 623b
00000190: 4259 e238 0ff9 f638 70f3 98bb 299a 2a3b
000001a0: c335 04b4 e878 b93b 9800 e5b7 a166 793a
000001b0: 7221 d0b9 301f 043a 1206 8638 85f4 97b7
000001c0: b3eb db37 a65f 8538 0830 e8ba 5f7e 36b7
000001d0: 1f50 8938 9aa0 ef39 30a0 37b8 f981 4d39
000001e0: ace9 be39 af60 a038 7fc0 9eb7 59b5 5939
000001f0: fb68 2238 da92 03bb 2b68 6b39 f7a4 043b

action_net.bias f4 [2]
0.007984063 0.005874462
00000000: 96cf 023c 8f7e c03b

value_net.weight f4 [1, 64]
-0.0433712 0.12360212 0.018490782 -0.32894233 -0.05628177 -0.23518708 0.17529334 0.109465905
-0.21490254 0.12694699 -0.029359512 -0.07903468 -0.043666963 0.11257452 -0.24313182 0.08159612
-0.14429748 -0.012589069 0.21081662 -0.06087454 -0.07333567 -0.124696426 -0.019508243 -0.088071816
-0.057492558 0.18346028 -0.0008681037 -0.058790237 0.12771131 -0.115008645 0.08682788 0.021454472
0.16557585 0.12292194 0.1268827 -0.101203345 -0.09697524 0.021333976 0.09957036 0.09863374
0.018134942 -0.13380565 -0.08913581 0.093903646 -0.0046890206 0.033573475 -0.21791476 0.059003767
-0.18089966 0.17461501 -0.18866196 0.023849124 -0.009187615 0.02980152 0.17443088 0.1596405
-0.15580449 -0.002641354 -0.1890935 0.08346335 0.13090171 -0.1341005 -0.03731427 0.0440261
00000000: 00a6 31bd 1c23 fd3d fb79 973c 216b a8be
00000010: b787 66bd e2d4 70be 1980 333e a92f e03d
00000020: 690f 5cbe 64fe 013e 5c83 f0bc efdc a1bd
00000030: 21dc 32bd 788d e63d 8cf7 78be de1b a73d
00000040: b8c2 13be 6242 4ebc 50e0 573e 9557 79bd
00000050: 0331 96bd d760 ffbd c0cf 9fbc ff5e b4bd
00000060: 517d 6bbd 03dd 3b3e 7491 63ba 08ce 70bd
00000070: c1c6 023e a789 ebbd d1d2 b13d 4ac1 af3c
00000080: b78c 293e 80be fb3d 8aed 013e b343 cfbd
00000090: f49a c6bd 97c4 ae3c 8beb cb3d 7c00 ca3d
000000a0: bb8f 943c 5904 09be d68c b6bd 8e50 c03d
000000b0: 5ba6 99bb 5784 093d 0c25 5fbe efad 713d
000000c0: c33d 39be 47ce 323e 9a30 41be 3d5f c33c
000000d0: a687 16bc 5122 f43c 029e 323e cd78 233e
000000e0: 368b 1fbe 911a 2dbb baa1 41be d5ee aa3d
000000f0: 190b 063e a451 09be d9d6 18bd b654 343d
