policies/Pendulum/bad_a2c.pt (torch, 40751 bytes, 10 tensors)

mlp_extractor.policy_net.0.weight f4 [64, 3]
0	0x392e00c5	0.0001659422
1	0x39a6dff0	0.00031828834
2	0x3858cd5f	5.168968e-05
3	0xbc28eea5	-0.010310804
4	0x3c032014	0.0080032535
5	0x3f1b6eed	0.60716134
6	0x3c28efb9	0.010311061
7	0xbc031efe	-0.008002995
8	0xbf1b7374	-0.6072304
9	0xb325c919	-3.8599953e-08
10	0x31045a58	1.9259883e-09
11	0xb54c7f1f	-7.618091e-07
12	0xb95552e3	-0.0002034414
13	0xba5109d5	-0.00079741824
14	0x398f9b99	0.00027391015
15	0xbc28eed0	-0.010310844
16	0x3c031ff0	0.00800322
17	0x3f1b6f75	0.60716945
18	0x394db5cf	0.00019618052
19	0x38667eef	5.495449e-05
20	0x384f4f06	4.9426242e-05
21	0xb993a197	-0.0002815842
22	0xb9bfcfaa	-0.0003658508
23	0xb9621671	-0.000215614
24	0x36bfd91e	5.7175193e-06
25	0x368f4e5b	4.270854e-06
26	0x36f69755	7.3489887e-06
27	0x3a25890f	0.0006314674
28	0xb9e07a06	-0.00042815524
29	0xbae1d1e9	-0.0017228696
30	0xb9cced71	-0.0003908682
31	0xba016665	-0.00049362174
32	0xb990a38d	-0.00027587675
33	0xb486e8df	-2.512888e-07
34	0xb317e237	-3.536317e-08
35	0xb63a8a1d	-2.7796552e-06
36	0x361c55f0	2.3295834e-06
37	0x3665fd7b	3.4271204e-06
38	0xb5d04a40	-1.5518817e-06
39	0xb9cc22b7	-0.00038935777
40	0x393251f3	0.00017005931
41	0x3a1d4ddc	0.00060006767
42	0xbc28efb6	-0.010311058
43	0x3c031efb	0.008002992
44	0x3f1b7357	0.6072287
45	0xb497f793	-2.8306076e-07
46	0xb3dc4671	-1.02573615e-07
47	0x34b3734d	3.342524e-07
48	0xb278f9c5	-1.4492291e-08
49	0xaf90b664	-2.6323044e-10
50	0xb32a37b3	-3.9631868e-08
51	0xb91ce317	-0.00014961917
52	0xb8bc3ece	-8.976237e-05
53	0xb5ac78aa	-1.2850116e-06
54	0xb93b8e1e	-0.00017886652
55	0xb997027d	-0.00028802818
56	0xb828a154	-4.020457e-05
57	0x35d23f6a	1.5664675e-06
58	0x3783a87c	1.5694874e-05
59	0xb8887e3d	-6.508499e-05
60	0x3c28efd1	0.010311083
61	0xbc031ee5	-0.008002971
62	0xbf1b73ed	-0.60723764
63	0xb9de5cf7	-0.00042412404
64	0xba17fde5	-0.0005798026
65	0xb99838d2	-0.00029034034
66	0xb3153d0b	-3.4747284e-08
67	0xb28854d2	-1.5871056e-08
68	0x339b7d2a	7.240517e-08
69	0xb955851c	-0.0002036285
70	0xb956c262	-0.00020481044
71	0xb95fc247	-0.00021339311
72	0x3424af44	1.5337451e-07
73	0x34210e9d	1.499961e-07
74	0x33a94bbd	7.8834525e-08
75	0xb491a49e	-2.712813e-07
76	0x34bc8ab5	3.5118651e-07
77	0x329d0ba9	1.8282508e-08
78	0xb63c1f76	-2.8032496e-06
79	0xb6b7a7a5	-5.4733414e-06
80	0xb76114d5	-1.3415895e-05
81	0xb362e3d9	-5.282695e-08
82	0x33f8c4d0	1.15842e-07
83	0xb4958686	-2.785129e-07
84	0xb7f6a1ae	-2.9400773e-05
85	0xb8196d16	-3.6579637e-05
86	0xb7f1bd4f	-2.8817592e-05
87	0x350431f3	4.924652e-07
88	0x3462140e	2.1055186e-07
89	0x35a95715	1.2616825e-06
90	0x3426943a	1.5513879e-07
91	0x362fb5fc	2.618296e-06
92	0xb6862af1	-3.9985102e-06
93	0x34545426	1.9774652e-07
94	0xb3cb7979	-9.47502e-08
95	0x35a06bff	1.195236e-06
96	0x3922d18e	0.00015527589
97	0x38e3b734	0.00010858328
98	0xb794bf7a	-1.7732138e-05
99	0x3b0f7868	0.0021891836
100	0xbaa26594	-0.0012389892
101	0xbb926b55	-0.0044683614
102	0x37070b29	8.0492255e-06
103	0x36ae6147	5.1969287e-06
104	0x3763862b	1.3561493e-05
105	0xb97ab5aa	-0.00023909533
106	0xb99ec024	-0.00030279264
107	0xb93cbb3a	-0.00017998824
108	0x39b59913	0.0003463706
109	0x3a292162	0.0006451813
110	0x38dfec6f	0.00010677508
111	0xb42e69ab	-1.6243455e-07
112	0xb3743cb0	-5.6865872e-08
113	0xb40c2e25	-1.3055303e-07
114	0x3a42b376	0.00074272545
115	0x3a2f7786	0.00066935306
116	0x39e4be11	0.0004362916
117	0xb9bd2a18	-0.0003608025
118	0xbae49a58	-0.0017441018
119	0x3b65c908	0.003506245
120	0xb993e7aa	-0.00028210628
121	0xb9b7dc73	-0.00035068727
122	0xb95b51cd	-0.0002091594
123	0xbc28ef9f	-0.010311036
124	0x3c031f10	0.008003011
125	0x3f1b7309	0.60722405
126	0x37ecf3a4	2.8246846e-05
127	0x36ab94ad	5.1135053e-06
128	0xb880fbeb	-6.150439e-05
129	0x368cef60	4.200192e-06
130	0x37de8ba2	2.6529484e-05
131	0xb70d57df	-8.424714e-06
132	0x351ef6c4	5.921868e-07
133	0x35dd9b54	1.651099e-06
134	0xb5a23aa7	-1.2087011e-06
135	0xbc28ecfe	-0.01031041
136	0x3c032230	0.008003756
137	0x3f1b6748	0.6070447
138	0xb7a98e69	-2.0212685e-05
139	0xb7df0b0a	-2.6588812e-05
140	0x37a2e4cc	1.9418447e-05
141	0xb9cc99a7	-0.00039024392
142	0xba0f1fec	-0.0005459774
143	0xb99e3a16	-0.00030179386
144	0x35f5a224	1.8301112e-06
145	0x35953bde	1.1118789e-06
146	0x367320c3	3.6228892e-06
147	0xb855bf8c	-5.096155e-05
148	0xb882aaf2	-6.230724e-05
149	0xb83e6dff	-4.5401972e-05
150	0xb9456ac4	-0.00018827157
151	0xb91272b1	-0.00013966371
152	0xb97f3b66	-0.00024340823
153	0xb93b72c4	-0.00017876463
154	0xb8c29635	-9.278619e-05
155	0x379d00f6	1.8716306e-05
156	0xbc28efcb	-0.010311077
157	0x3c031ef5	0.008002986
158	0x3f1b73a5	0.60723335
159	0xbafeddfe	-0.0019444821
160	0x3a8e7a18	0.0010870127
161	0x3b7e9833	0.0038848042
162	0xb515df07	-5.5831373e-07
163	0xb4807840	-2.392935e-07
164	0xb635d0d6	-2.709266e-06
165	0x35196b84	5.71534e-07
166	0x350deb14	5.2868677e-07
167	0x35f37185	1.8137949e-06
168	0x3c28ef94	0.010311026
169	0xbc031f19	-0.00800302
170	0xbf1b72e7	-0.607222
171	0xb36cc372	-5.512579e-08
172	0xb35e29e4	-5.1726502e-08
173	0xb2175367	-8.80832e-09
174	0xbc28f054	-0.010311205
175	0x3c031e53	0.008002835
176	0x3f1b763b	0.6072728
177	0xba0773e7	-0.0005167112
178	0x39585be3	0.00020633596
179	0x3a517617	0.0007990314
180	0x3c28f012	0.0103111435
181	0xbc031ea3	-0.00800291
182	0xbf1b7506	-0.6072544
183	0xb403ff31	-1.2293164e-07
184	0xb49be0be	-2.903452e-07
185	0xb3d5756d	-9.939945e-08
186	0xbc28ef99	-0.010311031
187	0x3c031f12	0.008003013
188	0x3f1b7300	0.6072235
189	0xb9a951e0	-0.00032295194
190	0xb9e23f3a	-0.00043153187
191	0xb96a8d60	-0.00022368645

mlp_extractor.policy_net.0.bias f4 [64]
0	0xb9c4cce3	-0.00037536686
1	0x3ba30384	0.0049747843
2	0xbba303ce	-0.004974819
3	0x33807215	5.981216e-08
4	0x3a1d4522	0.00059993763
5	0x3ba3038f	0.0049747895
6	0xb9501e00	-0.00019847602
7	0x3a0aab97	0.0005289851
8	0xb6e77f4e	-6.8991567e-06
9	0xba361dc0	-0.0006947182
10	0x3a41f2f2	0.00073985674
11	0x348dd929	2.64213e-07
12	0xb691bdc0	-4.3434266e-06
13	0x3a1853fa	0.00058108533
14	0x3ba303da	0.0049748244
15	0x34d14da4	3.8985775e-07
16	0x302631e5	6.046135e-10
17	0x3967965c	0.0002208589
18	0x39c75ce0	0.00038025435
19	0xb84b9df1	-4.8546066e-05
20	0xbba303d0	-0.0049748197
21	0x3a59285d	0.00082839077
22	0x32a2e343	1.8962629e-08
23	0x39b257f6	0.00034016342
24	0xb47cc6a4	-2.3541594e-07
25	0xb39ac2ad	-7.206595e-08
26	0xb5084105	-5.0758564e-07
27	0xb4517eef	-1.951082e-07
28	0x3869e87b	5.5768043e-05
29	0xb4786c58	-2.3136215e-07
30	0xb62583e3	-2.4663684e-06
31	0xb4ca95e4	-3.7734492e-07
32	0xb976839e	-0.0002350942
33	0xbb352190	-0.0027638413
34	0xb73a3475	-1.10986775e-05
35	0x39f339f5	0.00046391753
36	0xba593dc4	-0.0008287097
37	0x33032e86	3.0543127e-08
38	0xba9cb826	-0.0011956736
39	0x3b20fe33	0.0024565577
40	0x3a0a8d85	0.000528537
41	0x3ba303bc	0.0049748104
42	0xb88f3b2f	-6.829795e-05
43	0xb7b791b2	-2.1883145e-05
44	0xb5f4fb43	-1.8252543e-06
45	0x3ba30307	0.004974726
46	0x383ada74	4.4549306e-05
47	0x3a4c911c	0.00078036054
48	0xb622e86a	-2.4275164e-06
49	0x38c4ddfe	9.3873576e-05
50	0x398bde46	0.00026677753
51	0x397eb3c4	0.00024290296
52	0x3ba303ce	0.004974819
53	0x3b22d451	0.0024845789
54	0x353234dc	6.638709e-07
55	0xb55af696	-8.157016e-07
56	0xbba303c8	-0.004974816
57	0x33be68ae	8.8666056e-08
58	0x3ba30416	0.0049748523
59	0x3a447314	0.00074939546
60	0xbba30401	-0.0049748425
61	0x34dfda3c	4.1695773e-07
62	0x3ba303c1	0.0049748127
63	0x3a28ce5d	0.0006439442

mlp_extractor.policy_net.2.weight f4 [64, 64]
0	0xb360d527	-5.2347925e-08
1	0x37d329f5	2.5172698e-05
2	0xb7d32ab2	-2.5173042e-05
3	0x2fd853db	3.9349754e-10
4	0xb445d763	-1.8425412e-07
5	0x37d32a0b	2.5172738e-05
6	0xb379aa35	-5.8129633e-08
7	0x31a04f49	4.6656266e-09
8	0xb5303f95	-6.5657633e-07
9	0xb5290700	-6.296759e-07
10	0xb4a752ae	-3.116633e-07
11	0x364d3b00	3.0581723e-06
12	0xb1466d1f	-2.887482e-09
13	0x34a9a0e3	3.1595764e-07
14	0x37d32aae	2.5173034e-05
15	0x2fcbae4d	3.7049333e-10
16	0xade613b7	-2.6156728e-11
17	0x338e6be0	6.6320126e-08
18	0xb31284e5	-3.411414e-08
19	0xb3b017fc	-8.2000014e-08
20	0xb7d32ac6	-2.5173078e-05
21	0xb4ad0a61	-3.2231313e-07
22	0xaef7423e	-1.12440265e-10
23	0xb496eb98	-2.8111094e-07
24	0x2ebc8352	8.5725774e-11
25	0xb0a763c0	-1.21792e-09
26	0xb2a6f211	-1.9435022e-08
27	0x3609d9d2	2.054138e-06
28	0xb18c8441	-4.089572e-09
29	0x3550b0bb	7.7743215e-07
30	0x31845012	3.8508086e-09
31	0xb1103a51	-2.0987907e-09
32	0xb3bf736a	-8.915124e-08
33	0xb5f730b1	-1.8417105e-06
34	0x325fe1bc	1.3031634e-08
35	0xb435161f	-1.6864986e-07
36	0x34d280d1	3.9209274e-07
37	0x2faf5525	3.1892813e-10
38	0x350b9f2f	5.201318e-07
39	0x352214e1	6.0380086e-07
40	0xb44f4163	-1.9302165e-07
41	0x37d32aa0	2.5173009e-05
42	0xb2c46a05	-2.2865615e-08
43	0xb346d1cf	-4.6291287e-08
44	0xb1589e55	-3.1522138e-09
45	0x37d328c6	2.5172147e-05
46	0x31c42421	5.708458e-09
47	0xb4c7fc95	-3.7250416e-07
48	0xb19c5295	-4.549586e-09
49	0xb2ff168d	-2.9696162e-08
50	0xb4681482	-2.1614144e-07
51	0x33b6855f	8.4992955e-08
52	0x37d32abd	2.5173062e-05
53	0x3616411a	2.2389636e-06
54	0x30d1e302	1.5271271e-09
55	0xafc0c032	-3.506116e-10
56	0xb7d32a9c	-2.5173002e-05
57	0x2d5a4d43	1.2409021e-11
58	0x37d32b21	2.5173244e-05
59	0x34fdf0c6	4.7300108e-07
60	0xb7d32af1	-2.5173156e-05
61	0xb6af9e77	-5.233854e-06
62	0x37d32aa1	2.517301e-05
63	0xb43e11ec	-1.7701649e-07
64	0x378039cc	1.5285703e-05
65	0xbaf8ba19	-0.001897636
66	0x3af8b820	0.0018975772
67	0xb3a6c389	-7.765545e-08
68	0xb86b8f4f	-5.6161833e-05
69	0xbaf8b9e5	-0.0018976299
70	0x3728d503	1.0063176e-05
71	0x37b429e2	2.1477175e-05
72	0xb7a3f726	-1.9546202e-05
73	0x394c41db	0.00019479489
74	0x38094d42	3.2735297e-05
75	0x365388fb	3.1521183e-06
76	0x33e5365c	1.06735314e-07
77	0xb8da030a	-0.00010395616
78	0xbaf8b82a	-0.0018975784
79	0x31b627c5	5.3014184e-09
80	0x30360c31	6.622854e-10
81	0xb7316b35	-1.0574983e-05
82	0xb64baef0	-3.0351184e-06
83	0x369d1a7b	4.6820473e-06
84	0x3af8b7eb	0.001897571
85	0x385bf01f	5.24373e-05
86	0x32a14a2d	1.8776598e-08
87	0xb747026f	-1.1861891e-05
88	0x2f97cfaf	2.7614308e-10
89	0x329ee4b8	1.849763e-08
90	0x359d6219	1.1725962e-06
91	0xb7ebb575	-2.809868e-05
92	0x32d990f4	2.5328042e-08
93	0x36669449	3.4358984e-06
94	0xb5d7fadb	-1.6091757e-06
95	0x3480bc2e	2.3978777e-07
96	0x35b89e8f	1.3755215e-06
97	0x39a8cdd4	0.0003219681
98	0xb56e213d	-8.871028e-07
99	0x368706f2	4.024122e-06
100	0x383141c5	4.226134e-05
101	0xb0a38025	-1.1896232e-09
102	0xb71f9dee	-9.513909e-06
103	0xb9a03431	-0.00030556464
104	0x36884e5f	4.0622394e-06
105	0xbaf8b84c	-0.0018975823
106	0x36c5a057	5.8897235e-06
107	0x3594fc27	1.1100245e-06
108	0x329e0d47	1.8399659e-08
109	0xbaf8bd82	-0.0018977376
110	0xb5c4ba30	-1.4657326e-06
111	0x3853713a	5.041177e-05
112	0x34c5a94c	3.681729e-07
113	0xb6738e61	-3.6292697e-06
114	0x37bb4a41	2.2326714e-05
115	0x36547f88	3.1664695e-06
116	0xbaf8b80b	-0.0018975748
117	0xb98922c3	-0.00026156576
118	0xb4b65fc7	-3.396983e-07
119	0x34755f1a	2.2852001e-07
120	0x3af8b85b	0.0018975841
121	0xb17071fe	-3.4989394e-09
122	0xbaf8b6ef	-0.0018975417
123	0xb898f66f	-7.293827e-05
124	0x3af8b77c	0.0018975581
125	0xb46351e3	-2.1170813e-07
126	0xbaf8b850	-0.0018975828
127	0x37eda41b	2.832902e-05
128	0x33ff92cb	1.1901064e-07
129	0xb7b8371b	-2.196017e-05
130	0x37b80db3	2.1940888e-05
131	0x32106622	8.4051255e-09
132	0xb7842629	-1.5753396e-05
133	0xb7b83206	-2.1957803e-05
134	0xb65d0fa6	-3.2940675e-06
135	0xb5e59f5b	-1.7108208e-06
136	0x33624fb8	5.269223e-08
137	0x3741c23d	1.1548921e-05
138	0xb772b022	-1.4465333e-05
139	0x332b4242	3.98743e-08
140	0x339b1596	7.2216764e-08
141	0x34a81f5d	3.1315258e-07
142	0xb7b80ee5	-2.1941445e-05
143	0xb1902299	-4.194885e-09
144	0x2f489ec2	1.8246296e-10
145	0x3592c728	1.093581e-06
146	0x3683a5c3	3.9234014e-06
147	0xb78c25c9	-1.6706896e-05
148	0x37b80905	2.193871e-05
149	0xb6c3031c	-5.811815e-06
150	0x309962c9	1.1160292e-09
151	0x352da82f	6.469226e-07
152	0xb28584cc	-1.5543627e-08
153	0x3736dc23	1.08993e-05
154	0x35ce55e6	1.5373196e-06
155	0xb12393f0	-2.3803715e-09
156	0xb58da766	-1.0554038e-06
157	0x330b5e1a	3.2449044e-08
158	0x336670d2	5.3653658e-08
159	0xb3c49865	-9.1546816e-08
160	0xb68263e5	-3.885931e-06
161	0x3895634c	7.123369e-05
162	0x34edc16b	4.428542e-07
163	0xb7e0a813	-2.6781147e-05
164	0x3612c29e	2.1868977e-06
165	0x31d12eea	6.088034e-09
166	0x37329887	1.064514e-05
167	0xb80081c8	-3.0638446e-05
168	0xb7a61f30	-1.9803265e-05
169	0xb7b81139	-2.194253e-05
170	0xb54815aa	-7.453733e-07
171	0x361de0b5	2.352562e-06
172	0xb2920277	-1.6997758e-08
173	0xb7b87e98	-2.1993459e-05
174	0x34677807	2.1557217e-07
175	0x370ca1d5	8.38233e-06
176	0xb459a09a	-2.0268126e-07
177	0x360a3c52	2.0598713e-06
178	0x366109d3	3.353333e-06
179	0xb55542d3	-7.9445925e-07
180	0xb7b80c39	-2.19402e-05
181	0xb86b9e6b	-5.6175904e-05
182	0x332e8f69	4.0642963e-08
183	0x33217210	3.7589473e-08
184	0x37b812da	2.1943288e-05
185	0xb0fe2855	-1.8492395e-09
186	0xb7b7f407	-2.1928934e-05
187	0x35ad0dd0	1.2893524e-06
188	0x37b7ff93	2.1934311e-05
189	0x31d9b7e8	6.336439e-09
190	0xb7b811d2	-2.1942808e-05
191	0xb600507c	-1.9120334e-06
192	0x34825ef8	2.4283486e-07
193	0xb7041f7c	-7.875144e-06
194	0x370421f8	7.875722e-06
195	0xacbc6c2c	-5.355291e-12
196	0xb370b501	-5.6043977e-08
197	0xb7041fc5	-7.87521e-06
198	0xb4db8daa	-4.0895003e-07
199	0x3495ab73	2.7878158e-07
200	0xb1a6cdbc	-4.854625e-09
201	0xb4c1f292	-3.6125545e-07
202	0x3310c316	3.3705042e-08
203	0x2f5d7dce	2.0144528e-10
204	0x314f310c	3.0150344e-09
205	0xb541d8dd	-7.221368e-07
206	0xb70421e3	-7.875703e-06
207	0xaf07714d	-1.2318431e-10
208	0x2dd6b917	2.441118e-11
209	0xb62199ae	-2.4080323e-06
210	0x3266f58c	1.3443593e-08
211	0xb3a55490	-7.698793e-08
212	0x37042236	7.8757785e-06
213	0x34238b7a	1.5231299e-07
214	0xad139cae	-8.3907725e-12
215	0x32d5ec2b	2.490386e-08
216	0xaf04c904	-1.2076745e-10
217	0x2fdf52b1	4.062222e-10
218	0xb1bcf6fe	-5.4996e-09
219	0x2fd413ad	3.8576556e-10
220	0x32338f4e	1.0451755e-08
221	0x2ee5a625	1.04432275e-10
222	0x3116ee6c	2.19634e-09
223	0xb0b543f3	-1.3188796e-09
224	0x33fa04d2	1.1642409e-07
225	0x362f7fc2	2.6151397e-06
226	0x3139f49a	2.7060083e-09
227	0xb505e119	-4.987392e-07
228	0x345d2c3a	2.0598318e-07
229	0xaf0bb722	-1.2707038e-10
230	0x353a5f4d	6.942908e-07
231	0x36e5295f	6.829548e-06
232	0xb5081d05	-5.0706177e-07
233	0xb70421bf	-7.87567e-06
234	0x347bfbd5	2.3467813e-07
235	0x328a162a	1.6075393e-08
236	0xafd44839	-3.8613893e-10
237	0xb7041b4a	-7.874167e-06
238	0x324cd71f	1.1923276e-08
239	0xb4bfaacc	-3.5700793e-07
240	0xb182e0ba	-3.8090464e-09
241	0xb0916560	-1.0578951e-09
242	0x3435e4a5	1.6940119e-07
243	0x34789c2c	2.3153615e-07
244	0xb7042211	-7.875745e-06
245	0xb73e00be	-1.1325055e-05
246	0x301f8c17	5.804294e-10
247	0xb07784c9	-9.0046776e-10
248	0x370421a7	7.875648e-06
249	0x2e5c7e1a	5.013421e-11
250	0xb7042376	-7.8760695e-06
251	0xb56ea383	-8.889985e-07
252	0x370422da	7.875928e-06
253	0xaf9cdd21	-2.8533356e-10
254	0xb70421b7	-7.875663e-06
255	0x34a7610c	3.1176785e-07

mlp_extractor.policy_net.2.bias f4 [64]
0	0x380afae0	3.313541e-05
1	0x3a876c7c	0.0010332013
2	0xba3032ec	-0.0006721455
3	0xb78aebe4	-1.6560727e-05
4	0xbb26ecbb	-0.0025470692
5	0xb4e184ef	-4.2006238e-07
6	0x35576aa4	8.0248924e-07
7	0x3a25641b	0.00063091674
8	0xbace15a1	-0.0015722999
9	0xbbc932ed	-0.006140104
10	0xba662a95	-0.0008780149
11	0x35dece6b	1.6600364e-06
12	0x34c7c784	3.7211805e-07
13	0x3bb05207	0.005380872
14	0xb8c7770a	-9.511232e-05
15	0xb2ff91c8	-2.97522e-08
16	0xbbb2f520	-0.00546135
17	0x38d4a4d2	0.00010139648
18	0xb4ff6f1a	-4.7578288e-07
19	0xb91bb717	-0.00014850158
20	0x3abc3465	0.0014358877
21	0x3ba7d0be	0.0051213196
22	0xb722801e	-9.685782e-06
23	0xb4e8b313	-4.334366e-07
24	0xb3f0189f	-1.11803494e-07
25	0x37802886	1.527766e-05
26	0x3a8d92c8	0.001080119
27	0xb811bd44	-3.474696e-05
28	0x3b437156	0.0029822192
29	0x363910ad	2.7576855e-06
30	0x36949fbe	4.42934e-06
31	0x3a6da858	0.00090659177
32	0x3aedef91	0.0018153061
33	0x39085720	0.00013002427
34	0xb6e0acb0	-6.6958237e-06
35	0x3a85bd4f	0.0010203513
36	0xba2732e8	-0.000637813
37	0x395fe878	0.00021353539
38	0xb93b7e88	-0.00017880846
39	0xb66751d4	-3.4469313e-06
40	0x381d7ed0	3.754982e-05
41	0x3b843ac4	0.0040353257
42	0xb8a7ab23	-7.995057e-05
43	0x3381777b	6.028764e-08
44	0x334aacdb	4.7189e-08
45	0x35f8468f	1.8497975e-06
46	0xb9fc36f8	-0.0004810614
47	0xb4baeecf	-3.4818956e-07
48	0xba7df3c3	-0.00096875074
49	0x3944d114	0.00018769904
50	0xba25ee19	-0.000632973
51	0x3330c945	4.1161247e-08
52	0x34ee2b02	4.4362247e-07
53	0xb69df6dc	-4.707703e-06
54	0xb8c890ba	-9.5637006e-05
55	0x39b78cd1	0.00035009396
56	0x3b7c9b72	0.00385448
57	0x3782cea0	1.5593425e-05
58	0x38c38168	9.3224284e-05
59	0x36eac2a3	6.996402e-06
60	0x3b907a6a	0.004409124
61	0x34914cef	2.706433e-07
62	0xb70ac7dd	-8.271975e-06
63	0xbbcba04d	-0.0062141777

mlp_extractor.value_net.0.weight f4 [64, 3]
0	0xbe71bc21	-0.23606922
1	0x3ec2c9b7	0.3804452
2	0x3ea1070c	0.3145069
3	0xbe5da973	-0.21646671
4	0x3d98a5dc	0.0745351
5	0xbec1fb78	-0.37887168
6	0xbd7f5baf	-0.062343296
7	0xbdaf1e92	-0.08550753
8	0x3d615fc8	0.055022985
9	0xbee6c8e1	-0.45075133
10	0x3d2e04dc	0.042485103
11	0x3e6f9a71	0.23398758
12	0xbdc65801	-0.09684754
13	0x3ec69637	0.3878648
14	0x3e17e99b	0.14835207
15	0x3dae3690	0.08506501
16	0x3e4640a2	0.19360593
17	0xbba5cac9	-0.0050595743
18	0x3de92138	0.11383289
19	0xbe34128d	-0.17585202
20	0x3e6aa770	0.22915435
21	0xbe30ecc6	-0.17277822
22	0xbe329108	-0.17438138
23	0xbe1a84c1	-0.15089704
24	0xbe1970d1	-0.14984442
25	0xbdb21896	-0.08696096
26	0x3e610b68	0.21977007
27	0x3e020539	0.12697305
28	0xbe0a1cf0	-0.13487601
29	0x3db524c6	0.088449046
30	0x3e59aa16	0.21256289
31	0x3d73ebe9	0.059551153
32	0x3dad588c	0.084641546
33	0xbdfeb38d	-0.1243659
34	0xbe16af4b	-0.14715306
35	0xbead12ab	-0.33803305
36	0xbca474d0	-0.020075232
37	0x3e20be6b	0.15697639
38	0xbed18f73	-0.40929756
39	0x3d89d889	0.06730754
40	0x3e09e43a	0.13465968
41	0x3d1987c9	0.03748301
42	0xbe315933	-0.17319183
43	0x3df24071	0.118286975
44	0x3e5e5449	0.2171184
45	0x3e6815dd	0.2266459
46	0xbbcd816b	-0.0062715313
47	0xbdbba396	-0.09162061
48	0x3e407ffd	0.18798824
49	0xbe45080c	-0.19241351
50	0xbdd5b782	-0.10435392
51	0xbe86b559	-0.26310232
52	0xbddcf55d	-0.10788987
53	0x3cf78799	0.030216025
54	0xbe17fc26	-0.14842281
55	0x3e2c24a4	0.16810852
56	0xbd812845	-0.06306509
57	0x3ec0f0f4	0.37683833
58	0x3d90dfac	0.07073912
59	0x3e9f3525	0.31095234
60	0xbd81c968	-0.06337243
61	0x3eaf464a	0.34233314
62	0x3da27b2d	0.0793365
63	0x3f0267d6	0.5093969
64	0x3e9d69f6	0.30744904
65	0xbe0a15db	-0.134849
66	0x3e1602fc	0.14649576
67	0x3b7c8cb0	0.0038536005
68	0x3d196310	0.03744799
69	0xbd417459	-0.0472301
70	0xbd8430dc	-0.06454632
71	0x3d5aae44	0.05338885
72	0x3e191dee	0.14952824
73	0xbea8c3d1	-0.32961896
74	0x3e6381ad	0.22217436
75	0xbe384f15	-0.17998917
76	0xbdbf2160	-0.09332538
77	0x3d01a03e	0.03164696
78	0xbd5604f5	-0.05225082
79	0xbdaf66ed	-0.085645534
80	0x3d90fea6	0.0707982
81	0xbe930c6c	-0.28720415
82	0xbe76efc8	-0.24114907
83	0xbe866883	-0.2625161
84	0xbc2ddd44	-0.010611836
85	0x3e7d8073	0.2475603
86	0x3dc21a9e	0.09477733
87	0xbe339d04	-0.17540365
88	0xbd353725	-0.044242043
89	0xbe7232f6	-0.23652253
90	0xbee4751c	-0.44620597
91	0x3e91e077	0.28491566
92	0x3de8b4e4	0.11362627
93	0xbe1f0bc6	-0.15531835
94	0x3cd44788	0.025913015
95	0xbdf83d86	-0.1212111
96	0xbd79819f	-0.060914632
97	0x3e15a8fa	0.1461524
98	0xbc70010c	-0.014648687
99	0x3dd0e542	0.101999775
100	0xbdbdd418	-0.09268969
101	0xbe4a737b	-0.19770615
102	0x3d157a15	0.03649338
103	0x3d123a73	0.035700273
104	0x3e3346b3	0.17507438
105	0x3cb016b2	0.021495197
106	0xbc97f7c1	-0.018550755
107	0x3d0a0cff	0.0337038
108	0x3d35ee63	0.044416796
109	0x3dc85aa6	0.09782915
110	0x3e805538	0.25065017
111	0xbd178266	-0.036989592
112	0xbe80f219	-0.25184706
113	0x3eba63c9	0.36404255
114	0xbe9431fd	-0.28944388
115	0xbe171d59	-0.14757289
116	0x3e79984d	0.24374504
117	0x3e66f3b9	0.2255391
118	0x3e33465c	0.17507309
119	0xbde87b0b	-0.113515936
120	0xbd949d1b	-0.07256528
121	0x3bfaf5ba	0.0076586874
122	0x3df21ccb	0.11821898
123	0x3d32b7a3	0.04363216
124	0x3e55b066	0.20868072
125	0xbeaefa42	-0.34175307
126	0x3d692b86	0.056926273
127	0x3e375a2f	0.17905496
128	0x3d9e8e51	0.077419885
129	0xbddd82f1	-0.10815991
130	0x3e69f28f	0.22846435
131	0x3df80298	0.1210987
132	0xbd09afd8	-0.033614963
133	0x3d0fd48b	0.035114806
134	0x3d393e81	0.045225624
135	0x3dbf2682	0.09333517
136	0x3e8f7530	0.28019094
137	0x3e087214	0.13324767
138	0xbda73f40	-0.08166361
139	0xbe0d79f6	-0.13816056
140	0x3bf0c05c	0.00734715
141	0x3d9f9cd8	0.077935874
142	0x3e175baa	0.14781061
143	0xbd371fa2	-0.0447079
144	0x3e0d8a7c	0.13822359
145	0x3ddbcf20	0.10732865
146	0x3dc10831	0.094253905
147	0x3de7f813	0.11326613
148	0xbe6bcd2b	-0.23027484
149	0xbe0a11af	-0.13483308
150	0x3df7d192	0.12100519
151	0x3c6a7384	0.014309768
152	0x3e22a0e4	0.15881687
153	0x3e379a92	0.17930058
154	0x3ccfb828	0.025356367
155	0xbd509dc3	-0.050931703
156	0xbdec38f4	-0.115343004
157	0xbdb7ed8b	-0.089808546
158	0xbde5d7d9	-0.1122281
159	0xbdf55d7d	-0.11980722
160	0xbe0cfd23	-0.13768439
161	0x3e974aeb	0.29549345
162	0x3e3eed18	0.18645132
163	0x3d3ced78	0.046124905
164	0x3e33610a	0.17517486
165	0x3ce36aca	0.027760882
166	0x3db14431	0.086555846
167	0xbe4b9d7c	-0.19884294
168	0xbdeadcdd	-0.114679076
169	0xbe4aba08	-0.19797528
170	0x3d6ce3eb	0.057834547
171	0x3ba39a75	0.004992778
172	0x3e9e0b61	0.30868056
173	0x3d45786d	0.04821055
174	0xbb8a4032	-0.0042190785
175	0x3bf23286	0.007391277
176	0xbe2e797e	-0.17038533
177	0x3e4c57e8	0.19955409
178	0xbe4f395c	-0.20236725
179	0x3dfa8dec	0.12234101
180	0x3e621142	0.22076896
181	0xbe32ec05	-0.17472847
182	0xbb85806d	-0.0040741474
183	0xbd46b86f	-0.048515733
184	0x3e90e5eb	0.28300413
185	0xbe376777	-0.17910562
186	0x3e3462fe	0.17615888
187	0x3de45fd2	0.11151089
188	0x3dc91c49	0.09819848
189	0x3e106975	0.14102729
190	0xbe68d3f5	-0.22737105
191	0x3df2063f	0.118175976

mlp_extractor.value_net.0.bias f4 [64]
0	0x00000000	0.0
1	0x00000000	0.0
2	0x00000000	0.0
3	0x00000000	0.0
4	0x00000000	0.0
5	0x00000000	0.0
6	0x00000000	0.0
7	0x00000000	0.0
8	0x00000000	0.0
9	0x00000000	0.0
10	0x00000000	0.0
11	0x00000000	0.0
12	0x00000000	0.0
13	0x00000000	0.0
14	0x00000000	0.0
15	0x00000000	0.0
16	0x00000000	0.0
17	0x00000000	0.0
18	0x00000000	0.0
19	0x00000000	0.0
20	0x00000000	0.0
21	0x00000000	0.0
22	0x00000000	0.0
23	0x00000000	0.0
24	0x00000000	0.0
25	0x00000000	0.0
26	0x00000000	0.0
27	0x00000000	0.0
28	0x00000000	0.0
29	0x00000000	0.0
30	0x00000000	0.0
31	0x00000000	0.0
32	0x00000000	0.0
33	0x00000000	0.0
34	0x00000000	0.0
35	0x00000000	0.0
36	0x00000000	0.0
37	0x00000000	0.0
38	0x00000000	0.0
39	0x00000000	0.0
40	0x00000000	0.0
41	0x00000000	0.0
42	0x00000000	0.0
43	0x00000000	0.0
44	0x00000000	0.0
45	0x00000000	0.0
46	0x00000000	0.0
47	0x00000000	0.0
48	0x00000000	0.0
49	0x00000000	0.0
50	0x00000000	0.0
51	0x00000000	0.0
52	0x00000000	0.0
53	0x00000000	0.0
54	0x00000000	0.0
55	0x00000000	0.0
56	0x00000000	0.0
57	0x00000000	0.0
58	0x00000000	0.0
59	0x00000000	0.0
60	0x00000000	0.0
61	0x00000000	0.0
62	0x00000000	0.0
63	0x00000000	0.0

mlp_extractor.value_net.2.weight f4 [64, 64]
0	0xbe6fb687	-0.23409472
1	0xbd57073c	-0.052497134
2	0xbd933e07	-0.07189565
3	0x3e23750c	0.15962619
4	0x3ec9969c	0.39372718
5	0xbd9070a0	-0.070527315
6	0x3ce186e2	0.027530137
7	0xbd985033	-0.07437172
8	0xbeb860d0	-0.36011362
9	0xbe7271d1	-0.2367623
10	0x3cdd185e	0.026989158
11	0xbc75ea99	-0.015009546
12	0xbdbcb3ca	-0.092139795
13	0xbe9a8d11	-0.3018575
14	0x3d04ff71	0.03247017
15	0x3de012d5	0.10941092
16	0xbe585569	-0.21126331
17	0x3e7254c8	0.23665154
18	0x3ce6b491	0.028162273
19	0x3d805787	0.062666945
20	0xbea57e67	-0.32323
21	0xbdcb6306	-0.099309966
22	0xbeaccc70	-0.33749723
23	0xbd63bd5a	-0.0556005
24	0x3d579434	0.052631572
25	0xbe2d425a	-0.16919842
26	0xbe034268	-0.128183
27	0xbc3d50f3	-0.011554944
28	0xbd0e8d7d	-0.034802902
29	0xbe3f1090	-0.18658662
30	0x3dbb4caf	0.091454856
31	0xbdcb301a	-0.09921284
32	0x3e7291bc	0.23688406
33	0x3f09c054	0.53809094
34	0x3e21de8e	0.15807554
35	0x3e27f1d6	0.16400847
36	0xbe1ead40	-0.15495777
37	0xbd00a439	-0.031406615
38	0xbd921641	-0.07133151
39	0x3e2c0b70	0.16801238
40	0x3d8b8e8e	0.068142995
41	0xbc880625	-0.016604492
42	0x3e902548	0.28153443
43	0x3e174bda	0.14775029
44	0xbe3e3a30	-0.18576884
45	0x3b5b2198	0.0033436771
46	0x3df086d2	0.11744465
47	0x3d3d292e	0.04618185
48	0xbd097cd6	-0.03356632
49	0xbc00c529	-0.007859507
50	0x3d4a2044	0.049347177
51	0xbdce9c56	-0.100884125
52	0xbe0626a7	-0.13100682
53	0x3cb47085	0.02202631
54	0xbe6cea51	-0.2313626
55	0xbe0a74f9	-0.13521184
56	0xbde33faa	-0.11096127
57	0x3e8e91d8	0.27845645
58	0xbe5a3986	-0.21311006
59	0x3e038afe	0.1284599
60	0x3e2b289f	0.16714714
61	0x3da1ab15	0.078939594
62	0x3ea1b4a7	0.3158314
63	0xbd9f1a1c	-0.07768652
64	0xbe1e6711	-0.15469004
65	0x3ee9f830	0.45697165
66	0xbe11e18d	-0.14246197
67	0xbe47414a	-0.194585
68	0xbc6004bf	-0.013673007
69	0x3dfff1fe	0.12497328
70	0x3e471b70	0.1944406
71	0xbdf16ce1	-0.11788345
72	0x3e786973	0.24258976
73	0x3ede68a7	0.43439218
74	0xbe127e8b	-0.14306085
75	0xbceedc36	-0.02915774
76	0xbee11997	-0.43964836
77	0xbe8abc76	-0.2709691
78	0xbdf5c6eb	-0.12000831
79	0xbd84faef	-0.06493174
80	0x3e31a24c	0.17347068
81	0x3dc32392	0.09528269
82	0x3e6d28fe	0.23160169
83	0xbdb0dacf	-0.086354844
84	0xbd831efb	-0.064023934
85	0xbe64140c	-0.22273272
86	0xbe614460	-0.21998739
87	0xbe5dd5bd	-0.21663566
88	0x3d396528	0.045262486
89	0xbc9babe1	-0.019002857
90	0x3da72532	0.08161391
91	0xbda9a63a	-0.08283658
92	0x3d7eba86	0.0621896
93	0xbe0ebfad	-0.13940306
94	0x3e45d94a	0.1932117
95	0xbc3d56d9	-0.011556351
96	0x3e79062f	0.24318765
97	0xbe3196f7	-0.17342745
98	0xbe3ed20f	-0.18634818
99	0x3dfae355	0.122503914
100	0xbc331432	-0.010930108
101	0xbdc3d202	-0.0956154
102	0x3d4fc752	0.050727196
103	0xbe23237c	-0.15931505
104	0xbde627db	-0.112380706
105	0xbe6f698d	-0.23380108
106	0xbe9c4bcb	-0.30526575
107	0x3e1421e0	0.14466047
108	0x3e9f3d0b	0.3110126
109	0xbb43998b	-0.0029846157
110	0xbce549df	-0.027989326
111	0xbdb8411b	-0.08996793
112	0x3d742a91	0.059610907
113	0xbdccb248	-0.09994942
114	0x3df920e6	0.12164478
115	0xbded9675	-0.11600963
116	0x3da62217	0.08111971
117	0xbde2e949	-0.11079652
118	0x3db01703	0.08598139
119	0x3c79f5db	0.01525637
120	0x3e6f6807	0.23379527
121	0x3db37303	0.08762171
122	0xbe512cb8	-0.20427215
123	0x3be1387b	0.006873188
124	0x3db50fb0	0.08840883
125	0x3e69c2e0	0.22828245
126	0x3e813bdd	0.25240985
127	0xbd3e8b35	-0.046519477
128	0xbed25c89	-0.41086224
129	0xbe4b22ac	-0.19837445
130	0xbea4d15f	-0.32190987
131	0x3e7ceea1	0.24700405
132	0xbe0a543f	-0.135087
133	0x3e7a429d	0.24439473
134	0x3d1d541a	0.038410284
135	0xbdfcb4cd	-0.123391725
136	0x3d218611	0.039434496
137	0x3cbb531f	0.022866784
138	0xbd7c0be0	-0.061534762
139	0x3d86632b	0.065618835
140	0x3e940c90	0.28915834
141	0x3e28c431	0.16481091
142	0x3bf8fb14	0.00759829
143	0x3dc63f86	0.09680085
144	0xbd01ad45	-0.031659383
145	0x3e71378f	0.2355635
146	0x3e1f701e	0.15570113
147	0xbdc024f7	-0.093820505
148	0xbeaa399a	-0.33247072
149	0x3e8e44da	0.27786905
150	0xbe11f1d1	-0.14252402
151	0x3b49d95a	0.0030799718
152	0xbe4d8994	-0.20072013
153	0x3d070afe	0.032969467
154	0x3e43e0dc	0.19128746
155	0x3dfefb26	0.124502465
156	0x3e8d2f0b	0.27574953
157	0x3e58420c	0.21118945
158	0xbba98273	-0.0051730215
159	0xbc0922db	-0.008370127
160	0xbe8e0717	-0.27739784
161	0x3d56b273	0.052416276
162	0x3e085b6b	0.13316123
163	0xbececdb7	-0.40391323
164	0x3db5969a	0.088666156
165	0x3d2d2fea	0.042282023
166	0x3eb25473	0.34830055
167	0xbe6f66c3	-0.23379044
168	0x3d4982d9	0.04919705
169	0xbe60b7cf	-0.21945117
170	0xbe256d2a	-0.16154924
171	0x3da95453	0.08268037
172	0x3d81d2b6	0.06339018
173	0x3d0607e9	0.032722387
174	0x3c2224a3	0.00989643
175	0xbe476472	-0.1947191
176	0x3dd25e3b	0.10271879
177	0x3e7013d3	0.23445062
178	0x3d69d957	0.057092037
179	0xbdd071be	-0.101779446
180	0x3d2890bf	0.041153666
181	0x3da7d387	0.081946425
182	0x3d52256c	0.05130522
183	0x3df36193	0.11883845
184	0xbc5717c9	-0.013128229
185	0x3b3fc804	0.0029263506
186	0xbe5c4647	-0.21511184
187	0x3e577db8	0.21044052
188	0x3e8f3fb6	0.27978295
189	0xbd3b47ae	-0.045722656
190	0xbd891655	-0.066937126
191	0xbe46aa38	-0.19400871
192	0x3dae44e7	0.08509236
193	0x3db3e075	0.08783046
194	0xbdcf9239	-0.10135312
195	0x3b90b991	0.0044166525
196	0xbdaa93b6	-0.08328955
197	0xbd022a8f	-0.03177887
198	0xbbb63ff4	-0.005561823
199	0x3d23f38b	0.040027183
200	0xbdb239ce	-0.087024316
201	0x3d7852ce	0.060625844
202	0xbd26e7ba	-0.040748335
203	0x3e50afb2	0.20379522
204	0x3e145607	0.14485942
205	0x3dc5b1e8	0.096530735
206	0x3e074a6b	0.13211982
207	0x3eba55aa	0.36393481
208	0xbc8f475e	-0.017490085
209	0xbb2aba5f	-0.0026051027
210	0x3e19ed59	0.15031947
211	0xbc4ba04f	-0.012428357
212	0xbe8f074e	-0.2793526
213	0x3dc5aead	0.096524574
214	0x3d771480	0.060322285
215	0x3eaca792	0.33721596
216	0x3b9a3d54	0.004707018
217	0xbe701670	-0.23446059
218	0x3e3f6142	0.18689445
219	0xbeb4d298	-0.3531692
220	0x3e272b08	0.16325009
221	0xbe25d5f1	-0.16194893
222	0x3e647300	0.22309494
223	0xbe032679	-0.12807645
224	0xbd8fb9ad	-0.07017837
225	0xbe904702	-0.28179175
226	0x3e8c527e	0.27406687
227	0x3d98b281	0.07455922
228	0x3e9fde27	0.31224176
229	0xbe3be713	-0.18349867
230	0xbb848263	-0.0040438636
231	0x3e045b93	0.12925558
232	0x3e87c05d	0.2651395
233	0x3e06c5bd	0.13161369
234	0xbdcc0dbc	-0.09963557
235	0xbe33d4b7	-0.17561613
236	0x3d8339f4	0.06407538
237	0xbec14b30	-0.37752676
238	0x3e201f7b	0.15637009
239	0x3d8c1cd8	0.06841439
240	0x3d04fc1d	0.032466996
241	0xbe285a97	-0.16440807
242	0x3db920b1	0.090394385
243	0x3e65f439	0.22456445
244	0xbebc3944	-0.3676244
245	0xbdc24839	-0.09486432
246	0x3e298461	0.16554405
247	0xbc8a88fa	-0.016911019
248	0x3d6eb440	0.05827737
249	0x3df5fbc9	0.12010915
250	0xbe379806	-0.17929086
251	0xbc839e42	-0.016066674
252	0xbe7135a0	-0.23555613
253	0xbcbd9e82	-0.023146871
254	0x3e8a47a5	0.27007785
255	0x3ead16f7	0.33806583

mlp_extractor.value_net.2.bias f4 [64]
0	0x00000000	0.0
1	0x00000000	0.0
2	0x00000000	0.0
3	0x00000000	0.0
4	0x00000000	0.0
5	0x00000000	0.0
6	0x00000000	0.0
7	0x00000000	0.0
8	0x00000000	0.0
9	0x00000000	0.0
10	0x00000000	0.0
11	0x00000000	0.0
12	0x00000000	0.0
13	0x00000000	0.0
14	0x00000000	0.0
15	0x00000000	0.0
16	0x00000000	0.0
17	0x00000000	0.0
18	0x00000000	0.0
19	0x00000000	0.0
20	0x00000000	0.0
21	0x00000000	0.0
22	0x00000000	0.0
23	0x00000000	0.0
24	0x00000000	0.0
25	0x00000000	0.0
26	0x00000000	0.0
27	0x00000000	0.0
28	0x00000000	0.0
29	0x00000000	0.0
30	0x00000000	0.0
31	0x00000000	0.0
32	0x00000000	0.0
33	0x00000000	0.0
34	0x00000000	0.0
35	0x00000000	0.0
36	0x00000000	0.0
37	0x00000000	0.0
38	0x00000000	0.0
39	0x00000000	0.0
40	0x00000000	0.0
41	0x00000000	0.0
42	0x00000000	0.0
43	0x00000000	0.0
44	0x00000000	0.0
45	0x00000000	0.0
46	0x00000000	0.0
47	0x00000000	0.0
48	0x00000000	0.0
49	0x00000000	0.0
50	0x00000000	0.0
51	0x00000000	0.0
52	0x00000000	0.0
53	0x00000000	0.0
54	0x00000000	0.0
55	0x00000000	0.0
56	0x00000000	0.0
57	0x00000000	0.0
58	0x00000000	0.0
59	0x00000000	0.0
60	0x00000000	0.0
61	0x00000000	0.0
62	0x00000000	0.0
63	0x00000000	0.0

action_net.weight f4 [1, 64]
0	0xb81319e9	-3.5071662e-05
1	0x3b4680e6	0.0030289232
2	0xb89b36f0	-7.401209e-05
3	0x37c4f7d3	2.3480423e-05
4	0x3a6d5b36	0.0009054424
5	0x34bb87ec	3.493036e-07
6	0x366119c9	3.3542622e-06
7	0xbb193d87	-0.002338262
8	0xbb490b5e	-0.0030676941
9	0x3aa90231	0.001289433
10	0x3a36788a	0.0006960711
11	0xb5f2a661	-1.8078828e-06
12	0xb488980f	-2.544261e-07
13	0xbb726d61	-0.0036991464
14	0x3860d8f9	5.3607833e-05
15	0x352f0b2d	6.5208843e-07
16	0xbdd85e58	-0.1056487
17	0xb8a8944c	-8.038487e-05
18	0x34b8bf6d	3.441195e-07
19	0x3a65ce42	0.00087663915
20	0xba263ace	-0.000634116
21	0xba4ea49d	-0.00078828057
22	0xb87fe803	-6.1012815e-05
23	0xb66004d8	-3.338142e-06
24	0x3486ae39	2.508621e-07
25	0xb71cd567	-9.348011e-06
26	0xbaeaa6ac	-0.0017902455
27	0xb9650588	-0.00021841202
28	0xbacdf7de	-0.0015714129
29	0xb6579d7d	-3.2129167e-06
30	0xb694a80f	-4.4303083e-06
31	0x38d6fdc8	0.000102515856
32	0xbb90192e	-0.004397533
33	0x395cfbb6	0.00021074605
34	0xb82c0ba5	-4.101884e-05
35	0xba30b88e	-0.0006741368
36	0x3a070f12	0.0005152087
37	0xb9bf4465	-0.00036481317
38	0x39a44aee	0.00031336345
39	0x36b0de37	5.271078e-06
40	0x37417724	1.1531436e-05
41	0xbac78452	-0.001522193
42	0x38fcdcae	0.00012057401
43	0xb3ebb76a	-1.0976403e-07
44	0xb2ca4cc6	-2.3550808e-08
45	0xb68f5734	-4.271884e-06
46	0x389e3b18	7.545034e-05
47	0x3488d7b0	2.5488907e-07
48	0x3a43ac3b	0.0007464324
49	0x38c14ade	9.216902e-05
50	0x38e35091	0.0001083921
51	0xb3309e2f	-4.112206e-08
52	0xb53451da	-6.7174335e-07
53	0x36a8911f	5.0236845e-06
54	0x38b39b56	8.564319e-05
55	0x3b11d5ae	0.0022252607
56	0xbaf18cc9	-0.0018428798
57	0xb7956b2b	-1.7812088e-05
58	0xb86707c5	-5.5081928e-05
59	0xb6c5067d	-5.871813e-06
60	0x4002e7f5	2.0454075
61	0xb49bf7fc	-2.9051432e-07
62	0x384d1819	4.889825e-05
63	0x3b878200	0.0041353703

value_net.weight f4 [1, 64]
0	0xbd81fc10	-0.06346905
1	0x3d0f40fe	0.03497409
2	0x3d930ac1	0.071797855
3	0x3e693786	0.22775087
4	0x3e454c0e	0.19267294
5	0x3e1866d8	0.14882982
6	0x3ddadd96	0.106867954
7	0xbd4a6ab2	-0.04941816
8	0xbd4347da	-0.047675945
9	0xbd2e23b1	-0.042514507
10	0x3d806a75	0.06270305
11	0xbe4312be	-0.19050118
12	0x3cbaaf5e	0.0227887
13	0x3d3db6ab	0.046316784
14	0x3c8009cc	0.015629672
15	0xbda393a6	-0.07987146
16	0xbe082d73	-0.13298588
17	0xbde7ea24	-0.11323956
18	0xbce49ffa	-0.027908314
19	0x3d5fe91b	0.054665666
20	0xbba04568	-0.0048910864
21	0xbd9a0b6f	-0.07521712
22	0x3cc497ca	0.02399816
23	0xbdc82944	-0.09773496
24	0x3ce6920b	0.02814581
25	0x3dde8f7d	0.10867212
26	0xbd594c27	-0.05305114
27	0x3d4f2dc5	0.05058076
28	0xbe34c58c	-0.17653483
29	0x3e54c5ba	0.20778552
30	0xbd207516	-0.03917416
31	0x3dc595bd	0.09647701
32	0xbe30e3ee	-0.17274448
33	0x3d874dd4	0.066066414
34	0x3c4f47e1	0.012651415
35	0x3e051e81	0.12999918
36	0xbd5f545f	-0.054523822
37	0x3c93143e	0.017953988
38	0xbdafb162	-0.08578755
39	0x3e875b6a	0.2643693
40	0xbe091dbf	-0.13390253
41	0x3c66fc16	0.014098188
42	0x3d0321b2	0.032014556
43	0xbea4705f	-0.32116982
44	0xbdac93f9	-0.08426661
45	0xbe06be8e	-0.13158628
46	0x3e54c915	0.20779832
47	0x3d7a5c22	0.06112302
48	0x3d94f790	0.07273781
49	0xbded649f	-0.115914576
50	0xbe5f3f59	-0.21801509
51	0x3d40f7a9	0.047111187
52	0xbd1663e9	-0.036716375
53	0x3e7fb58e	0.24971601
54	0x3de904f8	0.11377901
55	0x3deec192	0.11658014
56	0xbdbba6f4	-0.09162703
57	0xbe04d0a1	-0.1297021
58	0x3ad41c11	0.0016182681
59	0x3d48bfff	0.049011227
60	0x3d9f2d30	0.07772291
61	0x3c811dd7	0.015761299
62	0xbe5f8dd0	-0.21831441
63	0xbe9b4f33	-0.30333862
