policies/Pendulum/bad_ppo.pt (torch, 40751 bytes, 10 tensors)

mlp_extractor.policy_net.0.weight f4 [64, 3]
000000 bf c3 2e 3b 48 74 61 bb 30 f8 3c 3c 7b 4b 67 bc
       0.0026666967 -0.0034401584 0.011533782 -0.014117117
000010 1e be 0a bc 0a fd 13 3f 89 4b 67 3c 82 be 0a 3c
       -0.008468179 0.5780798 0.01411713 0.008468272
000020 4b 10 14 bf d7 67 90 33 f5 2e dc b3 81 7a b2 34
       -0.5783736 6.724411e-08 -1.025309e-07 3.3244217e-07
000030 cb 82 b9 35 62 df c5 b5 35 29 15 37 79 4b 67 bc
       1.382164e-06 -1.4742657e-06 8.890686e-06 -0.014117115
000040 1a be 0a bc e2 fb 13 3f d3 d7 61 38 db cf 79 b8
       -0.008468175 0.5780622 5.3845182e-05 -5.9559807e-05
000050 7b 11 99 39 17 8e 7b 36 86 18 9f b6 fe fd 85 37
       0.00029195458 3.7484622e-06 -4.741424e-06 1.597311e-05
000060 75 4b 28 b8 d1 1e 9f 38 0e ff d9 b9 74 89 d7 35
       -4.0124596e-05 7.587451e-05 -0.00041579496 1.6058752e-06
000070 f5 17 1f b6 96 01 b9 36 ef a8 3a b7 6b 28 a1 37
       -2.370679e-06 5.5136143e-06 -1.1125797e-05 1.9211517e-05
000080 8f b0 45 b8 f3 1e a6 33 26 d6 90 b3 aa b1 c5 34
       -4.7132893e-05 7.735607e-08 -6.744476e-08 3.6823377e-07
000090 66 d7 85 b8 71 fa c1 3a 8b ff b3 bb 6b 8a 7b b0
       -6.382055e-05 0.0014799369 -0.0054931096 -9.150997e-10
0000a0 2f b2 eb 31 da dc 50 b1 8a 4b 67 bc 75 be 0a bc
       6.8596573e-09 -3.0393523e-09 -0.014117131 -0.00846826
0000b0 ed 0f 14 3f 2c 37 8d 35 f1 12 8b b5 0f 44 28 36
       0.578368 1.0521376e-06 -1.036182e-06 2.5073566e-06
0000c0 e2 bd df b4 4a 4d 18 35 25 7d 1c b6 42 9b ac 31
       -4.1675145e-07 5.6736883e-07 -2.3318655e-06 5.0235096e-09
0000d0 1c 50 10 b6 30 fc b4 36 61 ae a5 ba 88 eb b1 3a
       -2.1504302e-06 5.3937765e-06 -0.001264047 0.0013574222
0000e0 b8 a7 c7 bb d5 13 72 b4 41 8d 90 34 3a 92 79 b5
       -0.0060929917 -2.2545221e-07 2.6924866e-07 -9.2972516e-07
0000f0 9a 4b 67 3c 90 be 0a 3c ac 11 14 bf a3 67 da 34
       0.014117146 0.008468285 -0.57839465 4.068107e-07
000100 39 df 00 b5 c4 20 e7 35 98 7e 02 3c b7 e6 22 3c
       -4.800855e-07 1.7220377e-06 0.007964753 0.009942702
000110 26 ef f4 bc 6a 0a 62 b2 6f 70 86 32 54 3f 57 b3
       -0.029899191 -1.3157299e-08 1.5650782e-08 -5.0116185e-08
000120 d2 0c a3 36 08 87 e5 b6 7d 20 32 38 23 1d 81 36
       4.859271e-06 -6.8404515e-06 4.2468764e-05 3.8478915e-06
000130 a6 1e 95 b6 ce d1 85 37 a2 11 a3 b5 a1 8f 30 35
       -4.444114e-06 1.5952533e-05 -1.2149578e-06 6.5774117e-07
000140 de 43 f1 b6 4d da 06 ba 24 17 51 3a 00 09 02 bb
       -7.1902605e-06 -0.00051442237 0.00079761655 -0.001984179
000150 52 cf cc 34 b6 ca 19 b5 24 a2 1b 36 0d 42 c6 b5
       3.8148806e-07 -5.7291925e-07 2.3191178e-06 -1.4771373e-06
000160 0a d1 5b 36 d4 75 00 b7 20 a5 13 b6 69 e4 30 36
       3.275522e-06 -7.6568285e-06 -2.2000822e-06 2.6358996e-06
000170 16 f8 14 b7 4f 5d 3a 37 5b 42 b2 b7 46 37 53 38
       -8.879249e-06 1.1108189e-05 -2.1250153e-05 5.0357798e-05
000180 1c 4b 67 bc 53 bd 0a bc 52 e2 13 3f 89 92 b1 ba
       -0.014117029 -0.00846799 0.5776721 -0.0013547699
000190 e6 f3 bf 3a 96 05 d3 bb 0d 35 07 b4 82 45 0e 34
       0.0014644831 -0.006439875 -1.2592155e-07 1.3250067e-07
0001a0 c2 76 da b4 6c e0 24 3a 41 fc be ba 5b 4d 4a 3b
       -4.0692072e-07 0.0006289545 -0.0014571027 0.0030868861
0001b0 27 71 91 34 65 6a 1c b4 0f 1e 24 36 eb 5e ce 34
       2.7090684e-07 -1.4567338e-07 2.44554e-06 3.8439552e-07
0001c0 c2 63 f9 b4 49 5c d6 35 92 07 71 37 af bf 09 b8
       -4.6452448e-07 1.5971101e-06 1.4366482e-05 -3.2841865e-05
0001d0 2a 13 41 39 32 59 03 38 43 0e 1c b8 9a 9d 1a 39
       0.00018413053 3.1315903e-05 -3.720658e-05 0.00014745296
0001e0 4f 74 78 33 41 e8 c7 b3 bf 18 59 34 86 4b 67 bc
       5.784778e-08 -9.3089064e-08 2.0218702e-07 -0.014117127
0001f0 6f be 0a bc 88 0e 14 3f 75 4e 67 bb 7a 71 d1 3b
       -0.0084682545 0.5783467 -0.0035294567 0.0063917013
000200 e7 a7 83 bc 44 66 4a ba 95 4b 01 3b 31 10 89 bb
       -0.016071273 -0.0007720927 0.0019728888 -0.0041828384
000210 56 39 70 38 11 fe f9 b8 64 52 99 39 5b 4b 67 bc
       5.7273857e-05 -0.00011920569 0.0002924382 -0.014117087
000220 cc bd 0a bc b0 f4 13 3f 6c d9 dd b5 72 e5 19 36
       -0.008468103 0.5779524 -1.6529061e-06 2.2932331e-06
000230 16 95 16 b7 84 0e be b3 fd 5f de 33 4a e2 9c b4
       -8.9754085e-06 -8.850205e-08 1.0355141e-07 -2.922191e-07
000240 80 18 80 37 8a 96 91 b7 76 39 95 38 35 2f 07 3b
       1.5270198e-05 -1.7355447e-05 7.1155766e-05 0.0020627503
000250 5d 2e 51 bb 1c 67 0f 3c a5 1c e5 b6 20 5c 0c 37
       -0.0031918504 0.008752611 -6.8280665e-06 8.3661e-06
000260 7d 9a cd b7 f4 7a d9 b4 5d 93 1a 35 6c 0b 0a b6
       -2.4509844e-05 -4.050886e-07 5.758391e-07 -2.057025e-06
000270 90 4b 67 bc 81 be 0a bc a6 10 14 3f 39 e7 05 35
       -0.014117137 -0.008468271 0.57837903 4.9882834e-07
000280 16 3e 05 b5 c6 c2 19 36 81 ef e7 36 eb 22 b9 b7
       -4.963671e-07 2.291215e-06 6.9122184e-06 -2.2069979e-05
000290 65 a6 4e 38 30 98 0e 34 5d d9 b0 b4 69 ce 21 36
       4.9269194e-05 1.3280146e-07 -3.2940707e-07 2.4111016e-06
0002a0 7f 4b 67 3c 75 be 0a 3c 34 0e 14 bf f7 f2 70 b5
       0.014117121 0.00846826 -0.5783417 -8.976053e-07
0002b0 8c 28 89 35 7a 43 d5 b6 b5 4b 67 bc a7 be 0a bc
       1.0219096e-06 -6.35575e-06 -0.014117171 -0.008468307
0002c0 3a 16 14 3f 85 c0 a7 34 7a 04 b3 b4 c9 25 b9 35
       0.57846415 3.124625e-07 -3.3344605e-07 1.3794571e-06
0002d0 9e 4b 67 3c 8e be 0a 3c 80 14 14 bf 33 87 80 b4
       0.01411715 0.008468283 -0.5784378 -2.3940228e-07
0002e0 f4 93 a4 34 c9 08 44 b5 8d 4b 67 bc 63 be 0a bc
       3.065503e-07 -7.3028474e-07 -0.014117134 -0.008468243
0002f0 8a 0d 14 3f fe 62 47 b6 db 67 c6 36 4b 17 bf b7
       0.5783316 -2.9710932e-06 5.91295e-06 -2.2779821e-05

mlp_extractor.policy_net.0.bias f4 [64]
000000 f9 53 ca 3b ae 0a c3 3b 37 09 c3 bb 8d 86 55 34
       0.006174561 0.005952201 -0.005952026 1.988612e-07
000010 c3 51 1e 36 b5 0a c3 3b 9a 53 dc 38 8b 7f f4 36
       2.3591426e-06 0.005952204 0.000105059895 7.2866146e-06
000020 2b c6 b2 b8 25 90 81 36 f4 90 09 b8 f7 27 34 34
       -8.524613e-05 3.86128e-06 -3.2798343e-05 1.6778345e-07
000030 39 3d 2e ba 78 19 76 b2 3b 09 c3 3b 6b 5e ac 35
       -0.0006646696 -1.43248755e-08 0.005952028 1.2842478e-06
000040 42 97 84 b5 dd 04 73 36 aa 10 22 bb 06 89 ff b4
       -9.878788e-07 3.6212653e-06 -0.002472917 -4.759715e-07
000050 17 09 c3 bb 32 d8 64 35 5a d9 43 bc ed f8 f6 b2
       -0.0059520113 8.5251224e-07 -0.011953676 -2.8751368e-08
000060 99 15 07 37 b7 19 07 37 85 c5 42 b6 63 1f c1 ba
       8.051656e-06 8.052614e-06 -2.9023224e-06 -0.0014734085
000070 b4 2a 5d 35 b6 1e bb b6 15 8d 9f b6 45 31 13 38
       8.2391057e-07 -5.5766095e-06 -4.7549934e-06 3.5093417e-05
000080 6d 0c c3 3b 11 ae 30 bb c4 20 8c b4 62 dd 1c 3b
       0.005952409 -0.002695922 -2.6100872e-07 0.0023935665
000090 cb 5b 64 35 21 0f 57 35 20 e8 28 38 9b 53 83 38
       8.5070195e-07 8.0115757e-07 4.0270505e-05 6.2621395e-05
0000a0 13 5c 18 34 5e 09 c3 3b a7 49 35 bc 59 e1 5a bb
       1.41896e-07 0.0059520444 -0.011064923 -0.0033398478
0000b0 68 49 57 39 28 0b c3 3b ca 7c 8c b6 49 fe 39 b4
       0.00020531344 0.0059522577 -4.1868525e-06 -1.7321976e-07
0000c0 34 39 fe 37 6a bf b9 3b 41 eb 7a b7 8c 05 75 b5
       3.0305797e-05 0.0056685703 -1.49559355e-05 -9.1277684e-07
0000d0 33 09 c3 3b c8 ad 93 35 33 44 1d 38 81 af 5e 34
       0.0059520244 1.100293e-06 3.7495232e-05 2.0739209e-07
0000e0 68 09 c3 bb 8e 52 0f b6 9b 08 c3 3b 6d dd 2b 35
       -0.005952049 -2.1356714e-06 0.0059519536 6.402468e-07
0000f0 ef 08 c3 bb 6e 9d 02 b5 66 09 c3 3b 9a df c3 b6
       -0.0059519927 -4.8657864e-07 0.005952048 -5.8374835e-06

mlp_extractor.policy_net.2.weight f4 [64, 64]
000000 41 16 6a b7 3b 6b 1c b9 00 6f 1c 39 20 b8 ef 2f
       -1.3952668e-05 -0.00014917266 0.0001491867 4.3604675e-10
000010 29 13 cb b0 04 6b 1c b9 8e ee 6c b3 f2 51 94 32
       -1.477564e-09 -0.00014917186 -5.5164996e-08 1.7266732e-08
000020 12 cf b9 37 56 30 28 32 30 86 26 b3 b1 bc 7b 30
       2.2150143e-05 9.789877e-09 -3.877193e-08 9.1581415e-10
000030 3d 37 75 37 2e 9e 78 ae ee 6e 1c b9 70 6d 03 b2
       1.4615999e-05 -5.6529163e-11 -0.00014918644 -7.650087e-09
000040 a3 12 91 b2 01 a4 e6 b1 5c ff bf 35 25 ce e2 b0
       -1.6888697e-08 -6.712526e-09 1.4304928e-06 -1.6502254e-09
000050 4d 6f 1c 39 00 68 44 31 be 7c 9d 38 0b 98 34 ad
       0.00014918782 2.858087e-09 7.5095784e-05 -1.0265576e-11
000060 9d 0a b8 b2 fb fb 77 32 09 43 e6 31 0a 44 8e 35
       -2.1425246e-08 1.4434586e-08 6.701502e-09 1.0599626e-06
000070 d7 6e c3 30 7f fd 26 b2 72 a4 7d b2 eb 40 68 b3
       1.421962e-09 -9.72011e-09 -1.4763929e-08 -5.4075752e-08
000080 f3 65 1c b9 2e cf ea 35 e8 41 38 b0 9f 0b 25 b7
       -0.00014915298 1.7494656e-06 -6.703247e-10 -9.837472e-06
000090 fa af 2f b1 ef f1 5a 31 d6 8f 55 34 07 8b 7b 34
       -2.5565883e-09 3.1860699e-09 1.9889498e-07 2.3426774e-07
0000a0 94 06 ae 2f a9 6e 1c b9 7a 89 10 38 25 93 ed b6
       3.165509e-10 -0.00014918543 3.446031e-05 -7.0802803e-06
0000b0 ee ad 58 35 9e 69 1c b9 ee ae 37 b3 f5 09 01 2b
       8.071937e-07 -0.00014916665 -4.2767105e-08 4.5843825e-13
0000c0 bd 59 f2 32 50 77 39 b5 cc ae 4c b3 f6 85 b9 b0
       2.8213316e-08 -6.9091493e-07 -4.7656428e-08 -1.3498596e-09
0000d0 15 6f 1c b9 17 a0 2a 31 84 b4 fa b1 d5 58 c1 30
       -0.000149187 2.4829256e-09 -7.29648e-09 1.4067846e-09
0000e0 9c 6e 1c 39 bf db 47 b2 2d 70 1c b9 c4 73 b6 30
       0.00014918525 -1.1633289e-08 -0.00014919108 1.3275145e-09
0000f0 d7 6f 1c 39 dd b3 84 ae 7e 6e 1c b9 b9 66 83 b3
       0.00014918983 -6.034615e-11 -0.00014918481 -6.118848e-08
000100 ca 5c a7 36 83 da 75 38 e8 df 75 b8 00 83 40 2f
       4.98779e-06 5.8616057e-05 -5.862108e-05 1.7508839e-10
000110 75 32 b5 31 2f da 75 38 d1 09 e9 b3 34 ac 20 31
       5.2735296e-09 5.861575e-05 -1.08516936e-07 2.338095e-09
000120 26 a4 0f b5 d3 7e 16 33 a8 7c 60 32 47 6a bf af
       -5.351052e-07 3.5039943e-08 1.306686e-08 -3.4818212e-10
000130 1b 3f 91 b7 83 c4 4f ad cb df 75 38 1c 07 7e 32
       -1.7314733e-05 -1.1810222e-11 5.8620975e-05 1.4786362e-08
000140 ef 44 c0 b0 c3 d1 77 31 8b 35 05 36 e9 62 41 30
       -1.3989431e-09 3.6062466e-09 1.984971e-06 7.035355e-10
000150 48 e0 75 b8 96 c3 a5 b0 cd 43 00 b7 0f 42 36 2e
       -5.862143e-05 -1.2060919e-09 -7.645181e-06 4.144068e-11
000160 84 54 45 32 49 b5 af 31 b9 65 30 32 22 d8 70 b5
       1.1486126e-08 5.11378e-09 1.0267677e-08 -8.972148e-07
000170 fe ed 8a af 05 a9 08 31 f8 71 e6 31 9e 40 4a b4
       -2.5271157e-10 1.9886681e-09 6.7068378e-09 -1.8836224e-07
000180 10 d3 75 38 64 ad 1c 36 96 bc 1f 30 14 5c 71 b7
       5.860912e-05 2.3346738e-06 5.811186e-10 -1.4386158e-05
000190 24 86 a3 31 21 75 7c af 1a bd 1c b5 35 2d a6 b3
       4.7591744e-09 -2.2960879e-10 -5.838971e-07 -7.7382005e-08
0001a0 3e 9e e6 ad 65 df 75 38 c6 73 31 b7 ca 9e 50 37
       -2.6218246e-11 5.8620604e-05 -1.0576978e-05 1.2434737e-05
0001b0 7e 51 1c 32 34 d8 75 38 9a a9 a3 b1 fd 96 b0 b0
       9.098924e-09 5.8613907e-05 -4.763206e-09 -1.2848599e-09
0001c0 46 38 7b 32 da 1b 4d 36 c2 ad 6d b1 21 1b d8 b1
       1.4622918e-08 3.0563592e-06 -3.458681e-09 -6.2895116e-09
0001d0 fb df 75 38 bb 85 24 30 a0 e1 90 32 f1 b9 ca 2f
       5.862115e-05 5.9852895e-10 1.6866409e-08 3.6875705e-10
0001e0 50 df 75 b8 f9 da 9b b0 8d e1 75 38 2e 27 f4 30
       -5.8620528e-05 -1.133997e-09 5.8622612e-05 1.7764472e-09
0001f0 0f e1 75 b8 02 c9 60 b0 1d df 75 38 01 9f 5c 31
       -5.8622154e-05 -8.1776375e-10 5.8620342e-05 3.2104597e-09
000200 50 29 1b b7 d3 80 f3 b7 8a 87 f3 37 d6 51 86 32
       -9.248339e-06 -2.9027846e-05 2.9030973e-05 1.5636868e-08
000210 43 4d 48 37 69 80 f3 b7 de bb e9 b3 26 b0 bc 38
       1.1938918e-05 -2.9027653e-05 -1.0884081e-07 8.997349e-05
000220 bb e8 e8 37 58 d0 c1 b1 16 60 2a b3 97 4b cf b1
       2.7764929e-05 -5.640725e-09 -3.96686e-08 -6.0330865e-09
000230 4b bd 11 b7 78 4b 81 ac 66 87 f3 b7 4c d7 24 b1
       -8.686747e-06 -3.6747792e-12 -2.9030907e-05 -2.3987523e-09
000240 5d c9 19 31 5a da 31 b1 de 12 df 35 f2 1e 82 b0
       2.2378892e-09 -2.5881008e-09 1.6620286e-06 -9.46754e-10
000250 04 88 f3 37 30 7b 2c b1 d0 32 f1 37 14 24 45 aa
       2.9031195e-05 -2.5099318e-09 2.87531e-05 -1.7509632e-13
000260 66 26 f2 b6 e9 bb 1b b3 52 d8 58 b1 8d 9e 50 b6
       -7.216632e-06 -3.6259653e-08 -3.15551e-09 -3.1086704e-06
000270 e6 51 10 31 78 37 4a b7 cf dc bf 30 17 71 0b 33
       2.1001312e-09 -1.2053053e-05 1.3959837e-09 3.2466314e-08
000280 72 77 f3 b7 e6 0c 94 b6 e4 f1 0d af 09 56 63 b6
       -2.9023478e-05 -4.4122453e-06 -1.2909812e-10 -3.3875715e-06
000290 68 94 2a b0 1d bc 4b 31 cf 19 f5 b2 0c e4 b8 b4
       -6.205654e-10 2.9647318e-09 -2.853349e-08 -3.4438597e-07
0002a0 c9 df 7d 2d e6 86 f3 b7 04 99 39 37 83 54 8d 35
       1.4431075e-11 -2.9030674e-05 1.1062486e-05 1.0529915e-06
0002b0 a4 1a f3 34 e3 7d f3 b7 8c 9e 5c 32 63 8e 13 b0
       4.528166e-07 -2.9026478e-05 1.2841735e-08 -5.368063e-10
0002c0 78 97 0a b4 64 72 8a 37 b4 3e e0 b2 16 ab 94 30
       -1.2907356e-07 1.650415e-05 -2.6105546e-08 1.0817043e-09
0002d0 ad 87 f3 b7 19 16 e9 b6 32 c3 3b 32 45 df 0a b3
       -2.9031036e-05 -6.9465136e-06 1.0929215e-08 -3.233369e-08
0002e0 cc 86 f3 37 04 68 77 31 a0 89 f3 b7 2c 97 52 af
       2.9030627e-05 3.6002357e-09 -2.9031944e-05 -1.9153096e-10
0002f0 0e 89 f3 37 38 54 b9 af 90 86 f3 b7 f8 7c 69 b1
       2.9031678e-05 -3.3711145e-10 -2.9030518e-05 -3.3977e-09
000300 6b 2b 35 b6 c2 37 01 b8 87 3a 01 38 2a 86 b3 ad
       -2.6996374e-06 -3.0807925e-05 3.0810505e-05 -2.0409525e-11
000310 70 5e 02 31 98 37 01 b8 ee c3 66 b3 f9 0a 00 32
       1.8971171e-09 -3.0807772e-05 -5.3729245e-08 7.4530755e-09
000320 62 8b 5f 35 b2 ba 99 32 52 c7 0d b3 78 b0 ce 2e
       8.32768e-07 1.7896443e-08 -3.30104e-08 9.3991426e-11
000330 c6 71 b3 b6 a2 ad ca ac 7a 3a 01 b8 79 ba aa 31
       -5.3478607e-06 -5.7604624e-12 -3.0810457e-05 4.9688507e-09
000340 82 e5 6d 30 4f 42 b4 b0 0d 9f 4f 35 38 e6 9c ae
       8.654625e-10 -1.311557e-09 7.734496e-07 -7.134954e-11
000350 b8 3a 01 38 11 e7 68 2f 6d ed 2d 37 8c 59 61 ad
       3.0810683e-05 2.1182368e-10 1.03668835e-05 -1.2809653e-11
000360 bf 4d 3f af 50 0d 0c b0 95 e0 76 b2 57 1d 33 35
       -1.739897e-10 -5.095062e-10 -1.4370149e-08 6.672539e-07
000370 b7 27 bb 2e 35 f2 e5 b1 bd 45 a9 b0 dd 0a 59 b3
       8.51083e-11 -6.692313e-09 -1.2316189e-09 -5.053413e-08
000380 da 33 01 b8 96 14 98 35 e6 be 11 30 35 b6 99 b4
       -3.0804287e-05 1.1330874e-06 5.3021976e-10 -2.8631044e-07
000390 e0 89 6c 30 31 61 5d 30 a3 54 d7 b3 68 60 63 33
       8.605223e-10 8.053745e-10 -1.0027113e-07 5.2940237e-08
0003a0 ae 31 02 af 3e 3a 01 b8 da af 11 37 e1 a8 c1 b6
       -1.1841081e-10 -3.081024e-05 8.683617e-06 -5.7715083e-06
0003b0 cd 8d 04 b1 8f 36 01 b8 84 fb b9 32 6c f6 ae 2e
       -1.9289133e-09 -3.080681e-05 2.165121e-08 7.956377e-11
0003c0 3a de b0 30 ca 37 f9 34 e3 a2 88 b2 3f e6 6a 31
       1.2868846e-09 4.6420456e-07 -1.5906556e-08 3.4182361e-09
0003d0 91 3a 01 b8 1c 03 2e ae e4 fa 05 33 d7 26 05 30
       -3.081054e-05 -3.956578e-11 3.119466e-08 4.8440313e-10
0003e0 32 3a 01 38 df f2 83 30 6a 3b 01 b8 ce 21 12 b0
       3.0810195e-05 9.600533e-10 -3.081133e-05 -5.316253e-10
0003f0 22 3b 01 38 81 99 0c 30 1f 3a 01 b8 3b 15 46 b3
       3.081107e-05 5.1149845e-10 -3.0810126e-05 -4.6119776e-08

mlp_extractor.policy_net.2.bias f4 [64]
000000 5e 5a fb b7 af ad 54 37 9a f4 bc b6 b0 fc 76 b7
       -2.9963612e-05 1.2676624e-05 -5.631312e-06 -1.4721576e-05
000010 4e 9e 80 b7 d2 14 cf 36 7c eb a1 34 bf 46 33 39
       -1.5332505e-05 6.1715045e-06 3.0159924e-07 0.00017097125
000020 73 72 db b3 18 c8 1b b7 70 dc de b7 34 10 81 b6
       -1.02188004e-07 -9.285308e-06 -2.6567111e-05 -3.846386e-06
000030 65 34 02 b9 0c 7e f6 36 ac 36 d7 b5 bb 61 94 39
       -0.00012417285 7.346045e-06 -1.603466e-06 0.00028301575
000040 cc 01 29 36 0e bc 27 b4 51 22 9a b7 07 80 c2 b5
       2.5184008e-06 -1.5621501e-07 -1.837421e-05 -1.4491387e-06
000050 11 73 36 37 40 ce 1b 38 1b cf c2 b9 fb f3 62 b8
       1.0874836e-05 3.7146965e-05 -0.0003715687 -5.4109823e-05
000060 06 42 e4 36 34 0d 3c 37 c7 e5 eb 35 f2 d6 b8 36
       6.8026156e-06 1.1208747e-05 1.7575738e-06 5.5086502e-06
000070 14 42 b8 33 fd b1 0f 33 f5 d1 03 b8 0f 7b d1 3b
       8.580187e-08 3.345666e-08 -3.142837e-05 0.0063928436
000080 bd dd 52 37 ee 9d d7 35 00 68 e1 31 61 85 79 36
       1.2568603e-05 1.6064712e-06 6.5601853e-09 3.7181528e-06
000090 16 a9 9e 35 5f 84 b3 b1 63 d3 0f b4 55 06 50 b8
       1.1821128e-06 -5.2246345e-09 -1.3394815e-07 -4.959696e-05
0000a0 66 15 d4 b8 e8 25 01 3a 36 98 ff 35 9d 66 c2 b6
       -0.000101129335 0.0004926608 1.904328e-06 -5.7935963e-06
0000b0 a7 d2 c1 39 1e 6b 4b b3 98 78 93 b5 79 2c 54 b9
       0.00036968777 -4.7362043e-08 -1.0987451e-06 -0.00020234463
0000c0 22 0a 99 33 db 05 b0 b7 86 72 fb b2 e1 ba 08 b7
       7.126461e-08 -2.0983562e-05 -2.9272325e-08 -8.149743e-06
0000d0 5e e9 0b 35 c1 8f 51 b4 3a 03 60 37 b2 65 a9 b4
       5.212113e-07 -1.9516939e-07 1.3352192e-05 -3.1552696e-07
0000e0 70 42 21 b8 10 03 8b b8 72 ea 4a 33 f7 74 16 b8
       -3.8447266e-05 -6.628607e-05 4.7245017e-08 -3.587172e-05
0000f0 25 cc 2d 3b 10 61 97 b3 94 f1 a5 b4 ff a6 9d 37
       0.0026519385 -7.049141e-08 -3.0909416e-07 1.8793622e-05

mlp_extractor.value_net.0.weight f4 [64, 3]
000000 21 bc 71 be b7 c9 c2 3e 0c 07 a1 3e 73 a9 5d be
       -0.23606922 0.3804452 0.3145069 -0.21646671
000010 dc a5 98 3d 78 fb c1 be af 5b 7f bd 92 1e af bd
       0.0745351 -0.37887168 -0.062343296 -0.08550753
000020 c8 5f 61 3d e1 c8 e6 be dc 04 2e 3d 71 9a 6f 3e
       0.055022985 -0.45075133 0.042485103 0.23398758
000030 01 58 c6 bd 37 96 c6 3e 9b e9 17 3e 90 36 ae 3d
       -0.09684754 0.3878648 0.14835207 0.08506501
000040 a2 40 46 3e c9 ca a5 bb 38 21 e9 3d 8d 12 34 be
       0.19360593 -0.0050595743 0.11383289 -0.17585202
000050 70 a7 6a 3e c6 ec 30 be 08 91 32 be c1 84 1a be
       0.22915435 -0.17277822 -0.17438138 -0.15089704
000060 d1 70 19 be 96 18 b2 bd 68 0b 61 3e 39 05 02 3e
       -0.14984442 -0.08696096 0.21977007 0.12697305
000070 f0 1c 0a be c6 24 b5 3d 16 aa 59 3e e9 eb 73 3d
       -0.13487601 0.088449046 0.21256289 0.059551153
000080 8c 58 ad 3d 8d b3 fe bd 4b af 16 be ab 12 ad be
       0.084641546 -0.1243659 -0.14715306 -0.33803305
000090 d0 74 a4 bc 6b be 20 3e 73 8f d1 be 89 d8 89 3d
       -0.020075232 0.15697639 -0.40929756 0.06730754
0000a0 3a e4 09 3e c9 87 19 3d 33 59 31 be 71 40 f2 3d
       0.13465968 0.03748301 -0.17319183 0.118286975
0000b0 49 54 5e 3e dd 15 68 3e 6b 81 cd bb 96 a3 bb bd
       0.2171184 0.2266459 -0.0062715313 -0.09162061
0000c0 fd 7f 40 3e 0c 08 45 be 82 b7 d5 bd 59 b5 86 be
       0.18798824 -0.19241351 -0.10435392 -0.26310232
0000d0 5d f5 dc bd 99 87 f7 3c 26 fc 17 be a4 24 2c 3e
       -0.10788987 0.030216025 -0.14842281 0.16810852
0000e0 45 28 81 bd f4 f0 c0 3e ac df 90 3d 25 35 9f 3e
       -0.06306509 0.37683833 0.07073912 0.31095234
0000f0 68 c9 81 bd 4a 46 af 3e 2d 7b a2 3d d6 67 02 3f
       -0.06337243 0.34233314 0.0793365 0.5093969
000100 f6 69 9d 3e db 15 0a be fc 02 16 3e b0 8c 7c 3b
       0.30744904 -0.134849 0.14649576 0.0038536005
000110 10 63 19 3d 59 74 41 bd dc 30 84 bd 44 ae 5a 3d
       0.03744799 -0.0472301 -0.06454632 0.05338885
000120 ee 1d 19 3e d1 c3 a8 be ad 81 63 3e 15 4f 38 be
       0.14952824 -0.32961896 0.22217436 -0.17998917
000130 60 21 bf bd 3e a0 01 3d f5 04 56 bd ed 66 af bd
       -0.09332538 0.03164696 -0.05225082 -0.085645534
000140 a6 fe 90 3d 6c 0c 93 be c8 ef 76 be 83 68 86 be
       0.0707982 -0.28720415 -0.24114907 -0.2625161
000150 44 dd 2d bc 73 80 7d 3e 9e 1a c2 3d 04 9d 33 be
       -0.010611836 0.2475603 0.09477733 -0.17540365
000160 25 37 35 bd f6 32 72 be 1c 75 e4 be 77 e0 91 3e
       -0.044242043 -0.23652253 -0.44620597 0.28491566
000170 e4 b4 e8 3d c6 0b 1f be 88 47 d4 3c 86 3d f8 bd
       0.11362627 -0.15531835 0.025913015 -0.1212111
000180 9f 81 79 bd fa a8 15 3e 0c 01 70 bc 42 e5 d0 3d
       -0.060914632 0.1461524 -0.014648687 0.101999775
000190 18 d4 bd bd 7b 73 4a be 15 7a 15 3d 73 3a 12 3d
       -0.09268969 -0.19770615 0.03649338 0.035700273
0001a0 b3 46 33 3e b2 16 b0 3c c1 f7 97 bc ff 0c 0a 3d
       0.17507438 0.021495197 -0.018550755 0.0337038
0001b0 63 ee 35 3d a6 5a c8 3d 38 55 80 3e 66 82 17 bd
       0.044416796 0.09782915 0.25065017 -0.036989592
0001c0 19 f2 80 be c9 63 ba 3e fd 31 94 be 59 1d 17 be
       -0.25184706 0.36404255 -0.28944388 -0.14757289
0001d0 4d 98 79 3e b9 f3 66 3e 5c 46 33 3e 0b 7b e8 bd
       0.24374504 0.2255391 0.17507309 -0.113515936
0001e0 1b 9d 94 bd ba f5 fa 3b cb 1c f2 3d a3 b7 32 3d
       -0.07256528 0.0076586874 0.11821898 0.04363216
0001f0 66 b0 55 3e 42 fa ae be 86 2b 69 3d 2f 5a 37 3e
       0.20868072 -0.34175307 0.056926273 0.17905496
000200 51 8e 9e 3d f1 82 dd bd 8f f2 69 3e 98 02 f8 3d
       0.077419885 -0.10815991 0.22846435 0.1210987
000210 d8 af 09 bd 8b d4 0f 3d 81 3e 39 3d 82 26 bf 3d
       -0.033614963 0.035114806 0.045225624 0.09333517
000220 30 75 8f 3e 14 72 08 3e 40 3f a7 bd f6 79 0d be
       0.28019094 0.13324767 -0.08166361 -0.13816056
000230 5c c0 f0 3b d8 9c 9f 3d aa 5b 17 3e a2 1f 37 bd
       0.00734715 0.077935874 0.14781061 -0.0447079
000240 7c 8a 0d 3e 20 cf db 3d 31 08 c1 3d 13 f8 e7 3d
       0.13822359 0.10732865 0.094253905 0.11326613
000250 2b cd 6b be af 11 0a be 92 d1 f7 3d 84 73 6a 3c
       -0.23027484 -0.13483308 0.12100519 0.014309768
000260 e4 a0 22 3e 92 9a 37 3e 28 b8 cf 3c c3 9d 50 bd
       0.15881687 0.17930058 0.025356367 -0.050931703
000270 f4 38 ec bd 8b ed b7 bd d9 d7 e5 bd 7d 5d f5 bd
       -0.115343004 -0.089808546 -0.1122281 -0.11980722
000280 23 fd 0c be eb 4a 97 3e 18 ed 3e 3e 78 ed 3c 3d
       -0.13768439 0.29549345 0.18645132 0.046124905
000290 0a 61 33 3e ca 6a e3 3c 31 44 b1 3d 7c 9d 4b be
       0.17517486 0.027760882 0.086555846 -0.19884294
0002a0 dd dc ea bd 08 ba 4a be eb e3 6c 3d 75 9a a3 3b
       -0.114679076 -0.19797528 0.057834547 0.004992778
0002b0 61 0b 9e 3e 6d 78 45 3d 32 40 8a bb 86 32 f2 3b
       0.30868056 0.04821055 -0.0042190785 0.007391277
0002c0 7e 79 2e be e8 57 4c 3e 5c 39 4f be ec 8d fa 3d
       -0.17038533 0.19955409 -0.20236725 0.12234101
0002d0 42 11 62 3e 05 ec 32 be 6d 80 85 bb 6f b8 46 bd
       0.22076896 -0.17472847 -0.0040741474 -0.048515733
0002e0 eb e5 90 3e 77 67 37 be fe 62 34 3e d2 5f e4 3d
       0.28300413 -0.17910562 0.17615888 0.11151089
0002f0 49 1c c9 3d 75 69 10 3e f5 d3 68 be 3f 06 f2 3d
       0.09819848 0.14102729 -0.22737105 0.118175976

mlp_extractor.value_net.0.bias f4 [64]
000000 00 00 00 00 00 00 00 00 00 00 00 00 00 00 00 00
       0.0 0.0 0.0 0.0
000010 00 00 00 00 00 00 00 00 00 00 00 00 00 00 00 00
       0.0 0.0 0.0 0.0
000020 00 00 00 00 00 00 00 00 00 00 00 00 00 00 00 00
       0.0 0.0 0.0 0.0
000030 00 00 00 00 00 00 00 00 00 00 00 00 00 00 00 00
       0.0 0.0 0.0 0.0
000040 00 00 00 00 00 00 00 00 00 00 00 00 00 00 00 00
       0.0 0.0 0.0 0.0
000050 00 00 00 00 00 00 00 00 00 00 00 00 00 00 00 00
       0.0 0.0 0.0 0.0
000060 00 00 00 00 00 00 00 00 00 00 00 00 00 00 00 00
       0.0 0.0 0.0 0.0
000070 00 00 00 00 00 00 00 00 00 00 00 00 00 00 00 00
       0.0 0.0 0.0 0.0
000080 00 00 00 00 00 00 00 00 00 00 00 00 00 00 00 00
       0.0 0.0 0.0 0.0
000090 00 00 00 00 00 00 00 00 00 00 00 00 00 00 00 00
       0.0 0.0 0.0 0.0
0000a0 00 00 00 00 00 00 00 00 00 00 00 00 00 00 00 00
       0.0 0.0 0.0 0.0
0000b0 00 00 00 00 00 00 00 00 00 00 00 00 00 00 00 00
       0.0 0.0 0.0 0.0
0000c0 00 00 00 00 00 00 00 00 00 00 00 00 00 00 00 00
       0.0 0.0 0.0 0.0
0000d0 00 00 00 00 00 00 00 00 00 00 00 00 00 00 00 00
       0.0 0.0 0.0 0.0
0000e0 00 00 00 00 00 00 00 00 00 00 00 00 00 00 00 00
       0.0 0.0 0.0 0.0
0000f0 00 00 00 00 00 00 00 00 00 00 00 00 00 00 00 00
       0.0 0.0 0.0 0.0

mlp_extractor.value_net.2.weight f4 [64, 64]
000000 87 b6 6f be 3c 07 57 bd 07 3e 93 bd 0c 75 23 3e
       -0.23409472 -0.052497134 -0.07189565 0.15962619
000010 9c 96 c9 3e a0 70 90 bd e2 86 e1 3c 33 50 98 bd
       0.39372718 -0.070527315 0.027530137 -0.07437172
000020 d0 60 b8 be d1 71 72 be 5e 18 dd 3c 99 ea 75 bc
       -0.36011362 -0.2367623 0.026989158 -0.015009546
000030 ca b3 bc bd 11 8d 9a be 71 ff 04 3d d5 12 e0 3d
       -0.092139795 -0.3018575 0.03247017 0.10941092
000040 69 55 58 be c8 54 72 3e 91 b4 e6 3c 87 57 80 3d
       -0.21126331 0.23665154 0.028162273 0.062666945
000050 67 7e a5 be 06 63 cb bd 70 cc ac be 5a bd 63 bd
       -0.32323 -0.099309966 -0.33749723 -0.0556005
000060 34 94 57 3d 5a 42 2d be 68 42 03 be f3 50 3d bc
       0.052631572 -0.16919842 -0.128183 -0.011554944
000070 7d 8d 0e bd 90 10 3f be af 4c bb 3d 1a 30 cb bd
       -0.034802902 -0.18658662 0.091454856 -0.09921284
000080 bc 91 72 3e 54 c0 09 3f 8e de 21 3e d6 f1 27 3e
       0.23688406 0.53809094 0.15807554 0.16400847
000090 40 ad 1e be 39 a4 00 bd 41 16 92 bd 70 0b 2c 3e
       -0.15495777 -0.031406615 -0.07133151 0.16801238
0000a0 8e 8e 8b 3d 25 06 88 bc 48 25 90 3e da 4b 17 3e
       0.068142995 -0.016604492 0.28153443 0.14775029
0000b0 30 3a 3e be 98 21 5b 3b d2 86 f0 3d 2e 29 3d 3d
       -0.18576884 0.0033436771 0.11744465 0.04618185
0000c0 d6 7c 09 bd 29 c5 00 bc 44 20 4a 3d 56 9c ce bd
       -0.03356632 -0.007859507 0.049347177 -0.100884125
0000d0 a7 26 06 be 85 70 b4 3c 51 ea 6c be f9 74 0a be
       -0.13100682 0.02202631 -0.2313626 -0.13521184
0000e0 aa 3f e3 bd d8 91 8e 3e 86 39 5a be fe 8a 03 3e
       -0.11096127 0.27845645 -0.21311006 0.1284599
0000f0 9f 28 2b 3e 15 ab a1 3d a7 b4 a1 3e 1c 1a 9f bd
       0.16714714 0.078939594 0.3158314 -0.07768652
000100 11 67 1e be 30 f8 e9 3e 8d e1 11 be 4a 41 47 be
       -0.15469004 0.45697165 -0.14246197 -0.194585
000110 bf 04 60 bc fe f1 ff 3d 70 1b 47 3e e1 6c f1 bd
       -0.013673007 0.12497328 0.1944406 -0.11788345
000120 73 69 78 3e a7 68 de 3e 8b 7e 12 be 36 dc ee bc
       0.24258976 0.43439218 -0.14306085 -0.02915774
000130 97 19 e1 be 76 bc 8a be eb c6 f5 bd ef fa 84 bd
       -0.43964836 -0.2709691 -0.12000831 -0.06493174
000140 4c a2 31 3e 92 23 c3 3d fe 28 6d 3e cf da b0 bd
       0.17347068 0.09528269 0.23160169 -0.086354844
000150 fb 1e 83 bd 0c 14 64 be 60 44 61 be bd d5 5d be
       -0.064023934 -0.22273272 -0.21998739 -0.21663566
000160 28 65 39 3d e1 ab 9b bc 32 25 a7 3d 3a a6 a9 bd
       0.045262486 -0.019002857 0.08161391 -0.08283658
000170 86 ba 7e 3d ad bf 0e be 4a d9 45 3e d9 56 3d bc
       0.0621896 -0.13940306 0.1932117 -0.011556351
000180 2f 06 79 3e f7 96 31 be 0f d2 3e be 55 e3 fa 3d
       0.24318765 -0.17342745 -0.18634818 0.122503914
000190 32 14 33 bc 02 d2 c3 bd 52 c7 4f 3d 7c 23 23 be
       -0.010930108 -0.0956154 0.050727196 -0.15931505
0001a0 db 27 e6 bd 8d 69 6f be cb 4b 9c be e0 21 14 3e
       -0.112380706 -0.23380108 -0.30526575 0.14466047
0001b0 0b 3d 9f 3e 8b 99 43 bb df 49 e5 bc 1b 41 b8 bd
       0.3110126 -0.0029846157 -0.027989326 -0.08996793
0001c0 91 2a 74 3d 48 b2 cc bd e6 20 f9 3d 75 96 ed bd
       0.059610907 -0.09994942 0.12164478 -0.11600963
0001d0 17 22 a6 3d 49 e9 e2 bd 03 17 b0 3d db f5 79 3c
       0.08111971 -0.11079652 0.08598139 0.01525637
0001e0 07 68 6f 3e 03 73 b3 3d b8 2c 51 be 7b 38 e1 3b
       0.23379527 0.08762171 -0.20427215 0.006873188
0001f0 b0 0f b5 3d e0 c2 69 3e dd 3b 81 3e 35 8b 3e bd
       0.08840883 0.22828245 0.25240985 -0.046519477
000200 89 5c d2 be ac 22 4b be 5f d1 a4 be a1 ee 7c 3e
       -0.41086224 -0.19837445 -0.32190987 0.24700405
000210 3f 54 0a be 9d 42 7a 3e 1a 54 1d 3d cd b4 fc bd
       -0.135087 0.24439473 0.038410284 -0.123391725
000220 11 86 21 3d 1f 53 bb 3c e0 0b 7c bd 2b 63 86 3d
       0.039434496 0.022866784 -0.061534762 0.065618835
000230 90 0c 94 3e 31 c4 28 3e 14 fb f8 3b 86 3f c6 3d
       0.28915834 0.16481091 0.00759829 0.09680085
000240 45 ad 01 bd 8f 37 71 3e 1e 70 1f 3e f7 24 c0 bd
       -0.031659383 0.2355635 0.15570113 -0.093820505
000250 9a 39 aa be da 44 8e 3e d1 f1 11 be 5a d9 49 3b
       -0.33247072 0.27786905 -0.14252402 0.0030799718
000260 94 89 4d be fe 0a 07 3d dc e0 43 3e 26 fb fe 3d
       -0.20072013 0.032969467 0.19128746 0.124502465
000270 0b 2f 8d 3e 0c 42 58 3e 73 82 a9 bb db 22 09 bc
       0.27574953 0.21118945 -0.0051730215 -0.008370127
000280 17 07 8e be 73 b2 56 3d 6b 5b 08 3e b7 cd ce be
       -0.27739784 0.052416276 0.13316123 -0.40391323
000290 9a 96 b5 3d ea 2f 2d 3d 73 54 b2 3e c3 66 6f be
       0.088666156 0.042282023 0.34830055 -0.23379044
0002a0 d9 82 49 3d cf b7 60 be 2a 6d 25 be 53 54 a9 3d
       0.04919705 -0.21945117 -0.16154924 0.08268037
0002b0 b6 d2 81 3d e9 07 06 3d a3 24 22 3c 72 64 47 be
       0.06339018 0.032722387 0.00989643 -0.1947191
0002c0 3b 5e d2 3d d3 13 70 3e 57 d9 69 3d be 71 d0 bd
       0.10271879 0.23445062 0.057092037 -0.101779446
0002d0 bf 90 28 3d 87 d3 a7 3d 6c 25 52 3d 93 61 f3 3d
       0.041153666 0.081946425 0.05130522 0.11883845
0002e0 c9 17 57 bc 04 c8 3f 3b 47 46 5c be b8 7d 57 3e
       -0.013128229 0.0029263506 -0.21511184 0.21044052
0002f0 b6 3f 8f 3e ae 47 3b bd 55 16 89 bd 38 aa 46 be
       0.27978295 -0.045722656 -0.066937126 -0.19400871
000300 e7 44 ae 3d 75 e0 b3 3d 39 92 cf bd 91 b9 90 3b
       0.08509236 0.08783046 -0.10135312 0.0044166525
000310 b6 93 aa bd 8f 2a 02 bd f4 3f b6 bb 8b f3 23 3d
       -0.08328955 -0.03177887 -0.005561823 0.040027183
000320 ce 39 b2 bd ce 52 78 3d ba e7 26 bd b2 af 50 3e
       -0.087024316 0.060625844 -0.040748335 0.20379522
000330 07 56 14 3e e8 b1 c5 3d 6b 4a 07 3e aa 55 ba 3e
       0.14485942 0.096530735 0.13211982 0.36393481
000340 5e 47 8f bc 5f ba 2a bb 59 ed 19 3e 4f a0 4b bc
       -0.017490085 -0.0026051027 0.15031947 -0.012428357
000350 4e 07 8f be ad ae c5 3d 80 14 77 3d 92 a7 ac 3e
       -0.2793526 0.096524574 0.060322285 0.33721596
000360 54 3d 9a 3b 70 16 70 be 42 61 3f 3e 98 d2 b4 be
       0.004707018 -0.23446059 0.18689445 -0.3531692
000370 08 2b 27 3e f1 d5 25 be 00 73 64 3e 79 26 03 be
       0.16325009 -0.16194893 0.22309494 -0.12807645
000380 ad b9 8f bd 02 47 90 be 7e 52 8c 3e 81 b2 98 3d
       -0.07017837 -0.28179175 0.27406687 0.07455922
000390 27 de 9f 3e 13 e7 3b be 63 82 84 bb 93 5b 04 3e
       0.31224176 -0.18349867 -0.0040438636 0.12925558
0003a0 5d c0 87 3e bd c5 06 3e bc 0d cc bd b7 d4 33 be
       0.2651395 0.13161369 -0.09963557 -0.17561613
0003b0 f4 39 83 3d 30 4b c1 be 7b 1f 20 3e d8 1c 8c 3d
       0.06407538 -0.37752676 0.15637009 0.06841439
0003c0 1d fc 04 3d 97 5a 28 be b1 20 b9 3d 39 f4 65 3e
       0.032466996 -0.16440807 0.090394385 0.22456445
0003d0 44 39 bc be 39 48 c2 bd 61 84 29 3e fa 88 8a bc
       -0.3676244 -0.09486432 0.16554405 -0.016911019
0003e0 40 b4 6e 3d c9 fb f5 3d 06 98 37 be 42 9e 83 bc
       0.05827737 0.12010915 -0.17929086 -0.016066674
0003f0 a0 35 71 be 82 9e bd bc a5 47 8a 3e f7 16 ad 3e
       -0.23555613 -0.023146871 0.27007785 0.33806583

mlp_extractor.value_net.2.bias f4 [64]
000000 00 00 00 00 00 00 00 00 00 00 00 00 00 00 00 00
       0.0 0.0 0.0 0.0
000010 00 00 00 00 00 00 00 00 00 00 00 00 00 00 00 00
       0.0 0.0 0.0 0.0
000020 00 00 00 00 00 00 00 00 00 00 00 00 00 00 00 00
       0.0 0.0 0.0 0.0
000030 00 00 00 00 00 00 00 00 00 00 00 00 00 00 00 00
       0.0 0.0 0.0 0.0
000040 00 00 00 00 00 00 00 00 00 00 00 00 00 00 00 00
       0.0 0.0 0.0 0.0
000050 00 00 00 00 00 00 00 00 00 00 00 00 00 00 00 00
       0.0 0.0 0.0 0.0
000060 00 00 00 00 00 00 00 00 00 00 00 00 00 00 00 00
       0.0 0.0 0.0 0.0
000070 00 00 00 00 00 00 00 00 00 00 00 00 00 00 00 00
       0.0 0.0 0.0 0.0
000080 00 00 00 00 00 00 00 00 00 00 00 00 00 00 00 00
       0.0 0.0 0.0 0.0
000090 00 00 00 00 00 00 00 00 00 00 00 00 00 00 00 00
       0.0 0.0 0.0 0.0
0000a0 00 00 00 00 00 00 00 00 00 00 00 00 00 00 00 00
       0.0 0.0 0.0 0.0
0000b0 00 00 00 00 00 00 00 00 00 00 00 00 00 00 00 00
       0.0 0.0 0.0 0.0
0000c0 00 00 00 00 00 00 00 00 00 00 00 00 00 00 00 00
       0.0 0.0 0.0 0.0
0000d0 00 00 00 00 00 00 00 00 00 00 00 00 00 00 00 00
       0.0 0.0 0.0 0.0
0000e0 00 00 00 00 00 00 00 00 00 00 00 00 00 00 00 00
       0.0 0.0 0.0 0.0
0000f0 00 00 00 00 00 00 00 00 00 00 00 00 00 00 00 00
       0.0 0.0 0.0 0.0

action_net.weight f4 [1, 64]
000000 80 44 04 b9 f6 f5 4e 38 7a 0e 05 b8 d1 ba dd b7
       -0.00012614019 4.9343296e-05 -3.1723153e-05 -2.6432246e-05
000010 dc c0 aa b8 2b 30 65 37 6c 45 c8 35 1f f7 ed 39
       -8.1421545e-05 1.3660679e-05 1.4921366e-06 0.00045388282
000020 b4 f1 d4 b3 b2 c9 60 38 4d 71 ec b8 bb 5c 9d b7
       -9.915985e-08 5.3593605e-05 -0.00011274461 -1.875904e-05
000030 58 4a 02 ba cc a4 9d b7 a0 18 d4 36 0d 67 44 3a
       -0.00049701845 -1.8792598e-05 6.320959e-06 0.00074921624
000040 ab 78 92 36 d8 47 bc 36 12 e2 a1 b7 dc 1c f1 b5
       4.3651867e-06 5.6112003e-06 -1.9297968e-05 -1.7964298e-06
000050 52 75 39 38 1d 3e 06 38 cb 5b 94 b9 e9 50 6a b9
       4.42167e-05 3.2005937e-05 -0.0002829715 -0.0002234612
000060 9a a9 40 b8 5f aa af 37 2a 24 b7 37 29 55 98 37
       -4.593432e-05 2.094096e-05 2.183214e-05 1.8159468e-05
000070 7a a1 02 b5 63 e0 86 b5 66 1d e7 b7 06 ec 02 40
       -4.8663753e-07 -1.0049083e-06 -2.7551036e-05 2.0456557
000080 48 6e b3 38 ab 5b bd b7 cf 3a 3e b5 a1 9c a1 37
       8.5559266e-05 -2.2573242e-05 -7.0866093e-07 1.9265632e-05
000090 24 1d a9 b7 d5 16 5b b2 4e f3 15 b7 ee 3e fb b8
       -2.015994e-05 -1.2752669e-08 -8.937741e-06 -0.00011980334
0000a0 42 41 b0 b9 d4 0e 79 3a 3c ed 31 b8 b6 ba 02 37
       -0.00033617957 0.0009500806 -4.242103e-05 7.792076e-06
0000b0 b2 a4 9c 39 b3 b6 8f b5 62 d9 a4 36 f6 42 35 ba
       0.00029877346 -1.0707503e-06 4.9128876e-06 -0.000691458
0000c0 04 8f 97 b5 25 87 95 37 25 d6 96 b4 02 a6 c4 b7
       -1.1292e-06 1.7825116e-05 -2.8095488e-07 -2.3442324e-05
0000d0 bf 05 eb b6 7e fa e1 b5 39 73 b0 b8 ec d0 01 37
       -7.0042147e-06 -1.6836709e-06 -8.413796e-05 7.737643e-06
0000e0 9d 07 38 b8 4c 55 4c b9 b0 2f 6a 34 d1 c0 1d b8
       -4.387611e-05 -0.00019486732 2.1810297e-07 -3.761129e-05
0000f0 ef 55 dd 3d 88 98 9e b4 3b 32 78 37 9e 0e 99 38
       0.10807406 -2.9540774e-07 1.4793647e-05 7.298331e-05

value_net.weight f4 [1, 64]
000000 10 fc 81 bd fe 40 0f 3d c1 0a 93 3d 86 37 69 3e
       -0.06346905 0.03497409 0.071797855 0.22775087
000010 0e 4c 45 3e d8 66 18 3e 96 dd da 3d b2 6a 4a bd
       0.19267294 0.14882982 0.106867954 -0.04941816
000020 da 47 43 bd b1 23 2e bd 75 6a 80 3d be 12 43 be
       -0.047675945 -0.042514507 0.06270305 -0.19050118
000030 5e af ba 3c ab b6 3d 3d cc 09 80 3c a6 93 a3 bd
       0.0227887 0.046316784 0.015629672 -0.07987146
000040 73 2d 08 be 24 ea e7 bd fa 9f e4 bc 1b e9 5f 3d
       -0.13298588 -0.11323956 -0.027908314 0.054665666
000050 68 45 a0 bb 6f 0b 9a bd ca 97 c4 3c 44 29 c8 bd
       -0.0048910864 -0.07521712 0.02399816 -0.09773496
000060 0b 92 e6 3c 7d 8f de 3d 27 4c 59 bd c5 2d 4f 3d
       0.02814581 0.10867212 -0.05305114 0.05058076
000070 8c c5 34 be ba c5 54 3e 16 75 20 bd bd 95 c5 3d
       -0.17653483 0.20778552 -0.03917416 0.09647701
000080 ee e3 30 be d4 4d 87 3d e1 47 4f 3c 81 1e 05 3e
       -0.17274448 0.066066414 0.012651415 0.12999918
000090 5f 54 5f bd 3e 14 93 3c 62 b1 af bd 6a 5b 87 3e
       -0.054523822 0.017953988 -0.08578755 0.2643693
0000a0 bf 1d 09 be 16 fc 66 3c b2 21 03 3d 5f 70 a4 be
       -0.13390253 0.014098188 0.032014556 -0.32116982
0000b0 f9 93 ac bd 8e be 06 be 15 c9 54 3e 22 5c 7a 3d
       -0.08426661 -0.13158628 0.20779832 0.06112302
0000c0 90 f7 94 3d 9f 64 ed bd 59 3f 5f be a9 f7 40 3d
       0.07273781 -0.115914576 -0.21801509 0.047111187
0000d0 e9 63 16 bd 8e b5 7f 3e f8 04 e9 3d 92 c1 ee 3d
       -0.036716375 0.24971601 0.11377901 0.11658014
0000e0 f4 a6 bb bd a1 d0 04 be 11 1c d4 3a ff bf 48 3d
       -0.09162703 -0.1297021 0.0016182681 0.049011227
0000f0 30 2d 9f 3d d7 1d 81 3c d0 8d 5f be 33 4f 9b be
       0.07772291 0.015761299 -0.21831441 -0.30333862
