policies/Pendulum/bad_ppo.pt (torch, 40318 bytes, 10 tensors)

mlp_extractor.policy_net.0.weight f4 [64, 3]
00000000: 4360 86bf 50a4 b040 6a14 f543 73c5 0fbf
00000010: 7c5d 8bbe ba7b 2944 6590 3bc1 81d7 eb41
00000020: 70e3 0dc3 1bb0 c141 0d7b e2bd 8334 03c2
00000030: 4628 1242 885f 53c1 dead b8c2 0664 d641
00000040: 6b1e 16c1 a659 6143 35a4 493e b0c5 dc3f
00000050: 4024 bdc0 d9a5 2442 4f5e 5e41 f4df 91c2
00000060: 8a79 5841 9b71 18c2 0110 9042 8c20 4041
00000070: 83ef 5c41 d985 6c43 c449 733e 96a9 453f
00000080: 6d66 1644 69ee c33f ed48 df40 595e d7bf
00000090: c32e 58c0 d93d 8c3f ab6b 18c1 8e5e ce40
000000a0: ef1b a93f 202b 1742 b282 c341 3ec8 d140
000000b0: 1cf6 e143 4a37 25c0 4193 00c0 c043 85c2
000000c0: 5bd0 65c1 4217 ec40 3d13 1c43 2c0b 7abe
000000d0: 0dcb e7bf f573 55c2 55a0 b8c0 2f7d 5f42
000000e0: d458 66c2 adee 3bc2 22e0 b040 f834 98c2
000000f0: 044c 86bf 1d2f 0840 cfd6 13c4 8e0c cebd
00000100: c473 0b41 ce37 0cc4 7b01 ef40 cb41 8940
00000110: 8619 0ac4 834f 9342 7bc6 8ec0 c651 71c2
00000120: 874b 4f41 f418 5c41 3d19 d542 d330 85c1
00000130: f257 8840 66f2 ae41 5cc6 10c0 b0fe 2040
00000140: 0b5e d141 7417 9bc0 09e6 ebc0 1239 2643
00000150: 504c 10c1 228c 5fc1 52bd 9a42 2eb3 dabf
00000160: e996 a8be 4fc8 1544 d144 2ec0 0537 1bc1
00000170: 28d3 9642 32ff 4ac1 3f0f ffbf af02 da42
00000180: acfe 5940 6652 8440 4196 5ac1 8010 03c1
00000190: 110b 1441 37e6 2b42 7ee0 b6c1 8463 4541
000001a0: c378 04c3 95a6 5042 6b23 ebbd cb39 3942
000001b0: 3b1b ee40 16aa bfc0 d3a3 12c1 1f22 c341
000001c0: d2f3 6ac0 019d 08c3 58a7 f040 2fcc f641
000001d0: da0f f142 cba1 3041 7f94 0a41 d784 07c3
000001e0: 8da6 2bc1 a11a 98c1 4b66 d0c3 a39b ae3e
000001f0: 324a e9c0 fc7d 0644 b2cf ef40 d845 86be
00000200: 4a7f 1a43 7b95 d2bf f4c1 8cc0 051a f53f
00000210: dddd d2bc c163 b8bd 2edf 51c0 3219 12c1
00000220: 6275 c6c0 70d7 d943 3a46 6341 2c21 1242
00000230: 6858 eec2 ae79 9141 cc8c 44c2 f419 1fc3
00000240: 9d08 4942 0198 0442 5c91 9f42 826f ab40
00000250: be14 49c0 ef95 0942 6fbc d140 aadc be40
00000260: 0a88 30c3 3246 9040 8093 0bc1 5cdf f441
00000270: 23fd a73f f593 f940 5cdc 0844 6e58 ce41
00000280: fd93 e0c1 60f3 a6c2 6c1a 3940 3ee6 bb3e
00000290: 3cc0 7840 6f24 97bd 6c67 9a3f 4600 f841
000002a0: 3175 6640 091a 0d40 7133 19c4 5e26 ee40
000002b0: 9018 e4c0 fa0a d2c3 44ae 1d40 a9c4 ecc0
000002c0: cbf5 e943 d0c4 e6c1 9fbe 4bc1 d1d1 a63f
000002d0: fc46 5741 f4c2 01c1 53fb 09c4 e83d bd40
000002e0: 90f2 903f 98f2 5f43 696c 7e40 9979 1bc1
000002f0: 385d 3242 ae47 f441 1656 a441 3b1e 0dc2
-1.0498127 5.5200577 490.1595 -0.5616066 -0.2721976 677.9332 -11.722753 29.480227
-141.88843 24.210989 -0.11058626 -32.80128 36.53933 -13.210823 -92.339584 26.79884
-9.382426 225.35019 0.19691546 1.724783 -5.910675 41.16196 13.898025 -72.93741
13.529673 -38.110943 72.03126 12.007946 13.808475 236.52284 0.23758608 0.7721189
601.6004 1.5307132 6.977652 -1.6825668 -3.377854 1.0956374 -9.526286 6.4490423
1.321165 37.792114 24.438816 6.5556936 451.92273 -2.5814996 -2.0089877 -66.632324
-14.363368 7.377839 156.07515 -0.24418324 -1.8108841 -53.36324 -5.769572 55.87225
-57.586746 -46.98308 5.52736 -76.103455 -1.0491948 2.1278756 -591.3564 -0.10060988
8.715763 -560.87195 7.4689307 4.2892814 -552.3988 73.6553 -4.4617286 -60.329857
12.955939 13.756092 106.54929 -16.64884 4.2607355 21.868359 -2.262107 2.515545
26.17092 -4.846613 -7.3718305 166.22293 -9.018631 -13.971712 77.36977 -1.7085931
-0.32927635 599.1298 -2.7229502 -9.7009325 75.412415 -12.687304 -1.9926528 109.00524
3.406169 4.1350584 -13.661683 -8.191528 9.252702 42.97482 -22.859615 12.336796
-132.47173 52.162678 -0.11481365 46.30644 7.440824 -5.9895124 -9.164996 24.39166
-3.6711316 -136.6133 7.5204277 30.849699 120.53096 11.0395 8.661254 -135.5189
-10.728162 -19.013002 -416.79916 0.34103116 -7.290307 537.9685 7.4941034 -0.26225162
154.49722 -1.6451868 -4.398676 1.9148566 -0.025740558 -0.090034015 -3.2792468 -9.131151
-6.201829 435.6831 14.204645 36.532394 -119.17267 18.184414 -49.137497 -159.10138
50.25841 33.14844 79.783905 5.357362 -3.141891 34.39642 6.554252 5.9644365
-176.5314 4.508569 -8.723511 30.609062 1.3124126 7.799311 547.4431 25.793179
-28.07226 -83.47534 2.8922377 0.36699098 3.886733 -0.07379996 1.2062812 31.000134
3.6009028 2.204714 -612.8038 7.4421835 -7.1279984 -420.08575 2.4637613 -7.3990064
467.92026 -28.8461 -12.734038 1.3032781 13.45483 -8.110096 -551.92694 5.913807
1.1324024 223.94763 3.9753668 -9.717187 44.591034 30.535 20.542034 -35.279522

mlp_extractor.policy_net.0.bias f4 [64]
00000000: 74fc 08c0 7dbf 16c1 a7e6 92c0 0333 cbc0
00000010: 5002 0841 75d7 1241 d396 30c1 3312 4f40
00000020: 10ca 14c1 2711 8fc1 7c55 0dc1 f642 85c1
00000030: d8d1 4541 32f2 8541 60bc c8be ee1a 91c1
00000040: 5eb0 cf41 5af3 83c1 02fe ebc0 2116 10c1
00000050: 5e75 3e41 ae95 e53f f36a f63f 9364 b9bf
00000060: b6ea 5b41 4805 d841 16dd 5dc1 ab20 ce41
00000070: beed c8c1 4a97 05c1 9f48 a241 7b34 c0c1
00000080: a9e1 8841 782b c6c1 986a 0f41 2b08 4940
00000090: 5705 ab41 30da 45c0 64a7 61c1 39a8 e341
000000a0: 6243 27c0 c3a9 0fc0 2c34 8c41 5def 5fc1
000000b0: 4e36 13c1 bc89 d4bf 90d5 5441 27d1 7d3f
000000c0: 2a2b 3441 25e9 90c1 7afa b641 b82e b041
000000d0: 1e1d 0d41 b8b7 2141 d863 40c1 575a 2641
000000e0: fab7 81c0 03c5 48c1 b9e9 6fc0 c5cf 4541
000000f0: 932b 50c1 29b6 8e41 8fdb b641 eade f03f
-2.1404085 -9.42175 -4.590656 -6.349977 8.500565 9.177602 -11.036822 3.2354858
-9.299332 -17.883375 -8.83337 -16.657696 12.363731 16.74326 -0.3920622 -18.13815
25.961117 -16.493824 -7.374757 -9.005403 11.903654 1.7936304 1.9251388 -1.4483818
13.744802 27.002579 -13.866476 25.765951 -25.116085 -8.349436 20.28546 -24.025625
17.110186 -24.771225 8.963524 3.1411235 21.377607 -3.091442 -14.103367 28.45714
-2.6134877 -2.2447364 17.525475 -13.995938 -9.200758 -1.6604533 13.302139 0.99147266
11.260538 -18.11384 22.872303 22.022812 8.819609 10.107353 -12.024376 10.397056
-4.053708 -12.548099 -3.7486403 12.363225 -13.010638 17.838945 22.857206 1.8818028

mlp_extractor.policy_net.2.weight f4 [64, 64]
00000000: 8dbc 3542 3b67 b642 2f17 d640 14ba 8bc1
00000010: ed8b ddc1 9f77 94c1 8791 3c40 3fcb e9c1
00000020: c498 c7bf 84a2 d640 89dd 8f42 dc7c 0040
00000030: aca5 5b40 e83f 913f 07cd 7840 cc6d ea40
00000040: 190c ddc0 b845 6dc0 61e4 ffbf 887a 1f41
00000050: 5a77 56c2 839d 57c1 1e31 20c2 c1a9 a7c1
00000060: fd37 a141 b3a2 6941 afb5 7b41 41e2 5041
00000070: a4eb b340 b158 3ec1 282d 8e40 bf99 b2bf
00000080: 05be f4bf b4bb a140 2783 e040 9e52 ac40
00000090: b2a9 3d40 b3e1 23c0 fc99 cabf 0155 d3c1
000000a0: 4311 10c2 395b b441 ad91 8540 0bf8 babf
000000b0: e9ff b6bf ec16 f741 8abc 4cc1 83a1 59c1
000000c0: 2a40 8441 a523 c540 3c15 f4c1 751b 5ac0
000000d0: 544e 1442 694a eec0 c699 06c0 b61f 6541
000000e0: 0fca 89c1 9c42 96c1 f0d8 0942 1b6a f740
000000f0: 82da 0dc2 331c f441 9915 ecbf 3d3c 00c0
00000100: d846 ba41 e2dc 8842 94b6 31c2 c5d3 dc3f
00000110: f5cd aec1 8a6d 9c40 1562 af3f 7198 7c41
00000120: ebb8 d040 2b34 293f 46ac 2142 10c0 7441
00000130: 23ff 4fc1 f066 2dc1 5eb3 7840 8fab 3b3f
00000140: 08e6 de40 cd5b 9a41 456b ecc0 a574 d8c1
00000150: 666d eec1 d784 f8c1 19cf a5c1 4450 5f41
00000160: 81d8 d5c0 9457 9ac1 825a 2e41 fbb4 a8c1
00000170: 2879 6741 a4a8 5142 6b70 9cc1 5e52 6b41
00000180: 7351 28c1 07f7 2741 c6d6 6b40 51f8 9b40
00000190: a476 75c1 edc2 5d40 d52a 97c0 263e 13c1
000001a0: b90d 2ec1 a50f 8742 898f 28c1 99db 9041
000001b0: 9980 f940 dd89 0d42 2591 50c1 631d 9241
000001c0: 6922 45c0 a1a7 1941 895f 6cc0 9d70 16c1
000001d0: 268d 3841 8289 3e41 1310 e740 11b2 2dc1
000001e0: de87 0dc2 5bb8 f9c1 4abc 2942 098c 8ec0
000001f0: 20ac 5bc2 518f 4fc1 3ad8 43c1 0b7a 6141
00000200: 0778 90c1 3a1a 5ac2 583a 8741 4c75 49c1
00000210: 56e3 263f 693f e6c1 79b6 89c0 cdb0 4dc0
00000220: 9dbd a0c0 086c 72c1 101d 55c1 03ae 8ac1
00000230: b286 6b40 c095 8b41 f57e 86c1 2e1b 21c1
00000240: 01c1 efc1 dbeb 17c1 8070 edc0 a0f5 4a41
00000250: e597 4a42 906c f340 06e5 3442 5787 88c1
00000260: fdbd bb40 7303 5741 6e12 9940 5cbd a540
00000270: a2aa a5c0 06b0 46c2 4184 6e3f 7529 d640
00000280: 0ed6 36c1 1eb2 0f41 3543 30c1 ec62 2d41
00000290: 7676 e440 1cce 6ec1 69d5 60c0 e06d f23f
000002a0: c18d 5941 c603 cec1 61d0 98c1 b3e3 24c0
000002b0: 987e 21bf 1898 e0c1 13b8 8741 e447 26c1
000002c0: 4068 09bf 8225 83c0 cfa8 d9bf 8794 a941
000002d0: 5fd1 abc2 63cf 2ec1 97b3 65c1 056f afc0
000002e0: 7ff7 7242 db51 7741 43b7 3ac2 7cf4 2bc0
000002f0: a69c 7442 3be0 43c0 0e39 2541 4bc9 0dc0
00000300: 8c91 1d42 bc34 8242 9a26 9a41 4ce0 fbc0
00000310: 10c9 993f 6d49 23c1 eb34 58c1 1818 8fc1
00000320: 393b 1541 f0d9 86c1 7664 8d42 3fd4 00c1
00000330: 8629 1ec0 883f 9540 5672 2c40 f8c5 87c0
00000340: b106 0a41 5d9c 5e41 3fd9 91c0 7d30 42c1
00000350: 7e6e 96c2 b172 30c2 85ab 17c2 c403 7dc1
00000360: 08a9 1341 4a6d 72bf 9b0f 09c0 11ae 2a3f
00000370: 082e 0641 cf14 1d42 e5e7 eac0 b6c3 ea40
00000380: aea9 da3f bbef 1e41 526f 1f41 5b7c 7941
00000390: 1131 5841 24b5 ccc0 d82d ccbe f00c 25c1
000003a0: cb60 0cc1 fc77 5742 86ef 9fc1 c647 9f40
000003b0: 2135 7840 1023 86bf fb7f 29c0 57f4 85c0
000003c0: aae2 ffc0 9012 2141 8b64 4dc1 5a9c 05c0
000003d0: 18e3 1342 e81d e53f abd9 6640 c293 d1c0
000003e0: df64 80c1 3ed5 91c1 6fb8 c441 0843 8dc1
000003f0: 00d0 44c2 8048 fd40 ef96 40c1 1e4c 87c1
45.43413 91.20162 6.69033 -17.465858 -27.693323 -18.558409 2.9463823 -29.224241
-1.5593495 6.7073383 71.932686 2.0076208 3.4319868 1.1347628 3.8875139 7.325903
-6.907727 -3.7073803 -1.9991571 9.967415 -53.616554 -13.475955 -40.047966 -20.957888
20.152338 14.6022215 15.731856 13.055238 5.6225147 -11.896653 4.443012 -1.395317
-1.9120489 5.054163 7.01601 5.385085 2.9634824 -2.5606506 -1.5828242 -26.416506
-36.016857 22.544542 4.1740327 -1.4606947 -1.4296848 30.886192 -12.79603 -13.601932
16.53133 6.160601 -30.510368 -3.4079258 37.076492 -7.4465833 -2.1031356 14.320242
-17.223661 -18.782524 34.461853 7.7317023 -35.463387 30.51377 -1.8444091 -2.0036767
23.284592 68.43141 -44.4283 1.7252127 -21.850565 4.8883715 1.3701807 15.787217
6.522573 0.66095227 40.418236 15.29689 -12.999789 -10.837631 3.8859477 0.7330865
6.96558 19.294825 -7.3880944 -27.056955 -29.803417 -31.064863 -20.726122 13.957096
-6.6826787 -19.292763 10.897097 -21.08837 14.467079 52.41469 -19.554892 14.707609
-10.519885 10.497809 3.6849837 4.874062 -15.341465 3.4650223 -4.7239785 -9.202673
-10.87835 67.530556 -10.535043 18.107225 7.796948 35.384632 -13.035436 18.264349
-3.0802252 9.603425 -3.693331 -9.4024935 11.53446 11.908571 7.220712 -10.855973
-35.382683 -31.215017 42.433876 -4.454594 -54.91809 -12.972489 -12.24029 14.092296
-18.058607 -54.52561 16.903488 -12.591137 0.6519064 -28.780962 -4.3035245 -3.213916
-5.023146 -15.151375 -13.319595 -17.334967 3.6800961 17.44812 -16.81199 -10.069136
-29.96924 -9.495082 -7.419983 12.684967 50.648335 7.6070023 45.223656 -17.066084
5.866942 13.438342 4.7834997 5.179365 -5.177079 -49.671898 0.93170553 6.6925607
-11.427259 8.980986 -11.016408 10.836651 7.1394606 -14.92532 -3.5130255 1.8939781
13.597108 -25.751842 -19.101748 -2.5763977 -0.6308379 -28.074265 16.96488 -10.392551
-0.536747 -4.0983286 -1.7004641 21.197523 -85.90893 -10.9256315 -14.356345 -5.482302
60.741695 15.457484 -46.678967 -2.6867971 61.152977 -3.060561 10.326429 -2.215411
39.392136 65.103 19.268848 -7.87113 1.2014484 -10.205426 -13.512919 -17.886765
9.326959 -16.856415 70.69621 -8.051818 -2.4712844 4.6640053 2.6944785 -4.242916
8.626634 13.913175 -4.5577693 -12.136838 -75.215805 -44.112003 -37.9175 -15.813419
9.228767 -0.9469801 -2.1415775 0.66671854 8.386238 39.27032 -7.3408074 7.3363905
1.7083032 9.933528 9.964678 15.59286 13.511979 -6.397112 -0.39878726 -10.315659
-8.773631 53.867172 -19.991955 4.9775114 3.8782427 -1.047945 -2.6484363 -4.1860766
-7.996419 10.067032 -12.837047 -2.087668 36.97177 1.7899752 3.6070354 -6.549287
-16.049253 -18.229122 24.590055 -17.65773 -49.203125 7.9151 -12.036849 -16.912167

mlp_extractor.policy_net.2.bias f4 [64]
00000000: d398 2ec0 712c 47c1 ca7a 17c0 8fef 21c0
00000010: f695 46c0 3953 5241 95f1 4840 c9ca aec0
00000020: 5c3c 8b40 94c3 1d40 6dd9 6140 d802 5d40
00000030: a3b5 59c1 d60f f140 4cba 2541 8585 31bf
00000040: cd6f 1ec1 ce01 8340 6520 e1c0 88cd a340
00000050: fc09 e73e f872 4a40 0205 0dc1 f026 0f41
00000060: 03e8 3341 469f b7bf 64d9 c73f e76c 8dc1
00000070: 7c3b 90c0 f2b7 f340 5ee0 f640 de75 5440
00000080: a375 2b40 8a00 8c40 f8dc 80bf 55be a83f
00000090: 5851 eb40 1281 c9c0 edac 5540 68b3 c5be
000000a0: 637b 75c1 dbdc 05c1 6c1b a4c0 80e5 11c1
000000b0: 109a 2841 e5f9 30c0 ccbd c73f f6b6 9d3f
000000c0: ee6a a5bf deb7 5d41 c99b 38c0 d391 0fc1
000000d0: 354b ff40 dc15 8940 4685 a1c0 c50c cbc0
000000e0: 112e fd40 903d d0c0 2ac4 16c1 c2fe ccc0
000000f0: 97b1 29c0 74b2 d9bf a466 b0bf 16e5 69c0
-2.7280777 -12.44835 -2.3668694 -2.5302465 -3.102903 13.145318 3.139745 -5.462254
4.351118 2.4650621 3.5288956 3.4532986 -13.606845 7.533183 10.357983 -0.6934436
-9.902295 4.0939703 -7.0352044 5.1188393 0.45124805 3.1632671 -8.813723 8.947006
11.2441435 -1.4345481 1.5613217 -17.678175 -4.5072613 7.6162043 7.7148886 3.319694
2.679055 4.375066 -1.0067434 1.3183085 7.3536797 -6.2970057 3.3386796 -0.3861344
-15.342624 -8.36642 -5.1283474 -9.11853 10.537613 -2.7652524 1.5604796 1.232146
-1.2923257 13.857389 -2.8845084 -8.973102 7.9779305 4.2839184 -5.0475187 -6.345309
7.9118733 -6.507515 -9.422892 -6.4060984 -2.6514642 -1.7007585 -1.3781323 -3.6546073

mlp_extractor.value_net.0.weight f4 [64, 3]
00000000: 21bc 71be b9c9 c23e 0f07 a13e 75a9 5dbe
00000010: dea5 983d 7dfb c1be b05b 7fbd 921e afbd
00000020: cc5f 613d e4c8 e6be df04 2e3d 759a 6f3e
00000030: 0358 c6bd 3796 c63e 9de9 173e 9136 ae3d
00000040: a240 463e e8ca a5bb 3a21 e93d 8d12 34be
00000050: 76a7 6a3e c8ec 30be 0891 32be c584 1abe
00000060: d270 19be 9618 b2bd 6d0b 613e 3905 023e
00000070: f01c 0abe cb24 b53d 19aa 593e e9eb 733d
00000080: 8f58 ad3d 90b3 febd 4aaf 16be ab12 adbe
00000090: d074 a4bc 6bbe 203e 788f d1be 8ad8 893d
000000a0: 3ae4 093e cc87 193d 3459 31be 7240 f23d
000000b0: 4b54 5e3e de15 683e 6c81 cdbb 99a3 bbbd
000000c0: ff7f 403e 0c08 45be 86b7 d5bd 59b5 86be
000000d0: 5cf5 dcbd a387 f73c 26fc 17be a424 2c3e
000000e0: 4928 81bd f4f0 c03e abdf 903d 2635 9f3e
000000f0: 68c9 81bd 4a46 af3e 2e7b a23d d667 023f
00000100: f669 9d3e df15 0abe fd02 163e 9f8c 7c3b
00000110: 1163 193d 5b74 41bd dc30 84bd 4aae 5a3d
00000120: f01d 193e d1c3 a8be b281 633e 164f 38be
00000130: 5e21 bfbd 42a0 013d f704 56bd ee66 afbd
00000140: aafe 903d 6d0c 93be c7ef 76be 8468 86be
00000150: 45dd 2dbc 7380 7d3e a01a c23d 059d 33be
00000160: 2337 35bd f932 72be 1e75 e4be 77e0 913e
00000170: e8b4 e83d c70b 1fbe 8947 d43c 893d f8bd
00000180: a181 79bd faa8 153e 1801 70bc 44e5 d03d
00000190: 18d4 bdbd 7d73 4abe 157a 153d 723a 123d
000001a0: b646 333e b316 b03c c1f7 97bc 010d 0a3d
000001b0: 65ee 353d a65a c83d 3955 803e 6782 17bd
000001c0: 19f2 80be cd63 ba3e fe31 94be 571d 17be
000001d0: 5198 793e baf3 663e 5d46 333e 117b e8bd
000001e0: 1c9d 94bd bdf5 fa3b ce1c f23d a4b7 323d
000001f0: 66b0 553e 45fa aebe 872b 693d 2f5a 373e
00000200: 528e 9e3d f182 ddbd 8ff2 693e 9a02 f83d
00000210: d8af 09bd 8cd4 0f3d 833e 393d 8326 bf3d
00000220: 3075 8f3e 1572 083e 403f a7bd f679 0dbe
00000230: 62c0 f03b d99c 9f3d aa5b 173e a71f 37bd
00000240: 7d8a 0d3e 1fcf db3d 3208 c13d 13f8 e73d
00000250: 2bcd 6bbe b111 0abe 93d1 f73d 8473 6a3c
00000260: e8a0 223e 939a 373e 26b8 cf3c c99d 50bd
00000270: f538 ecbd 8bed b7bd ddd7 e5bd 7d5d f5bd
00000280: 22fd 0cbe ec4a 973e 18ed 3e3e 79ed 3c3d
00000290: 0b61 333e cc6a e33c 3144 b13d 819d 4bbe
000002a0: dedc eabd 08ba 4abe f2e3 6c3d 769a a33b
000002b0: 610b 9e3e 6c78 453d 3340 8abb 8632 f23b
000002c0: 8079 2ebe ea57 4c3e 5c39 4fbe f08d fa3d
000002d0: 4411 623e 05ec 32be 6e80 85bb 70b8 46bd
000002e0: ebe5 903e 7b67 37be 0063 343e d25f e43d
000002f0: 4a1c c93d 7569 103e f7d3 68be 4406 f23d
-0.23606922 0.38044527 0.31450698 -0.21646674 0.07453512 -0.37887183 -0.0623433 -0.08550753
0.055023 -0.45075142 0.042485114 0.23398764 -0.09684756 0.3878648 0.1483521 0.085065015
0.19360593 -0.0050595887 0.113832906 -0.17585202 0.22915444 -0.17277825 -0.17438138 -0.1508971
-0.14984444 -0.08696096 0.21977015 0.12697305 -0.13487601 0.08844908 0.21256293 0.059551153
0.08464157 -0.124365926 -0.14715305 -0.33803305 -0.020075232 0.15697639 -0.4092977 0.06730755
0.13465968 0.03748302 -0.17319185 0.11828698 0.21711843 0.22664592 -0.006271532 -0.09162063
0.18798827 -0.19241351 -0.10435395 -0.26310232 -0.10788986 0.030216044 -0.14842281 0.16810852
-0.06306512 0.37683833 0.07073911 0.31095237 -0.06337243 0.34233314 0.07933651 0.5093969
0.30744904 -0.13484906 0.14649577 0.0038535965 0.037447993 -0.047230106 -0.06454632 0.05338887
0.14952826 -0.32961896 0.22217444 -0.17998919 -0.09332536 0.031646974 -0.05225083 -0.08564554
0.07079823 -0.28720418 -0.24114905 -0.26251614 -0.010611837 0.2475603 0.094777346 -0.17540367
-0.044242036 -0.23652257 -0.44620603 0.28491566 0.1136263 -0.15531836 0.025913017 -0.12121112
-0.06091464 0.1461524 -0.014648698 0.10199979 -0.09268969 -0.19770618 0.03649338 0.03570027
0.17507443 0.021495199 -0.018550755 0.033703808 0.044416804 0.09782915 0.2506502 -0.036989596
-0.25184706 0.36404267 -0.2894439 -0.14757286 0.2437451 0.22553912 0.1750731 -0.11351598
-0.07256529 0.007658689 0.118219 0.043632165 0.20868072 -0.34175315 0.056926277 0.17905496
0.07741989 -0.10815991 0.22846435 0.12109871 -0.033614963 0.03511481 0.04522563 0.093335174
0.28019094 0.13324769 -0.08166361 -0.13816056 0.0073471526 0.07793588 0.14781061 -0.04470792
0.1382236 0.107328646 0.09425391 0.11326613 -0.23027484 -0.13483311 0.1210052 0.014309768
0.15881693 0.17930059 0.025356364 -0.050931726 -0.11534301 -0.089808546 -0.11222813 -0.11980722
-0.13768438 0.29549348 0.18645132 0.04612491 0.17517488 0.027760886 0.086555846 -0.19884302
-0.11467908 -0.19797528 0.057834573 0.0049927784 0.30868056 0.048210546 -0.004219079 0.007391277
-0.17038536 0.19955412 -0.20236725 0.12234104 0.22076899 -0.17472847 -0.004074148 -0.048515737
0.28300413 -0.17910568 0.1761589 0.11151089 0.09819849 0.14102729 -0.22737108 0.11817601

mlp_extractor.value_net.0.bias f4 [64]
00000000: 0000 0000 0000 0000 0000 0000 0000 0000
00000010: 0000 0000 0000 0000 0000 0000 0000 0000
00000020: 0000 0000 0000 0000 0000 0000 0000 0000
00000030: 0000 0000 0000 0000 0000 0000 0000 0000
00000040: 0000 0000 0000 0000 0000 0000 0000 0000
00000050: 0000 0000 0000 0000 0000 0000 0000 0000
00000060: 0000 0000 0000 0000 0000 0000 0000 0000
00000070: 0000 0000 0000 0000 0000 0000 0000 0000
00000080: 0000 0000 0000 0000 0000 0000 0000 0000
00000090: 0000 0000 0000 0000 0000 0000 0000 0000
000000a0: 0000 0000 0000 0000 0000 0000 0000 0000
000000b0: 0000 0000 0000 0000 0000 0000 0000 0000
000000c0: 0000 0000 0000 0000 0000 0000 0000 0000
000000d0: 0000 0000 0000 0000 0000 0000 0000 0000
000000e0: 0000 0000 0000 0000 0000 0000 0000 0000
000000f0: 0000 0000 0000 0000 0000 0000 0000 0000
0.0 0.0 0.0 0.0 0.0 0.0 0.0 0.0
0.0 0.0 0.0 0.0 0.0 0.0 0.0 0.0
0.0 0.0 0.0 0.0 0.0 0.0 0.0 0.0
0.0 0.0 0.0 0.0 0.0 0.0 0.0 0.0
0.0 0.0 0.0 0.0 0.0 0.0 0.0 0.0
0.0 0.0 0.0 0.0 0.0 0.0 0.0 0.0
0.0 0.0 0.0 0.0 0.0 0.0 0.0 0.0
0.0 0.0 0.0 0.0 0.0 0.0 0.0 0.0

mlp_extractor.value_net.2.weight f4 [64, 64]
00000000: 87b6 6fbe 3c07 57bd 073e 93bd 0c75 233e
00000010: 9c96 c93e a070 90bd df86 e13c 2d50 98bd
00000020: d060 b8be cf71 72be 6b18 dd3c 6cea 75bc
00000030: c9b3 bcbd 148d 9abe 83ff 043d d512 e03d
00000040: 6655 58be c454 723e 9ab4 e63c 8457 803d
00000050: 657e a5be 0063 cbbd 70cc acbe 50bd 63bd
00000060: 3094 573d 5942 2dbe 6b42 03be 0751 3dbc
00000070: 868d 0ebd 8510 3fbe ab4c bb3d 1430 cbbd
00000080: b191 723e 53c0 093f a1de 213e dff1 273e
00000090: 38ad 1ebe 3ca4 00bd 5216 92bd 710b 2c3e
000000a0: 8c8e 8b3d ca05 88bc 4b25 903e df4b 173e
000000b0: 323a 3ebe bc21 5b3b c886 f03d 4a29 3d3d
000000c0: ce7c 09bd 16c5 00bc 2920 4a3d 529c cebd
000000d0: a626 06be a470 b43c 5cea 6cbe 0875 0abe
000000e0: 9d3f e3bd db91 8e3e 7b39 5abe 078b 033e
000000f0: 8228 2b3e 07ab a13d b5b4 a13e ef18 9fbd
00000100: 1167 1ebe 30f8 e93e 8de1 11be 4a41 47be
00000110: bf04 60bc fef1 ff3d 701b 473e dc6c f1bd
00000120: 7369 783e a768 de3e 8a7e 12be 36dc eebc
00000130: 9719 e1be 78bc 8abe ecc6 f5bd f4fa 84bd
00000140: 48a2 313e 9223 c33d fe28 6d3e d1da b0bd
00000150: fd1e 83bd 0e14 64be 6544 61be bcd5 5dbe
00000160: 2c65 393d 01ac 9bbc 3625 a73d 39a6 a9bd
00000170: 70ba 7e3d b3bf 0ebe 42d9 453e f756 3dbc
00000180: 2806 793e ed96 31be 13d2 3ebe 55e3 fa3d
00000190: c413 33bc f8d1 c3bd 2cc7 4f3d 8423 23be
000001a0: d527 e6bd 8969 6fbe c84b 9cbe d921 143e
000001b0: 0f3d 9f3e 629a 43bb e349 e5bc 2441 b8bd
000001c0: b42a 743d 4cb2 ccbd fa20 f93d 6796 edbd
000001d0: 1022 a63d 23e9 e2bd ef16 b03d 61f5 793c
000001e0: 1168 6f3e f772 b33d b42c 51be 403a e13b
000001f0: 8e0f b53d e0c2 693e ec3b 813e 9089 3ebd
00000200: 895c d2be ac22 4bbe 5fd1 a4be a1ee 7c3e
00000210: 3f54 0abe 9a42 7a3e 1954 1d3d c6b4 fcbd
00000220: 2586 213d 1f53 bb3c e40b 7cbd 2c63 863d
00000230: 8e0c 943e 2dc4 283e 25fb f83b 863f c63d
00000240: 4dad 01bd 9137 713e 1d70 1f3e f924 c0bd
00000250: 9539 aabe d944 8e3e d0f1 11be a1d8 493b
00000260: 8f89 4dbe ef0a 073d dde0 433e 23fb fe3d
00000270: 0b2f 8d3e 0a42 583e 6381 a9bb 7122 09bc
00000280: 1407 8ebe 81b2 563d 6a5b 083e becd cebe
00000290: a496 b53d f62f 2d3d 7054 b23e c766 6fbe
000002a0: fc82 493d d1b7 60be 216d 25be 5c54 a93d
000002b0: bed2 813d f807 063d 1624 223c 7164 47be
000002c0: 345e d23d da13 703e 5bd9 693d b471 d0bd
000002d0: 9a90 283d 89d3 a73d 7825 523d 9061 f33d
000002e0: 4717 57bc bec4 3f3b 4346 5cbe d97d 573e
000002f0: c03f 8f3e a147 3bbd 6115 89bd 25aa 46be
00000300: e744 ae3d 75e0 b33d 3992 cfbd 91b9 903b
00000310: b693 aabd 8f2a 02bd dc3f b6bb 96f3 233d
00000320: cf39 b2bd c852 783d bde7 26bd b1af 503e
00000330: 0756 143e edb1 c53d 674a 073e a855 ba3e
00000340: 7d47 8fbc 55b9 2abb 51ed 193e 71a0 4bbc
00000350: 5007 8fbe bdae c53d 9314 773d 91a7 ac3e
00000360: e33c 9a3b 6d16 70be 3b61 3f3e 96d2 b4be
00000370: 0e2b 273e f3d5 25be f872 643e 7726 03be
00000380: a4b9 8fbd 0247 90be 7e52 8c3e 81b2 983d
00000390: 2bde 9f3e 11e7 3bbe 3082 84bb 8e5b 043e
000003a0: 5ec0 873e c9c5 063e b80d ccbd c0d4 33be
000003b0: e839 833d 304b c1be 871f 203e dc1c 8c3d
000003c0: 37fc 043d a15a 28be a520 b93d 2df4 653e
000003d0: 4639 bcbe 3c48 c2bd 5c84 293e b988 8abc
000003e0: 27b4 6e3d fdfb f53d 0b98 37be ea9e 83bc
000003f0: e135 71be 6d9e bdbc 4f47 8a3e 2517 ad3e
-0.23409472 -0.052497134 -0.07189565 0.15962619 0.39372718 -0.070527315 0.027530132 -0.07437167
-0.36011362 -0.23676227 0.026989182 -0.015009504 -0.09213979 -0.3018576 0.032470237 0.10941092
-0.21126327 0.23665148 0.02816229 0.06266692 -0.32322994 -0.09930992 -0.33749723 -0.055600464
0.052631557 -0.16919841 -0.12818305 -0.011554963 -0.034802936 -0.18658645 0.09145483 -0.099212795
0.2368839 0.5380909 0.15807582 0.1640086 -0.15495765 -0.031406626 -0.071331635 0.1680124
0.06814298 -0.016604323 0.28153452 0.14775036 -0.18576887 0.0033436855 0.117444575 0.046181954
-0.03356629 -0.007859489 0.049347077 -0.100884095 -0.1310068 0.022026367 -0.23136276 -0.13521206
-0.11096118 0.27845654 -0.2131099 0.12846003 0.16714671 0.07893949 0.3158318 -0.077684276
-0.15469004 0.45697165 -0.14246197 -0.194585 -0.013673007 0.12497328 0.1944406 -0.117883414
0.24258976 0.43439218 -0.14306083 -0.02915774 -0.43964836 -0.27096915 -0.12000832 -0.06493178
0.17347062 0.09528269 0.23160169 -0.08635486 -0.06402395 -0.22273275 -0.21998747 -0.21663564
0.0452625 -0.019002916 0.08161394 -0.082836576 0.06218952 -0.13940315 0.19321159 -0.011556379
0.24318755 -0.1734273 -0.18634824 0.122503914 -0.010930005 -0.09561533 0.050727054 -0.15931517
-0.11238066 -0.23380102 -0.30526567 0.14466037 0.31101272 -0.0029846658 -0.027989333 -0.089967996
0.059611037 -0.09994945 0.12164493 -0.116009526 0.08111966 -0.110796236 0.08598124 0.015256257
0.23379542 0.08762162 -0.20427209 0.006873399 0.088408574 0.22828245 0.2524103 -0.04651791
-0.41086224 -0.19837445 -0.32190987 0.24700405 -0.135087 0.24439469 0.03841028 -0.12339167
0.03943457 0.022866784 -0.061534777 0.06561884 0.28915828 0.16481085 0.007598298 0.09680085
-0.031659413 0.23556353 0.15570112 -0.09382052 -0.33247057 0.27786902 -0.142524 0.0030799287
-0.20072006 0.03296941 0.19128747 0.12450244 0.27574953 0.21118942 -0.005172895 -0.008370028
-0.27739775 0.05241633 0.13316122 -0.40391344 0.08866623 0.042282067 0.34830046 -0.2337905
0.049197182 -0.2194512 -0.1615491 0.082680434 0.06339024 0.032722443 0.009896299 -0.19471909
0.10271874 0.23445073 0.057092052 -0.10177937 0.041153528 0.08194644 0.051305264 0.11883843
-0.013128108 0.0029261555 -0.21511178 0.21044101 0.27978325 -0.045722608 -0.06693531 -0.19400842
0.08509236 0.08783046 -0.10135312 0.0044166525 -0.08328955 -0.03177887 -0.005561812 0.040027224
-0.08702432 0.06062582 -0.040748347 0.20379521 0.14485942 0.09653077 0.13211976 0.36393476
-0.017490143 -0.0026050408 0.15031935 -0.012428389 -0.27935266 0.09652469 0.060322355 0.33721593
0.0047069653 -0.23446055 0.18689434 -0.35316914 0.16325018 -0.16194896 0.22309482 -0.12807642
-0.0701783 -0.28179175 0.27406687 0.07455922 0.31224188 -0.18349864 -0.00404384 0.1292555
0.26513952 0.13161387 -0.09963554 -0.17561626 0.06407529 -0.37752676 0.15637027 0.06841442
0.032467093 -0.16440822 0.090394296 0.22456427 -0.36762446 -0.09486434 0.16554397 -0.016910898
0.058277275 0.120109536 -0.17929094 -0.016066987 -0.2355571 -0.023146832 0.2700753 0.3380672

mlp_extractor.value_net.2.bias f4 [64]
00000000: 0000 0000 0000 0000 0000 0000 0000 0000
00000010: 0000 0000 0000 0000 0000 0000 0000 0000
00000020: 0000 0000 0000 0000 0000 0000 0000 0000
00000030: 0000 0000 0000 0000 0000 0000 0000 0000
00000040: 0000 0000 0000 0000 0000 0000 0000 0000
00000050: 0000 0000 0000 0000 0000 0000 0000 0000
00000060: 0000 0000 0000 0000 0000 0000 0000 0000
00000070: 0000 0000 0000 0000 0000 0000 0000 0000
00000080: 0000 0000 0000 0000 0000 0000 0000 0000
00000090: 0000 0000 0000 0000 0000 0000 0000 0000
000000a0: 0000 0000 0000 0000 0000 0000 0000 0000
000000b0: 0000 0000 0000 0000 0000 0000 0000 0000
000000c0: 0000 0000 0000 0000 0000 0000 0000 0000
000000d0: 0000 0000 0000 0000 0000 0000 0000 0000
000000e0: 0000 0000 0000 0000 0000 0000 0000 0000
000000f0: 0000 0000 0000 0000 0000 0000 0000 0000
0.0 0.0 0.0 0.0 0.0 0.0 0.0 0.0
0.0 0.0 0.0 0.0 0.0 0.0 0.0 0.0
0.0 0.0 0.0 0.0 0.0 0.0 0.0 0.0
0.0 0.0 0.0 0.0 0.0 0.0 0.0 0.0
0.0 0.0 0.0 0.0 0.0 0.0 0.0 0.0
0.0 0.0 0.0 0.0 0.0 0.0 0.0 0.0
0.0 0.0 0.0 0.0 0.0 0.0 0.0 0.0
0.0 0.0 0.0 0.0 0.0 0.0 0.0 0.0

action_net.weight f4 [1, 64]
00000000: 2457 c33d dad2 f5bd 24ca a4bd 99b0 a93b
00000010: de72 923d 899d 67be 3091 78be 15bb a5bd
00000020: 3c3c c33c 2801 e03d 043b 2dbc d393 0dbe
00000030: 7131 053d 2ce4 e5bd b56b 123e dac0 1fbd
00000040: 0182 913b 42d3 c33d c2dd 9f3c a5fa 013d
00000050: aa4b d83d ab61 b03d 2201 693e 0950 71bd
00000060: 7f28 80bd bdf4 9f3d 7c99 4ebe fd7a b53c
00000070: 04b9 fe3d d9d0 383e c134 e43d 64b0 a9bc
00000080: 3255 c6be 7d07 303d 69d8 6c3c 54db a1be
00000090: 6e89 ce3d 60b8 94bd 5539 fa3c 11f1 3ebe
000000a0: 1d65 fabd d06a 4dbd ec52 a33d db2b 3b3d
000000b0: 42f7 e13d d7e0 8fbe 742c 733c afc6 e03d
000000c0: 11fe 803d 9469 163c 7a40 ac3d c2b0 b0bc
000000d0: 64e1 8e3e 4dd7 6d3e 50e8 bb3d fd6c 87bd
000000e0: 0998 4dbd de2d 48bd f581 273d b138 ea3c
000000f0: f169 75bd 78a2 88bb 3cc5 dd3d 0e39 ed3c
0.09538105 -0.12003107 -0.08046368 0.005178523 0.071508154 -0.22618689 -0.24274135 -0.08092324
0.023832433 0.109377205 -0.010573152 -0.13825922 0.032517854 -0.11225161 0.142989 -0.039002277
0.0044405465 0.095617786 0.019514922 0.031733174 0.10561307 0.08612379 0.22754338 -0.058914218
-0.06257724 0.07810352 -0.20175737 0.022153372 0.12437633 0.18048419 0.111428745 -0.020713992
-0.38736874 0.04297589 0.014455893 -0.31612647 0.100848064 -0.07261729 0.030544916 -0.18646647
-0.12226317 -0.050150692 0.079748005 0.04569612 0.11033489 -0.28101227 0.014842141 0.10975396
0.06298459 0.009180445 0.084107354 -0.02156866 0.27906334 0.23226662 0.091751695 -0.06612585
-0.05019382 -0.048871867 0.04089542 0.028591486 -0.059915487 -0.0041697584 0.10828635 0.02895787

value_net.weight f4 [1, 64]
00000000: 10fc 81bd fe40 0f3d c10a 933d 8637 693e
00000010: 0e4c 453e d866 183e 96dd da3d b26a 4abd
00000020: da47 43bd b123 2ebd 756a 803d be12 43be
00000030: 5eaf ba3c abb6 3d3d cc09 803c a693 a3bd
00000040: 732d 08be 24ea e7bd fa9f e4bc 1be9 5f3d
00000050: 6845 a0bb 6f0b 9abd ca97 c43c 4429 c8bd
00000060: 0b92 e63c 7d8f de3d 274c 59bd c52d 4f3d
00000070: 8cc5 34be bac5 543e 1675 20bd bd95 c53d
00000080: eee3 30be d44d 873d e147 4f3c 811e 053e
00000090: 5f54 5fbd 3e14 933c 62b1 afbd 6a5b 873e
000000a0: bf1d 09be 16fc 663c b221 033d 5f70 a4be
000000b0: f993 acbd 8ebe 06be 15c9 543e 225c 7a3d
000000c0: 90f7 943d 9f64 edbd 593f 5fbe a9f7 403d
000000d0: e963 16bd 8eb5 7f3e f804 e93d 92c1 ee3d
000000e0: f4a6 bbbd a1d0 04be 111c d43a ffbf 483d
000000f0: 302d 9f3d d71d 813c d08d 5fbe 334f 9bbe
-0.06346905 0.03497409 0.071797855 0.22775087 0.19267294 0.14882982 0.106867954 -0.04941816
-0.047675945 -0.042514507 0.06270305 -0.19050118 0.0227887 0.046316784 0.015629672 -0.07987146
-0.13298588 -0.11323956 -0.027908314 0.054665666 -0.0048910864 -0.07521712 0.02399816 -0.09773496
0.02814581 0.10867212 -0.05305114 0.05058076 -0.17653483 0.20778552 -0.03917416 0.09647701
-0.17274448 0.066066414 0.012651415 0.12999918 -0.054523822 0.017953988 -0.08578755 0.2643693
-0.13390253 0.014098188 0.032014556 -0.32116982 -0.08426661 -0.13158628 0.20779832 0.06112302
0.07273781 -0.115914576 -0.21801509 0.047111187 -0.036716375 0.24971601 0.11377901 0.11658014
-0.09162703 -0.1297021 0.0016182681 0.049011227 0.07772291 0.015761299 -0.21831441 -0.30333862
