policies/Pendulum/good_ppo.pt (torch, 40781 bytes, 10 tensors)

mlp_extractor.policy_net.0.weight f4 [64, 3]
000000 f2 20 09 3c d3 b1 b1 bc 53 e2 01 3e b8 f4 8a 3f
       0.008369671 -0.021691239 0.12683992 1.0855932
000010 5a 63 05 bd 9d 7f 9d 3e 3e 98 1f bd 6c f7 8b 3c
       -0.032565452 0.30761424 -0.03896355 0.017085753
000020 e3 d2 52 bf ff 0d a9 ba 1e db 46 bc 1d 4a 94 ba
       -0.8235304 -0.0012897848 -0.012137203 -0.0011313591
000030 4a f7 0c 40 4a c2 8f b8 51 e6 36 bb 7d b3 3a c0
       2.2025933 -6.8549605e-05 -0.0027908275 -2.917205
000040 6a d4 0e 3b 72 ce 73 3b d9 b3 49 40 ad 50 29 b9
       0.002179409 0.0037201908 3.151602 -0.0001614715
000050 d5 d5 71 bb 0d 20 34 bc bc 91 3b 3c 47 c7 79 3d
       -0.0036901135 -0.01099397 0.01144832 0.06098106
000060 a4 3f b5 ba 07 7b e4 3b 9f 86 84 3a 84 0c 7c bc
       -0.001382817 0.006972674 0.0010110921 -0.015383843
000070 10 ba 73 3c 24 78 df 3d 52 e1 a6 ba 3e ed d6 3b
       0.014875904 0.10911587 -0.0012731946 0.006559043
000080 8d 22 8d 3a aa 46 2f be 4f 67 e9 3c 74 de b0 be
       0.0010767743 -0.171168 0.028491644 -0.34544718
000090 81 5b 81 3b ea 4a a6 bb 62 71 db bd fa 3b 0f 3d
       0.0039476757 -0.0050748484 -0.107149854 0.034969307
0000a0 3d 4a 26 bc 8f 14 88 3f df 4b 9d bd 93 a7 2e 3d
       -0.010149536 1.0631274 -0.07680487 0.04264028
0000b0 9d 0a 6e 3f 6b 9f 24 c0 a4 d4 f6 3a ad 79 f3 3a
       0.92984945 -2.57223 0.0018831682 0.0018575691
0000c0 4a a2 0e 40 1c be 3c b9 dc d0 d8 ba 45 cb 17 40
       2.2286553 -0.00017999898 -0.0016541737 2.3717816
0000d0 33 2d a6 b9 56 dd 35 bb 37 ce 44 3d a2 7c d5 bc
       -0.00031695663 -0.0027750335 0.048048224 -0.026060406
0000e0 6a 09 79 bd 4a 99 52 bd b9 c0 b8 3c e2 e7 c0 bf
       -0.060799994 -0.05141572 0.022552835 -1.5070765
0000f0 e2 d3 b7 3c 44 53 fb bb a3 5a 48 bf 62 48 f6 3c
       0.0224399 -0.007669838 -0.782633 0.030063812
000100 0e 30 29 bc 21 b2 55 bf d9 80 c0 bd 23 f6 3f bb
       -0.010326399 -0.8347493 -0.09399576 -0.0029290996
000110 9b f5 a6 bf 76 0d ea bb c2 69 ae 3c f9 ab 81 3f
       -1.3043703 -0.007142718 0.021290664 1.0130607
000120 46 38 92 ba e3 7b 09 bc 70 1a 33 ba cc d1 9c b9
       -0.0011155687 -0.008391353 -0.00068322476 -0.0002991095
000130 b8 ca 97 3b 54 2a ea ba b5 0d 49 bd 20 69 8b 3c
       0.0046323203 -0.0017865398 -0.049085338 0.017017901
000140 54 2c ea be 01 a9 9f bc 4e 3e 68 3c 73 de 00 3e
       -0.45736945 -0.019489767 0.014175011 0.12584858
000150 be f9 03 bd 19 f1 bc bc c9 0e e2 3e c1 7f b8 bd
       -0.032220595 -0.023064183 0.44151905 -0.09008742
000160 3e d1 d7 ba dd 63 14 3f 02 9a e7 3c 6a 54 ae 3c
       -0.0016465557 0.5796488 0.028271679 0.021280486
000170 1e 6e 4f bf 30 8f 30 3a 4c a5 0f 3b aa f1 ee ba
       -0.810274 0.0006735204 0.0021918593 -0.001822998
000180 25 8b 94 bf 1d 25 8c 3c c1 17 e2 3e 01 63 16 c0
       -1.1604964 0.01710754 0.44158748 -2.3497927
000190 19 46 5f ba 54 7e 04 3b 60 94 b3 3d 9f e7 4b 3d
       -0.000851722 0.00202169 0.08768535 0.049781438
0001a0 06 ba 77 be 2b 0b b0 ba e7 e7 39 bc b7 e8 91 ba
       -0.24192056 -0.0013431063 -0.011346794 -0.0011131976
0001b0 01 73 b3 3b 61 e1 08 bc d4 99 9a bd 56 90 e8 3a
       0.005476356 -0.008354516 -0.07548872 0.0017743211
0001c0 1d 78 a3 bb d0 57 b8 3a 97 0f 5f bc ef a4 1d 3c
       -0.004988684 0.0014064256 -0.013614557 0.009621843
0001d0 1f 24 de 3d fe ed d9 3c 1a 63 3f bc f6 cb 0a 3f
       0.10846733 0.026602741 -0.0116813425 0.5421747
0001e0 31 90 38 39 ae 19 77 3b 2d 6e f4 3a 5e 29 a1 bc
       0.00017601323 0.0037704515 0.0018648558 -0.019673046
0001f0 7c ef 53 3c f4 9d 95 40 ee 3e f4 3b 86 45 09 bc
       0.0129355155 4.6755314 0.007453791 -0.008378392
000200 f5 aa b2 bd 45 e5 af b8 32 0d 15 bb 61 b1 c7 3a
       -0.08724014 -8.387355e-05 -0.002274346 0.0015235358
000210 ae 61 7b 3c a5 cc 42 bc 94 fd 22 3f 2e a4 78 be
       0.015343113 -0.011889611 0.6366818 -0.2428138
000220 ca f9 3f 3c c0 04 3a 3f cb a8 2b 3d 2b ad 22 3d
       0.011717269 0.726635 0.04190902 0.039715927
000230 44 ac 12 be c7 3e eb 3f 37 20 53 bb 89 6b a6 b9
       -0.14323527 1.8378533 -0.0032215246 -0.00031742107
000240 73 d6 e4 ba df bd a0 ba 1a 3a 8d ba 47 1f 63 3a
       -0.001745893 -0.0012263617 -0.0010774762 0.00086640235
000250 7e 1a 9f 3b 51 66 29 3a 0b dd bb 3b f1 52 99 bc
       0.004855453 0.0006462085 0.0057331375 -0.018716307
000260 4e 47 91 c0 36 e5 18 bb 84 87 31 3b f6 b8 36 ba
       -4.539954 -0.002332998 0.002708883 -0.00069703104
000270 89 c4 06 3e 65 19 c7 bc e7 4d d3 3f 38 d1 c0 3e
       0.1316091 -0.024304101 1.6508149 0.3765962
000280 fa 1f 5e 3c 27 34 45 be 03 72 1d 3d 9d f7 84 3c
       0.0135574285 -0.19258176 0.03843881 0.016231352
000290 fd e6 49 bf 1b bd 5e 3a d8 4c bf 3a 4d 51 c3 ba
       -0.78868085 0.0008496807 0.0014595045 -0.0014901549
0002a0 c5 8c 1b 3e cd 9e f6 bc e2 46 77 bf 6e 36 01 be
       0.15190418 -0.030105019 -0.96592534 -0.1261842
0002b0 be 9e 2c 3d a5 36 97 be 86 fd e8 3c c1 ba e5 bb
       0.042143576 -0.29533878 0.028441202 -0.007010788
0002c0 29 95 c0 3f 42 07 1e c0 96 f9 c9 39 de f9 22 3b
       1.504552 -2.469193 0.00038523664 0.002486817
0002d0 27 1a 6b be 15 8d bc 3b 5b 58 e2 bf 2c 60 9b 3c
       -0.22959195 0.005754123 -1.7683214 0.018966757
0002e0 1f d0 78 bc 0f e3 d9 bd 93 f8 70 be 64 b3 94 3c
       -0.015186339 -0.10639011 -0.23532324 0.018151946
0002f0 55 4f b9 3f 5e b7 43 3e 15 81 d2 3d ec b3 d1 3e
       1.4477335 0.19112918 0.10278527 0.40957582

mlp_extractor.policy_net.0.bias f4 [64]
000000 ec da e5 3d c4 ac 93 be 67 43 fb 3c 2e f0 21 39
       0.11223397 -0.28842747 0.030671788 0.0001544363
000010 15 dd f5 bf 89 0e 23 40 93 36 30 c0 25 9f 03 3d
       -1.9208094 2.5477622 -2.753331 0.032134194
000020 8d a8 32 ba cb bb 46 3d 07 cd 39 ba e9 dc 81 bf
       -0.0006815277 0.048518937 -0.00070877414 -1.0145541
000030 fe 66 64 bd d6 45 83 40 e7 8b 75 bd 4c a4 0f 40
       -0.055762284 4.102275 -0.059947874 2.244403
000040 c6 b3 f8 bf 4c 6f 04 c0 9d c7 05 bd 9c e2 29 3d
       -1.9429862 -2.069293 -0.03266107 0.041475877
000050 c6 df a2 3c bf 77 01 3d a7 f3 9c 3c b0 4d 30 bd
       0.019882094 0.03160834 0.019159151 -0.04304284
000060 c5 c5 0a ba dd 39 24 3b 15 97 c0 bf e0 8a 3b 3d
       -0.0005293752 0.0025058903 -1.5046107 0.04578674
000070 e7 3a b5 3f 48 22 ff 3f b6 0a 44 40 34 05 6b 3a
       1.41586 1.9932337 3.0631537 0.0008965314
000080 15 34 68 be 93 2f 03 40 17 d1 2a 3f e1 22 2d 39
       -0.22676118 2.0497787 0.66725296 0.00016511559
000090 1d d2 21 bd 42 9a 2e bb 28 19 44 3d 6b 33 f1 bf
       -0.03950702 -0.0026642238 0.047875553 -1.8843817
0000a0 f2 4e a2 ba 23 4a 2d bd ce ef 2d bd 18 1c 5a ba
       -0.0012383147 -0.04230703 -0.042465024 -0.00083202263
0000b0 ea 77 13 c0 b6 0e 03 be 2e da 25 be df 79 cc bf
       -2.304194 -0.1279858 -0.1619651 -1.5974692
0000c0 f2 1c 4d 3a bb bc 87 39 78 36 1e 3d 1f 0d c8 3a
       0.00078244426 0.00025889822 0.038626164 0.00152627
0000d0 64 7a 30 bb 62 06 b4 be 6f 5f 3e 40 6c 8d f2 3a
       -0.002692842 -0.3516112 2.9745748 0.0018505282
0000e0 4b 92 f7 3d 4f f2 38 3f 16 e0 23 bd 3d e5 09 40
       0.1208845 0.72244734 -0.040008627 2.1546166
0000f0 8e 01 ff bc f6 45 2f bd 2a 36 2c be 75 c8 97 bf
       -0.031128671 -0.04279133 -0.16817537 -1.185805

mlp_extractor.policy_net.2.weight f4 [64, 64]
000000 ec 77 93 39 e0 e2 28 3c 95 ec 9e ba 8b e2 51 3a
       0.00028127374 0.010307997 -0.001212495 0.0008006475
000010 0e 79 20 3a a6 34 b9 3a 43 f0 03 bb c2 86 02 bb
       0.0006121554 0.001413007 -0.002013222 -0.0019916748
000020 12 9b c0 ba 7c 65 f2 ba 39 9a b7 ba 92 eb 1a bb
       -0.0014694652 -0.001849338 -0.0014007754 -0.0023638946
000030 ee c8 ab 3a 92 d5 c1 3b 5f dd ad 39 97 2b a2 39
       0.0013106146 0.005915352 0.00033162066 0.00030931525
000040 83 ef 2e 3a ea d9 df 38 cd 1f 42 3b 52 a8 60 ba
       0.0006673263 0.00010674058 0.0029621006 -0.00085700036
000050 9f 27 36 ba bc 04 33 ba b7 22 2d ba 34 66 13 3a
       -0.0006948653 -0.00068290136 -0.0006604599 0.00056228344
000060 f6 d2 00 3a f8 74 0a 3b db d4 36 bb 95 7b e7 ba
       0.0004914248 0.0021126848 -0.0027897868 -0.0017660732
000070 20 69 36 3b 0e be 6e 3b 7c 20 0c 3c c7 ec dd 3a
       0.0027833655 0.00364292 0.008552667 0.0016931527
000080 fa dd 29 bc 26 10 6a b9 5d b6 8f 3b 3b eb 0e 3a
       -0.010367865 -0.00022321995 0.004385753 0.0005451922
000090 4e e0 e3 3a 7e 4a 98 ba 93 76 d8 ba 1a 2e b4 bb
       0.0017385574 -0.001161888 -0.001651483 -0.00549866
0000a0 c0 cd 94 ba 5a 9e f8 ba 6d 2a df 3a 12 bc d1 ba
       -0.0011352822 -0.0018968091 0.0017026194 -0.0016001484
0000b0 3f ca d8 bb 37 5e 15 3a 3e 61 22 ba 99 a9 11 3b
       -0.0066159065 0.0005697938 -0.00061943 0.0022226332
0000c0 b9 51 94 3a e5 1e 43 ba 28 f1 f6 3a e2 d3 22 ba
       0.0011315859 -0.00074432633 0.0018840181 -0.00062113826
0000d0 1f ee 2e 3a 61 ee 06 3b f0 c6 0b 3c ee d1 c3 3a
       0.0006673056 0.0020588862 0.008531317 0.0014939883
0000e0 01 bf 31 ba 43 cc a4 39 27 c9 28 3a dd 2e 13 39
       -0.0006780476 0.00031432704 0.00064386654 0.0001403647
0000f0 d5 5e bd b9 9c 40 02 3b 3f b3 79 3a 0c cc 38 bb
       -0.00036119545 0.0019874936 0.0009525306 -0.0028197793
000100 aa e7 33 3b 05 b7 07 3a 01 a2 a6 3a 5e a7 b9 b8
       0.0027451315 0.00051771133 0.0012713076 -8.852662e-05
000110 e6 ed 31 3b 61 47 d8 ba 9c 5a bf 3a 69 5e 02 3b
       0.0027149855 -0.0016500765 0.0014599147 0.0019892699
000120 82 fa 62 b7 41 35 01 3b c9 7a 60 b7 89 64 ae ba
       -1.3528976e-05 0.001971558 -1.3380029e-05 -0.0013305108
000130 3d bc 17 bb 44 61 a6 b9 d5 2c 39 ba 1a 9a 0f bb
       -0.002315297 -0.00031734456 -0.00070638704 -0.002191192
000140 50 d6 34 3b 2b 17 1e 3b 3b 71 16 ba 1b 06 cb 3a
       0.002759356 0.0024122696 -0.00057389186 0.001548949
000150 38 b7 91 3a ec de 87 3a 91 f8 ac 3a ac 53 7f ba
       0.0011117226 0.0010366119 0.0013196637 -0.0009739946
000160 05 0d d3 b8 66 a3 ff 38 3e 61 a3 38 12 49 db 3a
       -0.00010063689 0.00012189783 7.7905584e-05 0.0016730151
000170 b6 c9 fd b9 0c 40 bc ba 88 47 12 3a 98 0b 14 39
       -0.00048406207 -0.0014362349 0.0005580117 0.00014118699
000180 c3 5b 82 bb 13 84 24 bb 9e 2f 5a 3b 5e 67 2b b9
       -0.003978224 -0.0025103136 0.0033292542 -0.00016346338
000190 02 8a 19 bb 08 c3 55 b7 8a 47 01 3b 71 88 9f b9
       -0.0023428206 -1.2741199e-05 0.0019726478 -0.000304285
0001a0 b2 64 3b b7 81 34 f1 ba b6 ab 13 bb 5b 50 54 b9
       -1.11695135e-05 -0.0018402488 -0.0022532768 -0.0002024783
0001b0 6d 83 bb b9 d1 ec 28 ba 9e 7f fe ba cd a8 78 3b
       -0.0003576534 -0.000644398 -0.0019416695 0.003794241
0001c0 b2 3b 81 b6 ea 87 29 b7 a1 b2 e7 3a ad d6 b4 b9
       -3.851449e-06 -1.010483e-05 0.0017677137 -0.0003449222
0001d0 6f fa de ba 61 93 83 b9 f8 44 2d 3a 8a 64 df 38
       -0.0017011891 -0.00025096073 0.00066097034 0.000106521955
0001e0 23 5f 0e 3a 2b 8c d9 39 33 97 bd ba e2 a4 15 bb
       0.00054310466 0.000414939 -0.0014464617 -0.0022833874
0001f0 da 15 d2 3a 60 5e ef ba 12 f1 4b ba c5 d5 29 3a
       0.0016028241 -0.0018262379 -0.0007779758 0.00064786925
000200 5c 49 00 bb 33 dc fe ba 22 fa ef ba 07 d0 1b 38
       -0.0019574976 -0.0019444287 -0.0018308798 3.714862e-05
000210 e2 7b 2e bb b5 d2 a5 3a 87 1c 72 ba f8 08 84 ba
       -0.0026624133 0.0012651297 -0.0009235818 -0.0010073474
000220 90 f7 4d 39 61 69 3c ba 4c 7d 4d 39 aa a0 c0 3a
       0.00019642548 -0.00071873335 0.00019597 0.0014696319
000230 19 1b 9c 3a 80 0d 30 bb 8a 72 ff 39 98 97 f8 3a
       0.0011909931 -0.0026863515 0.00048722728 0.0018966077
000240 fa ec 2c bb 3d 0c 14 bb 4d 40 07 ba 17 70 d6 ba
       -0.0026386366 -0.0022590302 -0.0005159423 -0.001636031
000250 bc 87 9c ba 93 4b 90 ba 3f d7 0b bb 4e af a6 3a
       -0.0011942307 -0.0011008851 -0.0021338013 0.001271704
000260 35 9b ce 38 9d 74 ff b9 cc 0d 94 39 bb d7 e3 b9
       9.851755e-05 -0.00048724274 0.0002823904 -0.00043457546
000270 d6 c1 0c 3a 98 28 68 3a c7 4c 71 bb 8f d6 d8 b9
       0.000536946 0.00088561466 -0.0036819445 -0.0004135859
000280 05 ab 56 3a 43 a8 17 3b 88 3a 44 bb 45 b9 49 39
       0.0008188936 0.0023141063 -0.0029942114 0.00019237872
000290 c2 d5 a5 3a 88 88 5c 39 00 01 4f ba 98 2a ad 3a
       0.0012652206 0.00021031697 -0.00078965724 0.0013211546
0002a0 e1 85 13 39 b3 9a 32 39 60 12 93 3a e7 48 e7 39
       0.00014068886 0.00017033033 0.0011220686 0.0004411407
0002b0 45 8f 0a 3b 96 c0 ba ba a6 c6 ab 3a 2d 58 80 bb
       0.0021142524 -0.0014248069 0.0013105466 -0.0039167614
0002c0 de 16 21 b9 2b 81 e6 38 e4 8d 97 b9 ad 7d d1 39
       -0.00015362675 0.00010991314 -0.0002890668 0.00039957222
0002d0 03 57 15 3b 76 4c a3 ba f0 20 72 bb 6f 2c aa b9
       0.0022787459 -0.00124587 -0.0036945902 -0.00032458032
0002e0 ad 99 0f 3a 1b 57 38 b8 b0 d9 c2 3a 96 dd 06 3b
       0.00054779166 -4.3950142e-05 0.0014865901 0.0020578853
0002f0 e6 cd 41 bb fb ba 14 3a 11 6e 8f ba 5b 42 2d 39
       -0.0029572188 0.0005673614 -0.0010942837 0.00016523285
000300 b2 71 18 3c 21 84 9d be f6 88 75 3d 98 c3 1a bc
       0.009304451 -0.3076487 0.05994507 -0.009446047
000310 d6 fd d5 bf d2 78 16 40 a3 c0 24 c0 6d ab 15 3c
       -1.671809 2.3511243 -2.5742576 0.009135109
000320 8a 18 82 3b a0 0f 8e 3c 11 b9 78 3b 05 e3 68 3d
       0.0039702104 0.017341435 0.0037952105 0.056857128
000330 24 92 1d bc 5a d7 c8 bd 7c 4d 27 3d 4b 49 01 40
       -0.009617362 -0.098067 0.04084538 2.0200984
000340 e8 dc d8 bf 61 8b ea bf c7 72 44 bd 39 27 41 3d
       -1.6942415 -1.8323785 -0.047961023 0.047156546
000350 c4 c2 ed bc 76 05 05 bd ca 14 b7 3d 03 33 c6 3c
       -0.029023536 -0.03247591 0.08939512 0.024194246
000360 e5 be 01 bc 11 8c 7b 3b d3 11 ab bb 4c cf 9e 3c
       -0.007919048 0.0038383047 -0.0052206307 0.019385956
000370 34 e1 93 3d e2 bb d7 3d 06 70 6b 3e c6 07 27 3b
       0.072206885 0.10533883 0.22991952 0.002548681
000380 5c 1a a8 3e 43 bf e7 3f 6d 8c 05 bd bd 0e 29 bc
       0.3283261 1.8105243 -0.032604624 -0.010318455
000390 05 0c b1 bb 50 c5 86 bb 12 f2 70 3c 3f 21 84 bd
       -0.005403044 -0.004112877 0.014706152 -0.06451654
0003a0 f8 e4 aa 3b e1 2a ec 3e 0e 80 29 bc 52 07 d8 3a
       0.0052152835 0.46126464 -0.010345472 0.0016481674
0003b0 b6 b4 d5 bd 2b 94 8e 3e 62 4f 70 bd 23 be a8 bf
       -0.104348585 0.27847418 -0.058669455 -1.3183025
0003c0 a1 9b 10 bb 02 ce 47 3b 51 a8 ce be 8a 5c 85 3b
       -0.0022065418 0.003048778 -0.4036279 0.0040698694
0003d0 24 28 d0 bd e1 21 89 be 1c 49 34 3e 6f 68 4b 3b
       -0.10163906 -0.2678366 0.17606014 0.003103759
0003e0 11 fc 08 3b a2 5e d4 3d 4b 3c 0b be 9d 4d f6 3f
       0.0020902196 0.10369612 -0.13597219 1.9242436
0003f0 c6 5e 53 3d df 36 a9 bc 8b 1d 36 be bd d7 bd bd
       0.051604055 -0.020656047 -0.17784707 -0.092696644

mlp_extractor.policy_net.2.bias f4 [64]
000000 e0 1e 75 3b 41 d3 2d 3c 66 56 1b bc ef fa 22 3f
       0.0037402436 0.010609449 -0.009481048 0.63664144
000010 b2 2a c1 3d e4 6c e3 bb 5d 25 11 bc f1 bf c4 bb
       0.094319716 -0.006940471 -0.008859006 -0.0060043265
000020 d0 07 22 3b 0b 6f c1 bb 1c 05 ce 3b 18 b6 99 3b
       0.0024723895 -0.00590313 0.00628723 0.0046908967
000030 87 41 76 bc e0 3f df 3e f1 f7 82 3c 5c ba b6 bb
       -0.015030271 0.4360342 0.015987368 -0.005576415
000040 a5 b2 69 bc 87 3f b5 3c 68 ee 58 bb 06 60 63 bb
       -0.014263784 0.022125019 -0.0033101086 -0.0034694686
000050 14 84 d5 3b be 32 08 39 02 e6 a6 3f b1 c6 ea bc
       0.006515989 0.00012988874 1.3038943 -0.028659197
000060 8a 35 3c bc 1b 97 2a be 54 16 93 bb 8c 0c e5 bb
       -0.011487374 -0.16659205 -0.0044887457 -0.006990021
000070 0e 8b 65 3c 65 9a 15 3c ca c3 f0 b9 6a 9a 33 be
       0.014010204 0.009131049 -0.0004592224 -0.17539373
000080 13 b1 26 bf 91 99 ec 3b 06 e3 91 bf f8 aa 73 bb
       -0.65113944 0.007220455 -1.1397407 -0.0037180763
000090 df 04 59 3b cb b1 b8 ba 69 72 8c 3b 8d 67 c0 3b
       0.0033114476 -0.0014091072 0.0042860997 0.005871719
0000a0 60 b1 4d 3f d4 f1 de 3d 98 f2 5d 3c eb 67 9f ba
       0.8034878 0.10885969 0.013546608 -0.0012161707
0000b0 38 f3 bc 3d 58 f2 22 bc 39 d5 05 3c 11 f4 79 3a
       0.09226078 -0.009945475 0.008168512 0.0009534965
0000c0 9b 04 5c 3c 8c 5b 80 be 1e dd 3c 3b 32 d3 49 3a
       0.013428832 -0.25069845 0.002881832 0.0007699012
0000d0 4a 0d 72 bb d1 16 84 3b 6d 3f 98 bb 4c 0f a6 bb
       -0.003693419 0.0040310402 -0.004646233 -0.0050677415
0000e0 a9 54 9a 3d db 72 13 3c d3 b6 15 3f fc ee bf 3e
       0.07535679 0.008999552 0.5848209 0.37487018
0000f0 c7 88 09 bc 29 a9 46 bb 24 37 10 3c 43 b1 93 3c
       -0.008394427 -0.003031323 0.008802209 0.01802886

mlp_extractor.value_net.0.weight f4 [64, 3]
000000 21 bc 71 be b9 c9 c2 3e 0f 07 a1 3e 75 a9 5d be
       -0.23606922 0.38044527 0.31450698 -0.21646674
000010 de a5 98 3d 7d fb c1 be b0 5b 7f bd 92 1e af bd
       0.07453512 -0.37887183 -0.0623433 -0.08550753
000020 cc 5f 61 3d e4 c8 e6 be df 04 2e 3d 75 9a 6f 3e
       0.055023 -0.45075142 0.042485114 0.23398764
000030 03 58 c6 bd 37 96 c6 3e 9d e9 17 3e 91 36 ae 3d
       -0.09684756 0.3878648 0.1483521 0.085065015
000040 a2 40 46 3e e8 ca a5 bb 3a 21 e9 3d 8d 12 34 be
       0.19360593 -0.0050595887 0.113832906 -0.17585202
000050 76 a7 6a 3e c8 ec 30 be 08 91 32 be c5 84 1a be
       0.22915444 -0.17277825 -0.17438138 -0.1508971
000060 d2 70 19 be 96 18 b2 bd 6d 0b 61 3e 39 05 02 3e
       -0.14984444 -0.08696096 0.21977015 0.12697305
000070 f0 1c 0a be cb 24 b5 3d 19 aa 59 3e e9 eb 73 3d
       -0.13487601 0.08844908 0.21256293 0.059551153
000080 8f 58 ad 3d 90 b3 fe bd 4a af 16 be ab 12 ad be
       0.08464157 -0.124365926 -0.14715305 -0.33803305
000090 d0 74 a4 bc 6b be 20 3e 78 8f d1 be 8a d8 89 3d
       -0.020075232 0.15697639 -0.4092977 0.06730755
0000a0 3a e4 09 3e cc 87 19 3d 34 59 31 be 72 40 f2 3d
       0.13465968 0.03748302 -0.17319185 0.11828698
0000b0 4b 54 5e 3e de 15 68 3e 6c 81 cd bb 99 a3 bb bd
       0.21711843 0.22664592 -0.006271532 -0.09162063
0000c0 ff 7f 40 3e 0c 08 45 be 86 b7 d5 bd 59 b5 86 be
       0.18798827 -0.19241351 -0.10435395 -0.26310232
0000d0 5c f5 dc bd a3 87 f7 3c 26 fc 17 be a4 24 2c 3e
       -0.10788986 0.030216044 -0.14842281 0.16810852
0000e0 49 28 81 bd f4 f0 c0 3e ab df 90 3d 26 35 9f 3e
       -0.06306512 0.37683833 0.07073911 0.31095237
0000f0 68 c9 81 bd 4a 46 af 3e 2e 7b a2 3d d6 67 02 3f
       -0.06337243 0.34233314 0.07933651 0.5093969
000100 f6 69 9d 3e df 15 0a be fd 02 16 3e 9f 8c 7c 3b
       0.30744904 -0.13484906 0.14649577 0.0038535965
000110 11 63 19 3d 5b 74 41 bd dc 30 84 bd 4a ae 5a 3d
       0.037447993 -0.047230106 -0.06454632 0.05338887
000120 f0 1d 19 3e d1 c3 a8 be b2 81 63 3e 16 4f 38 be
       0.14952826 -0.32961896 0.22217444 -0.17998919
000130 5e 21 bf bd 42 a0 01 3d f7 04 56 bd ee 66 af bd
       -0.09332536 0.031646974 -0.05225083 -0.08564554
000140 aa fe 90 3d 6d 0c 93 be c7 ef 76 be 84 68 86 be
       0.07079823 -0.28720418 -0.24114905 -0.26251614
000150 45 dd 2d bc 73 80 7d 3e a0 1a c2 3d 05 9d 33 be
       -0.010611837 0.2475603 0.094777346 -0.17540367
000160 23 37 35 bd f9 32 72 be 1e 75 e4 be 77 e0 91 3e
       -0.044242036 -0.23652257 -0.44620603 0.28491566
000170 e8 b4 e8 3d c7 0b 1f be 89 47 d4 3c 89 3d f8 bd
       0.1136263 -0.15531836 0.025913017 -0.12121112
000180 a1 81 79 bd fa a8 15 3e 18 01 70 bc 44 e5 d0 3d
       -0.06091464 0.1461524 -0.014648698 0.10199979
000190 18 d4 bd bd 7d 73 4a be 15 7a 15 3d 72 3a 12 3d
       -0.09268969 -0.19770618 0.03649338 0.03570027
0001a0 b6 46 33 3e b3 16 b0 3c c1 f7 97 bc 01 0d 0a 3d
       0.17507443 0.021495199 -0.018550755 0.033703808
0001b0 65 ee 35 3d a6 5a c8 3d 39 55 80 3e 67 82 17 bd
       0.044416804 0.09782915 0.2506502 -0.036989596
0001c0 19 f2 80 be cd 63 ba 3e fe 31 94 be 57 1d 17 be
       -0.25184706 0.36404267 -0.2894439 -0.14757286
0001d0 51 98 79 3e ba f3 66 3e 5d 46 33 3e 11 7b e8 bd
       0.2437451 0.22553912 0.1750731 -0.11351598
0001e0 1c 9d 94 bd bd f5 fa 3b ce 1c f2 3d a4 b7 32 3d
       -0.07256529 0.007658689 0.118219 0.043632165
0001f0 66 b0 55 3e 45 fa ae be 87 2b 69 3d 2f 5a 37 3e
       0.20868072 -0.34175315 0.056926277 0.17905496
000200 52 8e 9e 3d f1 82 dd bd 8f f2 69 3e 9a 02 f8 3d
       0.07741989 -0.10815991 0.22846435 0.12109871
000210 d8 af 09 bd 8c d4 0f 3d 83 3e 39 3d 83 26 bf 3d
       -0.033614963 0.03511481 0.04522563 0.093335174
000220 30 75 8f 3e 15 72 08 3e 40 3f a7 bd f6 79 0d be
       0.28019094 0.13324769 -0.08166361 -0.13816056
000230 62 c0 f0 3b d9 9c 9f 3d aa 5b 17 3e a7 1f 37 bd
       0.0073471526 0.07793588 0.14781061 -0.04470792
000240 7d 8a 0d 3e 1f cf db 3d 32 08 c1 3d 13 f8 e7 3d
       0.1382236 0.107328646 0.09425391 0.11326613
000250 2b cd 6b be b1 11 0a be 93 d1 f7 3d 84 73 6a 3c
       -0.23027484 -0.13483311 0.1210052 0.014309768
000260 e8 a0 22 3e 93 9a 37 3e 26 b8 cf 3c c9 9d 50 bd
       0.15881693 0.17930059 0.025356364 -0.050931726
000270 f5 38 ec bd 8b ed b7 bd dd d7 e5 bd 7d 5d f5 bd
       -0.11534301 -0.089808546 -0.11222813 -0.11980722
000280 22 fd 0c be ec 4a 97 3e 18 ed 3e 3e 79 ed 3c 3d
       -0.13768438 0.29549348 0.18645132 0.04612491
000290 0b 61 33 3e cc 6a e3 3c 31 44 b1 3d 81 9d 4b be
       0.17517488 0.027760886 0.086555846 -0.19884302
0002a0 de dc ea bd 08 ba 4a be f2 e3 6c 3d 76 9a a3 3b
       -0.11467908 -0.19797528 0.057834573 0.0049927784
0002b0 61 0b 9e 3e 6c 78 45 3d 33 40 8a bb 86 32 f2 3b
       0.30868056 0.048210546 -0.004219079 0.007391277
0002c0 80 79 2e be ea 57 4c 3e 5c 39 4f be f0 8d fa 3d
       -0.17038536 0.19955412 -0.20236725 0.12234104
0002d0 44 11 62 3e 05 ec 32 be 6e 80 85 bb 70 b8 46 bd
       0.22076899 -0.17472847 -0.004074148 -0.048515737
0002e0 eb e5 90 3e 7b 67 37 be 00 63 34 3e d2 5f e4 3d
       0.28300413 -0.17910568 0.1761589 0.11151089
0002f0 4a 1c c9 3d 75 69 10 3e f7 d3 68 be 44 06 f2 3d
       0.09819849 0.14102729 -0.22737108 0.11817601

mlp_extractor.value_net.0.bias f4 [64]
000000 00 00 00 00 00 00 00 00 00 00 00 00 00 00 00 00
       0.0 0.0 0.0 0.0
000010 00 00 00 00 00 00 00 00 00 00 00 00 00 00 00 00
       0.0 0.0 0.0 0.0
000020 00 00 00 00 00 00 00 00 00 00 00 00 00 00 00 00
       0.0 0.0 0.0 0.0
000030 00 00 00 00 00 00 00 00 00 00 00 00 00 00 00 00
       0.0 0.0 0.0 0.0
000040 00 00 00 00 00 00 00 00 00 00 00 00 00 00 00 00
       0.0 0.0 0.0 0.0
000050 00 00 00 00 00 00 00 00 00 00 00 00 00 00 00 00
       0.0 0.0 0.0 0.0
000060 00 00 00 00 00 00 00 00 00 00 00 00 00 00 00 00
       0.0 0.0 0.0 0.0
000070 00 00 00 00 00 00 00 00 00 00 00 00 00 00 00 00
       0.0 0.0 0.0 0.0
000080 00 00 00 00 00 00 00 00 00 00 00 00 00 00 00 00
       0.0 0.0 0.0 0.0
000090 00 00 00 00 00 00 00 00 00 00 00 00 00 00 00 00
       0.0 0.0 0.0 0.0
0000a0 00 00 00 00 00 00 00 00 00 00 00 00 00 00 00 00
       0.0 0.0 0.0 0.0
0000b0 00 00 00 00 00 00 00 00 00 00 00 00 00 00 00 00
       0.0 0.0 0.0 0.0
0000c0 00 00 00 00 00 00 00 00 00 00 00 00 00 00 00 00
       0.0 0.0 0.0 0.0
0000d0 00 00 00 00 00 00 00 00 00 00 00 00 00 00 00 00
       0.0 0.0 0.0 0.0
0000e0 00 00 00 00 00 00 00 00 00 00 00 00 00 00 00 00
       0.0 0.0 0.0 0.0
0000f0 00 00 00 00 00 00 00 00 00 00 00 00 00 00 00 00
       0.0 0.0 0.0 0.0

mlp_extractor.value_net.2.weight f4 [64, 64]
000000 87 b6 6f be 3c 07 57 bd 07 3e 93 bd 0c 75 23 3e
       -0.23409472 -0.052497134 -0.07189565 0.15962619
000010 9c 96 c9 3e a0 70 90 bd df 86 e1 3c 2d 50 98 bd
       0.39372718 -0.070527315 0.027530132 -0.07437167
000020 d0 60 b8 be cf 71 72 be 6b 18 dd 3c 6c ea 75 bc
       -0.36011362 -0.23676227 0.026989182 -0.015009504
000030 c9 b3 bc bd 14 8d 9a be 83 ff 04 3d d5 12 e0 3d
       -0.09213979 -0.3018576 0.032470237 0.10941092
000040 66 55 58 be c4 54 72 3e 9a b4 e6 3c 84 57 80 3d
       -0.21126327 0.23665148 0.02816229 0.06266692
000050 65 7e a5 be 00 63 cb bd 70 cc ac be 50 bd 63 bd
       -0.32322994 -0.09930992 -0.33749723 -0.055600464
000060 30 94 57 3d 59 42 2d be 6b 42 03 be 07 51 3d bc
       0.052631557 -0.16919841 -0.12818305 -0.011554963
000070 86 8d 0e bd 85 10 3f be ab 4c bb 3d 14 30 cb bd
       -0.034802936 -0.18658645 0.09145483 -0.099212795
000080 b1 91 72 3e 53 c0 09 3f a1 de 21 3e df f1 27 3e
       0.2368839 0.5380909 0.15807582 0.1640086
000090 38 ad 1e be 3c a4 00 bd 52 16 92 bd 71 0b 2c 3e
       -0.15495765 -0.031406626 -0.071331635 0.1680124
0000a0 8c 8e 8b 3d ca 05 88 bc 4b 25 90 3e df 4b 17 3e
       0.06814298 -0.016604323 0.28153452 0.14775036
0000b0 32 3a 3e be bc 21 5b 3b c8 86 f0 3d 4a 29 3d 3d
       -0.18576887 0.0033436855 0.117444575 0.046181954
0000c0 ce 7c 09 bd 16 c5 00 bc 29 20 4a 3d 52 9c ce bd
       -0.03356629 -0.007859489 0.049347077 -0.100884095
0000d0 a6 26 06 be a4 70 b4 3c 5c ea 6c be 08 75 0a be
       -0.1310068 0.022026367 -0.23136276 -0.13521206
0000e0 9d 3f e3 bd db 91 8e 3e 7b 39 5a be 07 8b 03 3e
       -0.11096118 0.27845654 -0.2131099 0.12846003
0000f0 82 28 2b 3e 07 ab a1 3d b5 b4 a1 3e ef 18 9f bd
       0.16714671 0.07893949 0.3158318 -0.077684276
000100 11 67 1e be 30 f8 e9 3e 8d e1 11 be 4a 41 47 be
       -0.15469004 0.45697165 -0.14246197 -0.194585
000110 bf 04 60 bc fe f1 ff 3d 70 1b 47 3e dc 6c f1 bd
       -0.013673007 0.12497328 0.1944406 -0.117883414
000120 73 69 78 3e a7 68 de 3e 8a 7e 12 be 36 dc ee bc
       0.24258976 0.43439218 -0.14306083 -0.02915774
000130 97 19 e1 be 78 bc 8a be ec c6 f5 bd f4 fa 84 bd
       -0.43964836 -0.27096915 -0.12000832 -0.06493178
000140 48 a2 31 3e 92 23 c3 3d fe 28 6d 3e d1 da b0 bd
       0.17347062 0.09528269 0.23160169 -0.08635486
000150 fd 1e 83 bd 0e 14 64 be 65 44 61 be bc d5 5d be
       -0.06402395 -0.22273275 -0.21998747 -0.21663564
000160 2c 65 39 3d 01 ac 9b bc 36 25 a7 3d 39 a6 a9 bd
       0.0452625 -0.019002916 0.08161394 -0.082836576
000170 70 ba 7e 3d b3 bf 0e be 42 d9 45 3e f7 56 3d bc
       0.06218952 -0.13940315 0.19321159 -0.011556379
000180 28 06 79 3e ed 96 31 be 13 d2 3e be 55 e3 fa 3d
       0.24318755 -0.1734273 -0.18634824 0.122503914
000190 c4 13 33 bc f8 d1 c3 bd 2c c7 4f 3d 84 23 23 be
       -0.010930005 -0.09561533 0.050727054 -0.15931517
0001a0 d5 27 e6 bd 89 69 6f be c8 4b 9c be d9 21 14 3e
       -0.11238066 -0.23380102 -0.30526567 0.14466037
0001b0 0f 3d 9f 3e 62 9a 43 bb e3 49 e5 bc 24 41 b8 bd
       0.31101272 -0.0029846658 -0.027989333 -0.089967996
0001c0 b4 2a 74 3d 4c b2 cc bd fa 20 f9 3d 67 96 ed bd
       0.059611037 -0.09994945 0.12164493 -0.116009526
0001d0 10 22 a6 3d 23 e9 e2 bd ef 16 b0 3d 61 f5 79 3c
       0.08111966 -0.110796236 0.08598124 0.015256257
0001e0 11 68 6f 3e f7 72 b3 3d b4 2c 51 be 40 3a e1 3b
       0.23379542 0.08762162 -0.20427209 0.006873399
0001f0 8e 0f b5 3d e0 c2 69 3e ec 3b 81 3e 90 89 3e bd
       0.088408574 0.22828245 0.2524103 -0.04651791
000200 89 5c d2 be ac 22 4b be 5f d1 a4 be a1 ee 7c 3e
       -0.41086224 -0.19837445 -0.32190987 0.24700405
000210 3f 54 0a be 9a 42 7a 3e 19 54 1d 3d c6 b4 fc bd
       -0.135087 0.24439469 0.03841028 -0.12339167
000220 25 86 21 3d 1f 53 bb 3c e4 0b 7c bd 2c 63 86 3d
       0.03943457 0.022866784 -0.061534777 0.06561884
000230 8e 0c 94 3e 2d c4 28 3e 25 fb f8 3b 86 3f c6 3d
       0.28915828 0.16481085 0.007598298 0.09680085
000240 4d ad 01 bd 91 37 71 3e 1d 70 1f 3e f9 24 c0 bd
       -0.031659413 0.23556353 0.15570112 -0.09382052
000250 95 39 aa be d9 44 8e 3e d0 f1 11 be a1 d8 49 3b
       -0.33247057 0.27786902 -0.142524 0.0030799287
000260 8f 89 4d be ef 0a 07 3d dd e0 43 3e 23 fb fe 3d
       -0.20072006 0.03296941 0.19128747 0.12450244
000270 0b 2f 8d 3e 0a 42 58 3e 63 81 a9 bb 71 22 09 bc
       0.27574953 0.21118942 -0.005172895 -0.008370028
000280 14 07 8e be 81 b2 56 3d 6a 5b 08 3e be cd ce be
       -0.27739775 0.05241633 0.13316122 -0.40391344
000290 a4 96 b5 3d f6 2f 2d 3d 70 54 b2 3e c7 66 6f be
       0.08866623 0.042282067 0.34830046 -0.2337905
0002a0 fc 82 49 3d d1 b7 60 be 21 6d 25 be 5c 54 a9 3d
       0.049197182 -0.2194512 -0.1615491 0.082680434
0002b0 be d2 81 3d f8 07 06 3d 16 24 22 3c 71 64 47 be
       0.06339024 0.032722443 0.009896299 -0.19471909
0002c0 34 5e d2 3d da 13 70 3e 5b d9 69 3d b4 71 d0 bd
       0.10271874 0.23445073 0.057092052 -0.10177937
0002d0 9a 90 28 3d 89 d3 a7 3d 78 25 52 3d 90 61 f3 3d
       0.041153528 0.08194644 0.051305264 0.11883843
0002e0 47 17 57 bc be c4 3f 3b 43 46 5c be d9 7d 57 3e
       -0.013128108 0.0029261555 -0.21511178 0.21044101
0002f0 c0 3f 8f 3e a1 47 3b bd 61 15 89 bd 25 aa 46 be
       0.27978325 -0.045722608 -0.06693531 -0.19400842
000300 e7 44 ae 3d 75 e0 b3 3d 39 92 cf bd 91 b9 90 3b
       0.08509236 0.08783046 -0.10135312 0.0044166525
000310 b6 93 aa bd 8f 2a 02 bd dc 3f b6 bb 96 f3 23 3d
       -0.08328955 -0.03177887 -0.005561812 0.040027224
000320 cf 39 b2 bd c8 52 78 3d bd e7 26 bd b1 af 50 3e
       -0.08702432 0.06062582 -0.040748347 0.20379521
000330 07 56 14 3e ed b1 c5 3d 67 4a 07 3e a8 55 ba 3e
       0.14485942 0.09653077 0.13211976 0.36393476
000340 7d 47 8f bc 55 b9 2a bb 51 ed 19 3e 71 a0 4b bc
       -0.017490143 -0.0026050408 0.15031935 -0.012428389
000350 50 07 8f be bd ae c5 3d 93 14 77 3d 91 a7 ac 3e
       -0.27935266 0.09652469 0.060322355 0.33721593
000360 e3 3c 9a 3b 6d 16 70 be 3b 61 3f 3e 96 d2 b4 be
       0.0047069653 -0.23446055 0.18689434 -0.35316914
000370 0e 2b 27 3e f3 d5 25 be f8 72 64 3e 77 26 03 be
       0.16325018 -0.16194896 0.22309482 -0.12807642
000380 a4 b9 8f bd 02 47 90 be 7e 52 8c 3e 81 b2 98 3d
       -0.0701783 -0.28179175 0.27406687 0.07455922
000390 2b de 9f 3e 11 e7 3b be 30 82 84 bb 8e 5b 04 3e
       0.31224188 -0.18349864 -0.00404384 0.1292555
0003a0 5e c0 87 3e c9 c5 06 3e b8 0d cc bd c0 d4 33 be
       0.26513952 0.13161387 -0.09963554 -0.17561626
0003b0 e8 39 83 3d 30 4b c1 be 87 1f 20 3e dc 1c 8c 3d
       0.06407529 -0.37752676 0.15637027 0.06841442
0003c0 37 fc 04 3d a1 5a 28 be a5 20 b9 3d 2d f4 65 3e
       0.032467093 -0.16440822 0.090394296 0.22456427
0003d0 46 39 bc be 3c 48 c2 bd 5c 84 29 3e b9 88 8a bc
       -0.36762446 -0.09486434 0.16554397 -0.016910898
0003e0 27 b4 6e 3d fd fb f5 3d 0b 98 37 be ea 9e 83 bc
       0.058277275 0.120109536 -0.17929094 -0.016066987
0003f0 e1 35 71 be 6d 9e bd bc 4f 47 8a 3e 25 17 ad 3e
       -0.2355571 -0.023146832 0.2700753 0.3380672

mlp_extractor.value_net.2.bias f4 [64]
000000 00 00 00 00 00 00 00 00 00 00 00 00 00 00 00 00
       0.0 0.0 0.0 0.0
000010 00 00 00 00 00 00 00 00 00 00 00 00 00 00 00 00
       0.0 0.0 0.0 0.0
000020 00 00 00 00 00 00 00 00 00 00 00 00 00 00 00 00
       0.0 0.0 0.0 0.0
000030 00 00 00 00 00 00 00 00 00 00 00 00 00 00 00 00
       0.0 0.0 0.0 0.0
000040 00 00 00 00 00 00 00 00 00 00 00 00 00 00 00 00
       0.0 0.0 0.0 0.0
000050 00 00 00 00 00 00 00 00 00 00 00 00 00 00 00 00
       0.0 0.0 0.0 0.0
000060 00 00 00 00 00 00 00 00 00 00 00 00 00 00 00 00
       0.0 0.0 0.0 0.0
000070 00 00 00 00 00 00 00 00 00 00 00 00 00 00 00 00
       0.0 0.0 0.0 0.0
000080 00 00 00 00 00 00 00 00 00 00 00 00 00 00 00 00
       0.0 0.0 0.0 0.0
000090 00 00 00 00 00 00 00 00 00 00 00 00 00 00 00 00
       0.0 0.0 0.0 0.0
0000a0 00 00 00 00 00 00 00 00 00 00 00 00 00 00 00 00
       0.0 0.0 0.0 0.0
0000b0 00 00 00 00 00 00 00 00 00 00 00 00 00 00 00 00
       0.0 0.0 0.0 0.0
0000c0 00 00 00 00 00 00 00 00 00 00 00 00 00 00 00 00
       0.0 0.0 0.0 0.0
0000d0 00 00 00 00 00 00 00 00 00 00 00 00 00 00 00 00
       0.0 0.0 0.0 0.0
0000e0 00 00 00 00 00 00 00 00 00 00 00 00 00 00 00 00
       0.0 0.0 0.0 0.0
0000f0 00 00 00 00 00 00 00 00 00 00 00 00 00 00 00 00
       0.0 0.0 0.0 0.0

action_net.weight f4 [1, 64]
000000 a5 06 16 bb 35 6c 13 39 5c 47 89 39 ca 31 f2 bf
       -0.0022892144 0.00014059323 0.00026183843 -1.8921444
000010 66 fc f2 3e ec ae 77 39 5c bd 98 3a fc 80 ea b9
       0.4745819 0.00023620919 0.0011653113 -0.0004472806
000020 c0 68 03 3a fb 0d 1c 3a bc b3 78 39 dd 0c 53 b8
       0.00050128624 0.0005953011 0.0002371808 -5.03183e-05
000030 7d d8 e2 36 42 b4 f5 3e 26 bd 48 ba ef 09 f9 b9
       6.7605274e-06 0.47989088 -0.000765758 -0.00047500382
000040 3e 4e 17 37 67 72 c4 3e b6 2c 8f bb fa c2 b1 39
       9.0185185e-06 0.38368532 -0.0043693436 0.0003390534
000050 6f 31 3d 39 40 90 d7 b8 15 20 d4 bf 91 fb e3 3f
       0.0001804286 -0.000102788676 -1.6572291 1.7811147
000060 f9 95 aa 38 d3 0d d1 bf 1f f0 5f 39 ce 72 07 ba
       8.134166e-05 -1.6332344 0.0002135639 -0.00051669485
000070 0f 8d 70 39 1c 00 8b ba 8e 48 48 b9 4f 60 02 40
       0.00022940732 -0.0010604891 -0.00019100515 2.0371282
000080 5d 1d e6 bf cc 88 b1 38 92 8b cb bf 9d cf 53 b9
       -1.7977711 8.465498e-05 -1.5901968 -0.0002019987
000090 5c 25 d6 35 78 6e 9f b9 da ed 85 ba 87 34 6b b9
       1.5955115e-06 -0.0003040915 -0.001021798 -0.00022430914
0000a0 89 6f ce 3e db 91 82 bf 78 ef c9 b7 a2 ac d7 39
       0.4031947 -1.0200762 -2.4072579e-05 0.00041136617
0000b0 33 a7 ab be 32 e4 c2 b9 f7 77 fd 39 e6 4c 61 b9
       -0.33526 -0.00037172582 0.000483453 -0.00021486319
0000c0 c2 57 53 b9 c6 e5 e8 be 28 d4 c6 39 92 92 c1 b9
       -0.0002015522 -0.45487803 0.00037923572 -0.00036921032
0000d0 b9 a4 89 b9 38 28 03 3a 6a aa b5 38 fb 0f 6b b8
       -0.00026253404 0.00050032465 8.662495e-05 -5.604325e-05
0000e0 7e e2 e8 bf 3a 15 3f 39 ef 1e 2c bf 98 1e b9 be
       -1.819412 0.00018223087 -0.672347 -0.36156154
0000f0 07 a7 07 ba 25 84 2a 3b 4a 13 8f ba a9 b6 c8 39
       -0.00051747303 0.0026018706 -0.0010915783 0.00038283065

value_net.weight f4 [1, 64]
000000 10 fc 81 bd fe 40 0f 3d c1 0a 93 3d 86 37 69 3e
       -0.06346905 0.03497409 0.071797855 0.22775087
000010 0e 4c 45 3e d8 66 18 3e 96 dd da 3d b2 6a 4a bd
       0.19267294 0.14882982 0.106867954 -0.04941816
000020 da 47 43 bd b1 23 2e bd 75 6a 80 3d be 12 43 be
       -0.047675945 -0.042514507 0.06270305 -0.19050118
000030 5e af ba 3c ab b6 3d 3d cc 09 80 3c a6 93 a3 bd
       0.0227887 0.046316784 0.015629672 -0.07987146
000040 73 2d 08 be 24 ea e7 bd fa 9f e4 bc 1b e9 5f 3d
       -0.13298588 -0.11323956 -0.027908314 0.054665666
000050 68 45 a0 bb 6f 0b 9a bd ca 97 c4 3c 44 29 c8 bd
       -0.0048910864 -0.07521712 0.02399816 -0.09773496
000060 0b 92 e6 3c 7d 8f de 3d 27 4c 59 bd c5 2d 4f 3d
       0.02814581 0.10867212 -0.05305114 0.05058076
000070 8c c5 34 be ba c5 54 3e 16 75 20 bd bd 95 c5 3d
       -0.17653483 0.20778552 -0.03917416 0.09647701
000080 ee e3 30 be d4 4d 87 3d e1 47 4f 3c 81 1e 05 3e
       -0.17274448 0.066066414 0.012651415 0.12999918
000090 5f 54 5f bd 3e 14 93 3c 62 b1 af bd 6a 5b 87 3e
       -0.054523822 0.017953988 -0.08578755 0.2643693
0000a0 bf 1d 09 be 16 fc 66 3c b2 21 03 3d 5f 70 a4 be
       -0.13390253 0.014098188 0.032014556 -0.32116982
0000b0 f9 93 ac bd 8e be 06 be 15 c9 54 3e 22 5c 7a 3d
       -0.08426661 -0.13158628 0.20779832 0.06112302
0000c0 90 f7 94 3d 9f 64 ed bd 59 3f 5f be a9 f7 40 3d
       0.07273781 -0.115914576 -0.21801509 0.047111187
0000d0 e9 63 16 bd 8e b5 7f 3e f8 04 e9 3d 92 c1 ee 3d
       -0.036716375 0.24971601 0.11377901 0.11658014
0000e0 f4 a6 bb bd a1 d0 04 be 11 1c d4 3a ff bf 48 3d
       -0.09162703 -0.1297021 0.0016182681 0.049011227
0000f0 30 2d 9f 3d d7 1d 81 3c d0 8d 5f be 33 4f 9b be
       0.07772291 0.015761299 -0.21831441 -0.30333862
