policies/Pendulum/good_ppo.pt (torch, 41216 bytes, 10 tensors)

mlp_extractor.policy_net.0.weight f4 [64, 3]
000000 9a 39 16 3c 3b 53 2c bb 9c ec 26 3e af bb 48 3f
       0.009169007 -0.0026294726 0.16301197 0.7841138
000010 74 50 4a bc ef 8a 17 3e a3 68 a1 bf c3 48 8b 3a
       -0.012348283 0.14799093 -1.2610058 0.0010626543
000020 e7 2b 26 bf 8e 39 16 bc 44 53 2c 3b 9c ec 26 be
       -0.6491074 -0.009168996 0.0026294747 -0.16301197
000030 8a 39 16 bc 69 53 2c 3b 9c ec 26 be 8a 39 16 3c
       -0.009168992 0.0026294834 -0.16301197 0.009168992
000040 5b 53 2c bb 9c ec 26 3e 93 39 16 bc 3d 53 2c 3b
       -0.00262948 0.16301197 -0.009169 0.002629473
000050 9d ec 26 be 9e 39 16 3c 2f 53 2c bb 9c ec 26 3e
       -0.16301198 0.00916901 -0.0026294698 0.16301197
000060 96 39 16 3c 4f 53 2c bb 9c ec 26 3e 95 39 16 3c
       0.009169003 -0.0026294773 0.16301197 0.009169002
000070 65 53 2c bb 9c ec 26 3e 9e 39 16 3c 31 53 2c bb
       -0.0026294824 0.16301197 0.00916901 -0.0026294703
000080 9a ec 26 3e 8c 39 16 bc 5d 53 2c 3b 9c ec 26 be
       0.16301194 -0.009168994 0.0026294806 -0.16301197
000090 95 39 16 bc 53 53 2c 3b 9e ec 26 be 91 39 16 3c
       -0.009169002 0.0026294782 -0.163012 0.009168998
0000a0 51 53 2c bb 9a ec 26 3e b1 e0 cd bb ed 5d 3c bc
       -0.0026294778 0.16301194 -0.006282889 -0.011497003
0000b0 ee 66 12 3f 9a 39 16 3c 5e 53 2c bb 9c ec 26 3e
       0.5718831 0.009169007 -0.0026294808 0.16301197
0000c0 94 39 16 3c 26 53 2c bb 9c ec 26 3e 99 39 16 bc
       0.009169001 -0.0026294678 0.16301197 -0.009169006
0000d0 5b 53 2c 3b 9c ec 26 be 8f 39 16 bc 43 53 2c 3b
       0.00262948 -0.16301197 -0.0091689965 0.0026294745
0000e0 99 ec 26 be 92 39 16 bc 4c 53 2c 3b 9c ec 26 be
       -0.16301192 -0.009168999 0.0026294766 -0.16301197
0000f0 b5 d0 e5 3b 60 83 37 3c a8 0c 13 bf 94 39 16 bc
       0.007013405 0.011200756 -0.57441187 -0.009169001
000100 2b 53 2c 3b 9a ec 26 be dd 87 e3 3b 0d fc 37 3c
       0.002629469 -0.16301194 0.0069436864 0.011229527
000110 13 fd 12 bf 96 39 16 3c 3a 53 2c bb 9c ec 26 3e
       -0.5741741 0.009169003 -0.0026294724 0.16301197
000120 9a 39 16 3c 52 53 2c bb 9d ec 26 3e 94 39 16 bc
       0.009169007 -0.002629478 0.16301198 -0.009169001
000130 36 53 2c 3b 9c ec 26 be a3 39 16 bc 58 53 2c 3b
       0.0026294715 -0.16301197 -0.009169015 0.0026294794
000140 9d ec 26 be 9d 39 16 3c 42 53 2c bb 9b ec 26 3e
       -0.16301198 0.0091690095 -0.0026294743 0.16301195
000150 96 39 16 3c 5b 53 2c bb 9c ec 26 3e 94 39 16 3c
       0.009169003 -0.00262948 0.16301197 0.009169001
000160 49 53 2c bb 9f ec 26 3e 94 39 16 bc 3a 53 2c 3b
       -0.002629476 0.16301201 -0.009169001 0.0026294724
000170 9c ec 26 be 90 39 16 bc 2b 53 2c 3b 9d ec 26 be
       -0.16301197 -0.009168997 0.002629469 -0.16301198
000180 c5 f1 41 bf 7b fd 52 3c 32 a0 16 3e 9a 39 16 bc
       -0.75759536 0.012877817 0.14709547 -0.009169007
000190 59 53 2c 3b 9c ec 26 be 9c 39 16 bc 39 53 2c 3b
       0.0026294796 -0.16301197 -0.009169009 0.0026294722
0001a0 9c ec 26 be 92 39 16 bc 2d 53 2c 3b 9b ec 26 be
       -0.16301197 -0.009168999 0.0026294694 -0.16301195
0001b0 9b 39 16 bc 23 53 2c 3b 9c ec 26 be 9b 39 16 bc
       -0.009169008 0.002629467 -0.16301197 -0.009169008
0001c0 3e 53 2c 3b 9d ec 26 be 97 39 16 3c 4a 53 2c bb
       0.0026294733 -0.16301198 0.009169004 -0.0026294761
0001d0 9b ec 26 3e 99 39 16 3c 5e 53 2c bb 9c ec 26 3e
       0.16301195 0.009169006 -0.0026294808 0.16301197
0001e0 94 39 16 bc 38 53 2c 3b 9c ec 26 be 92 39 16 3c
       -0.009169001 0.002629472 -0.16301197 0.009168999
0001f0 28 53 2c bb 9c ec 26 3e 9a 39 16 bc 51 53 2c 3b
       -0.0026294682 0.16301197 -0.009169007 0.0026294778
000200 9d ec 26 be 9c 39 16 bc 58 53 2c 3b 9c ec 26 be
       -0.16301198 -0.009169009 0.0026294794 -0.16301197
000210 94 39 16 3c 48 53 2c bb 9c ec 26 3e 43 3b c5 bf
       0.009169001 -0.0026294757 0.16301197 -1.540871
000220 b9 a7 3e 3c 1c 99 39 3f 90 39 16 bc 3a 53 2c 3b
       0.011636668 0.7249925 -0.009168997 0.0026294724
000230 9b ec 26 be 96 39 16 3c 46 53 2c bb 9c ec 26 3e
       -0.16301195 0.009169003 -0.0026294752 0.16301197
000240 99 39 16 3c 4d 53 2c bb 9c ec 26 3e 96 39 16 3c
       0.009169006 -0.0026294768 0.16301197 0.009169003
000250 30 53 2c bb 9c ec 26 3e 9b 39 16 bc 4b 53 2c 3b
       -0.00262947 0.16301197 -0.009169008 0.0026294764
000260 9b ec 26 be 9b 39 16 3c 48 53 2c bb 9d ec 26 3e
       -0.16301195 0.009169008 -0.0026294757 0.16301198
000270 df 49 e1 bb 17 72 38 bc c3 ed 12 3f 97 39 16 bc
       -0.006875261 -0.01125767 0.57394046 -0.009169004
000280 1b 53 2c 3b 9b ec 26 be 8f 39 16 bc 27 53 2c 3b
       0.0026294652 -0.16301195 -0.0091689965 0.002629468
000290 9d ec 26 be 99 39 16 bc 5e 53 2c 3b 9c ec 26 be
       -0.16301198 -0.009169006 0.0026294808 -0.16301197
0002a0 94 39 16 bc 34 53 2c 3b 9a ec 26 be 99 39 16 bc
       -0.009169001 0.002629471 -0.16301194 -0.009169006
0002b0 3b 53 2c 3b 9c ec 26 be da 88 ea bd a8 1b b8 3c
       0.0026294726 -0.16301197 -0.114518836 0.022474125
0002c0 5a 4f ce 3f 9e 39 16 3c 4f 53 2c bb 9b ec 26 3e
       1.6117966 0.00916901 -0.0026294773 0.16301195
0002d0 ae 5f a1 bf a6 b3 8a 3a 54 2d 26 bf 8a 39 16 bc
       -1.2607324 0.0010582104 -0.64912915 -0.009168992
0002e0 38 53 2c 3b 9b ec 26 be 9b 39 16 3c 38 53 2c bb
       0.002629472 -0.16301195 0.009169008 -0.002629472
0002f0 9c ec 26 3e 99 39 16 3c 48 53 2c bb 9c ec 26 3e
       0.16301197 0.009169006 -0.0026294757 0.16301197

mlp_extractor.policy_net.0.bias f4 [64]
000000 72 1d 31 3c 31 5d 63 3e 10 28 9e be 69 1d 31 bc
       0.010810243 0.22203518 -0.3088994 -0.010810235
000010 82 1d 31 bc 76 1d 31 3c 8e 1d 31 bc 85 1d 31 3c
       -0.010810258 0.010810247 -0.010810269 0.010810261
000020 77 1d 31 3c 7a 1d 31 3c 73 1d 31 3c 78 1d 31 bc
       0.010810248 0.01081025 0.010810244 -0.010810249
000030 77 1d 31 bc 76 1d 31 3c 11 01 c0 39 6a 1d 31 3c
       -0.010810248 0.010810247 0.00036621888 0.0108102355
000040 70 1d 31 3c 88 1d 31 bc 80 1d 31 bc 82 1d 31 bc
       0.010810241 -0.010810263 -0.010810256 -0.010810258
000050 bb e1 d7 39 69 1d 31 bc 13 f7 b0 39 78 1d 31 3c
       0.00041176178 -0.010810235 0.0003375342 0.010810249
000060 84 1d 31 3c 64 1d 31 bc 7a 1d 31 bc 6a 1d 31 3c
       0.01081026 -0.01081023 -0.01081025 0.0108102355
000070 70 1d 31 3c 7b 1d 31 3c 72 1d 31 bc 71 1d 31 bc
       0.010810241 0.010810251 -0.010810243 -0.010810242
000080 43 f8 5e be 7b 1d 31 bc 7a 1d 31 bc 76 1d 31 bc
       -0.21774392 -0.010810251 -0.01081025 -0.010810247
000090 76 1d 31 bc 82 1d 31 bc 6e 1d 31 3c 79 1d 31 3c
       -0.010810247 -0.010810258 0.010810239 0.0108102495
0000a0 65 1d 31 bc 66 1d 31 3c 76 1d 31 bc 70 1d 31 bc
       -0.010810231 0.010810232 -0.010810247 -0.010810241
0000b0 85 1d 31 3c e7 c4 ad be 69 1d 31 bc 7e 1d 31 3c
       0.010810261 -0.33939287 -0.010810235 0.010810254
0000c0 78 1d 31 3c 73 1d 31 3c 6e 1d 31 bc 7b 1d 31 3c
       0.010810249 0.010810244 -0.010810239 0.010810251
0000d0 19 bb 8a b9 78 1d 31 bc 7f 1d 31 bc 7c 1d 31 bc
       -0.0002646081 -0.010810249 -0.010810255 -0.010810252
0000e0 76 1d 31 bc 70 1d 31 bc f5 36 63 bd 64 1d 31 3c
       -0.010810247 -0.010810241 -0.055472333 0.01081023
0000f0 98 33 9e be 7a 1d 31 bc 6a 1d 31 3c 7e 1d 31 3c
       -0.30898738 -0.01081025 0.0108102355 0.010810254

mlp_extractor.policy_net.2.weight f4 [64, 64]
000000 f3 a1 fc 31 1d 3e 02 33 ba b9 44 b3 f8 a1 fc b1
       7.3525768e-09 3.0324475e-08 -4.5803723e-08 -7.352579e-09
000010 02 a2 fc b1 f9 a1 fc 31 f9 a1 fc b1 ff a1 fc 31
       -7.3525834e-09 7.3525794e-09 -7.3525794e-09 7.352582e-09
000020 05 a2 fc 31 06 a2 fc 31 fd a1 fc 31 fb a1 fc b1
       7.3525848e-09 7.352585e-09 7.352581e-09 -7.3525803e-09
000030 02 a2 fc b1 fd a1 fc 31 fd 13 65 32 fe a1 fc 31
       -7.3525834e-09 7.352581e-09 1.3334099e-08 7.3525817e-09
000040 fb a1 fc 31 03 a2 fc b1 02 a2 fc b1 03 a2 fc b1
       7.3525803e-09 -7.352584e-09 -7.3525834e-09 -7.352584e-09
000050 e6 e3 63 b2 ff a1 fc b1 b9 00 64 b2 09 a2 fc 31
       -1.3264957e-08 -7.352582e-09 -1.3271511e-08 7.3525865e-09
000060 f7 a1 fc 31 03 a2 fc b1 04 a2 fc b1 fc a1 fc 31
       7.3525785e-09 -7.352584e-09 -7.3525843e-09 7.3525808e-09
000070 04 a2 fc 31 02 a2 fc 31 f9 a1 fc b1 00 a2 fc b1
       7.3525843e-09 7.3525834e-09 -7.3525794e-09 -7.3525825e-09
000080 9f 38 d9 30 08 a2 fc b1 01 a2 fc b1 02 a2 fc b1
       1.5804921e-09 -7.352586e-09 -7.352583e-09 -7.3525834e-09
000090 0c a2 fc b1 f3 a1 fc b1 02 a2 fc 31 07 a2 fc 31
       -7.352588e-09 -7.3525768e-09 7.3525834e-09 7.3525857e-09
0000a0 05 a2 fc b1 06 a2 fc 31 fc a1 fc b1 f9 a1 fc b1
       -7.3525848e-09 7.352585e-09 -7.3525808e-09 -7.3525794e-09
0000b0 0b a2 fc 31 e9 26 b5 b2 fe a1 fc b1 0e a2 fc 31
       7.3525874e-09 -2.1088868e-08 -7.3525817e-09 7.3525888e-09
0000c0 ff a1 fc 31 f7 a1 fc 31 fb a1 fc b1 f7 a1 fc 31
       7.352582e-09 7.3525785e-09 -7.3525803e-09 7.3525785e-09
0000d0 14 1d 64 32 02 a2 fc b1 04 a2 fc b1 08 a2 fc b1
       1.3277958e-08 -7.3525834e-09 -7.3525843e-09 -7.352586e-09
0000e0 f9 a1 fc b1 fd a1 fc b1 2c c6 5d 32 e9 a1 fc 31
       -7.3525794e-09 -7.352581e-09 1.2908952e-08 7.3525723e-09
0000f0 46 b5 44 b3 08 a2 fc b1 ee a1 fc 31 07 a2 fc 31
       -4.5799673e-08 -7.352586e-09 7.3525745e-09 7.3525857e-09
000100 07 d4 3b b5 d9 95 1e 35 a3 93 0d 32 0a d4 3b 35
       -6.997147e-07 5.9077644e-07 8.240849e-09 6.9971486e-07
000110 0a d4 3b 35 0b d4 3b b5 05 d4 3b 35 0f d4 3b b5
       6.9971486e-07 -6.997149e-07 6.997146e-07 -6.9971514e-07
000120 05 d4 3b b5 0b d4 3b b5 05 d4 3b b5 05 d4 3b 35
       -6.997146e-07 -6.997149e-07 -6.997146e-07 6.997146e-07
000130 05 d4 3b 35 0f d4 3b b5 70 8a 08 b4 0a d4 3b b5
       6.997146e-07 -6.9971514e-07 -1.271635e-07 -6.9971486e-07
000140 09 d4 3b b5 0e d4 3b 35 08 d4 3b 35 0e d4 3b 35
       -6.997148e-07 6.997151e-07 6.9971475e-07 6.997151e-07
000150 ce c8 05 34 04 d4 3b 35 bf 0a 06 34 07 d4 3b b5
       1.2459643e-07 6.997145e-07 1.2483632e-07 -6.997147e-07
000160 08 d4 3b b5 09 d4 3b 35 0a d4 3b 35 09 d4 3b b5
       -6.9971475e-07 6.997148e-07 6.9971486e-07 -6.997148e-07
000170 09 d4 3b b5 0c d4 3b b5 0b d4 3b 35 0d d4 3b 35
       -6.997148e-07 -6.99715e-07 6.997149e-07 6.9971503e-07
000180 41 a5 a3 b5 05 d4 3b 35 0e d4 3b 35 09 d4 3b 35
       -1.2192542e-06 6.997146e-07 6.997151e-07 6.997148e-07
000190 0b d4 3b 35 08 d4 3b 35 0b d4 3b b5 0b d4 3b b5
       6.997149e-07 6.9971475e-07 -6.997149e-07 -6.997149e-07
0001a0 0d d4 3b 35 09 d4 3b b5 0c d4 3b 35 04 d4 3b 35
       6.9971503e-07 -6.997148e-07 6.99715e-07 6.997145e-07
0001b0 0e d4 3b b5 7e 58 44 b5 0b d4 3b 35 08 d4 3b b5
       -6.997151e-07 -7.3144463e-07 6.997149e-07 -6.9971475e-07
0001c0 07 d4 3b b5 0b d4 3b b5 0d d4 3b 35 04 d4 3b b5
       -6.997147e-07 -6.997149e-07 6.9971503e-07 -6.997145e-07
0001d0 d5 4b 06 b4 04 d4 3b 35 0b d4 3b 35 09 d4 3b 35
       -1.250731e-07 6.997145e-07 6.997149e-07 6.997148e-07
0001e0 0f d4 3b 35 04 d4 3b 35 67 6c 1a b3 07 d4 3b b5
       6.9971514e-07 6.997145e-07 -3.595451e-08 -6.997147e-07
0001f0 db 3d 0f 32 03 d4 3b 35 09 d4 3b b5 05 d4 3b b5
       8.33776e-09 6.9971446e-07 -6.997148e-07 -6.997146e-07
000200 03 d8 cf b7 c7 36 8d b7 da 81 ea 37 02 d8 cf 37
       -2.4776911e-05 -1.6834018e-05 2.795544e-05 2.477691e-05
000210 00 d8 cf 37 00 d8 cf b7 03 d8 cf 37 ff d7 cf b7
       2.4776906e-05 -2.4776906e-05 2.4776911e-05 -2.4776904e-05
000220 ff d7 cf b7 ff d7 cf b7 04 d8 cf b7 ff d7 cf 37
       -2.4776904e-05 -2.4776904e-05 -2.4776913e-05 2.4776904e-05
000230 05 d8 cf 37 04 d8 cf b7 ad 69 c4 b7 02 d8 cf b7
       2.4776915e-05 -2.4776913e-05 -2.341423e-05 -2.477691e-05
000240 fe d7 cf b7 ff d7 cf 37 fe d7 cf 37 ff d7 cf 37
       -2.4776902e-05 2.4776904e-05 2.4776902e-05 2.4776904e-05
000250 b2 1a c4 37 03 d8 cf 37 33 22 c4 37 00 d8 cf b7
       2.3377452e-05 2.4776911e-05 2.3380946e-05 -2.4776906e-05
000260 02 d8 cf b7 03 d8 cf 37 01 d8 cf 37 02 d8 cf b7
       -2.477691e-05 2.4776911e-05 2.4776908e-05 -2.477691e-05
000270 01 d8 cf b7 02 d8 cf b7 ff d7 cf 37 03 d8 cf 37
       -2.4776908e-05 -2.477691e-05 2.4776904e-05 2.4776911e-05
000280 cd cd b2 b7 fe d7 cf 37 fd d7 cf 37 01 d8 cf 37
       -2.1315087e-05 2.4776902e-05 2.47769e-05 2.4776908e-05
000290 03 d8 cf 37 ff d7 cf 37 00 d8 cf b7 fe d7 cf b7
       2.4776911e-05 2.4776904e-05 -2.4776906e-05 -2.4776902e-05
0002a0 03 d8 cf 37 ff d7 cf b7 03 d8 cf 37 00 d8 cf 37
       2.4776911e-05 -2.4776904e-05 2.4776911e-05 2.4776906e-05
0002b0 ff d7 cf b7 b7 9b a6 b7 04 d8 cf 37 ff d7 cf b7
       -2.4776904e-05 -1.9861252e-05 2.4776913e-05 -2.4776904e-05
0002c0 02 d8 cf b7 02 d8 cf b7 01 d8 cf 37 01 d8 cf b7
       -2.477691e-05 -2.477691e-05 2.4776908e-05 -2.4776908e-05
0002d0 8b 29 c4 b7 02 d8 cf 37 00 d8 cf 37 ff d7 cf 37
       -2.3384366e-05 2.477691e-05 2.4776906e-05 2.4776904e-05
0002e0 01 d8 cf 37 ff d7 cf 37 1c 55 c2 b7 01 d8 cf b7
       2.4776908e-05 2.4776904e-05 -2.3166234e-05 -2.4776908e-05
0002f0 6e 84 ea 37 05 d8 cf 37 00 d8 cf b7 fe d7 cf b7
       2.7956641e-05 2.4776915e-05 -2.4776906e-05 -2.4776902e-05
000300 84 ac 1a bd 81 98 ad be 6f 76 a4 bd 87 ac 1a 3d
       -0.03776218 -0.33905414 -0.08030402 0.03776219
000310 82 ac 1a 3d 85 ac 1a bd 81 ac 1a 3d 84 ac 1a bd
       0.037762173 -0.037762184 0.03776217 -0.03776218
000320 81 ac 1a bd 81 ac 1a bd 86 ac 1a bd 82 ac 1a 3d
       -0.03776217 -0.03776217 -0.037762187 0.037762173
000330 81 ac 1a 3d 88 ac 1a bd 23 ae 61 3e 7f ac 1a bd
       0.03776217 -0.037762195 0.22039084 -0.03776216
000340 81 ac 1a bd 7e ac 1a 3d 86 ac 1a 3d 7e ac 1a 3d
       -0.03776217 0.037762158 0.037762187 0.037762158
000350 9a f2 62 be 80 ac 1a 3d 17 d4 62 be 85 ac 1a bd
       -0.22162858 0.037762165 -0.22151218 -0.037762184
000360 7d ac 1a bd 81 ac 1a 3d 80 ac 1a 3d 84 ac 1a bd
       -0.037762154 0.03776217 0.037762165 -0.03776218
000370 86 ac 1a bd 84 ac 1a bd 81 ac 1a 3d 7b ac 1a 3d
       -0.037762187 -0.03776218 0.03776217 0.037762146
000380 93 f0 b7 be 84 ac 1a 3d 83 ac 1a 3d 80 ac 1a 3d
       -0.3592573 0.03776218 0.037762176 0.037762165
000390 84 ac 1a 3d 83 ac 1a 3d 84 ac 1a bd 80 ac 1a bd
       0.03776218 0.037762176 -0.03776218 -0.037762165
0003a0 81 ac 1a 3d 84 ac 1a bd 83 ac 1a 3d 82 ac 1a 3d
       0.03776217 -0.03776218 0.037762176 0.037762173
0003b0 80 ac 1a bd 4f 3d 86 3d 84 ac 1a 3d 7c ac 1a bd
       -0.037762165 0.065546624 0.03776218 -0.03776215
0003c0 7e ac 1a bd 83 ac 1a bd 85 ac 1a 3d 7f ac 1a bd
       -0.037762158 -0.037762176 0.037762184 -0.03776216
0003d0 53 b6 62 3e 84 ac 1a 3d 82 ac 1a 3d 80 ac 1a 3d
       0.22139864 0.03776218 0.037762173 0.037762165
0003e0 80 ac 1a 3d 83 ac 1a 3d 24 a0 bb 3d 7f ac 1a bd
       0.037762165 0.037762176 0.09161404 -0.03776216
0003f0 76 a7 a4 bd 85 ac 1a 3d 80 ac 1a bd 7d ac 1a bd
       -0.08039753 0.037762184 -0.037762165 -0.037762154

mlp_extractor.policy_net.2.bias f4 [64]
000000 76 fb 9b b2 23 9d 9d b5 1d ea 72 b7 7d 44 51 3b
       -1.8158726e-08 -1.1743144e-06 -1.4478833e-05 0.0031931691
000010 6c 87 21 3a e2 ff cc bb 9a a9 b6 38 91 01 65 bc
       0.0006161842 -0.0062560895 8.710027e-05 -0.013977424
000020 a2 9e e4 bc 7b 72 d1 ba 38 9e 36 ba 98 59 1f 31
       -0.027907673 -0.0015979552 -0.00069663255 2.3188473e-09
000030 1a df 4d bb cb ea 3b b8 f6 16 13 38 31 91 75 3a
       -0.0031413496 -4.4802942e-05 3.5068915e-05 0.00093676435
000040 f4 91 19 38 e5 19 99 38 a5 25 e1 3a ab 62 1a b7
       3.6613972e-05 7.300432e-05 0.0017177357 -9.202088e-06
000050 2a c7 05 3b 24 d7 02 32 92 97 ea 32 24 b9 74 32
       0.00204129 7.615913e-09 2.7310112e-08 1.4244765e-08
000060 de 71 f1 3a 6c 76 b5 ba 53 a6 54 ba c2 34 71 ba
       0.0018420776 -0.0013844497 -0.00081119424 -0.0009201282
000070 84 d6 1a ba b8 ed 7c ba 11 4a a5 3b ff 58 39 3a
       -0.0005906599 -0.000964846 0.00504423 0.00070704514
000080 eb 50 05 b8 9f 15 86 38 bb ed 7b b7 aa ae e7 33
       -3.178503e-05 6.393645e-05 -1.5016117e-05 1.0788547e-07
000090 c4 3d 7a 38 bd f8 15 bb 5d 14 09 ba 88 5f 74 33
       5.966217e-05 -0.0022883855 -0.00052291696 5.6897562e-08
0000a0 04 2f 7d 3d 55 47 a0 38 d1 63 af b0 a6 e9 1d 38
       0.061812416 7.642681e-05 -1.2761295e-09 3.764932e-05
0000b0 8b af 65 ba 9b 20 f7 39 78 8f 2c 3a 43 fa 88 ba
       -0.00087618147 0.00047135804 0.0006582658 -0.001045056
0000c0 e5 35 ea 38 b1 59 29 b8 a5 d7 4f 3a bf bc a6 3a
       0.00011168028 -4.037627e-05 0.0007928557 0.0012721046
0000d0 38 6d 02 37 e1 bd 32 b5 f9 21 06 b3 b8 92 d7 39
       7.774033e-06 -6.658648e-07 -3.1230204e-08 0.0004111731
0000e0 f9 66 f2 b7 f7 fd 8e b9 57 01 1c bc 3a f5 84 39
       -2.8896598e-05 -0.0002727357 -0.009521804 0.0002535971
0000f0 13 e8 14 32 bb bc 05 32 14 c9 9b 3b cd 6e 18 bb
       8.667501e-09 7.784531e-09 0.004754195 -0.0023259402

mlp_extractor.value_net.0.weight f4 [64, 3]
000000 21 bc 71 be b7 c9 c2 3e 0c 07 a1 3e 73 a9 5d be
       -0.23606922 0.3804452 0.3145069 -0.21646671
000010 dc a5 98 3d 78 fb c1 be af 5b 7f bd 92 1e af bd
       0.0745351 -0.37887168 -0.062343296 -0.08550753
000020 c8 5f 61 3d e1 c8 e6 be dc 04 2e 3d 71 9a 6f 3e
       0.055022985 -0.45075133 0.042485103 0.23398758
000030 01 58 c6 bd 37 96 c6 3e 9b e9 17 3e 90 36 ae 3d
       -0.09684754 0.3878648 0.14835207 0.08506501
000040 a2 40 46 3e c9 ca a5 bb 38 21 e9 3d 8d 12 34 be
       0.19360593 -0.0050595743 0.11383289 -0.17585202
000050 70 a7 6a 3e c6 ec 30 be 08 91 32 be c1 84 1a be
       0.22915435 -0.17277822 -0.17438138 -0.15089704
000060 d1 70 19 be 96 18 b2 bd 68 0b 61 3e 39 05 02 3e
       -0.14984442 -0.08696096 0.21977007 0.12697305
000070 f0 1c 0a be c6 24 b5 3d 16 aa 59 3e e9 eb 73 3d
       -0.13487601 0.088449046 0.21256289 0.059551153
000080 8c 58 ad 3d 8d b3 fe bd 4b af 16 be ab 12 ad be
       0.084641546 -0.1243659 -0.14715306 -0.33803305
000090 d0 74 a4 bc 6b be 20 3e 73 8f d1 be 89 d8 89 3d
       -0.020075232 0.15697639 -0.40929756 0.06730754
0000a0 3a e4 09 3e c9 87 19 3d 33 59 31 be 71 40 f2 3d
       0.13465968 0.03748301 -0.17319183 0.118286975
0000b0 49 54 5e 3e dd 15 68 3e 6b 81 cd bb 96 a3 bb bd
       0.2171184 0.2266459 -0.0062715313 -0.09162061
0000c0 fd 7f 40 3e 0c 08 45 be 82 b7 d5 bd 59 b5 86 be
       0.18798824 -0.19241351 -0.10435392 -0.26310232
0000d0 5d f5 dc bd 99 87 f7 3c 26 fc 17 be a4 24 2c 3e
       -0.10788987 0.030216025 -0.14842281 0.16810852
0000e0 45 28 81 bd f4 f0 c0 3e ac df 90 3d 25 35 9f 3e
       -0.06306509 0.37683833 0.07073912 0.31095234
0000f0 68 c9 81 bd 4a 46 af 3e 2d 7b a2 3d d6 67 02 3f
       -0.06337243 0.34233314 0.0793365 0.5093969
000100 f6 69 9d 3e db 15 0a be fc 02 16 3e b0 8c 7c 3b
       0.30744904 -0.134849 0.14649576 0.0038536005
000110 10 63 19 3d 59 74 41 bd dc 30 84 bd 44 ae 5a 3d
       0.03744799 -0.0472301 -0.06454632 0.05338885
000120 ee 1d 19 3e d1 c3 a8 be ad 81 63 3e 15 4f 38 be
       0.14952824 -0.32961896 0.22217436 -0.17998917
000130 60 21 bf bd 3e a0 01 3d f5 04 56 bd ed 66 af bd
       -0.09332538 0.03164696 -0.05225082 -0.085645534
000140 a6 fe 90 3d 6c 0c 93 be c8 ef 76 be 83 68 86 be
       0.0707982 -0.28720415 -0.24114907 -0.2625161
000150 44 dd 2d bc 73 80 7d 3e 9e 1a c2 3d 04 9d 33 be
       -0.010611836 0.2475603 0.09477733 -0.17540365
000160 25 37 35 bd f6 32 72 be 1c 75 e4 be 77 e0 91 3e
       -0.044242043 -0.23652253 -0.44620597 0.28491566
000170 e4 b4 e8 3d c6 0b 1f be 88 47 d4 3c 86 3d f8 bd
       0.11362627 -0.15531835 0.025913015 -0.1212111
000180 9f 81 79 bd fa a8 15 3e 0c 01 70 bc 42 e5 d0 3d
       -0.060914632 0.1461524 -0.014648687 0.101999775
000190 18 d4 bd bd 7b 73 4a be 15 7a 15 3d 73 3a 12 3d
       -0.09268969 -0.19770615 0.03649338 0.035700273
0001a0 b3 46 33 3e b2 16 b0 3c c1 f7 97 bc ff 0c 0a 3d
       0.17507438 0.021495197 -0.018550755 0.0337038
0001b0 63 ee 35 3d a6 5a c8 3d 38 55 80 3e 66 82 17 bd
       0.044416796 0.09782915 0.25065017 -0.036989592
0001c0 19 f2 80 be c9 63 ba 3e fd 31 94 be 59 1d 17 be
       -0.25184706 0.36404255 -0.28944388 -0.14757289
0001d0 4d 98 79 3e b9 f3 66 3e 5c 46 33 3e 0b 7b e8 bd
       0.24374504 0.2255391 0.17507309 -0.113515936
0001e0 1b 9d 94 bd ba f5 fa 3b cb 1c f2 3d a3 b7 32 3d
       -0.07256528 0.0076586874 0.11821898 0.04363216
0001f0 66 b0 55 3e 42 fa ae be 86 2b 69 3d 2f 5a 37 3e
       0.20868072 -0.34175307 0.056926273 0.17905496
000200 51 8e 9e 3d f1 82 dd bd 8f f2 69 3e 98 02 f8 3d
       0.077419885 -0.10815991 0.22846435 0.1210987
000210 d8 af 09 bd 8b d4 0f 3d 81 3e 39 3d 82 26 bf 3d
       -0.033614963 0.035114806 0.045225624 0.09333517
000220 30 75 8f 3e 14 72 08 3e 40 3f a7 bd f6 79 0d be
       0.28019094 0.13324767 -0.08166361 -0.13816056
000230 5c c0 f0 3b d8 9c 9f 3d aa 5b 17 3e a2 1f 37 bd
       0.00734715 0.077935874 0.14781061 -0.0447079
000240 7c 8a 0d 3e 20 cf db 3d 31 08 c1 3d 13 f8 e7 3d
       0.13822359 0.10732865 0.094253905 0.11326613
000250 2b cd 6b be af 11 0a be 92 d1 f7 3d 84 73 6a 3c
       -0.23027484 -0.13483308 0.12100519 0.014309768
000260 e4 a0 22 3e 92 9a 37 3e 28 b8 cf 3c c3 9d 50 bd
       0.15881687 0.17930058 0.025356367 -0.050931703
000270 f4 38 ec bd 8b ed b7 bd d9 d7 e5 bd 7d 5d f5 bd
       -0.115343004 -0.089808546 -0.1122281 -0.11980722
000280 23 fd 0c be eb 4a 97 3e 18 ed 3e 3e 78 ed 3c 3d
       -0.13768439 0.29549345 0.18645132 0.046124905
000290 0a 61 33 3e ca 6a e3 3c 31 44 b1 3d 7c 9d 4b be
       0.17517486 0.027760882 0.086555846 -0.19884294
0002a0 dd dc ea bd 08 ba 4a be eb e3 6c 3d 75 9a a3 3b
       -0.114679076 -0.19797528 0.057834547 0.004992778
0002b0 61 0b 9e 3e 6d 78 45 3d 32 40 8a bb 86 32 f2 3b
       0.30868056 0.04821055 -0.0042190785 0.007391277
0002c0 7e 79 2e be e8 57 4c 3e 5c 39 4f be ec 8d fa 3d
       -0.17038533 0.19955409 -0.20236725 0.12234101
0002d0 42 11 62 3e 05 ec 32 be 6d 80 85 bb 6f b8 46 bd
       0.22076896 -0.17472847 -0.0040741474 -0.048515733
0002e0 eb e5 90 3e 77 67 37 be fe 62 34 3e d2 5f e4 3d
       0.28300413 -0.17910562 0.17615888 0.11151089
0002f0 49 1c c9 3d 75 69 10 3e f5 d3 68 be 3f 06 f2 3d
       0.09819848 0.14102729 -0.22737105 0.118175976

mlp_extractor.value_net.0.bias f4 [64]
000000 00 00 00 00 00 00 00 00 00 00 00 00 00 00 00 00
       0.0 0.0 0.0 0.0
000010 00 00 00 00 00 00 00 00 00 00 00 00 00 00 00 00
       0.0 0.0 0.0 0.0
000020 00 00 00 00 00 00 00 00 00 00 00 00 00 00 00 00
       0.0 0.0 0.0 0.0
000030 00 00 00 00 00 00 00 00 00 00 00 00 00 00 00 00
       0.0 0.0 0.0 0.0
000040 00 00 00 00 00 00 00 00 00 00 00 00 00 00 00 00
       0.0 0.0 0.0 0.0
000050 00 00 00 00 00 00 00 00 00 00 00 00 00 00 00 00
       0.0 0.0 0.0 0.0
000060 00 00 00 00 00 00 00 00 00 00 00 00 00 00 00 00
       0.0 0.0 0.0 0.0
000070 00 00 00 00 00 00 00 00 00 00 00 00 00 00 00 00
       0.0 0.0 0.0 0.0
000080 00 00 00 00 00 00 00 00 00 00 00 00 00 00 00 00
       0.0 0.0 0.0 0.0
000090 00 00 00 00 00 00 00 00 00 00 00 00 00 00 00 00
       0.0 0.0 0.0 0.0
0000a0 00 00 00 00 00 00 00 00 00 00 00 00 00 00 00 00
       0.0 0.0 0.0 0.0
0000b0 00 00 00 00 00 00 00 00 00 00 00 00 00 00 00 00
       0.0 0.0 0.0 0.0
0000c0 00 00 00 00 00 00 00 00 00 00 00 00 00 00 00 00
       0.0 0.0 0.0 0.0
0000d0 00 00 00 00 00 00 00 00 00 00 00 00 00 00 00 00
       0.0 0.0 0.0 0.0
0000e0 00 00 00 00 00 00 00 00 00 00 00 00 00 00 00 00
       0.0 0.0 0.0 0.0
0000f0 00 00 00 00 00 00 00 00 00 00 00 00 00 00 00 00
       0.0 0.0 0.0 0.0

mlp_extractor.value_net.2.weight f4 [64, 64]
000000 87 b6 6f be 3c 07 57 bd 07 3e 93 bd 0c 75 23 3e
       -0.23409472 -0.052497134 -0.07189565 0.15962619
000010 9c 96 c9 3e a0 70 90 bd e2 86 e1 3c 33 50 98 bd
       0.39372718 -0.070527315 0.027530137 -0.07437172
000020 d0 60 b8 be d1 71 72 be 5e 18 dd 3c 99 ea 75 bc
       -0.36011362 -0.2367623 0.026989158 -0.015009546
000030 ca b3 bc bd 11 8d 9a be 71 ff 04 3d d5 12 e0 3d
       -0.092139795 -0.3018575 0.03247017 0.10941092
000040 69 55 58 be c8 54 72 3e 91 b4 e6 3c 87 57 80 3d
       -0.21126331 0.23665154 0.028162273 0.062666945
000050 67 7e a5 be 06 63 cb bd 70 cc ac be 5a bd 63 bd
       -0.32323 -0.099309966 -0.33749723 -0.0556005
000060 34 94 57 3d 5a 42 2d be 68 42 03 be f3 50 3d bc
       0.052631572 -0.16919842 -0.128183 -0.011554944
000070 7d 8d 0e bd 90 10 3f be af 4c bb 3d 1a 30 cb bd
       -0.034802902 -0.18658662 0.091454856 -0.09921284
000080 bc 91 72 3e 54 c0 09 3f 8e de 21 3e d6 f1 27 3e
       0.23688406 0.53809094 0.15807554 0.16400847
000090 40 ad 1e be 39 a4 00 bd 41 16 92 bd 70 0b 2c 3e
       -0.15495777 -0.031406615 -0.07133151 0.16801238
0000a0 8e 8e 8b 3d 25 06 88 bc 48 25 90 3e da 4b 17 3e
       0.068142995 -0.016604492 0.28153443 0.14775029
0000b0 30 3a 3e be 98 21 5b 3b d2 86 f0 3d 2e 29 3d 3d
       -0.18576884 0.0033436771 0.11744465 0.04618185
0000c0 d6 7c 09 bd 29 c5 00 bc 44 20 4a 3d 56 9c ce bd
       -0.03356632 -0.007859507 0.049347177 -0.100884125
0000d0 a7 26 06 be 85 70 b4 3c 51 ea 6c be f9 74 0a be
       -0.13100682 0.02202631 -0.2313626 -0.13521184
0000e0 aa 3f e3 bd d8 91 8e 3e 86 39 5a be fe 8a 03 3e
       -0.11096127 0.27845645 -0.21311006 0.1284599
0000f0 9f 28 2b 3e 15 ab a1 3d a7 b4 a1 3e 1c 1a 9f bd
       0.16714714 0.078939594 0.3158314 -0.07768652
000100 11 67 1e be 30 f8 e9 3e 8d e1 11 be 4a 41 47 be
       -0.15469004 0.45697165 -0.14246197 -0.194585
000110 bf 04 60 bc fe f1 ff 3d 70 1b 47 3e e1 6c f1 bd
       -0.013673007 0.12497328 0.1944406 -0.11788345
000120 73 69 78 3e a7 68 de 3e 8b 7e 12 be 36 dc ee bc
       0.24258976 0.43439218 -0.14306085 -0.02915774
000130 97 19 e1 be 76 bc 8a be eb c6 f5 bd ef fa 84 bd
       -0.43964836 -0.2709691 -0.12000831 -0.06493174
000140 4c a2 31 3e 92 23 c3 3d fe 28 6d 3e cf da b0 bd
       0.17347068 0.09528269 0.23160169 -0.086354844
000150 fb 1e 83 bd 0c 14 64 be 60 44 61 be bd d5 5d be
       -0.064023934 -0.22273272 -0.21998739 -0.21663566
000160 28 65 39 3d e1 ab 9b bc 32 25 a7 3d 3a a6 a9 bd
       0.045262486 -0.019002857 0.08161391 -0.08283658
000170 86 ba 7e 3d ad bf 0e be 4a d9 45 3e d9 56 3d bc
       0.0621896 -0.13940306 0.1932117 -0.011556351
000180 2f 06 79 3e f7 96 31 be 0f d2 3e be 55 e3 fa 3d
       0.24318765 -0.17342745 -0.18634818 0.122503914
000190 32 14 33 bc 02 d2 c3 bd 52 c7 4f 3d 7c 23 23 be
       -0.010930108 -0.0956154 0.050727196 -0.15931505
0001a0 db 27 e6 bd 8d 69 6f be cb 4b 9c be e0 21 14 3e
       -0.112380706 -0.23380108 -0.30526575 0.14466047
0001b0 0b 3d 9f 3e 8b 99 43 bb df 49 e5 bc 1b 41 b8 bd
       0.3110126 -0.0029846157 -0.027989326 -0.08996793
0001c0 91 2a 74 3d 48 b2 cc bd e6 20 f9 3d 75 96 ed bd
       0.059610907 -0.09994942 0.12164478 -0.11600963
0001d0 17 22 a6 3d 49 e9 e2 bd 03 17 b0 3d db f5 79 3c
       0.08111971 -0.11079652 0.08598139 0.01525637
0001e0 07 68 6f 3e 03 73 b3 3d b8 2c 51 be 7b 38 e1 3b
       0.23379527 0.08762171 -0.20427215 0.006873188
0001f0 b0 0f b5 3d e0 c2 69 3e dd 3b 81 3e 35 8b 3e bd
       0.08840883 0.22828245 0.25240985 -0.046519477
000200 89 5c d2 be ac 22 4b be 5f d1 a4 be a1 ee 7c 3e
       -0.41086224 -0.19837445 -0.32190987 0.24700405
000210 3f 54 0a be 9d 42 7a 3e 1a 54 1d 3d cd b4 fc bd
       -0.135087 0.24439473 0.038410284 -0.123391725
000220 11 86 21 3d 1f 53 bb 3c e0 0b 7c bd 2b 63 86 3d
       0.039434496 0.022866784 -0.061534762 0.065618835
000230 90 0c 94 3e 31 c4 28 3e 14 fb f8 3b 86 3f c6 3d
       0.28915834 0.16481091 0.00759829 0.09680085
000240 45 ad 01 bd 8f 37 71 3e 1e 70 1f 3e f7 24 c0 bd
       -0.031659383 0.2355635 0.15570113 -0.093820505
000250 9a 39 aa be da 44 8e 3e d1 f1 11 be 5a d9 49 3b
       -0.33247072 0.27786905 -0.14252402 0.0030799718
000260 94 89 4d be fe 0a 07 3d dc e0 43 3e 26 fb fe 3d
       -0.20072013 0.032969467 0.19128746 0.124502465
000270 0b 2f 8d 3e 0c 42 58 3e 73 82 a9 bb db 22 09 bc
       0.27574953 0.21118945 -0.0051730215 -0.008370127
000280 17 07 8e be 73 b2 56 3d 6b 5b 08 3e b7 cd ce be
       -0.27739784 0.052416276 0.13316123 -0.40391323
000290 9a 96 b5 3d ea 2f 2d 3d 73 54 b2 3e c3 66 6f be
       0.088666156 0.042282023 0.34830055 -0.23379044
0002a0 d9 82 49 3d cf b7 60 be 2a 6d 25 be 53 54 a9 3d
       0.04919705 -0.21945117 -0.16154924 0.08268037
0002b0 b6 d2 81 3d e9 07 06 3d a3 24 22 3c 72 64 47 be
       0.06339018 0.032722387 0.00989643 -0.1947191
0002c0 3b 5e d2 3d d3 13 70 3e 57 d9 69 3d be 71 d0 bd
       0.10271879 0.23445062 0.057092037 -0.101779446
0002d0 bf 90 28 3d 87 d3 a7 3d 6c 25 52 3d 93 61 f3 3d
       0.041153666 0.081946425 0.05130522 0.11883845
0002e0 c9 17 57 bc 04 c8 3f 3b 47 46 5c be b8 7d 57 3e
       -0.013128229 0.0029263506 -0.21511184 0.21044052
0002f0 b6 3f 8f 3e ae 47 3b bd 55 16 89 bd 38 aa 46 be
       0.27978295 -0.045722656 -0.066937126 -0.19400871
000300 e7 44 ae 3d 75 e0 b3 3d 39 92 cf bd 91 b9 90 3b
       0.08509236 0.08783046 -0.10135312 0.0044166525
000310 b6 93 aa bd 8f 2a 02 bd f4 3f b6 bb 8b f3 23 3d
       -0.08328955 -0.03177887 -0.005561823 0.040027183
000320 ce 39 b2 bd ce 52 78 3d ba e7 26 bd b2 af 50 3e
       -0.087024316 0.060625844 -0.040748335 0.20379522
000330 07 56 14 3e e8 b1 c5 3d 6b 4a 07 3e aa 55 ba 3e
       0.14485942 0.096530735 0.13211982 0.36393481
000340 5e 47 8f bc 5f ba 2a bb 59 ed 19 3e 4f a0 4b bc
       -0.017490085 -0.0026051027 0.15031947 -0.012428357
000350 4e 07 8f be ad ae c5 3d 80 14 77 3d 92 a7 ac 3e
       -0.2793526 0.096524574 0.060322285 0.33721596
000360 54 3d 9a 3b 70 16 70 be 42 61 3f 3e 98 d2 b4 be
       0.004707018 -0.23446059 0.18689445 -0.3531692
000370 08 2b 27 3e f1 d5 25 be 00 73 64 3e 79 26 03 be
       0.16325009 -0.16194893 0.22309494 -0.12807645
000380 ad b9 8f bd 02 47 90 be 7e 52 8c 3e 81 b2 98 3d
       -0.07017837 -0.28179175 0.27406687 0.07455922
000390 27 de 9f 3e 13 e7 3b be 63 82 84 bb 93 5b 04 3e
       0.31224176 -0.18349867 -0.0040438636 0.12925558
0003a0 5d c0 87 3e bd c5 06 3e bc 0d cc bd b7 d4 33 be
       0.2651395 0.13161369 -0.09963557 -0.17561613
0003b0 f4 39 83 3d 30 4b c1 be 7b 1f 20 3e d8 1c 8c 3d
       0.06407538 -0.37752676 0.15637009 0.06841439
0003c0 1d fc 04 3d 97 5a 28 be b1 20 b9 3d 39 f4 65 3e
       0.032466996 -0.16440807 0.090394385 0.22456445
0003d0 44 39 bc be 39 48 c2 bd 61 84 29 3e fa 88 8a bc
       -0.3676244 -0.09486432 0.16554405 -0.016911019
0003e0 40 b4 6e 3d c9 fb f5 3d 06 98 37 be 42 9e 83 bc
       0.05827737 0.12010915 -0.17929086 -0.016066674
0003f0 a0 35 71 be 82 9e bd bc a5 47 8a 3e f7 16 ad 3e
       -0.23555613 -0.023146871 0.27007785 0.33806583

mlp_extractor.value_net.2.bias f4 [64]
000000 00 00 00 00 00 00 00 00 00 00 00 00 00 00 00 00
       0.0 0.0 0.0 0.0
000010 00 00 00 00 00 00 00 00 00 00 00 00 00 00 00 00
       0.0 0.0 0.0 0.0
000020 00 00 00 00 00 00 00 00 00 00 00 00 00 00 00 00
       0.0 0.0 0.0 0.0
000030 00 00 00 00 00 00 00 00 00 00 00 00 00 00 00 00
       0.0 0.0 0.0 0.0
000040 00 00 00 00 00 00 00 00 00 00 00 00 00 00 00 00
       0.0 0.0 0.0 0.0
000050 00 00 00 00 00 00 00 00 00 00 00 00 00 00 00 00
       0.0 0.0 0.0 0.0
000060 00 00 00 00 00 00 00 00 00 00 00 00 00 00 00 00
       0.0 0.0 0.0 0.0
000070 00 00 00 00 00 00 00 00 00 00 00 00 00 00 00 00
       0.0 0.0 0.0 0.0
000080 00 00 00 00 00 00 00 00 00 00 00 00 00 00 00 00
       0.0 0.0 0.0 0.0
000090 00 00 00 00 00 00 00 00 00 00 00 00 00 00 00 00
       0.0 0.0 0.0 0.0
0000a0 00 00 00 00 00 00 00 00 00 00 00 00 00 00 00 00
       0.0 0.0 0.0 0.0
0000b0 00 00 00 00 00 00 00 00 00 00 00 00 00 00 00 00
       0.0 0.0 0.0 0.0
0000c0 00 00 00 00 00 00 00 00 00 00 00 00 00 00 00 00
       0.0 0.0 0.0 0.0
0000d0 00 00 00 00 00 00 00 00 00 00 00 00 00 00 00 00
       0.0 0.0 0.0 0.0
0000e0 00 00 00 00 00 00 00 00 00 00 00 00 00 00 00 00
       0.0 0.0 0.0 0.0
0000f0 00 00 00 00 00 00 00 00 00 00 00 00 00 00 00 00
       0.0 0.0 0.0 0.0

action_net.weight f4 [1, 64]
000000 6a 42 04 32 f1 50 03 b5 ae 48 9c b7 94 32 26 bf
       7.698512e-09 -4.891909e-07 -1.8630493e-05 -0.64920926
000010 4c 1b 58 39 61 eb 0f bc f2 b9 8f 38 ab 37 00 bc
       0.00020609534 -0.008784146 6.8534064e-05 -0.007825772
000020 bf d3 45 3f c3 e4 78 ba c2 39 fb b9 2f c7 a4 30
       0.77276224 -0.00094945374 -0.00047917484 1.1989182e-09
000030 58 61 dd b8 0d 5f 0f b8 dc 36 c4 37 66 80 34 3a
       -0.00010556233 -3.418238e-05 2.3390567e-05 0.0006885588
000040 51 de fa 37 97 a0 7f 38 e0 c7 c5 3a cc 65 e1 b6
       2.9905847e-05 6.09463e-05 0.0015089475 -6.7173733e-06
000050 20 a2 b4 3a 3e 27 aa 30 b7 49 c4 31 48 0b a6 31
       0.0013781227 1.2380281e-09 5.712731e-09 4.8325184e-09
000060 ab f3 80 3a e1 c1 4d ba 62 4f 45 b9 22 a4 c5 b8
       0.0009838244 -0.00078490196 -0.00018816956 -9.424264e-05
000070 7b 8c 56 b9 4f a4 7c b9 34 f7 de 3b 95 91 9c 3f
       -0.00020460963 -0.00024093802 0.0068043713 1.2231928
000080 96 a6 9f b7 82 e8 1f 38 86 14 0c b7 65 aa 5d b4
       -1.903185e-05 3.8125094e-05 -8.349429e-06 -2.0644218e-07
000090 a5 de f3 37 22 9b 47 b9 3c 6e 8e b9 52 ab b4 33
       2.9071534e-05 -0.0001903591 -0.00027166482 8.413066e-08
0000a0 09 b9 02 40 69 ee 15 39 ae 4e ac 31 77 1f dd 37
       2.0425436 0.00014298562 5.0148037e-09 2.6359905e-05
0000b0 02 b7 4a ba 47 c9 4b 39 37 a1 83 39 87 f9 63 b8
       -0.0007732959 0.0001943457 0.00025106382 -5.4353408e-05
0000c0 a0 d6 b8 38 2a 75 2d 37 cb dd 9e 3b 47 d0 43 3a
       8.813781e-05 1.0338883e-05 0.004848217 0.00074696954
0000d0 68 48 19 37 c3 e0 87 b6 6d e9 60 b2 d1 54 22 39
       9.136369e-06 -4.0494792e-06 -1.3091591e-08 0.0001548112
0000e0 32 12 b0 b7 7d 51 9b b9 2d e4 f8 bb 82 cd 89 3c
       -2.0989308e-05 -0.00029624617 -0.00759556 0.016821627
0000f0 99 cf 49 b1 45 b0 41 31 c5 4f b5 3a 3e 75 de ba
       -2.9367355e-09 2.8185394e-09 0.0013832977 -0.0016972197

value_net.weight f4 [1, 64]
000000 10 fc 81 bd fe 40 0f 3d c1 0a 93 3d 86 37 69 3e
       -0.06346905 0.03497409 0.071797855 0.22775087
000010 0e 4c 45 3e d8 66 18 3e 96 dd da 3d b2 6a 4a bd
       0.19267294 0.14882982 0.106867954 -0.04941816
000020 da 47 43 bd b1 23 2e bd 75 6a 80 3d be 12 43 be
       -0.047675945 -0.042514507 0.06270305 -0.19050118
000030 5e af ba 3c ab b6 3d 3d cc 09 80 3c a6 93 a3 bd
       0.0227887 0.046316784 0.015629672 -0.07987146
000040 73 2d 08 be 24 ea e7 bd fa 9f e4 bc 1b e9 5f 3d
       -0.13298588 -0.11323956 -0.027908314 0.054665666
000050 68 45 a0 bb 6f 0b 9a bd ca 97 c4 3c 44 29 c8 bd
       -0.0048910864 -0.07521712 0.02399816 -0.09773496
000060 0b 92 e6 3c 7d 8f de 3d 27 4c 59 bd c5 2d 4f 3d
       0.02814581 0.10867212 -0.05305114 0.05058076
000070 8c c5 34 be ba c5 54 3e 16 75 20 bd bd 95 c5 3d
       -0.17653483 0.20778552 -0.03917416 0.09647701
000080 ee e3 30 be d4 4d 87 3d e1 47 4f 3c 81 1e 05 3e
       -0.17274448 0.066066414 0.012651415 0.12999918
000090 5f 54 5f bd 3e 14 93 3c 62 b1 af bd 6a 5b 87 3e
       -0.054523822 0.017953988 -0.08578755 0.2643693
0000a0 bf 1d 09 be 16 fc 66 3c b2 21 03 3d 5f 70 a4 be
       -0.13390253 0.014098188 0.032014556 -0.32116982
0000b0 f9 93 ac bd 8e be 06 be 15 c9 54 3e 22 5c 7a 3d
       -0.08426661 -0.13158628 0.20779832 0.06112302
0000c0 90 f7 94 3d 9f 64 ed bd 59 3f 5f be a9 f7 40 3d
       0.07273781 -0.115914576 -0.21801509 0.047111187
0000d0 e9 63 16 bd 8e b5 7f 3e f8 04 e9 3d 92 c1 ee 3d
       -0.036716375 0.24971601 0.11377901 0.11658014
0000e0 f4 a6 bb bd a1 d0 04 be 11 1c d4 3a ff bf 48 3d
       -0.09162703 -0.1297021 0.0016182681 0.049011227
0000f0 30 2d 9f 3d d7 1d 81 3c d0 8d 5f be 33 4f 9b be
       0.07772291 0.015761299 -0.21831441 -0.30333862
