policies/Pendulum/pure_random_ppo.pt (torch, 40886 bytes, 10 tensors)

mlp_extractor.policy_net.0.weight f4 [64, 3]
000000 70 dd e8 bb 31 8f 4f 3c 37 19 61 ba ac ef 30 3c
       -0.0071064755 0.012668417 -0.0008586826 0.01079933
000010 66 65 b5 bc 94 ba 90 bb 04 ca 5b bb 68 90 8b ba
       -0.022143077 -0.004416773 -0.0033537159 -0.0010647895
000020 54 d1 4e 39 10 8d 21 bc 82 f5 ab 3c bb fe e4 3b
       0.00019723672 -0.009860292 0.02099109 0.006988374
000030 d9 7e 52 bc 4e eb 04 3d 2b ce c1 3c c2 cc 31 bb
       -0.012847626 0.032450967 0.023657879 -0.0027130102
000040 4c ee f3 bc 3f 54 c5 bc 4d ef c1 bc 19 ea 0d bd
       -0.029776715 -0.024088023 -0.023673678 -0.03464708
000050 02 a2 be bc 93 8c 53 bc bf 79 0b 3d ac bf ac 3c
       -0.02327061 -0.0129119335 0.034051653 0.02108749
000060 9a 97 40 3c a7 66 ee bc 05 34 2a bc d0 1e 8d bb
       0.011754895 -0.029101683 -0.010388379 -0.0043066517
000070 f5 09 25 bb 6a 7a 3b 3c bd 8d f9 b8 d5 c6 77 bc
       -0.0025182937 0.01144276 -0.00011899646 -0.015123089
000080 23 ab e1 3b 61 cd 37 bd 40 6b 9c bc 07 e2 92 bb
       0.006886856 -0.0448736 -0.01909411 -0.004482511
000090 d8 96 f3 bb ff 1d c1 3c c9 20 10 3b ca 14 41 bb
       -0.0074337535 0.023573874 0.0021992198 -0.0029461854
0000a0 f0 a8 81 ba 9f 09 df b9 cc 2c 69 3c b9 77 06 bd
       -0.0009892266 -0.00042541043 0.014231872 -0.03282902
0000b0 4e de a6 bc 8e 40 44 3d 9d 92 88 3c b2 59 be 3b
       -0.020369675 0.047913127 0.016671473 0.0058090324
0000c0 c5 8c 6d 3c 97 b0 fd bc e6 87 8c bc 52 95 2a bc
       0.014498894 -0.030967994 -0.017154645 -0.010411577
0000d0 c2 90 18 bc ad de 58 3b 7b 62 05 bc 1c 11 04 3d
       -0.009311857 0.003309171 -0.008141155 0.03224288
0000e0 f0 b1 80 3c e5 17 86 3b 42 1b 02 3d 69 a0 db 3c
       0.015709847 0.004092204 0.031764276 0.026809888
0000f0 4c e4 1f 3b 0c e4 21 3c 9d 2c 86 bb 92 7a 6b bc
       0.002439755 0.009881031 -0.004094674 -0.014372485
000100 28 dd 08 bd 62 34 cc bc ab e6 41 3b 46 cb 8d 3a
       -0.033414036 -0.024927322 0.0029586952 0.0010818026
000110 c1 83 fc 39 fe 8f 71 3a 7b 43 3c 3c 2a 25 00 3b
       0.0004816335 0.0009214877 0.011490698 0.0019553402
000120 0b b0 8f bb e6 4a c4 ba df 6e 95 3a f0 d8 19 3b
       -0.0043849996 -0.0014975935 0.001140084 0.0023475252
000130 42 d4 55 3c 05 c0 7e bb 0c 63 e4 3a b2 70 e2 3c
       0.0130510945 -0.0038871777 0.0017424538 0.027641628
000140 6a a9 a8 3c 2a 12 97 bb 50 eb 16 3c e2 23 1b bb
       0.020588595 -0.0046103196 0.009211376 -0.002367251
000150 c0 6e 65 bb b9 5b b5 ba d1 40 3c 38 51 8c ea ba
       -0.003500864 -0.001383654 4.4883058e-05 -0.0017894601
000160 ea 0b 0a 38 1a 23 99 ba aa 6d 5d 3c 24 df d1 bc
       3.291286e-05 -0.0011683435 0.0135149155 -0.025619097
000170 28 58 6f bc 87 21 4f 3c 22 8f 0a bd 25 f5 a6 bc
       -0.01460842 0.012642271 -0.03382791 -0.020380566
000180 59 c8 a0 ba 2f 33 38 3b 74 3d 4f 3a 22 bd 11 bb
       -0.001226674 0.002810668 0.00079055806 -0.0022237976
000190 aa 1a 6f 3b 46 3f 35 3c 47 98 19 bc e2 ef d0 3c
       0.00364844 0.011062449 -0.009374685 0.02550501
0001a0 62 d1 13 3c 3c 3d de ba c5 ad 84 3c 91 66 be bb
       0.009022089 -0.0016955505 0.016196141 -0.0058105667
0001b0 2e 5d 52 bc 47 e1 d4 3c a4 22 09 3c 55 c4 46 3c
       -0.012839599 0.025986327 0.008370075 0.01213177
0001c0 6e 40 c4 bc d9 b9 43 bc 8d 1f 80 bb 24 e1 00 3c
       -0.023956504 -0.011946165 -0.003910011 0.007866178
0001d0 e2 8b 38 bb d2 37 31 3d d9 4c a4 3c 23 6d 05 3c
       -0.0028159549 0.043266125 0.020056175 0.008143696
0001e0 7f f2 83 3a 09 1d d8 bb 55 1f 33 bc 02 b6 e7 3a
       0.0010066776 -0.006595258 -0.010932763 0.0017678144
0001f0 24 3b 8d 38 e6 ab 18 3b 12 53 72 3b ac 24 a4 3a
       6.73442e-05 0.0023295819 0.0036975783 0.0012523136
000200 e8 5b 8a 39 ff 51 72 bc b0 96 01 3d 43 25 99 3c
       0.00026389887 -0.014790057 0.031637847 0.018694526
000210 35 12 90 bc 2c 23 d5 3c 1b 96 41 3c 34 d5 05 3c
       -0.017586807 0.026017748 0.011815573 0.008168507
000220 f4 ea c2 bc d5 00 b9 bb 10 c0 6e bc 8b 96 fb 3c
       -0.023793675 -0.005645851 -0.014572158 0.030711433
000230 ed 0f 8a 3c d4 37 12 3c 6f dc c1 3c 41 50 9a 3c
       0.016853297 0.008924443 0.023664681 0.018837096
000240 82 8f 6e bc 54 6f 06 bd 93 84 d1 bc a6 29 57 bc
       -0.014560582 -0.032821015 -0.025575912 -0.013132488
000250 bd 0b ce 3c a5 56 68 3c 62 f1 44 3b 16 80 d0 3a
       0.025152082 0.014180814 0.0030051102 0.0015907313
000260 af f2 3b 3a cf e6 29 3b 64 88 f9 bb aa 08 3f 3b
       0.00071696466 0.0025924926 -0.007615136 0.0029149451
000270 b4 e9 07 3c bf 1d 92 bc c1 1f 40 bb 77 24 ab bb
       0.008295465 -0.01783645 -0.0029315802 -0.005222853
000280 f8 69 f8 bc d2 5f 31 bc 3d 2f 15 3a 50 a5 93 3a
       -0.030323967 -0.010826068 0.0005690938 0.0011264477
000290 31 15 43 bb f7 e2 d7 3c e8 6d da 3c a0 95 af 3c
       -0.002976727 0.026353342 0.026663736 0.021433651
0002a0 4b 3a 19 bb ee df a8 3b 02 d3 8d ba bb 3c 1e bc
       -0.0023380693 0.0051536476 -0.0010820332 -0.009658034
0002b0 c7 1d fc bc 83 8f 64 bc b2 d4 f1 ba 7f 17 3e bc
       -0.030775918 -0.0139502315 -0.0018450229 -0.011602282
0002c0 18 19 7d 3b ea 9b 08 bc 07 bc 95 bb b7 12 40 3b
       0.0038619693 -0.008337954 -0.0045695337 0.002930803
0002d0 34 9c 67 bc 28 b9 eb 3c 17 6f 57 3c f5 f5 15 3b
       -0.014136363 0.028774813 0.0131490445 0.0022882198
0002e0 ba 36 b6 bc ca 02 0a 3b ea e5 5c bc 3f 00 da 3c
       -0.022242893 0.0021058791 -0.01348255 0.026611445
0002f0 17 df 88 3c 8e e5 6f 3a 5c 62 96 3c b0 13 7d 3c
       0.01670794 0.0009151333 0.018357448 0.015446588

mlp_extractor.policy_net.0.bias f4 [64]
000000 20 dc 3e 3c de ae c8 bb fa 18 aa 3b a8 1e 4e 3c
       0.011649162 -0.0061243614 0.0051909657 0.012580551
000010 b7 57 5b ba 46 ed 86 bb 8c 40 08 3c 5a 8a 1a 37
       -0.00083672575 -0.0041176407 0.00831617 9.211328e-06
000020 4a 7f 22 bc 49 61 ad 3c 88 a0 13 3c dc 0b 96 3c
       -0.009918043 0.021164553 0.009010442 0.018316202
000030 af a0 ab b8 eb 61 5a 3b 67 42 51 3b e5 ea 8f bc
       -8.183845e-05 0.0033322524 0.0031930448 -0.017568061
000040 13 22 4b 3b 0a 4d 06 3b 39 80 0b 3c fa 4e 4d ba
       0.0030995652 0.0020492696 0.008514457 -0.0007831898
000050 be ad e9 3b 71 0a b6 3b c3 3a 48 bb 4f 2a 8c 3c
       0.0071313074 0.005555444 -0.0030552603 0.017110018
000060 27 5e cc 3b 90 a1 12 3c bd bf 04 3c ae d8 0c 3c
       0.00623681 0.008949652 0.008102355 0.008596582
000070 2a 62 88 3b 02 2f 5d 3b e9 ab 1f bc 35 28 95 ba
       0.0041620927 0.0033749943 -0.009745576 -0.001137978
000080 07 4c 3c 3c 6b c9 dc 3c b6 c7 4d 3c a5 e8 f8 bb
       0.011492736 0.026951512 0.012559822 -0.0075960928
000090 56 fe 1c ba 38 96 2a bc 7d df ed 3b 0b b1 63 bc
       -0.0005988827 -0.0104117915 0.007259308 -0.013897191
0000a0 3e 9b f1 bc 9f 91 ef b9 da 77 1d bb 9e e6 37 bb
       -0.02949297 -0.00045694128 -0.0024027736 -0.0028061043
0000b0 20 7a 45 3a a2 e4 32 bc 07 49 28 bb 15 55 fa 3b
       0.00075331517 -0.010918768 -0.0025678293 0.007639537
0000c0 f6 99 e0 3b 69 61 1b 3c 50 03 cc ba 4f cd e7 bb
       0.006854291 0.009483674 -0.0015564952 -0.0070740352
0000d0 4f 99 56 bc b3 85 52 bc 56 94 61 3a d0 aa 57 ba
       -0.013098075 -0.012849259 0.00086051726 -0.0008227052
0000e0 f4 31 28 3c fa c4 31 bc 72 81 05 bc 1c 0b 10 ba
       0.010265816 -0.0108501855 -0.008148538 -0.00054948195
0000f0 bc 1b 18 bb 74 9c 8f 3b bf d6 01 3c d1 7b 22 3d
       -0.002320989 0.0043826643 0.007924735 0.03966886

mlp_extractor.policy_net.2.weight f4 [64, 64]
000000 0d 7f 85 3b 3f 1e 36 bb 75 80 15 bb 28 a3 38 bb
       0.0040739835 -0.0027789024 -0.0022812162 -0.002817342
000010 fb 17 d0 bc 7a b3 aa 3c 83 fd a7 3c b8 05 ac bc
       -0.02540206 0.020837534 0.020506626 -0.02099882
000020 e6 36 d5 3b 4a be f9 bc 55 2b b5 bc 40 f5 1f bc
       0.0065067885 -0.030486245 -0.022115389 -0.009763062
000030 65 f7 f5 3b a7 5c a0 ba 92 68 b5 3c 3e 48 07 3c
       0.0075062984 -0.0012234644 0.02214459 0.00825697
000040 71 06 97 3c 9a 79 33 bc eb 04 5b bc 67 5b c6 bc
       0.018435689 -0.010954285 -0.013367872 -0.024213506
000050 a2 8c 15 3c ff 14 c2 3c 55 14 93 3a 04 ab 3c b9
       0.009127768 0.023691652 0.0011221269 -0.00017992785
000060 50 0d 87 bb c4 0a 2b 3c 6c 2d 8b bc a3 9b b0 3b
       -0.00412146 0.010439578 -0.016989432 0.005389647
000070 fa 2c 04 bb fa 4a b2 38 f2 f2 78 3c 9e c8 a1 3c
       -0.002016841 8.501667e-05 0.015194641 0.019748982
000080 3f 84 1c bb ae c8 e6 bc a4 c2 07 bc 76 18 a1 3c
       -0.0023882536 -0.028171863 -0.008286152 0.019664984
000090 96 e0 d7 bb 66 d2 1b 3c 61 6b b7 3b eb cd 8f 3b
       -0.006588052 0.009510612 0.0055975174 0.004388561
0000a0 4c 00 db 3c cb f9 11 bb 78 4c ea 3a 7c 5d a9 bc
       0.02673354 -0.0022274132 0.0017875573 -0.02067446
0000b0 23 0b 66 bc 4d 1d a8 b9 01 c2 95 bc df 1c 79 bc
       -0.014040741 -0.00032065288 -0.018280985 -0.015204637
0000c0 9c 49 b8 3c 4b 23 5a bc 50 45 2e 3a ec 7c bc bb
       0.022496037 -0.013314079 0.00066479016 -0.0057521965
0000d0 97 ed c9 ba 23 df 17 3c 50 47 79 3b 31 b2 90 bc
       -0.001540589 0.0092695085 0.003803689 -0.017663093
0000e0 0a 16 3d 39 5d b0 4b 3c c2 1b 1e bc 7f 45 de bb
       0.00018032655 0.012432185 -0.009650173 -0.006783187
0000f0 e4 42 60 bc a2 15 6b bc 8c ab 8b bc 0c 36 e3 bc
       -0.013687823 -0.014348419 -0.017049573 -0.027735732
000100 03 ee e9 3b 3d bb 08 bc 64 37 72 39 b6 49 ce 3b
       0.007138969 -0.008345422 0.00023099553 0.006295408
000110 00 e5 54 ba b4 01 4f 3a ef 8d 66 3a 60 8f 8f 3a
       -0.0008121282 0.0007896677 0.00087949535 0.0010952763
000120 32 65 07 bc dd e9 1c bc f0 b8 3d bc e9 26 19 bb
       -0.008263873 -0.009577242 -0.011579737 -0.002336914
000130 93 48 17 3c 6c 08 1c 3a cc 76 2d bb a0 d9 97 3a
       0.009233612 0.00059521827 -0.0026468514 0.0011585243
000140 e2 37 ad bb 51 bd 7a bb 65 58 68 3b fc 42 23 bb
       -0.0052862028 -0.0038259814 0.0035453078 -0.0024911752
000150 07 2e fa 3b d3 5f af 3a 63 ef 23 ba 3e a4 5a 3b
       0.0076348814 0.0013379998 -0.0006253628 0.0033362056
000160 4e dd 1d ba 0e 1d 15 3c ec 4c 8c 3a ba ed d2 3b
       -0.00060220517 0.009101165 0.0010704077 0.0064370306
000170 ab 7a 7d 39 0e ce b4 3a 50 4c 5e bb aa d4 b9 ba
       0.00024173658 0.0013794319 -0.0033919998 -0.0014177759
000180 e0 77 6e 3a 0f 44 0f bc 87 60 01 3c a8 77 3f 3c
       0.0009096842 -0.008744254 0.007896549 0.011686243
000190 29 9b 1c 3c 7d 0b 96 bb df ba c9 3b fe 56 51 3a
       0.009558477 -0.004579006 0.00615631 0.000798568
0001a0 a3 ee 0a 3c 8b 5e 2f bb 94 37 ba b9 1e 6e 84 3b
       0.008479747 -0.0026759233 -0.00035518094 0.0040414473
0001b0 65 df e4 3b a1 82 0d bc eb 06 ad 3b 42 98 a3 3a
       0.0069846385 -0.008637101 0.0052803657 0.001248129
0001c0 45 dc e2 3a a1 5b 68 3b 64 ee 3d ba 9c c6 c1 bb
       0.0017308077 0.0035455006 -0.0007245301 -0.0059135687
0001d0 72 9b ea bb b1 6d aa bb 46 4c 64 3b d5 4a ec ba
       -0.007159644 -0.0052010645 0.0034835502 -0.0018027673
0001e0 01 d9 40 3b 3c 7c 3f bb 3c f5 07 bc 92 8a 61 bb
       0.002942622 -0.0029218337 -0.0082982145 -0.003441487
0001f0 0b fe f7 3b ff 7a 1c bc 55 68 13 3b be 87 17 bc
       0.007568126 -0.009550809 0.0022492607 -0.009248672
000200 cb cb 4d bb 8c ba 7e 3b a1 10 d7 b9 27 89 70 bb
       -0.0031401988 0.0038868515 -0.00041020385 -0.0036702843
000210 6e 51 c6 bb ca e1 85 3b 11 ab c0 3a bc 61 f3 bb
       -0.0060521876 0.004085754 0.0014699419 -0.0074274223
000220 1e e3 02 3c 26 fe 54 3b 65 27 84 3b e9 97 61 ba
       0.007988719 0.0032500117 0.0040330165 -0.0008605705
000230 33 1b 7c bb cb 20 08 ba 2e cb e6 3b ad 80 ad 3a
       -0.003846836 -0.0005192875 0.007043264 0.0013237201
000240 74 48 d6 3b 74 99 8b 3a 56 eb fb bb 12 27 86 bb
       0.006539399 0.0010650591 -0.0076879663 -0.004094013
000250 10 ab 38 bb b0 23 26 3b 0c 61 09 3a 9d ab e3 ba
       -0.0028178133 0.0025350861 0.00052405964 -0.001736987
000260 e5 18 07 b9 56 ae 54 bb 93 9d 7c bb 75 88 2f bb
       -0.00012883877 -0.0032452545 -0.003854607 -0.0026784216
000270 da c2 d2 b9 e3 01 51 ba ab 35 a3 3b 8f 84 f2 3b
       -0.00040199497 -0.00079729984 0.004980763 0.007401056
000280 2e af 3c ba 31 8f 28 3b 50 49 ce bb 3e 2f 87 bb
       -0.00071977347 0.0025720114 -0.0062953606 -0.0041255048
000290 e7 39 b1 bb a8 23 89 3b 3e 3e 27 bb 05 ec 97 3a
       -0.005408514 0.0041851588 -0.0025519277 0.0011590725
0002a0 0b 77 13 bb 22 de a2 3a 0a 7c d5 39 a4 0a e1 bb
       -0.0022501375 0.001242582 0.00040718942 -0.0068677235
0002b0 1f f1 b6 bb 59 df 93 3b 81 9e d4 bb b3 86 05 bb
       -0.005582943 0.004512709 -0.0064886217 -0.0020374476
0002c0 da ab 30 3b ae 48 95 bb 57 2c 09 3a e3 ba 22 3b
       0.00269579 -0.0045557832 0.00052327424 0.0024830631
0002d0 1b 95 5e 3b a6 ff 82 3b 48 a0 c6 ba 1e 33 ca b8
       0.0033963386 0.003997761 -0.0015153969 -9.641632e-05
0002e0 6b 56 d4 ba d6 1b 40 3b 42 c4 45 3b 07 b7 9d 3a
       -0.0016200071 0.0029313467 0.0030176793 0.0012032696
0002f0 0c f3 c1 bb 4f 09 6b 3b 92 44 a0 bb 5a d4 aa 3a
       -0.005918866 0.0035863703 -0.0048909867 0.0013033256
000300 ce 1f 54 3b 52 ac a0 bb 00 67 3c b9 9b 76 3e 3b
       0.003236759 -0.0049033547 -0.00017967448 0.0029062394
000310 62 36 dc 39 93 4a 35 3a f9 e4 3f 3a 57 2d 51 3b
       0.00042002188 0.00069157145 0.00073201914 0.0031917894
000320 58 07 c2 bb df 19 b9 bb df df cb bb 7b 9c 63 bb
       -0.0059212856 -0.005648836 -0.006221756 -0.003473072
000330 58 1c ca 3b 51 3c 1d 39 0b fa 65 bb 51 89 6e 3b
       0.0061679296 0.00014995156 -0.0035091664 0.0036397765
000340 98 78 90 bb 93 e1 17 bb 1a 73 8e 3b c5 af 9a ba
       -0.004408907 -0.0023175224 0.0043472173 -0.0011801651
000350 65 87 5d 3b 76 5a 7c 3a 9f 52 3f b9 bc ed 35 3a
       0.0033802625 0.0009626517 -0.00018245958 0.0006940027
000360 10 bf 46 ba 63 70 82 3b a1 f9 d9 b8 83 d5 42 3b
       -0.0007581571 0.0039806827 -0.00010393863 0.0029729314
000370 b9 a5 d3 b8 2b e0 17 3a 3c 18 fe ba 5e e0 5b bb
       -0.00010092132 0.00057935965 -0.0019385885 -0.0033550481
000380 0b 36 7e b9 51 e4 aa bb d1 ce b3 3b 98 25 c9 3b
       -0.0002424346 -0.0052152057 0.005487301 0.0061385147
000390 4d f4 b2 3b 7f 6e 08 bb cb a1 3c 3b 21 8c 2a 3b
       0.005461252 -0.0020817814 0.002878296 0.0026023465
0003a0 d8 9b a5 3b 63 0b aa ba c5 79 82 b8 6e 53 82 3b
       0.0050539784 -0.0012973364 -6.2215644e-05 0.0039772308
0003b0 c3 01 65 3b fb 1e ab bb 56 e1 8e 3b a4 ec 6e ba
       0.0034943677 -0.005222199 0.004360358 -0.00091142417
0003c0 be 6b 81 3a e0 a4 dd 3a 00 b4 a5 b9 ff 8f 36 bb
       0.0009874029 0.0016910098 -0.00031605363 -0.0027856824
0003d0 73 b6 5b bb 02 6f 3d bb cb 42 d4 3a 28 ad a3 ba
       -0.0033525496 -0.0028905277 0.0016194222 -0.0012487518
0003e0 09 00 81 3a 62 be 92 ba 1f c2 72 bb 1f fc b6 ba
       0.000984193 -0.0011195655 -0.0037041975 -0.0013960636
0003f0 f3 eb a6 3b 23 b7 d9 bb 4a c8 9d 3a c9 ab b0 bb
       0.0050940453 -0.006644146 0.001203784 -0.005391572

mlp_extractor.policy_net.2.bias f4 [64]
000000 a4 05 63 3c 41 a1 70 3b 4a 62 1e bb 50 80 29 3b
       0.013856325 0.0036717209 -0.0024167472 0.0025863834
000010 45 67 19 3b ec aa 21 3c 0c a2 d8 3c 77 4c 33 3c
       0.00234075 0.009867411 0.026444457 0.010943524
000020 78 47 69 3b 94 ff 4b 3b a8 3f 3a 3b 0a 16 5a 3b
       0.0035595577 0.0031127678 0.002841929 0.0033277296
000030 f3 48 14 3b c7 ee 2f bb d7 73 d6 3a e7 4b 5f 3b
       0.002262649 -0.0026845203 0.0016361427 0.003407234
000040 fa fc 5c bb 16 5d af 3b b7 2f 79 bb 0a e7 39 bb
       -0.0033720122 0.005351673 -0.0038022825 -0.002836647
000050 2a da 84 3b bb 7b d5 ba 49 fb 7f 3b 22 5a 19 3b
       0.0040543275 -0.0016287485 0.003905969 0.002339967
000060 db 21 9c bb 02 6b 8d bb 13 1c 3f 3c 4e e5 27 3c
       -0.004764778 -0.004315735 0.011664408 0.010247542
000070 7d 9f b8 3b d0 94 44 bb 2b 84 99 3b 1b 78 42 bb
       0.005634247 -0.0029995926 0.004684945 -0.002967364
000080 94 d7 6f ba b1 dc 55 3b 44 21 20 3b 52 33 8e 3a
       -0.000914925 0.0032632763 0.002443389 0.0010849035
000090 32 ee 53 bc d7 08 3f 3b dd dd 2f 3c a9 29 17 3b
       -0.012935208 0.0029149556 0.010734049 0.0023065603
0000a0 8d 8b 6d bb 08 ae db ba 90 ed 67 bb 95 1b ed ba
       -0.0036246509 -0.0016760239 -0.00353894 -0.0018089885
0000b0 43 f1 2b bb 91 9e 5e bb 47 a6 46 bb 25 b9 1b 3b
       -0.0026236332 -0.0033969025 -0.0030311511 0.0023761478
0000c0 20 9f 57 bc 24 85 cd 3a d6 87 1f 3c 04 04 88 3a
       -0.013160497 0.0015679938 0.009736976 0.0010377173
0000d0 34 c2 58 bb 5a 2e 02 bd 61 94 1d 3b 34 e6 af 3b
       -0.0033074738 -0.031782486 0.002404474 0.0053680185
0000e0 d8 8b b7 bb 48 36 80 3b ef ef 0c bb 0c aa c2 bc
       -0.0056013875 0.003912721 -0.0021505316 -0.023762725
0000f0 1b 58 1e 3b 60 ec 5e 3c b1 7d 26 3b 15 7a a7 3b
       0.0024161402 0.013606161 0.0025404508 0.005110989

mlp_extractor.value_net.0.weight f4 [64, 3]
000000 21 bc 71 be b9 c9 c2 3e 0f 07 a1 3e 75 a9 5d be
       -0.23606922 0.38044527 0.31450698 -0.21646674
000010 de a5 98 3d 7d fb c1 be b0 5b 7f bd 92 1e af bd
       0.07453512 -0.37887183 -0.0623433 -0.08550753
000020 cc 5f 61 3d e4 c8 e6 be df 04 2e 3d 75 9a 6f 3e
       0.055023 -0.45075142 0.042485114 0.23398764
000030 03 58 c6 bd 37 96 c6 3e 9d e9 17 3e 91 36 ae 3d
       -0.09684756 0.3878648 0.1483521 0.085065015
000040 a2 40 46 3e e8 ca a5 bb 3a 21 e9 3d 8d 12 34 be
       0.19360593 -0.0050595887 0.113832906 -0.17585202
000050 76 a7 6a 3e c8 ec 30 be 08 91 32 be c5 84 1a be
       0.22915444 -0.17277825 -0.17438138 -0.1508971
000060 d2 70 19 be 96 18 b2 bd 6d 0b 61 3e 39 05 02 3e
       -0.14984444 -0.08696096 0.21977015 0.12697305
000070 f0 1c 0a be cb 24 b5 3d 19 aa 59 3e e9 eb 73 3d
       -0.13487601 0.08844908 0.21256293 0.059551153
000080 8f 58 ad 3d 90 b3 fe bd 4a af 16 be ab 12 ad be
       0.08464157 -0.124365926 -0.14715305 -0.33803305
000090 d0 74 a4 bc 6b be 20 3e 78 8f d1 be 8a d8 89 3d
       -0.020075232 0.15697639 -0.4092977 0.06730755
0000a0 3a e4 09 3e cc 87 19 3d 34 59 31 be 72 40 f2 3d
       0.13465968 0.03748302 -0.17319185 0.11828698
0000b0 4b 54 5e 3e de 15 68 3e 6c 81 cd bb 99 a3 bb bd
       0.21711843 0.22664592 -0.006271532 -0.09162063
0000c0 ff 7f 40 3e 0c 08 45 be 86 b7 d5 bd 59 b5 86 be
       0.18798827 -0.19241351 -0.10435395 -0.26310232
0000d0 5c f5 dc bd a3 87 f7 3c 26 fc 17 be a4 24 2c 3e
       -0.10788986 0.030216044 -0.14842281 0.16810852
0000e0 49 28 81 bd f4 f0 c0 3e ab df 90 3d 26 35 9f 3e
       -0.06306512 0.37683833 0.07073911 0.31095237
0000f0 68 c9 81 bd 4a 46 af 3e 2e 7b a2 3d d6 67 02 3f
       -0.06337243 0.34233314 0.07933651 0.5093969
000100 f6 69 9d 3e df 15 0a be fd 02 16 3e 9f 8c 7c 3b
       0.30744904 -0.13484906 0.14649577 0.0038535965
000110 11 63 19 3d 5b 74 41 bd dc 30 84 bd 4a ae 5a 3d
       0.037447993 -0.047230106 -0.06454632 0.05338887
000120 f0 1d 19 3e d1 c3 a8 be b2 81 63 3e 16 4f 38 be
       0.14952826 -0.32961896 0.22217444 -0.17998919
000130 5e 21 bf bd 42 a0 01 3d f7 04 56 bd ee 66 af bd
       -0.09332536 0.031646974 -0.05225083 -0.08564554
000140 aa fe 90 3d 6d 0c 93 be c7 ef 76 be 84 68 86 be
       0.07079823 -0.28720418 -0.24114905 -0.26251614
000150 45 dd 2d bc 73 80 7d 3e a0 1a c2 3d 05 9d 33 be
       -0.010611837 0.2475603 0.094777346 -0.17540367
000160 23 37 35 bd f9 32 72 be 1e 75 e4 be 77 e0 91 3e
       -0.044242036 -0.23652257 -0.44620603 0.28491566
000170 e8 b4 e8 3d c7 0b 1f be 89 47 d4 3c 89 3d f8 bd
       0.1136263 -0.15531836 0.025913017 -0.12121112
000180 a1 81 79 bd fa a8 15 3e 18 01 70 bc 44 e5 d0 3d
       -0.06091464 0.1461524 -0.014648698 0.10199979
000190 18 d4 bd bd 7d 73 4a be 15 7a 15 3d 72 3a 12 3d
       -0.09268969 -0.19770618 0.03649338 0.03570027
0001a0 b6 46 33 3e b3 16 b0 3c c1 f7 97 bc 01 0d 0a 3d
       0.17507443 0.021495199 -0.018550755 0.033703808
0001b0 65 ee 35 3d a6 5a c8 3d 39 55 80 3e 67 82 17 bd
       0.044416804 0.09782915 0.2506502 -0.036989596
0001c0 19 f2 80 be cd 63 ba 3e fe 31 94 be 57 1d 17 be
       -0.25184706 0.36404267 -0.2894439 -0.14757286
0001d0 51 98 79 3e ba f3 66 3e 5d 46 33 3e 11 7b e8 bd
       0.2437451 0.22553912 0.1750731 -0.11351598
0001e0 1c 9d 94 bd bd f5 fa 3b ce 1c f2 3d a4 b7 32 3d
       -0.07256529 0.007658689 0.118219 0.043632165
0001f0 66 b0 55 3e 45 fa ae be 87 2b 69 3d 2f 5a 37 3e
       0.20868072 -0.34175315 0.056926277 0.17905496
000200 52 8e 9e 3d f1 82 dd bd 8f f2 69 3e 9a 02 f8 3d
       0.07741989 -0.10815991 0.22846435 0.12109871
000210 d8 af 09 bd 8c d4 0f 3d 83 3e 39 3d 83 26 bf 3d
       -0.033614963 0.03511481 0.04522563 0.093335174
000220 30 75 8f 3e 15 72 08 3e 40 3f a7 bd f6 79 0d be
       0.28019094 0.13324769 -0.08166361 -0.13816056
000230 62 c0 f0 3b d9 9c 9f 3d aa 5b 17 3e a7 1f 37 bd
       0.0073471526 0.07793588 0.14781061 -0.04470792
000240 7d 8a 0d 3e 1f cf db 3d 32 08 c1 3d 13 f8 e7 3d
       0.1382236 0.107328646 0.09425391 0.11326613
000250 2b cd 6b be b1 11 0a be 93 d1 f7 3d 84 73 6a 3c
       -0.23027484 -0.13483311 0.1210052 0.014309768
000260 e8 a0 22 3e 93 9a 37 3e 26 b8 cf 3c c9 9d 50 bd
       0.15881693 0.17930059 0.025356364 -0.050931726
000270 f5 38 ec bd 8b ed b7 bd dd d7 e5 bd 7d 5d f5 bd
       -0.11534301 -0.089808546 -0.11222813 -0.11980722
000280 22 fd 0c be ec 4a 97 3e 18 ed 3e 3e 79 ed 3c 3d
       -0.13768438 0.29549348 0.18645132 0.04612491
000290 0b 61 33 3e cc 6a e3 3c 31 44 b1 3d 81 9d 4b be
       0.17517488 0.027760886 0.086555846 -0.19884302
0002a0 de dc ea bd 08 ba 4a be f2 e3 6c 3d 76 9a a3 3b
       -0.11467908 -0.19797528 0.057834573 0.0049927784
0002b0 61 0b 9e 3e 6c 78 45 3d 33 40 8a bb 86 32 f2 3b
       0.30868056 0.048210546 -0.004219079 0.007391277
0002c0 80 79 2e be ea 57 4c 3e 5c 39 4f be f0 8d fa 3d
       -0.17038536 0.19955412 -0.20236725 0.12234104
0002d0 44 11 62 3e 05 ec 32 be 6e 80 85 bb 70 b8 46 bd
       0.22076899 -0.17472847 -0.004074148 -0.048515737
0002e0 eb e5 90 3e 7b 67 37 be 00 63 34 3e d2 5f e4 3d
       0.28300413 -0.17910568 0.1761589 0.11151089
0002f0 4a 1c c9 3d 75 69 10 3e f7 d3 68 be 44 06 f2 3d
       0.09819849 0.14102729 -0.22737108 0.11817601

mlp_extractor.value_net.0.bias f4 [64]
000000 00 00 00 00 00 00 00 00 00 00 00 00 00 00 00 00
       0.0 0.0 0.0 0.0
000010 00 00 00 00 00 00 00 00 00 00 00 00 00 00 00 00
       0.0 0.0 0.0 0.0
000020 00 00 00 00 00 00 00 00 00 00 00 00 00 00 00 00
       0.0 0.0 0.0 0.0
000030 00 00 00 00 00 00 00 00 00 00 00 00 00 00 00 00
       0.0 0.0 0.0 0.0
000040 00 00 00 00 00 00 00 00 00 00 00 00 00 00 00 00
       0.0 0.0 0.0 0.0
000050 00 00 00 00 00 00 00 00 00 00 00 00 00 00 00 00
       0.0 0.0 0.0 0.0
000060 00 00 00 00 00 00 00 00 00 00 00 00 00 00 00 00
       0.0 0.0 0.0 0.0
000070 00 00 00 00 00 00 00 00 00 00 00 00 00 00 00 00
       0.0 0.0 0.0 0.0
000080 00 00 00 00 00 00 00 00 00 00 00 00 00 00 00 00
       0.0 0.0 0.0 0.0
000090 00 00 00 00 00 00 00 00 00 00 00 00 00 00 00 00
       0.0 0.0 0.0 0.0
0000a0 00 00 00 00 00 00 00 00 00 00 00 00 00 00 00 00
       0.0 0.0 0.0 0.0
0000b0 00 00 00 00 00 00 00 00 00 00 00 00 00 00 00 00
       0.0 0.0 0.0 0.0
0000c0 00 00 00 00 00 00 00 00 00 00 00 00 00 00 00 00
       0.0 0.0 0.0 0.0
0000d0 00 00 00 00 00 00 00 00 00 00 00 00 00 00 00 00
       0.0 0.0 0.0 0.0
0000e0 00 00 00 00 00 00 00 00 00 00 00 00 00 00 00 00
       0.0 0.0 0.0 0.0
0000f0 00 00 00 00 00 00 00 00 00 00 00 00 00 00 00 00
       0.0 0.0 0.0 0.0

mlp_extractor.value_net.2.weight f4 [64, 64]
000000 87 b6 6f be 3c 07 57 bd 07 3e 93 bd 0c 75 23 3e
       -0.23409472 -0.052497134 -0.07189565 0.15962619
000010 9c 96 c9 3e a0 70 90 bd df 86 e1 3c 2d 50 98 bd
       0.39372718 -0.070527315 0.027530132 -0.07437167
000020 d0 60 b8 be cf 71 72 be 6b 18 dd 3c 6c ea 75 bc
       -0.36011362 -0.23676227 0.026989182 -0.015009504
000030 c9 b3 bc bd 14 8d 9a be 83 ff 04 3d d5 12 e0 3d
       -0.09213979 -0.3018576 0.032470237 0.10941092
000040 66 55 58 be c4 54 72 3e 9a b4 e6 3c 84 57 80 3d
       -0.21126327 0.23665148 0.02816229 0.06266692
000050 65 7e a5 be 00 63 cb bd 70 cc ac be 50 bd 63 bd
       -0.32322994 -0.09930992 -0.33749723 -0.055600464
000060 30 94 57 3d 59 42 2d be 6b 42 03 be 07 51 3d bc
       0.052631557 -0.16919841 -0.12818305 -0.011554963
000070 86 8d 0e bd 85 10 3f be ab 4c bb 3d 14 30 cb bd
       -0.034802936 -0.18658645 0.09145483 -0.099212795
000080 b1 91 72 3e 53 c0 09 3f a1 de 21 3e df f1 27 3e
       0.2368839 0.5380909 0.15807582 0.1640086
000090 38 ad 1e be 3c a4 00 bd 52 16 92 bd 71 0b 2c 3e
       -0.15495765 -0.031406626 -0.071331635 0.1680124
0000a0 8c 8e 8b 3d ca 05 88 bc 4b 25 90 3e df 4b 17 3e
       0.06814298 -0.016604323 0.28153452 0.14775036
0000b0 32 3a 3e be bc 21 5b 3b c8 86 f0 3d 4a 29 3d 3d
       -0.18576887 0.0033436855 0.117444575 0.046181954
0000c0 ce 7c 09 bd 16 c5 00 bc 29 20 4a 3d 52 9c ce bd
       -0.03356629 -0.007859489 0.049347077 -0.100884095
0000d0 a6 26 06 be a4 70 b4 3c 5c ea 6c be 08 75 0a be
       -0.1310068 0.022026367 -0.23136276 -0.13521206
0000e0 9d 3f e3 bd db 91 8e 3e 7b 39 5a be 07 8b 03 3e
       -0.11096118 0.27845654 -0.2131099 0.12846003
0000f0 82 28 2b 3e 07 ab a1 3d b5 b4 a1 3e ef 18 9f bd
       0.16714671 0.07893949 0.3158318 -0.077684276
000100 11 67 1e be 30 f8 e9 3e 8d e1 11 be 4a 41 47 be
       -0.15469004 0.45697165 -0.14246197 -0.194585
000110 bf 04 60 bc fe f1 ff 3d 70 1b 47 3e dc 6c f1 bd
       -0.013673007 0.12497328 0.1944406 -0.117883414
000120 73 69 78 3e a7 68 de 3e 8a 7e 12 be 36 dc ee bc
       0.24258976 0.43439218 -0.14306083 -0.02915774
000130 97 19 e1 be 78 bc 8a be ec c6 f5 bd f4 fa 84 bd
       -0.43964836 -0.27096915 -0.12000832 -0.06493178
000140 48 a2 31 3e 92 23 c3 3d fe 28 6d 3e d1 da b0 bd
       0.17347062 0.09528269 0.23160169 -0.08635486
000150 fd 1e 83 bd 0e 14 64 be 65 44 61 be bc d5 5d be
       -0.06402395 -0.22273275 -0.21998747 -0.21663564
000160 2c 65 39 3d 01 ac 9b bc 36 25 a7 3d 39 a6 a9 bd
       0.0452625 -0.019002916 0.08161394 -0.082836576
000170 70 ba 7e 3d b3 bf 0e be 42 d9 45 3e f7 56 3d bc
       0.06218952 -0.13940315 0.19321159 -0.011556379
000180 28 06 79 3e ed 96 31 be 13 d2 3e be 55 e3 fa 3d
       0.24318755 -0.1734273 -0.18634824 0.122503914
000190 c4 13 33 bc f8 d1 c3 bd 2c c7 4f 3d 84 23 23 be
       -0.010930005 -0.09561533 0.050727054 -0.15931517
0001a0 d5 27 e6 bd 89 69 6f be c8 4b 9c be d9 21 14 3e
       -0.11238066 -0.23380102 -0.30526567 0.14466037
0001b0 0f 3d 9f 3e 62 9a 43 bb e3 49 e5 bc 24 41 b8 bd
       0.31101272 -0.0029846658 -0.027989333 -0.089967996
0001c0 b4 2a 74 3d 4c b2 cc bd fa 20 f9 3d 67 96 ed bd
       0.059611037 -0.09994945 0.12164493 -0.116009526
0001d0 10 22 a6 3d 23 e9 e2 bd ef 16 b0 3d 61 f5 79 3c
       0.08111966 -0.110796236 0.08598124 0.015256257
0001e0 11 68 6f 3e f7 72 b3 3d b4 2c 51 be 40 3a e1 3b
       0.23379542 0.08762162 -0.20427209 0.006873399
0001f0 8e 0f b5 3d e0 c2 69 3e ec 3b 81 3e 90 89 3e bd
       0.088408574 0.22828245 0.2524103 -0.04651791
000200 89 5c d2 be ac 22 4b be 5f d1 a4 be a1 ee 7c 3e
       -0.41086224 -0.19837445 -0.32190987 0.24700405
000210 3f 54 0a be 9a 42 7a 3e 19 54 1d 3d c6 b4 fc bd
       -0.135087 0.24439469 0.03841028 -0.12339167
000220 25 86 21 3d 1f 53 bb 3c e4 0b 7c bd 2c 63 86 3d
       0.03943457 0.022866784 -0.061534777 0.06561884
000230 8e 0c 94 3e 2d c4 28 3e 25 fb f8 3b 86 3f c6 3d
       0.28915828 0.16481085 0.007598298 0.09680085
000240 4d ad 01 bd 91 37 71 3e 1d 70 1f 3e f9 24 c0 bd
       -0.031659413 0.23556353 0.15570112 -0.09382052
000250 95 39 aa be d9 44 8e 3e d0 f1 11 be a1 d8 49 3b
       -0.33247057 0.27786902 -0.142524 0.0030799287
000260 8f 89 4d be ef 0a 07 3d dd e0 43 3e 23 fb fe 3d
       -0.20072006 0.03296941 0.19128747 0.12450244
000270 0b 2f 8d 3e 0a 42 58 3e 63 81 a9 bb 71 22 09 bc
       0.27574953 0.21118942 -0.005172895 -0.008370028
000280 14 07 8e be 81 b2 56 3d 6a 5b 08 3e be cd ce be
       -0.27739775 0.05241633 0.13316122 -0.40391344
000290 a4 96 b5 3d f6 2f 2d 3d 70 54 b2 3e c7 66 6f be
       0.08866623 0.042282067 0.34830046 -0.2337905
0002a0 fc 82 49 3d d1 b7 60 be 21 6d 25 be 5c 54 a9 3d
       0.049197182 -0.2194512 -0.1615491 0.082680434
0002b0 be d2 81 3d f8 07 06 3d 16 24 22 3c 71 64 47 be
       0.06339024 0.032722443 0.009896299 -0.19471909
0002c0 34 5e d2 3d da 13 70 3e 5b d9 69 3d b4 71 d0 bd
       0.10271874 0.23445073 0.057092052 -0.10177937
0002d0 9a 90 28 3d 89 d3 a7 3d 78 25 52 3d 90 61 f3 3d
       0.041153528 0.08194644 0.051305264 0.11883843
0002e0 47 17 57 bc be c4 3f 3b 43 46 5c be d9 7d 57 3e
       -0.013128108 0.0029261555 -0.21511178 0.21044101
0002f0 c0 3f 8f 3e a1 47 3b bd 61 15 89 bd 25 aa 46 be
       0.27978325 -0.045722608 -0.06693531 -0.19400842
000300 e7 44 ae 3d 75 e0 b3 3d 39 92 cf bd 91 b9 90 3b
       0.08509236 0.08783046 -0.10135312 0.0044166525
000310 b6 93 aa bd 8f 2a 02 bd dc 3f b6 bb 96 f3 23 3d
       -0.08328955 -0.03177887 -0.005561812 0.040027224
000320 cf 39 b2 bd c8 52 78 3d bd e7 26 bd b1 af 50 3e
       -0.08702432 0.06062582 -0.040748347 0.20379521
000330 07 56 14 3e ed b1 c5 3d 67 4a 07 3e a8 55 ba 3e
       0.14485942 0.09653077 0.13211976 0.36393476
000340 7d 47 8f bc 55 b9 2a bb 51 ed 19 3e 71 a0 4b bc
       -0.017490143 -0.0026050408 0.15031935 -0.012428389
000350 50 07 8f be bd ae c5 3d 93 14 77 3d 91 a7 ac 3e
       -0.27935266 0.09652469 0.060322355 0.33721593
000360 e3 3c 9a 3b 6d 16 70 be 3b 61 3f 3e 96 d2 b4 be
       0.0047069653 -0.23446055 0.18689434 -0.35316914
000370 0e 2b 27 3e f3 d5 25 be f8 72 64 3e 77 26 03 be
       0.16325018 -0.16194896 0.22309482 -0.12807642
000380 a4 b9 8f bd 02 47 90 be 7e 52 8c 3e 81 b2 98 3d
       -0.0701783 -0.28179175 0.27406687 0.07455922
000390 2b de 9f 3e 11 e7 3b be 30 82 84 bb 8e 5b 04 3e
       0.31224188 -0.18349864 -0.00404384 0.1292555
0003a0 5e c0 87 3e c9 c5 06 3e b8 0d cc bd c0 d4 33 be
       0.26513952 0.13161387 -0.09963554 -0.17561626
0003b0 e8 39 83 3d 30 4b c1 be 87 1f 20 3e dc 1c 8c 3d
       0.06407529 -0.37752676 0.15637027 0.06841442
0003c0 37 fc 04 3d a1 5a 28 be a5 20 b9 3d 2d f4 65 3e
       0.032467093 -0.16440822 0.090394296 0.22456427
0003d0 46 39 bc be 3c 48 c2 bd 5c 84 29 3e b9 88 8a bc
       -0.36762446 -0.09486434 0.16554397 -0.016910898
0003e0 27 b4 6e 3d fd fb f5 3d 0b 98 37 be ea 9e 83 bc
       0.058277275 0.120109536 -0.17929094 -0.016066987
0003f0 e1 35 71 be 6d 9e bd bc 4f 47 8a 3e 25 17 ad 3e
       -0.2355571 -0.023146832 0.2700753 0.3380672

mlp_extractor.value_net.2.bias f4 [64]
000000 00 00 00 00 00 00 00 00 00 00 00 00 00 00 00 00
       0.0 0.0 0.0 0.0
000010 00 00 00 00 00 00 00 00 00 00 00 00 00 00 00 00
       0.0 0.0 0.0 0.0
000020 00 00 00 00 00 00 00 00 00 00 00 00 00 00 00 00
       0.0 0.0 0.0 0.0
000030 00 00 00 00 00 00 00 00 00 00 00 00 00 00 00 00
       0.0 0.0 0.0 0.0
000040 00 00 00 00 00 00 00 00 00 00 00 00 00 00 00 00
       0.0 0.0 0.0 0.0
000050 00 00 00 00 00 00 00 00 00 00 00 00 00 00 00 00
       0.0 0.0 0.0 0.0
000060 00 00 00 00 00 00 00 00 00 00 00 00 00 00 00 00
       0.0 0.0 0.0 0.0
000070 00 00 00 00 00 00 00 00 00 00 00 00 00 00 00 00
       0.0 0.0 0.0 0.0
000080 00 00 00 00 00 00 00 00 00 00 00 00 00 00 00 00
       0.0 0.0 0.0 0.0
000090 00 00 00 00 00 00 00 00 00 00 00 00 00 00 00 00
       0.0 0.0 0.0 0.0
0000a0 00 00 00 00 00 00 00 00 00 00 00 00 00 00 00 00
       0.0 0.0 0.0 0.0
0000b0 00 00 00 00 00 00 00 00 00 00 00 00 00 00 00 00
       0.0 0.0 0.0 0.0
0000c0 00 00 00 00 00 00 00 00 00 00 00 00 00 00 00 00
       0.0 0.0 0.0 0.0
0000d0 00 00 00 00 00 00 00 00 00 00 00 00 00 00 00 00
       0.0 0.0 0.0 0.0
0000e0 00 00 00 00 00 00 00 00 00 00 00 00 00 00 00 00
       0.0 0.0 0.0 0.0
0000f0 00 00 00 00 00 00 00 00 00 00 00 00 00 00 00 00
       0.0 0.0 0.0 0.0

action_net.weight f4 [1, 64]
000000 e9 56 d9 bb 7a 7f 98 3b 55 a0 53 bb 47 22 10 3b
       -0.006632675 0.0046538683 -0.003229161 0.0021993087
000010 2e 71 b9 3b 50 f1 20 bb 0a 4d 9a bc ff eb 20 bb
       0.005659244 -0.0024557896 -0.018835563 -0.0024554727
000020 83 3c 05 3c 34 ee c0 3b 92 84 d3 3b 86 e5 aa 3b
       0.008132103 0.005887771 0.0064550126 0.0052153496
000030 02 34 97 3b 89 56 de bb 13 9c fb 3a 80 05 ea 3a
       0.004614354 -0.006785218 0.0019196294 0.0017854422
000040 7a 5f d9 bb 98 cc 22 b8 6a e4 98 bb 36 69 ca bb
       -0.006633696 -3.8814353e-05 -0.004665901 -0.006177093
000050 03 17 18 3b 3b ca fe ba 9e ce 6c bb f7 57 13 3b
       0.0023207075 -0.0019438931 -0.0036133896 0.002248285
000060 e0 b0 0a ba 0a f4 5b bb 9f 37 0d ba 2d d8 74 bc
       -0.00052906387 -0.0033562207 -0.00053870113 -0.014944118
000070 3e be 41 3b 19 d1 cb bb ba 4e 19 3b a4 6b a6 bb
       0.0029562856 -0.0062199947 0.0023392872 -0.0050787497
000080 41 b2 df ba 46 53 d9 3b 9b ab d8 3b 77 f0 ae 3b
       -0.0017066674 0.0066322414 0.006612254 0.0053387242
000090 0e 3e a6 3b 27 e6 d0 3b 41 7e 7b bc e4 e8 cd 3b
       0.0050733155 0.0063750925 -0.0153499255 0.0062838662
0000a0 3e 2b a0 bb 2d bf 36 bb 1c 75 67 bb d5 7d 9f bb
       -0.0048879674 -0.0027884946 -0.0035317605 -0.0048672953
0000b0 1c 98 dd bb 79 aa 8e bb 46 81 ad bb af f6 82 3b
       -0.0067625176 -0.004353818 -0.0052949516 0.003996692
0000c0 6f d0 b2 3b 7f ce 3f 3b 69 9e 06 39 31 7f 92 3b
       0.005456976 0.0029267368 0.00012838248 0.004470729
0000d0 a6 7e e3 bb a6 ef fc 3c 3c 43 d7 3b fd 7b 1f bb
       -0.006942588 0.030875992 0.0065692943 -0.0024335377
0000e0 f9 3a 98 39 6e 80 25 3b 45 0a 8b bb f0 f5 a7 3c
       0.00029035637 0.0025253552 -0.0042431676 0.020503014
0000f0 60 92 83 3b a8 03 32 bc 0f e4 70 3b ac a5 f2 3a
       0.004015252 -0.0108651295 0.0036757027 0.0018512509

value_net.weight f4 [1, 64]
000000 10 fc 81 bd fe 40 0f 3d c1 0a 93 3d 86 37 69 3e
       -0.06346905 0.03497409 0.071797855 0.22775087
000010 0e 4c 45 3e d8 66 18 3e 96 dd da 3d b2 6a 4a bd
       0.19267294 0.14882982 0.106867954 -0.04941816
000020 da 47 43 bd b1 23 2e bd 75 6a 80 3d be 12 43 be
       -0.047675945 -0.042514507 0.06270305 -0.19050118
000030 5e af ba 3c ab b6 3d 3d cc 09 80 3c a6 93 a3 bd
       0.0227887 0.046316784 0.015629672 -0.07987146
000040 73 2d 08 be 24 ea e7 bd fa 9f e4 bc 1b e9 5f 3d
       -0.13298588 -0.11323956 -0.027908314 0.054665666
000050 68 45 a0 bb 6f 0b 9a bd ca 97 c4 3c 44 29 c8 bd
       -0.0048910864 -0.07521712 0.02399816 -0.09773496
000060 0b 92 e6 3c 7d 8f de 3d 27 4c 59 bd c5 2d 4f 3d
       0.02814581 0.10867212 -0.05305114 0.05058076
000070 8c c5 34 be ba c5 54 3e 16 75 20 bd bd 95 c5 3d
       -0.17653483 0.20778552 -0.03917416 0.09647701
000080 ee e3 30 be d4 4d 87 3d e1 47 4f 3c 81 1e 05 3e
       -0.17274448 0.066066414 0.012651415 0.12999918
000090 5f 54 5f bd 3e 14 93 3c 62 b1 af bd 6a 5b 87 3e
       -0.054523822 0.017953988 -0.08578755 0.2643693
0000a0 bf 1d 09 be 16 fc 66 3c b2 21 03 3d 5f 70 a4 be
       -0.13390253 0.014098188 0.032014556 -0.32116982
0000b0 f9 93 ac bd 8e be 06 be 15 c9 54 3e 22 5c 7a 3d
       -0.08426661 -0.13158628 0.20779832 0.06112302
0000c0 90 f7 94 3d 9f 64 ed bd 59 3f 5f be a9 f7 40 3d
       0.07273781 -0.115914576 -0.21801509 0.047111187
0000d0 e9 63 16 bd 8e b5 7f 3e f8 04 e9 3d 92 c1 ee 3d
       -0.036716375 0.24971601 0.11377901 0.11658014
0000e0 f4 a6 bb bd a1 d0 04 be 11 1c d4 3a ff bf 48 3d
       -0.09162703 -0.1297021 0.0016182681 0.049011227
0000f0 30 2d 9f 3d d7 1d 81 3c d0 8d 5f be 33 4f 9b be
       0.07772291 0.015761299 -0.21831441 -0.30333862
