policies/Pendulum/pure_random_ppo.pt (torch, 41335 bytes, 10 tensors)

mlp_extractor.policy_net.0.weight f4 [64, 3]
0.00022179613 -3.106784e-05 0.0011163894 -2.888052e-05 -2.8249944e-05 -1.4354209e-05 -4.8239115e-05 3.2985965e-05
-0.0002846134 0.00014235242 0.00010619115 0.00014505575 -3.4452702e-07 0.00012278647 -2.0983842e-05 -7.688489e-05
3.3680095e-05 -0.00036625483 -0.00013859785 -5.010461e-05 -0.00048295196 -4.233669e-06 -9.620303e-05 0.00066320755
-0.00022936217 -0.000195507 -0.00016409929 6.893823e-05 -2.0915766e-05 0.0002855287 6.424944e-05 -1.3205339e-05
0.00049953477 0.00018328607 0.0001525384 0.0001259739 0.000115216 0.000102022306 0.00027605722 -0.00017440713
-0.00016210525 -7.3130504e-05 -7.060895e-06 -1.7943668e-05 9.3503295e-05 -2.6288578e-06 2.0444577e-06 -1.3165025e-05
-9.7440585e-05 -2.1596705e-05 -0.00031145045 -5.6425033e-05 1.8446503e-05 -0.00034569183 4.4209402e-05 -2.4349632e-05
0.00020388665 -8.8077795e-05 -3.879387e-06 -0.00023989734 1.2043913e-05 2.0562982e-05 2.2184866e-05 -2.3860082e-05
-2.9349343e-05 0.0003163658 -1.7456097e-05 4.5575307e-05 -0.00016276164 -0.00016422504 -0.0001079893 -0.00054810796
-0.00022946883 -0.00023817216 -0.00011883396 8.6413755e-05 1.0730382e-05 0.00030951962 -4.4840137e-05 8.812568e-06
-0.00023198417 -0.0002594442 -0.0002152661 -0.00018375939 -4.11605e-06 1.2622461e-05 -0.00012937772 1.3129431e-05
5.682692e-06 -0.0001288194 -2.331147e-05 6.183116e-05 -0.00020092617 5.0036833e-05 5.7554505e-05 -4.4089902e-05
0.00020015851 0.00017170858 0.00017742369 -4.0545194e-05 6.077348e-05 -0.0006500126 1.534443e-05 -5.4948414e-05
0.00038858928 -8.378682e-06 -1.5475476e-05 6.2302934e-05 -7.417126e-05 -6.996012e-05 -3.8442653e-05 3.5941655e-05
-1.5426866e-05 0.00068048405 3.3625776e-05 -6.0998485e-05 0.00016907151 -0.00018353085 2.9876634e-05 -0.001452585
-0.00013954363 -0.000108045686 -0.00017034227 3.2263154e-06 0.00026913921 4.7216105e-05 -0.00019220093 -0.00017836857
-0.00018283271 2.0401627e-05 -4.9418235e-05 0.00047014095 -3.582245e-05 1.6647185e-05 -2.8055296e-05 -1.0768135e-06
5.719192e-06 -3.091084e-05 0.00020854916 0.00014440076 0.0013499589 -3.550913e-05 -6.607617e-05 3.918903e-05
0.00030404923 0.00034733443 0.0002645135 -6.3274165e-05 3.1913416e-05 -0.00060607545 -8.3441126e-05 -5.381995e-06
-0.0003090371 -3.6642676e-05 4.2762273e-05 -0.00045459426 0.00017076495 0.00014121635 0.00018313692 0.00015654243
0.00012110547 0.00016017126 -3.6661317e-05 5.557695e-05 -0.00022340257 1.5176255e-05 6.5055942e-06 9.256721e-05
-9.320756e-05 1.2298911e-05 -0.0003321279 3.9468654e-05 4.2783344e-05 -0.0001142963 9.44937e-05 -7.964984e-06
0.00032760962 4.8846996e-05 -1.1167157e-05 0.00016299116 5.194228e-06 -1.47023775e-05 8.1636936e-05 0.000113042515
3.7673133e-06 0.00034802448 5.2803567e-05 -2.0305915e-05 0.00013059302 -8.86027e-06 -7.046731e-06 1.3866773e-05
00000000: f291 6839 d74e 02b8 d053 923a 7244 f2b7
00000010: 4bfa ecb7 dcd2 70b7 5b54 4ab8 695a 0a38
00000020: 2a38 95b9 7044 1539 f1b2 de38 1b1a 1839
00000030: 6ff7 b8b4 3ec0 0039 7506 b0b7 433d a1b8
00000040: ba43 0d38 e405 c0b9 9454 11b9 6a27 52b8
00000050: b734 fdb9 f10e 8eb6 9cc0 c9b8 1bdb 2d3a
00000060: f080 70b9 0301 4db9 1112 2cb9 ee92 9038
00000070: 4474 afb7 03b3 9539 a8bd 8638 808c 5db7
00000080: 36f3 023a 7b30 4039 b7f2 1f39 dc17 0439
00000090: 1ea0 f138 cff4 d538 c6bb 9039 0fe1 36b9
000000a0: ccfa 29b9 a45d 99b8 a0ec ecb6 bc85 96b7
000000b0: 3317 c438 6f6b 30b6 8433 0936 5adf 5cb7
000000c0: 0459 ccb8 922a b5b7 2c4a a3b9 eba9 6cb8
000000d0: 90bd 9a37 f93d b5b9 7c6d 3938 7042 ccb7
000000e0: 68ca 5539 68b6 b8b8 ae2b 82b6 f48c 7bb9
000000f0: 3610 4a37 ab7e ac37 a319 ba37 2327 c8b7
00000100: 3c33 f6b7 e6dd a539 af6e 92b7 1d28 3f38
00000110: ffaa 2ab9 d333 2cb9 5078 e2b8 e7ae 0fba
00000120: 929d 70b9 dabd 79b9 7f36 f9b8 0839 b538
00000130: a406 3437 0547 a239 bb12 3cb8 b1d9 1337
00000140: c740 73b9 0306 88b9 0eb9 61b9 89af 40b9
00000150: 9a1c 8ab6 0fc5 5337 91a9 07b9 7a46 5c37
00000160: f4ad be36 b213 07b9 008d c3b7 5aab 8138
00000170: b5af 52b9 a4de 5138 ae66 7138 2ced 38b8
00000180: a4e1 5139 ac0c 3439 cf0a 3a39 120f 2ab8
00000190: 07e7 7e38 9b65 2aba eab7 8037 6978 66b8
000001a0: 92bb cb39 2a92 0cb7 55d1 81b7 a2a8 8238
000001b0: 648c 9bb8 8eb7 92b8 7c3d 21b8 0fc0 1638
000001c0: f168 81b7 8362 323a 6709 0d38 a0d8 7fb8
000001d0: ca48 3139 3072 40b9 959f fa37 aa64 beba
000001e0: 7552 12b9 9696 e2b8 e89d 32b9 ad83 5836
000001f0: 411b 8d39 e809 4638 8b89 49b9 7308 3bb9
00000200: c8b6 3fb9 2924 ab37 6d46 4fb8 407d f639
00000210: 1040 16b8 8fa5 8b37 4a58 ebb7 0887 90b5
00000220: 7ce7 bf36 43a6 01b8 fdad 5a39 496a 1739
00000230: 1bf1 b03a a3ef 14b8 6092 8ab8 e75e 2438
00000240: cc68 9f39 701a b639 67ae 8a39 0fb2 84b8
00000250: c5da 0538 09e1 1eba 1dfd aeb8 fc96 b4b6
00000260: 4206 a2b9 c6b0 19b8 a45b 3338 9c56 eeb9
00000270: 5e0f 3339 7a13 1439 7108 4039 8a25 2439
00000280: 01fa fd38 a5f3 2739 cac4 19b8 4c1b 6938
00000290: 2c41 6ab9 859d 7e37 a14a da36 a420 c238
000002a0: 6e78 c3b8 6c57 4e37 7421 aeb9 258b 2538
000002b0: 4472 3338 5cb2 efb8 eb2a c638 59a1 05b7
000002c0: 05c3 ab39 10e1 4c38 935a 3bb7 9be8 2a39
000002d0: 144a ae36 3baa 76b7 7f34 ab38 3d11 ed38
000002e0: f3d1 7c36 0e77 b639 6679 5d38 9f56 aab7
000002f0: ccef 0839 92a6 14b7 f572 ecb6 56a5 6837

mlp_extractor.policy_net.0.bias f4 [64]
0.00070549885 -2.3145316e-05 -3.7566024e-06 0.00016696242 0.00016990626 -5.0086386e-05 -0.0003871757 0.00020314864
-0.00021611583 1.1188589e-05 0.00030391608 0.00018168244 0.00024104233 -0.000117680815 8.159284e-06 -7.500765e-06
-0.0002590926 -2.9590141e-05 0.000115906776 -1.3548733e-05 3.3931046e-06 0.00012730999 3.788193e-05 -0.00045901947
-0.00013540233 3.661494e-05 -5.3898584e-06 -0.00023419206 -5.4989523e-05 -5.1820396e-05 -8.205123e-05 2.878035e-05
0.00029439572 -0.0002986095 2.8077984e-05 3.0187275e-06 -4.70955e-05 0.00041011843 8.0718266e-05 -0.0010851774
-0.00017789111 0.00022651 -0.00019230638 0.0002022059 -3.5683574e-05 6.691386e-06 0.0013867699 -5.7642114e-06
0.00025471795 -0.0003648432 -0.00027728523 -6.6880115e-05 0.00021086994 0.0001856765 1.3025239e-05 6.725979e-05
-3.4972454e-05 -3.1624797e-06 3.6713667e-05 -1.675871e-05 -1.1739871e-05 5.8244987e-05 -5.2961932e-05 1.2501132e-06
00000000: 3af1 383a 3028 c2b7 f019 7cb6 a212 2f39
00000010: dd28 3239 d913 52b8 d8fd cab9 4c04 5539
00000020: 279d 62b9 a0b6 3b37 ed56 9f39 0282 3e39
00000030: 4fc0 7c39 68cb f6b8 dce3 0837 15af fbb6
00000040: d2d6 87b9 5838 f8b7 fa12 f338 5d4f 63b7
00000050: 18b5 6336 847e 0539 6ae3 1e38 8da8 f0b9
00000060: c9fa 0db9 fe92 1938 88da b4b6 7491 75b9
00000070: 8da4 66b8 ba59 59b8 eb12 acb8 556d f137
00000080: 2059 9a39 b08e 9cb9 0389 eb37 5895 4a36
00000090: 6888 45b8 2a05 d739 4a47 a938 833c 8eba
000000a0: 4888 3ab9 5183 6d39 daa5 49b9 3c07 5439
000000b0: f2aa 15b8 9186 e036 47c4 b53a 336a c1b6
000000c0: aa8b 8539 6d48 bfb9 9860 91b9 fd41 8cb8
000000d0: f81c 5d39 28b2 4239 fa86 5a37 d30d 8d38
000000e0: 63af 12b8 fd3a 54b6 00fd 1938 0e95 8cb7
000000f0: 5df6 44b7 144c 7438 7123 5eb8 90c9 a735

mlp_extractor.policy_net.2.weight f4 [64, 64]
-0.00023130454 6.354073e-06 5.849601e-05 -4.0285275e-05 3.60877e-07 7.172036e-05 0.00012248244 -0.00012974821
5.0841358e-05 -5.492048e-05 -0.0001157374 -3.981717e-05 -7.9329504e-05 3.9264523e-05 -1.804668e-05 2.3471002e-06
7.745356e-05 6.6829656e-05 -4.485134e-05 4.0192164e-05 -3.8692106e-06 -6.641072e-05 3.2152264e-05 0.00014556055
4.819753e-05 -5.3543285e-05 4.288877e-05 6.132342e-05 2.7949525e-05 2.5844272e-05 3.651223e-05 9.070062e-06
-4.5281966e-05 0.00014740389 -8.2620434e-05 -1.2033885e-05 1.3979311e-05 -0.00015722665 -3.6742666e-05 0.000319319
4.5307297e-05 -4.6428453e-05 5.2716718e-05 -0.00010580139 3.3028307e-06 5.5876503e-06 -0.00038896632 -4.2565766e-06
-0.00010044435 0.00013820064 7.4279524e-05 9.533956e-05 -5.0629616e-05 -4.4830336e-05 4.4415807e-05 -1.6945129e-05
6.265163e-05 2.3891167e-05 -6.072843e-05 -2.9663039e-05 -1.5429236e-05 -6.1558465e-05 -2.3618699e-05 -2.422627e-06
1.5228779e-12 -1.653336e-14 -3.873006e-13 1.6119354e-13 -2.4659342e-14 -4.8619285e-13 -5.172407e-13 8.9548665e-13
-1.5905608e-13 3.818784e-13 5.855024e-13 1.3219729e-13 3.3317568e-13 -1.6530283e-13 1.4186219e-13 -1.610737e-14
-3.9169625e-13 -3.906825e-13 2.4359475e-13 -3.294895e-13 2.258379e-14 3.711021e-13 -2.2468961e-13 -6.363532e-13
-1.5229263e-13 4.1375825e-13 -3.2227644e-13 -1.9220843e-13 -1.4852767e-13 -1.4120093e-13 -2.5600979e-13 -6.194685e-14
2.546136e-13 -7.8820826e-13 5.1546083e-13 9.1298076e-14 -4.58234e-14 9.192844e-13 2.009314e-13 -1.8650942e-12
-1.8304069e-13 7.289619e-14 -2.4861054e-13 6.019107e-13 -4.1004353e-14 -4.888325e-14 1.7979536e-12 3.6978572e-14
3.5333577e-13 -7.543153e-13 -4.063549e-13 -6.053494e-13 1.8728857e-13 1.753342e-13 -2.8374202e-13 1.1088196e-13
-4.3896289e-13 -1.5884638e-13 4.3500915e-13 2.3458248e-13 1.2312278e-13 4.6988997e-13 1.7155721e-13 1.7473609e-14
-2.1142709e-11 4.382713e-13 2.8184774e-12 -2.9103556e-12 -1.1278276e-13 4.4476263e-12 1.1423621e-11 -9.069731e-12
3.744496e-12 -3.021959e-12 -9.6879605e-12 -2.8654332e-12 -5.9219613e-12 2.1689482e-12 -9.190616e-13 1.3714705e-13
5.8840944e-12 3.7171663e-12 -4.0570164e-12 2.378271e-12 -3.2946662e-13 -5.52943e-12 2.00131e-12 1.3717574e-11
3.1494776e-12 -3.1210934e-12 2.379811e-12 4.517385e-12 1.7832649e-12 2.1416345e-12 3.7204905e-12 4.572815e-13
-3.735451e-12 1.0746948e-11 -4.3179084e-12 -6.599489e-13 1.0137849e-12 -1.2312715e-11 -2.6933742e-12 3.943657e-11
3.1839507e-12 -2.1225537e-12 3.5347723e-12 -7.0192216e-12 2.7446087e-13 3.1163272e-13 -3.4827894e-11 -4.3382358e-13
-5.729234e-12 1.207e-11 5.7981176e-12 5.2806843e-12 -3.630962e-12 -3.2077585e-12 2.9766012e-12 -1.4516956e-12
3.5039625e-12 1.2864902e-12 -3.4011398e-12 -1.5219782e-12 -8.4944286e-13 -3.5292776e-12 -1.249751e-12 -1.7177733e-13
-5.0575403e-07 1.1910868e-09 1.7609217e-07 2.7470982e-08 1.3798042e-07 2.1589815e-07 1.412665e-07 -4.1510654e-07
-3.7819596e-08 -2.4730332e-07 -4.4166626e-07 3.2236198e-08 -7.1671424e-09 5.0873076e-08 -1.1630177e-07 2.9369338e-09
5.296448e-09 2.0821554e-07 2.5656151e-08 1.8308644e-07 -1.8139441e-09 -2.2612734e-07 8.749238e-08 1.1853305e-07
1.2639198e-07 -2.1451159e-07 1.3386708e-07 -2.2461343e-08 -2.9715627e-08 3.1934604e-08 -1.7041563e-08 5.8494972e-08
3.768092e-08 3.5217747e-07 -3.5807935e-07 -5.6254528e-08 1.2822114e-09 -3.5509055e-07 -7.4272446e-09 1.8079209e-06
-2.8231037e-08 3.894572e-07 -2.7295748e-08 -1.7000077e-07 -1.3948998e-07 4.9207014e-08 -1.8578249e-06 2.1457867e-08
-4.254341e-07 4.0292537e-07 -3.8099536e-08 3.1284677e-07 3.5578054e-08 3.0792975e-08 5.134259e-08 1.6638143e-08
2.3324853e-07 7.541418e-08 -2.8121906e-07 -9.524288e-08 -1.1760806e-07 -2.818214e-07 -3.201159e-08 -7.088008e-09
00000000: 578a 72b9 1235 d536 9d59 7538 fcf7 28b8
00000010: 8fbe c134 9368 9638 a16e 0039 050d 08b9
00000020: 7e3e 5538 6b5a 66b8 0bb8 f2b8 5c01 27b8
00000030: b45d a6b8 f6af 2438 f362 97b7 e082 1d36
00000040: 906e a238 e626 8c38 c21e 3cb8 0294 2838
00000050: 44d4 81b6 fc45 8bb8 3bdb 0638 9da1 1839
00000060: b427 4a38 aa93 60b8 77e3 3338 c39a 8038
00000070: 2675 ea37 27cc d837 b524 1938 9f2b 1837
00000080: 24ed 3db8 6e90 1a39 8244 adb8 24e5 49b7
00000090: af88 6a37 35dd 24b9 231c 1ab8 456a a739
000000a0: 5708 3e38 2cbc 42b8 251c 5d38 b0e1 ddb8
000000b0: 33a6 5d36 8d7d bb36 2dee cbb9 b7d3 8eb6
000000c0: a6a5 d2b8 f4e9 1039 84c6 9b38 09f1 c738
000000d0: 235b 54b8 3508 3cb8 1c4b 3a38 6325 8eb7
000000e0: d663 8338 e469 c837 a8b6 7eb8 e4d4 f8b7
000000f0: 086e 81b7 f318 81b8 c520 c6b7 6a94 22b6
00000100: 7553 d62b 55eb 94a8 e607 daaa e07c 352a
00000110: 921c dea8 e3d9 08ab 1f97 11ab 9d0e 7c2b
00000120: cb14 33aa 7afa d62a e5cd 242b 46d7 142a
00000130: ad8f bb2a 4c1d 3aaa feb8 1f2a 1115 91a8
00000140: 6181 dcaa 48ef dbaa b421 892a 717c b9aa
00000150: ad6a cb28 73e9 d02a 5ffa 7caa 151e 33ab
00000160: 5d77 2baa d9ec e82a ee6c b5aa 4f68 58aa
00000170: 303a 27aa 66fa 1eaa e61e 90aa ee7d 8ba9
00000180: b055 8f2a 64dc 5dab de16 112b c295 cd29
00000190: c95e 4ea9 b660 812b 883a 622a 8d3e 03ac
000001a0: e315 4eaa cb25 a429 8ef4 8baa 3d6c 292b
000001b0: cdaa 38a9 8d26 5ca9 1b0a fd2b 6489 2629
000001c0: 0de9 c62a 2552 54ab eac1 e4aa 0564 2aab
000001d0: 41de 522a a468 452a 89bb 9faa 19af f929
000001e0: 381d f7aa 5ad8 32aa 6de3 f42a e60e 842a
000001f0: ba9f 0a2a 2443 042b 0028 412a 6663 9d28
00000200: 26f9 b9ad 8db9 f62a 2d55 462c 4ecc 4cac
00000210: d6f6 fda9 a87c 9c2c 6af7 482d 708e 1fad
00000220: 6cbf 832c c6a6 54ac b26e 2aad 0ea3 49ac
00000230: 495c d0ac 4ca0 182c af58 81ab f269 1a2a
00000240: 3607 cf2c 42c9 822c 5bbe 8eac 1f5b 272c
00000250: 2579 b9aa ae8c c2ac 65d4 0c2c 7652 712d
00000260: f29f 5d2c 9fa0 5bac dd76 272c fdf0 9e2c
00000270: e4f8 fa2b 42b4 162c 33e7 822c 9bb6 002b
00000280: f46d 83ac f30f 3d2d 43ec 97ac 54c2 39ab
00000290: 73ad 8e2b 8a9b 58ad 8487 3dac a171 2d2e
000002a0: f50c 602c 875c 15ac ccbc 782c 87f7 f6ac
000002b0: fb81 9a2a 026f af2a b92c 19ae 9138 f4aa
000002c0: 5a94 c9ac 7356 542d cd00 cc2c 2dcc b92c
000002d0: 9981 7fac d7b9 61ac ae75 512c d94e ccab
000002e0: c791 762c b20e b52b 7d55 6fac 0b33 d6ab
000002f0: cf18 6fab d059 78ac 06e3 afab 7267 41aa
00000300: 27c3 07b5 a4b3 a330 d913 3d34 54f9 eb32
00000310: c527 1434 a2d1 6734 0aaf 1734 cfdb deb4
00000320: 166f 22b3 1cc5 84b4 261e edb4 1374 0a33
00000330: da42 f6b1 8a7f 5a33 93c1 f9b3 16d3 4931
00000340: 0dfc b531 da91 5f34 7962 dc32 6b96 4434
00000350: 7c4e f9b0 69cd 72b4 72e3 bb33 3c8c fe33
00000360: 5db6 0734 7f54 66b4 1abd 0f34 04f1 c0b2
00000370: 5b41 ffb2 7828 0933 cb62 92b2 e73b 7b33
00000380: 9cd6 2133 e712 bd34 0d3e c0b4 829c 71b3
00000390: ce39 b030 46a3 beb4 bc32 ffb1 b0a7 f235
000003a0: b580 f2b2 9716 d134 fc77 eab2 7589 36b4
000003b0: b7c6 15b4 af57 5333 615a f9b5 5952 b832
000003c0: 3867 e4b4 a451 d834 e2a2 23b3 55f5 a734
000003d0: 7cce 1833 3c41 0433 c683 5c33 aaeb 8e32
000003e0: de72 7a34 62f3 a133 74fa 96b4 5488 ccb3
000003f0: b78f fcb3 3d4d 97b4 1e7d 09b3 c78a f3b1

mlp_extractor.policy_net.2.bias f4 [64]
-0.0018706322 2.0137511e-12 -2.6121316e-10 -2.2754814e-06 4.09321e-08 0.00017918725 -8.476767e-13 2.4758123e-15
-1.6036032e-16 -1.9365713e-12 -1.09494476e-10 -0.008237032 6.265654e-05 -6.191078e-05 0.0013860749 0.00093389687
-0.0075025563 0.0005348256 8.199918e-08 0.00043337708 -7.5990343e-16 -8.285234e-12 0.0028690267 -1.4736628e-06
0.0012087446 -2.0734572e-06 0.00016879402 -0.016556675 2.0161362e-15 0.00943427 6.267208e-07 -0.0004638552
3.2792464e-05 -0.0012526194 3.6655576e-05 -1.5464051e-05 0.0002911344 0.0024347818 1.0129387e-08 -0.015016686
-0.0013726582 -0.0018033119 0.0016876594 -0.0015500035 0.0010636558 1.3885423e-10 -7.5238574e-07 -6.6144407e-10
-2.560556e-06 -1.2449795e-11 -4.2059184e-10 4.7475013e-10 1.2941676e-09 2.0633273e-09 0.00017106926 -1.4805292e-16
-1.379129e-08 1.7749442e-05 -2.492485e-08 0.000227302 -2.7403352e-08 3.1331438e-06 -6.3508847e-16 -1.031387e-11
00000000: 0030 f5ba 84b4 0d2c 7c9a 8faf 79b4 18b6
00000010: 52cd 2f33 36e4 3b39 8b99 6eab ad66 3227
00000020: 03e2 38a5 2b46 08ac e9c7 f0ae 9ef4 06bc
00000030: 7966 8338 19d6 81b8 f5ac b53a c2d0 743a
00000040: 01d8 f5bb 8a33 0c3a 8717 b033 e336 e339
00000050: fa06 5ba6 60c1 11ad 4806 3c3b abca c5b5
00000060: bd6e 9e3a b925 0bb6 4dfe 3039 dda1 87bc
00000070: 2647 1127 3292 1a3c ed3b 2835 9731 f3b9
00000080: a48a 0938 ef2e a4ba a0be 1938 ccb8 81b7
00000090: 66a3 9839 dc90 1f3b 8405 2e32 8c08 76bc
000000a0: c4ea b3ba 1b5d ecba 7434 dd3a 7d29 cbba
000000b0: 5e6a 8b3a feab 182f 8ef7 49b5 fdd0 35b0
000000c0: 04d6 2bb6 e404 5bad 0a39 e7af 927f 0230
000000d0: 79de b130 70ca 0d31 0e61 3339 82b1 2aa5
000000e0: bcee 6cb2 a3e4 9437 531a d6b2 eb57 6e39
000000f0: 9c64 ebb2 0043 5236 420d 37a6 8b71 35ad

mlp_extractor.value_net.0.weight f4 [64, 3]
-0.23606922 0.3804452 0.3145069 -0.21646671 0.0745351 -0.37887168 -0.062343296 -0.08550753
0.055022985 -0.45075133 0.042485103 0.23398758 -0.09684754 0.3878648 0.14835207 0.08506501
0.19360593 -0.0050595743 0.11383289 -0.17585202 0.22915435 -0.17277822 -0.17438138 -0.15089704
-0.14984442 -0.08696096 0.21977007 0.12697305 -0.13487601 0.088449046 0.21256289 0.059551153
0.084641546 -0.1243659 -0.14715306 -0.33803305 -0.020075232 0.15697639 -0.40929756 0.06730754
0.13465968 0.03748301 -0.17319183 0.118286975 0.2171184 0.2266459 -0.0062715313 -0.09162061
0.18798824 -0.19241351 -0.10435392 -0.26310232 -0.10788987 0.030216025 -0.14842281 0.16810852
-0.06306509 0.37683833 0.07073912 0.31095234 -0.06337243 0.34233314 0.0793365 0.5093969
0.30744904 -0.134849 0.14649576 0.0038536005 0.03744799 -0.0472301 -0.06454632 0.05338885
0.14952824 -0.32961896 0.22217436 -0.17998917 -0.09332538 0.03164696 -0.05225082 -0.085645534
0.0707982 -0.28720415 -0.24114907 -0.2625161 -0.010611836 0.2475603 0.09477733 -0.17540365
-0.044242043 -0.23652253 -0.44620597 0.28491566 0.11362627 -0.15531835 0.025913015 -0.1212111
-0.060914632 0.1461524 -0.014648687 0.101999775 -0.09268969 -0.19770615 0.03649338 0.035700273
0.17507438 0.021495197 -0.018550755 0.0337038 0.044416796 0.09782915 0.25065017 -0.036989592
-0.25184706 0.36404255 -0.28944388 -0.14757289 0.24374504 0.2255391 0.17507309 -0.113515936
-0.07256528 0.0076586874 0.11821898 0.04363216 0.20868072 -0.34175307 0.056926273 0.17905496
0.077419885 -0.10815991 0.22846435 0.1210987 -0.033614963 0.035114806 0.045225624 0.09333517
0.28019094 0.13324767 -0.08166361 -0.13816056 0.00734715 0.077935874 0.14781061 -0.0447079
0.13822359 0.10732865 0.094253905 0.11326613 -0.23027484 -0.13483308 0.12100519 0.014309768
0.15881687 0.17930058 0.025356367 -0.050931703 -0.115343004 -0.089808546 -0.1122281 -0.11980722
-0.13768439 0.29549345 0.18645132 0.046124905 0.17517486 0.027760882 0.086555846 -0.19884294
-0.114679076 -0.19797528 0.057834547 0.004992778 0.30868056 0.04821055 -0.0042190785 0.007391277
-0.17038533 0.19955409 -0.20236725 0.12234101 0.22076896 -0.17472847 -0.0040741474 -0.048515733
0.28300413 -0.17910562 0.17615888 0.11151089 0.09819848 0.14102729 -0.22737105 0.118175976
00000000: 21bc 71be b7c9 c23e 0c07 a13e 73a9 5dbe
00000010: dca5 983d 78fb c1be af5b 7fbd 921e afbd
00000020: c85f 613d e1c8 e6be dc04 2e3d 719a 6f3e
00000030: 0158 c6bd 3796 c63e 9be9 173e 9036 ae3d
00000040: a240 463e c9ca a5bb 3821 e93d 8d12 34be
00000050: 70a7 6a3e c6ec 30be 0891 32be c184 1abe
00000060: d170 19be 9618 b2bd 680b 613e 3905 023e
00000070: f01c 0abe c624 b53d 16aa 593e e9eb 733d
00000080: 8c58 ad3d 8db3 febd 4baf 16be ab12 adbe
00000090: d074 a4bc 6bbe 203e 738f d1be 89d8 893d
000000a0: 3ae4 093e c987 193d 3359 31be 7140 f23d
000000b0: 4954 5e3e dd15 683e 6b81 cdbb 96a3 bbbd
000000c0: fd7f 403e 0c08 45be 82b7 d5bd 59b5 86be
000000d0: 5df5 dcbd 9987 f73c 26fc 17be a424 2c3e
000000e0: 4528 81bd f4f0 c03e acdf 903d 2535 9f3e
000000f0: 68c9 81bd 4a46 af3e 2d7b a23d d667 023f
00000100: f669 9d3e db15 0abe fc02 163e b08c 7c3b
00000110: 1063 193d 5974 41bd dc30 84bd 44ae 5a3d
00000120: ee1d 193e d1c3 a8be ad81 633e 154f 38be
00000130: 6021 bfbd 3ea0 013d f504 56bd ed66 afbd
00000140: a6fe 903d 6c0c 93be c8ef 76be 8368 86be
00000150: 44dd 2dbc 7380 7d3e 9e1a c23d 049d 33be
00000160: 2537 35bd f632 72be 1c75 e4be 77e0 913e
00000170: e4b4 e83d c60b 1fbe 8847 d43c 863d f8bd
00000180: 9f81 79bd faa8 153e 0c01 70bc 42e5 d03d
00000190: 18d4 bdbd 7b73 4abe 157a 153d 733a 123d
000001a0: b346 333e b216 b03c c1f7 97bc ff0c 0a3d
000001b0: 63ee 353d a65a c83d 3855 803e 6682 17bd
000001c0: 19f2 80be c963 ba3e fd31 94be 591d 17be
000001d0: 4d98 793e b9f3 663e 5c46 333e 0b7b e8bd
000001e0: 1b9d 94bd baf5 fa3b cb1c f23d a3b7 323d
000001f0: 66b0 553e 42fa aebe 862b 693d 2f5a 373e
00000200: 518e 9e3d f182 ddbd 8ff2 693e 9802 f83d
00000210: d8af 09bd 8bd4 0f3d 813e 393d 8226 bf3d
00000220: 3075 8f3e 1472 083e 403f a7bd f679 0dbe
00000230: 5cc0 f03b d89c 9f3d aa5b 173e a21f 37bd
00000240: 7c8a 0d3e 20cf db3d 3108 c13d 13f8 e73d
00000250: 2bcd 6bbe af11 0abe 92d1 f73d 8473 6a3c
00000260: e4a0 223e 929a 373e 28b8 cf3c c39d 50bd
00000270: f438 ecbd 8bed b7bd d9d7 e5bd 7d5d f5bd
00000280: 23fd 0cbe eb4a 973e 18ed 3e3e 78ed 3c3d
00000290: 0a61 333e ca6a e33c 3144 b13d 7c9d 4bbe
000002a0: dddc eabd 08ba 4abe ebe3 6c3d 759a a33b
000002b0: 610b 9e3e 6d78 453d 3240 8abb 8632 f23b
000002c0: 7e79 2ebe e857 4c3e 5c39 4fbe ec8d fa3d
000002d0: 4211 623e 05ec 32be 6d80 85bb 6fb8 46bd
000002e0: ebe5 903e 7767 37be fe62 343e d25f e43d
000002f0: 491c c93d 7569 103e f5d3 68be 3f06 f23d

mlp_extractor.value_net.0.bias f4 [64]
0.0 0.0 0.0 0.0 0.0 0.0 0.0 0.0
0.0 0.0 0.0 0.0 0.0 0.0 0.0 0.0
0.0 0.0 0.0 0.0 0.0 0.0 0.0 0.0
0.0 0.0 0.0 0.0 0.0 0.0 0.0 0.0
0.0 0.0 0.0 0.0 0.0 0.0 0.0 0.0
0.0 0.0 0.0 0.0 0.0 0.0 0.0 0.0
0.0 0.0 0.0 0.0 0.0 0.0 0.0 0.0
0.0 0.0 0.0 0.0 0.0 0.0 0.0 0.0
00000000: 0000 0000 0000 0000 0000 0000 0000 0000
00000010: 0000 0000 0000 0000 0000 0000 0000 0000
00000020: 0000 0000 0000 0000 0000 0000 0000 0000
00000030: 0000 0000 0000 0000 0000 0000 0000 0000
00000040: 0000 0000 0000 0000 0000 0000 0000 0000
00000050: 0000 0000 0000 0000 0000 0000 0000 0000
00000060: 0000 0000 0000 0000 0000 0000 0000 0000
00000070: 0000 0000 0000 0000 0000 0000 0000 0000
00000080: 0000 0000 0000 0000 0000 0000 0000 0000
00000090: 0000 0000 0000 0000 0000 0000 0000 0000
000000a0: 0000 0000 0000 0000 0000 0000 0000 0000
000000b0: 0000 0000 0000 0000 0000 0000 0000 0000
000000c0: 0000 0000 0000 0000 0000 0000 0000 0000
000000d0: 0000 0000 0000 0000 0000 0000 0000 0000
000000e0: 0000 0000 0000 0000 0000 0000 0000 0000
000000f0: 0000 0000 0000 0000 0000 0000 0000 0000

mlp_extractor.value_net.2.weight f4 [64, 64]
-0.23409472 -0.052497134 -0.07189565 0.15962619 0.39372718 -0.070527315 0.027530137 -0.07437172
-0.36011362 -0.2367623 0.026989158 -0.015009546 -0.092139795 -0.3018575 0.03247017 0.10941092
-0.21126331 0.23665154 0.028162273 0.062666945 -0.32323 -0.099309966 -0.33749723 -0.0556005
0.052631572 -0.16919842 -0.128183 -0.011554944 -0.034802902 -0.18658662 0.091454856 -0.09921284
0.23688406 0.53809094 0.15807554 0.16400847 -0.15495777 -0.031406615 -0.07133151 0.16801238
0.068142995 -0.016604492 0.28153443 0.14775029 -0.18576884 0.0033436771 0.11744465 0.04618185
-0.03356632 -0.007859507 0.049347177 -0.100884125 -0.13100682 0.02202631 -0.2313626 -0.13521184
-0.11096127 0.27845645 -0.21311006 0.1284599 0.16714714 0.078939594 0.3158314 -0.07768652
-0.15469004 0.45697165 -0.14246197 -0.194585 -0.013673007 0.12497328 0.1944406 -0.11788345
0.24258976 0.43439218 -0.14306085 -0.02915774 -0.43964836 -0.2709691 -0.12000831 -0.06493174
0.17347068 0.09528269 0.23160169 -0.086354844 -0.064023934 -0.22273272 -0.21998739 -0.21663566
0.045262486 -0.019002857 0.08161391 -0.08283658 0.0621896 -0.13940306 0.1932117 -0.011556351
0.24318765 -0.17342745 -0.18634818 0.122503914 -0.010930108 -0.0956154 0.050727196 -0.15931505
-0.112380706 -0.23380108 -0.30526575 0.14466047 0.3110126 -0.0029846157 -0.027989326 -0.08996793
0.059610907 -0.09994942 0.12164478 -0.11600963 0.08111971 -0.11079652 0.08598139 0.01525637
0.23379527 0.08762171 -0.20427215 0.006873188 0.08840883 0.22828245 0.25240985 -0.046519477
-0.41086224 -0.19837445 -0.32190987 0.24700405 -0.135087 0.24439473 0.038410284 -0.123391725
0.039434496 0.022866784 -0.061534762 0.065618835 0.28915834 0.16481091 0.00759829 0.09680085
-0.031659383 0.2355635 0.15570113 -0.093820505 -0.33247072 0.27786905 -0.14252402 0.0030799718
-0.20072013 0.032969467 0.19128746 0.124502465 0.27574953 0.21118945 -0.0051730215 -0.008370127
-0.27739784 0.052416276 0.13316123 -0.40391323 0.088666156 0.042282023 0.34830055 -0.23379044
0.04919705 -0.21945117 -0.16154924 0.08268037 0.06339018 0.032722387 0.00989643 -0.1947191
0.10271879 0.23445062 0.057092037 -0.101779446 0.041153666 0.081946425 0.05130522 0.11883845
-0.013128229 0.0029263506 -0.21511184 0.21044052 0.27978295 -0.045722656 -0.066937126 -0.19400871
0.08509236 0.08783046 -0.10135312 0.0044166525 -0.08328955 -0.03177887 -0.005561823 0.040027183
-0.087024316 0.060625844 -0.040748335 0.20379522 0.14485942 0.096530735 0.13211982 0.36393481
-0.017490085 -0.0026051027 0.15031947 -0.012428357 -0.2793526 0.096524574 0.060322285 0.33721596
0.004707018 -0.23446059 0.18689445 -0.3531692 0.16325009 -0.16194893 0.22309494 -0.12807645
-0.07017837 -0.28179175 0.27406687 0.07455922 0.31224176 -0.18349867 -0.0040438636 0.12925558
0.2651395 0.13161369 -0.09963557 -0.17561613 0.06407538 -0.37752676 0.15637009 0.06841439
0.032466996 -0.16440807 0.090394385 0.22456445 -0.3676244 -0.09486432 0.16554405 -0.016911019
0.05827737 0.12010915 -0.17929086 -0.016066674 -0.23555613 -0.023146871 0.27007785 0.33806583
00000000: 87b6 6fbe 3c07 57bd 073e 93bd 0c75 233e
00000010: 9c96 c93e a070 90bd e286 e13c 3350 98bd
00000020: d060 b8be d171 72be 5e18 dd3c 99ea 75bc
00000030: cab3 bcbd 118d 9abe 71ff 043d d512 e03d
00000040: 6955 58be c854 723e 91b4 e63c 8757 803d
00000050: 677e a5be 0663 cbbd 70cc acbe 5abd 63bd
00000060: 3494 573d 5a42 2dbe 6842 03be f350 3dbc
00000070: 7d8d 0ebd 9010 3fbe af4c bb3d 1a30 cbbd
00000080: bc91 723e 54c0 093f 8ede 213e d6f1 273e
00000090: 40ad 1ebe 39a4 00bd 4116 92bd 700b 2c3e
000000a0: 8e8e 8b3d 2506 88bc 4825 903e da4b 173e
000000b0: 303a 3ebe 9821 5b3b d286 f03d 2e29 3d3d
000000c0: d67c 09bd 29c5 00bc 4420 4a3d 569c cebd
000000d0: a726 06be 8570 b43c 51ea 6cbe f974 0abe
000000e0: aa3f e3bd d891 8e3e 8639 5abe fe8a 033e
000000f0: 9f28 2b3e 15ab a13d a7b4 a13e 1c1a 9fbd
00000100: 1167 1ebe 30f8 e93e 8de1 11be 4a41 47be
00000110: bf04 60bc fef1 ff3d 701b 473e e16c f1bd
00000120: 7369 783e a768 de3e 8b7e 12be 36dc eebc
00000130: 9719 e1be 76bc 8abe ebc6 f5bd effa 84bd
00000140: 4ca2 313e 9223 c33d fe28 6d3e cfda b0bd
00000150: fb1e 83bd 0c14 64be 6044 61be bdd5 5dbe
00000160: 2865 393d e1ab 9bbc 3225 a73d 3aa6 a9bd
00000170: 86ba 7e3d adbf 0ebe 4ad9 453e d956 3dbc
00000180: 2f06 793e f796 31be 0fd2 3ebe 55e3 fa3d
00000190: 3214 33bc 02d2 c3bd 52c7 4f3d 7c23 23be
000001a0: db27 e6bd 8d69 6fbe cb4b 9cbe e021 143e
000001b0: 0b3d 9f3e 8b99 43bb df49 e5bc 1b41 b8bd
000001c0: 912a 743d 48b2 ccbd e620 f93d 7596 edbd
000001d0: 1722 a63d 49e9 e2bd 0317 b03d dbf5 793c
000001e0: 0768 6f3e 0373 b33d b82c 51be 7b38 e13b
000001f0: b00f b53d e0c2 693e dd3b 813e 358b 3ebd
00000200: 895c d2be ac22 4bbe 5fd1 a4be a1ee 7c3e
00000210: 3f54 0abe 9d42 7a3e 1a54 1d3d cdb4 fcbd
00000220: 1186 213d 1f53 bb3c e00b 7cbd 2b63 863d
00000230: 900c 943e 31c4 283e 14fb f83b 863f c63d
00000240: 45ad 01bd 8f37 713e 1e70 1f3e f724 c0bd
00000250: 9a39 aabe da44 8e3e d1f1 11be 5ad9 493b
00000260: 9489 4dbe fe0a 073d dce0 433e 26fb fe3d
00000270: 0b2f 8d3e 0c42 583e 7382 a9bb db22 09bc
00000280: 1707 8ebe 73b2 563d 6b5b 083e b7cd cebe
00000290: 9a96 b53d ea2f 2d3d 7354 b23e c366 6fbe
000002a0: d982 493d cfb7 60be 2a6d 25be 5354 a93d
000002b0: b6d2 813d e907 063d a324 223c 7264 47be
000002c0: 3b5e d23d d313 703e 57d9 693d be71 d0bd
000002d0: bf90 283d 87d3 a73d 6c25 523d 9361 f33d
000002e0: c917 57bc 04c8 3f3b 4746 5cbe b87d 573e
000002f0: b63f 8f3e ae47 3bbd 5516 89bd 38aa 46be
00000300: e744 ae3d 75e0 b33d 3992 cfbd 91b9 903b
00000310: b693 aabd 8f2a 02bd f43f b6bb 8bf3 233d
00000320: ce39 b2bd ce52 783d bae7 26bd b2af 503e
00000330: 0756 143e e8b1 c53d 6b4a 073e aa55 ba3e
00000340: 5e47 8fbc 5fba 2abb 59ed 193e 4fa0 4bbc
00000350: 4e07 8fbe adae c53d 8014 773d 92a7 ac3e
00000360: 543d 9a3b 7016 70be 4261 3f3e 98d2 b4be
00000370: 082b 273e f1d5 25be 0073 643e 7926 03be
00000380: adb9 8fbd 0247 90be 7e52 8c3e 81b2 983d
00000390: 27de 9f3e 13e7 3bbe 6382 84bb 935b 043e
000003a0: 5dc0 873e bdc5 063e bc0d ccbd b7d4 33be
000003b0: f439 833d 304b c1be 7b1f 203e d81c 8c3d
000003c0: 1dfc 043d 975a 28be b120 b93d 39f4 653e
000003d0: 4439 bcbe 3948 c2bd 6184 293e fa88 8abc
000003e0: 40b4 6e3d c9fb f53d 0698 37be 429e 83bc
000003f0: a035 71be 829e bdbc a547 8a3e f716 ad3e

mlp_extractor.value_net.2.bias f4 [64]
0.0 0.0 0.0 0.0 0.0 0.0 0.0 0.0
0.0 0.0 0.0 0.0 0.0 0.0 0.0 0.0
0.0 0.0 0.0 0.0 0.0 0.0 0.0 0.0
0.0 0.0 0.0 0.0 0.0 0.0 0.0 0.0
0.0 0.0 0.0 0.0 0.0 0.0 0.0 0.0
0.0 0.0 0.0 0.0 0.0 0.0 0.0 0.0
0.0 0.0 0.0 0.0 0.0 0.0 0.0 0.0
0.0 0.0 0.0 0.0 0.0 0.0 0.0 0.0
00000000: 0000 0000 0000 0000 0000 0000 0000 0000
00000010: 0000 0000 0000 0000 0000 0000 0000 0000
00000020: 0000 0000 0000 0000 0000 0000 0000 0000
00000030: 0000 0000 0000 0000 0000 0000 0000 0000
00000040: 0000 0000 0000 0000 0000 0000 0000 0000
00000050: 0000 0000 0000 0000 0000 0000 0000 0000
00000060: 0000 0000 0000 0000 0000 0000 0000 0000
00000070: 0000 0000 0000 0000 0000 0000 0000 0000
00000080: 0000 0000 0000 0000 0000 0000 0000 0000
00000090: 0000 0000 0000 0000 0000 0000 0000 0000
000000a0: 0000 0000 0000 0000 0000 0000 0000 0000
000000b0: 0000 0000 0000 0000 0000 0000 0000 0000
000000c0: 0000 0000 0000 0000 0000 0000 0000 0000
000000d0: 0000 0000 0000 0000 0000 0000 0000 0000
000000e0: 0000 0000 0000 0000 0000 0000 0000 0000
000000f0: 0000 0000 0000 0000 0000 0000 0000 0000

action_net.weight f4 [1, 64]
0.0015464973 1.7874098e-12 1.4187576e-10 1.725271e-06 -3.6536793e-08 -0.00014906577 3.8085605e-13 -1.3040896e-15
3.32004e-17 1.0733382e-12 6.386076e-11 0.007009723 -3.0900097e-05 4.266262e-05 -0.0010328213 -0.00079575134
0.0074572237 -0.00040113472 -6.451906e-08 -0.00031534498 5.7407536e-16 5.028561e-12 -0.0029078356 1.0056133e-06
-0.0007669252 1.470242e-06 -0.00010388124 0.0123635465 -1.1359758e-15 -0.007987547 -4.8467825e-07 0.0002113051
0.0001042497 0.0012823181 -2.6694219e-05 1.3094734e-05 -0.00023336803 -0.0012524582 -7.794283e-09 0.014518346
0.0024535805 0.0013180679 -0.0017210417 0.0012116685 -0.00043950975 -8.144423e-11 6.453323e-07 5.7505306e-10
1.8990722e-06 7.545246e-12 2.4747682e-10 -3.1072855e-10 -8.5879953e-10 -1.5472174e-09 -1.2581821e-05 9.0731364e-17
9.7978745e-09 -3.0528656e-05 2.1464656e-08 -0.00021834228 1.880471e-08 -2.1117335e-06 2.7624823e-16 6.128265e-12
00000000: d7b3 ca3a 3a8e fb2b 7afe 1b2f dc8f e735
00000010: a1ec 1cb3 8a4e 1cb9 2467 d62a 6af0 bba6
00000020: 1d1c 1924 160f 972b 696e 8c2e d2b1 e53b
00000030: ba9a 01b8 a4f0 3238 bb5f 87ba f899 50ba
00000040: ba5b f43b 644f d2b9 ba8d 8ab3 e354 a5b9
00000050: 4977 2526 40ed b02c 6391 3ebb 9cf8 8635
00000060: 7b0b 49ba 2155 c535 d1da d9b8 7990 4a3c
00000070: 1cb6 a3a6 33de 02bc d61a 02b5 c891 5d39
00000080: a2a0 da38 7513 a83a 66ed dfb7 74b1 5b37
00000090: 41b4 74b9 8629 a4ba 9fe7 05b2 5bde 6d3c
000000a0: 40cc 203b 05c3 ac3a 9494 e1ba d9d0 9e3a
000000b0: 006e e6b9 0719 b3ae e63a 2d35 c311 1e30
000000c0: a0e3 fe35 c4bc 042d 440d 882f 28d3 aaaf
000000d0: a510 6cb0 dfa5 d4b0 8216 53b7 5836 d124
000000e0: 8253 2832 e50b 00b8 4761 b832 cff2 64b9
000000f0: ff87 a132 4eb7 0db6 0b3f 9f25 819e d72c

value_net.weight f4 [1, 64]
-0.06346905 0.03497409 0.071797855 0.22775087 0.19267294 0.14882982 0.106867954 -0.04941816
-0.047675945 -0.042514507 0.06270305 -0.19050118 0.0227887 0.046316784 0.015629672 -0.07987146
-0.13298588 -0.11323956 -0.027908314 0.054665666 -0.0048910864 -0.07521712 0.02399816 -0.09773496
0.02814581 0.10867212 -0.05305114 0.05058076 -0.17653483 0.20778552 -0.03917416 0.09647701
-0.17274448 0.066066414 0.012651415 0.12999918 -0.054523822 0.017953988 -0.08578755 0.2643693
-0.13390253 0.014098188 0.032014556 -0.32116982 -0.08426661 -0.13158628 0.20779832 0.06112302
0.07273781 -0.115914576 -0.21801509 0.047111187 -0.036716375 0.24971601 0.11377901 0.11658014
-0.09162703 -0.1297021 0.0016182681 0.049011227 0.07772291 0.015761299 -0.21831441 -0.30333862
00000000: 10fc 81bd fe40 0f3d c10a 933d 8637 693e
00000010: 0e4c 453e d866 183e 96dd da3d b26a 4abd
00000020: da47 43bd b123 2ebd 756a 803d be12 43be
00000030: 5eaf ba3c abb6 3d3d cc09 803c a693 a3bd
00000040: 732d 08be 24ea e7bd fa9f e4bc 1be9 5f3d
00000050: 6845 a0bb 6f0b 9abd ca97 c43c 4429 c8bd
00000060: 0b92 e63c 7d8f de3d 274c 59bd c52d 4f3d
00000070: 8cc5 34be bac5 543e 1675 20bd bd95 c53d
00000080: eee3 30be d44d 873d e147 4f3c 811e 053e
00000090: 5f54 5fbd 3e14 933c 62b1 afbd 6a5b 873e
000000a0: bf1d 09be 16fc 663c b221 033d 5f70 a4be
000000b0: f993 acbd 8ebe 06be 15c9 543e 225c 7a3d
000000c0: 90f7 943d 9f64 edbd 593f 5fbe a9f7 403d
000000d0: e963 16bd 8eb5 7f3e f804 e93d 92c1 ee3d
000000e0: f4a6 bbbd a1d0 04be 111c d43a ffbf 483d
000000f0: 302d 9f3d d71d 813c d08d 5fbe 334f 9bbe
