policies/Pendulum/xavier_a2c_initialization.pt (torch, 40972 bytes, 10 tensors)

mlp_extractor.policy_net.0.weight f4 [64, 3]
0	0xbd1be110	-0.038056433
1	0x3d3fb1a8	0.046800286
2	0x3def3290	0.11679566
3	0xbe1e08fa	-0.15433112
4	0xbdac08ec	-0.08400139
5	0xbe8c4783	-0.2739831
6	0x3e2372c0	0.15961742
7	0xbcd4b6e0	-0.025966108
8	0x3d0cd0d0	0.034378827
9	0xbe317924	-0.17331368
10	0xbd5afde0	-0.05346477
11	0x3e901532	0.2814117
12	0x3e80e10e	0.25171703
13	0xbe6daabc	-0.23209661
14	0x3e5ffd4c	0.21873969
15	0xbe2cc13f	-0.16870593
16	0x3dde98a0	0.10868955
17	0xbb460900	-0.0030217767
18	0xbe0f45c5	-0.13991459
19	0x3e9741da	0.29542428
20	0xbd7e795c	-0.062127456
21	0xbe15c1f8	-0.14624774
22	0xbe33257c	-0.17494768
23	0xbd88b598	-0.06675261
24	0xbe876965	-0.26447597
25	0xbe3072a9	-0.1723124
26	0xbe49cf3a	-0.19707957
27	0xbe3e36e0	-0.1857562
28	0x3d322598	0.043492883
29	0xbe849bdf	-0.2590017
30	0xbe487b96	-0.19578394
31	0x3e3cab40	0.18424702
32	0x3d904dd0	0.070460916
33	0x3e5bb948	0.21457398
34	0xbe012782	-0.12612727
35	0x3dfb4984	0.12269881
36	0x3e4a49ac	0.19754666
37	0xbdd75668	-0.105145276
38	0xbe7ec18a	-0.24878517
39	0xbdfe32d2	-0.12412037
40	0x3e3c52c0	0.18390942
41	0x3e88b63c	0.26701534
42	0x3e69b228	0.22821867
43	0xbe029f3f	-0.1275606
44	0xbc010be0	-0.007876366
45	0xbdabee4a	-0.083950594
46	0x3c0759c0	0.008261144
47	0xbce3c3f0	-0.027803391
48	0x3d5c1fd0	0.053741276
49	0xbdcb81a6	-0.09936838
50	0x3d462708	0.048377067
51	0xbdbcf2da	-0.09226008
52	0x3e854e78	0.2603643
53	0xbe0bb7e0	-0.13644361
54	0x3e53e7f4	0.20693952
55	0x3d03c330	0.032168567
56	0x3c970880	0.01843667
57	0x3e0166bc	0.12636846
58	0x3e971528	0.29508328
59	0x3e4a5f14	0.19762832
60	0xbe900df7	-0.28135654
61	0xbe32e03e	-0.17468354
62	0xbdeeb88c	-0.11656293
63	0x3e6d5928	0.23178542
64	0xbd1844f0	-0.03717512
65	0xbe70cfae	-0.23516724
66	0xbe828310	-0.25490618
67	0xbe30306c	-0.17205971
68	0x3e91f5aa	0.2850774
69	0xbe3cbf74	-0.18432409
70	0x3d928a9c	0.07155344
71	0xbe8a1759	-0.26970938
72	0x3e095750	0.13412213
73	0x3e6a815c	0.22900909
74	0xbe960974	-0.29304087
75	0x3d16aea0	0.03678763
76	0x3cb4dba0	0.022077382
77	0x3e807008	0.25085473
78	0x3d0acfc0	0.033889532
79	0xbe5f42be	-0.21802804
80	0xbce7ce80	-0.028296709
81	0xbe69f0dc	-0.22845787
82	0x3e63319c	0.22186893
83	0x3e09b90a	0.13449493
84	0xbd482b40	-0.04886937
85	0xbd68e598	-0.056859583
86	0x3e108584	0.14113432
87	0x3d547d58	0.05187735
88	0x3e4b26fc	0.1983909
89	0x3e982052	0.29712158
90	0x3e3e1a2a	0.18564668
91	0xbc01bfe0	-0.007919282
92	0x3c7d3080	0.015453458
93	0x3e4ce0e4	0.20007664
94	0x3e94fa04	0.29096997
95	0xbc418a40	-0.0118127465
96	0x3e0b450e	0.13600561
97	0xbe7c7fef	-0.24658178
98	0xbdebde08	-0.115169585
99	0xbe472c3f	-0.19450472
100	0x3e1a3778	0.15060222
101	0xbe5abc1c	-0.2136082
102	0x3e8826c2	0.2659207
103	0xbbfd2280	-0.00772506
104	0x3e93a726	0.28838462
105	0xbe0e0716	-0.1386989
106	0xbe25bfbf	-0.16186427
107	0x3e92e292	0.28688484
108	0xbe87c55d	-0.26517764
109	0xbd4d8cfc	-0.05018328
110	0xbdf010fc	-0.117219895
111	0x3ca58da0	0.020209134
112	0x3e6eb8a8	0.23312628
113	0xbd4b9474	-0.049702123
114	0xbe441819	-0.19149818
115	0x3e8f056a	0.27933818
116	0xbc9ee960	-0.019398391
117	0xbe304c99	-0.1721672
118	0xbdce53dc	-0.10074589
119	0xbd1e29d8	-0.038614124
120	0x3e46d92a	0.19418779
121	0xbca39a50	-0.019971043
122	0x3e1697ca	0.1470634
123	0xbe940b99	-0.28915098
124	0xbe348da0	-0.1763215
125	0x3e4a6700	0.19765854
126	0xbe471c4d	-0.1944439
127	0xbe067dc1	-0.13133909
128	0x3d0e94e0	0.034809947
129	0x3df64d00	0.12026405
130	0xbe81c753	-0.25347385
131	0xbe0640ec	-0.13110703
132	0xbd1d5c30	-0.038417995
133	0x3e86b3b0	0.26308966
134	0x3e2bd076	0.1677874
135	0x3e8dae9c	0.2767228
136	0x3e3beab2	0.18351248
137	0x3dac3a10	0.08409512
138	0xbdd23464	-0.10263899
139	0xbe6808c4	-0.22659594
140	0xbe84266d	-0.25810567
141	0xbe88140a	-0.2657779
142	0xbe8e1ff7	-0.27758762
143	0xbda6c46a	-0.08142932
144	0xbe68d340	-0.22736835
145	0x3e82f95a	0.25580865
146	0x3e8ab91c	0.27094352
147	0x3d3eccf0	0.046582162
148	0x3deb0c04	0.11476901
149	0xbd66f2b4	-0.056383803
150	0xbe78245e	-0.24232623
151	0xbe364ec4	-0.17803484
152	0x3e43de2a	0.19127718
153	0xbe71fbae	-0.23631164
154	0x3e7367fc	0.23770136
155	0xbc686320	-0.0141837895
156	0x3e8a9f60	0.27074718
157	0xbd645270	-0.05574268
158	0xbe8bcce1	-0.27304748
159	0x3e210c74	0.15727407
160	0x3e852a20	0.260087
161	0x3e93b868	0.28851628
162	0xbcca32d0	-0.024682432
163	0x3dc0da08	0.09416586
164	0xbe0042ce	-0.12525484
165	0xbe0b1255	-0.13581212
166	0x3e7d4e24	0.2473684
167	0xbc966fe0	-0.018363893
168	0xbe401c68	-0.18760836
169	0xbe8628ed	-0.262031
170	0xbcc85750	-0.024455696
171	0xbe1b10bc	-0.15143102
172	0x3e135dc4	0.14391237
173	0x3d05d3a0	0.032672524
174	0x3de49544	0.11161283
175	0x3a81c200	0.0009899735
176	0x3e85cadc	0.26131332
177	0x3e1982f2	0.14991358
178	0xbe958c73	-0.29208717
179	0xbd8c9ece	-0.06866227
180	0x3e5565cc	0.20839614
181	0x3e8548ca	0.26032096
182	0x3ddb826c	0.107182354
183	0xbe37118e	-0.1787779
184	0xbd8d24f6	-0.06891815
185	0xbe07e540	-0.13271046
186	0xbe8d810b	-0.27637514
187	0x3e81290c	0.2522663
188	0xbe904ffa	-0.28186017
189	0xbe91eafb	-0.28499588
190	0x3e90dc2c	0.28292978
191	0x3e07c500	0.13258743

mlp_extractor.policy_net.0.bias f4 [64]
0	0x00000000	0.0
1	0x00000000	0.0
2	0x00000000	0.0
3	0x00000000	0.0
4	0x00000000	0.0
5	0x00000000	0.0
6	0x00000000	0.0
7	0x00000000	0.0
8	0x00000000	0.0
9	0x00000000	0.0
10	0x00000000	0.0
11	0x00000000	0.0
12	0x00000000	0.0
13	0x00000000	0.0
14	0x00000000	0.0
15	0x00000000	0.0
16	0x00000000	0.0
17	0x00000000	0.0
18	0x00000000	0.0
19	0x00000000	0.0
20	0x00000000	0.0
21	0x00000000	0.0
22	0x00000000	0.0
23	0x00000000	0.0
24	0x00000000	0.0
25	0x00000000	0.0
26	0x00000000	0.0
27	0x00000000	0.0
28	0x00000000	0.0
29	0x00000000	0.0
30	0x00000000	0.0
31	0x00000000	0.0
32	0x00000000	0.0
33	0x00000000	0.0
34	0x00000000	0.0
35	0x00000000	0.0
36	0x00000000	0.0
37	0x00000000	0.0
38	0x00000000	0.0
39	0x00000000	0.0
40	0x00000000	0.0
41	0x00000000	0.0
42	0x00000000	0.0
43	0x00000000	0.0
44	0x00000000	0.0
45	0x00000000	0.0
46	0x00000000	0.0
47	0x00000000	0.0
48	0x00000000	0.0
49	0x00000000	0.0
50	0x00000000	0.0
51	0x00000000	0.0
52	0x00000000	0.0
53	0x00000000	0.0
54	0x00000000	0.0
55	0x00000000	0.0
56	0x00000000	0.0
57	0x00000000	0.0
58	0x00000000	0.0
59	0x00000000	0.0
60	0x00000000	0.0
61	0x00000000	0.0
62	0x00000000	0.0
63	0x00000000	0.0

mlp_extractor.policy_net.2.weight f4 [64, 64]
0	0xbda04124	-0.078249246
1	0xbe0121b1	-0.12610509
2	0xbe2b7dd6	-0.16747221
3	0xbc624b10	-0.013811842
4	0xbe13327e	-0.1437473
5	0x3cac2528	0.021013811
6	0xbdf98ee2	-0.12185456
7	0xbe2df044	-0.16986185
8	0xbe12cefc	-0.14336771
9	0xbde03409	-0.10947425
10	0xbcfba750	-0.03071943
11	0x3e5ceb2f	0.2157409
12	0x3d1dc1e4	0.038514987
13	0x3d1b3b7c	0.037898526
14	0x3dfef8de	0.124498114
15	0xba204300	-0.00061134994
16	0x3d77486c	0.0603718
17	0xbe2b178f	-0.16708206
18	0x3e5aff0b	0.21386354
19	0xbcac56d0	-0.02103749
20	0x3e5adfa3	0.21374373
21	0xbd8f7162	-0.07004048
22	0xbe30e212	-0.17273739
23	0xbe2acb16	-0.16679034
24	0x3e03a14f	0.12854503
25	0x3ba9a8e0	0.005177602
26	0xb946c000	-0.00018954277
27	0xbe1b44d0	-0.15162969
28	0xbddb8d40	-0.10720301
29	0xbe419c2d	-0.18907233
30	0x3e050ced	0.12993212
31	0x3c2a2030	0.010383651
32	0xbdea274d	-0.11433277
33	0xbd93fbb2	-0.072257414
34	0xbdeab2bb	-0.114598714
35	0xbde511a7	-0.111850075
36	0x3d99cc7a	0.07509704
37	0x3dc7259e	0.09723972
38	0x3cb52fc8	0.02211751
39	0x3c3b0230	0.011414096
40	0xbcf71308	-0.030160442
41	0xbd99519c	-0.07486269
42	0x3d3082f4	0.043093637
43	0x3dfa926e	0.122349605
44	0xbdb9d3aa	-0.09073575
45	0x3e2fdd89	0.17174353
46	0xbd73b6e8	-0.059500605
47	0xbe3dd4ed	-0.18538256
48	0xbda2bc9c	-0.07946131
49	0xbdbcf904	-0.092271835
50	0x3d664264	0.05621566
51	0x3de06fda	0.10958834
52	0xbe20bb18	-0.1569637
53	0xbd64a518	-0.05582151
54	0xbdec0a57	-0.1152541
55	0x3ba18400	0.0049290657
56	0xbe03300e	-0.128113
57	0x3e21d5ad	0.15804167
58	0x3cad3aa8	0.021146134
59	0xbd42bbd4	-0.047542408
60	0xbe039166	-0.12848434
61	0xbd9e30e0	-0.07724166
62	0x3c4156a0	0.011800438
63	0xbd053460	-0.03252065
64	0x3d8c14d2	0.06839909
65	0xbe19d86c	-0.15023965
66	0x3e2ea075	0.17053397
67	0x3c2f97b0	0.010717317
68	0x3e1d9773	0.15389805
69	0x3e040b4f	0.12894939
70	0xbded1366	-0.115759656
71	0xbe173676	-0.14766869
72	0xbda13ac2	-0.07872535
73	0xbe43bcb2	-0.1911495
74	0x3daa4f36	0.083158895
75	0x3dc0419a	0.093875125
76	0xbe5d266d	-0.2159669
77	0xbdd110e6	-0.10208301
78	0xbcc60190	-0.024170667
79	0xbe597aae	-0.21238205
80	0xbdbcc307	-0.09216886
81	0xbd1a8468	-0.03772393
82	0x3e496c85	0.19670303
83	0x3d365224	0.04451193
84	0xbdf3d79c	-0.119063586
85	0x3c1ec5b0	0.009690687
86	0x3d2ac3a4	0.041690484
87	0x3aaae380	0.0013037771
88	0x3ca74138	0.02041684
89	0x3dd67c8e	0.10472976
90	0x3c157000	0.009120941
91	0x3de39dd6	0.11114089
92	0xbdbb7b69	-0.09154398
93	0x3d9540fe	0.07287787
94	0x3d8d1366	0.068884656
95	0xbe14752a	-0.1449782
96	0x3cd46990	0.025929242
97	0xbd6dc710	-0.05805117
98	0x3d3c060c	0.045904204
99	0x3e1d5b35	0.15366824
100	0x3e17393f	0.14767931
101	0xbd931162	-0.0718105
102	0x3e545391	0.20735003
103	0xbdd01860	-0.10160899
104	0x3d8ab0a6	0.06771974
105	0xbe097123	-0.13422064
106	0x3dc50c1e	0.09621452
107	0x3e42a739	0.19009103
108	0x3d9e3f6e	0.07726942
109	0xbe4ff53a	-0.2030839
110	0x3e419f1d	0.18908353
111	0x3e2938cd	0.16525574
112	0xbddf7092	-0.10910143
113	0x3e00f571	0.12593628
114	0x3e1ea593	0.15492849
115	0xbe0936c1	-0.13399793
116	0x3dac0b8a	0.084006384
117	0x3c3fb680	0.011701226
118	0xbe3f1a3e	-0.18662354
119	0x3d622f9c	0.055221185
120	0x3e400fdd	0.18756051
121	0x3c8bee48	0.017081395
122	0x3d3f7a04	0.046747223
123	0xbdca00bb	-0.098634206
124	0xbd7a7270	-0.061144292
125	0xbdb1c498	-0.086800754
126	0x3e37bc5b	0.17942946
127	0x3e5bc27d	0.2146091
128	0x3dbb480e	0.09144603
129	0xbe2d3ab4	-0.16916925
130	0x3e044ceb	0.12919967
131	0x3e534a39	0.20633782
132	0xbd051e3c	-0.032499537
133	0xbe5653cc	-0.20930403
134	0x3cfe7438	0.031061277
135	0x3db81cf6	0.08989899
136	0x3e17aec7	0.14812766
137	0xbcd06488	-0.025438562
138	0xbe1bcc3a	-0.15214625
139	0x3e4b5d69	0.19859852
140	0xbca6f948	-0.020382538
141	0x3e473b9f	0.19456337
142	0xbcc51898	-0.024059579
143	0x3e1a0c1f	0.15043686
144	0xbdc14e0b	-0.09438714
145	0xbd016a64	-0.031595603
146	0x3e5058a1	0.20346309
147	0xbdfabe2e	-0.12243305
148	0xbc209d90	-0.009803191
149	0xbe592cdb	-0.21208517
150	0x3d998906	0.07496838
151	0x3df84cb6	0.121240065
152	0xbdd10ec9	-0.10207898
153	0xbe16649a	-0.14686814
154	0xbe3b810e	-0.18310949
155	0xbcb32520	-0.021868289
156	0x3dcef79a	0.1010582
157	0xbdfa07bf	-0.12208509
158	0x3dfe515e	0.12417863
159	0x3da0f47e	0.07859133
160	0xbe40b341	-0.1881838
161	0x3d69e70c	0.05710511
162	0x3d138fac	0.036025688
163	0x3cf08170	0.029358596
164	0x3e3751b5	0.17902263
165	0x3e3f38bb	0.18673985
166	0xbdb0c5ca	-0.08631475
167	0xbe588a76	-0.21146569
168	0xbe1565a0	-0.14589548
169	0xbe02caa6	-0.12772617
170	0x3e22ef0b	0.159115
171	0x3e1d21fd	0.15344997
172	0x3e4bab9f	0.19889687
173	0xbdc5bc1b	-0.09655019
174	0xbd891d8a	-0.06695087
175	0xbdbf021b	-0.093265735
176	0xbd18509c	-0.03718625
177	0x3dfaacaa	0.12239964
178	0x3e0237af	0.12716554
179	0x3df628b6	0.12019484
180	0xbdbdb422	-0.09262873
181	0xbe230852	-0.15921143
182	0x3df5be16	0.11999147
183	0x3dcc679e	0.09980701
184	0xbd80a2c8	-0.06281048
185	0xbe271f7d	-0.16320606
186	0xbceb6a38	-0.028737172
187	0x3c5bdf70	0.013419971
188	0x3d13f12c	0.03611867
189	0x3e12162d	0.14266272
190	0xbd643258	-0.055712074
191	0xbcb123d8	-0.021623537
192	0x3e018941	0.12650014
193	0xbd5dc228	-0.05414024
194	0xbd521240	-0.051286936
195	0x3df28b7e	0.11843012
196	0xbdefdd35	-0.11712114
197	0x3d256084	0.040375248
198	0x3de329fa	0.11091991
199	0xbe2d388f	-0.16916107
200	0xbd60e30c	-0.05490403
201	0x3d2eb454	0.042652443
202	0x3d662514	0.056187704
203	0xbe59e98e	-0.212805
204	0x3d897cba	0.06713243
205	0xbe244c69	-0.16044773
206	0x3d954a22	0.0728953
207	0xbda4bf08	-0.08044249
208	0x3d328dcc	0.04359226
209	0x3e376c81	0.17912485
210	0x3e4d800b	0.20068376
211	0xbe5050ec	-0.20343369
212	0xbdde3e14	-0.10851684
213	0x3cce7db0	0.025206417
214	0xbd86e6fe	-0.06587027
215	0x3a3a9600	0.00071176887
216	0x3e395f97	0.18102871
217	0xbc6e1f20	-0.014533788
218	0x3cbbc730	0.022922128
219	0x3ddcafee	0.107757434
220	0x3e02ed19	0.12785758
221	0x3e00ce77	0.1257876
222	0xbe503791	-0.20333697
223	0x3df9ba5a	0.12193747
224	0x3e4e210d	0.20129795
225	0x3e36ca23	0.17850547
226	0xbe3b8111	-0.18310954
227	0xbdab4de0	-0.08364463
228	0xbdbfd2f1	-0.09366406
229	0x3e1a923d	0.15094848
230	0xbd9d637a	-0.07684989
231	0x3d754ae4	0.059885874
232	0xbe311bf8	-0.17295825
233	0xbd986ec0	-0.07442999
234	0xbe2abb68	-0.16673052
235	0x3cb123d8	0.021623537
236	0xbd96a952	-0.07356514
237	0x3cf856f8	0.030314907
238	0xbda72268	-0.08160859
239	0x3dff6abe	0.12471531
240	0xbdf9cdab	-0.12197431
241	0x3c9d2a78	0.01918529
242	0x3bfb8be0	0.0076765865
243	0xbd1ee074	-0.038788274
244	0xbd9c9356	-0.076452896
245	0x3d2de644	0.042455927
246	0xbe08686c	-0.13321084
247	0xbda57e16	-0.080806896
248	0x3e15216d	0.14563532
249	0xbc273830	-0.010206267
250	0x3e26e3b1	0.16297795
251	0x3dcbb01e	0.09945701
252	0x3c548680	0.01297152
253	0xbdb7accc	-0.08968505
254	0x3dacf806	0.08445744
255	0xb9ada600	-0.0003312081

mlp_extractor.policy_net.2.bias f4 [64]
0	0x00000000	0.0
1	0x00000000	0.0
2	0x00000000	0.0
3	0x00000000	0.0
4	0x00000000	0.0
5	0x00000000	0.0
6	0x00000000	0.0
7	0x00000000	0.0
8	0x00000000	0.0
9	0x00000000	0.0
10	0x00000000	0.0
11	0x00000000	0.0
12	0x00000000	0.0
13	0x00000000	0.0
14	0x00000000	0.0
15	0x00000000	0.0
16	0x00000000	0.0
17	0x00000000	0.0
18	0x00000000	0.0
19	0x00000000	0.0
20	0x00000000	0.0
21	0x00000000	0.0
22	0x00000000	0.0
23	0x00000000	0.0
24	0x00000000	0.0
25	0x00000000	0.0
26	0x00000000	0.0
27	0x00000000	0.0
28	0x00000000	0.0
29	0x00000000	0.0
30	0x00000000	0.0
31	0x00000000	0.0
32	0x00000000	0.0
33	0x00000000	0.0
34	0x00000000	0.0
35	0x00000000	0.0
36	0x00000000	0.0
37	0x00000000	0.0
38	0x00000000	0.0
39	0x00000000	0.0
40	0x00000000	0.0
41	0x00000000	0.0
42	0x00000000	0.0
43	0x00000000	0.0
44	0x00000000	0.0
45	0x00000000	0.0
46	0x00000000	0.0
47	0x00000000	0.0
48	0x00000000	0.0
49	0x00000000	0.0
50	0x00000000	0.0
51	0x00000000	0.0
52	0x00000000	0.0
53	0x00000000	0.0
54	0x00000000	0.0
55	0x00000000	0.0
56	0x00000000	0.0
57	0x00000000	0.0
58	0x00000000	0.0
59	0x00000000	0.0
60	0x00000000	0.0
61	0x00000000	0.0
62	0x00000000	0.0
63	0x00000000	0.0

mlp_extractor.value_net.0.weight f4 [64, 3]
0	0xbe968c90	-0.29404116
1	0x3d73f830	0.059562862
2	0x3db04890	0.0860759
3	0xbe7ec70e	-0.24880621
4	0x3e94c116	0.29053563
5	0x3e019da4	0.12657791
6	0x3d93aa10	0.07210171
7	0xbdd22f82	-0.10262968
8	0xbe06563c	-0.13118833
9	0x3ddfa854	0.10920778
10	0xbe6c579e	-0.23080298
11	0x3d4c2960	0.049844146
12	0x3e49a9ae	0.19693634
13	0xbe21704f	-0.15765499
14	0x3de67768	0.11253244
15	0x3dfc1120	0.12307954
16	0x3e8caac4	0.27474034
17	0x3e5b2790	0.2140181
18	0x3dbc0714	0.091810375
19	0x3d92284c	0.07136592
20	0x3e10208e	0.14074919
21	0xbd86d4f0	-0.06583583
22	0x3e3a1726	0.18172893
23	0xbe919094	-0.28430617
24	0x3d2fd9e8	0.04293242
25	0xbd618d64	-0.05506648
26	0xbe44815e	-0.19189975
27	0x3d806f48	0.06271225
28	0x3d69eec8	0.057112485
29	0xbdd5e3b6	-0.10443823
30	0xbe8f0d0f	-0.2793965
31	0xbe066dec	-0.1312787
32	0x3d23f528	0.04002872
33	0x3e7c73f8	0.24653614
34	0xbda2b288	-0.079442084
35	0xbe38784d	-0.18014641
36	0x3e1a7814	0.15084869
37	0xba7f3400	-0.00097352266
38	0x3d46d7e0	0.04854572
39	0xbde1c7b0	-0.110244155
40	0xbe1646db	-0.14675467
41	0x3e3647a2	0.17800763
42	0xbe2415f5	-0.16024001
43	0x3da25720	0.07926774
44	0xbe8a54bb	-0.2701777
45	0x3e0c30bc	0.13690466
46	0x3e9893a6	0.29800147
47	0xbe97e81a	-0.29669267
48	0xbe8648c6	-0.26227397
49	0xbe3ecf75	-0.18633826
50	0xbe317f50	-0.17333722
51	0x3da21678	0.07914442
52	0x3e6f2940	0.2335558
53	0xbe865686	-0.26237887
54	0xbdaf3c94	-0.08556476
55	0xbd4fea58	-0.050760597
56	0x3e8b333e	0.27187532
57	0xbe93055c	-0.28715026
58	0xbe86f97c	-0.26362216
59	0x3e8b8282	0.27248007
60	0xbe8b50db	-0.27210125
61	0xbdbb173e	-0.091352925
62	0x3e020dde	0.12700602
63	0x3e8389ba	0.25691015
64	0x3e19ce4a	0.150201
65	0xbe059678	-0.1304568
66	0xbd536c34	-0.051616862
67	0xbd0599b0	-0.03261727
68	0xbdcbf004	-0.09957889
69	0x3e56d818	0.2098087
70	0xbdf5a7a0	-0.119948626
71	0x3e8c6cbe	0.27426714
72	0xbe6f0cb6	-0.23344693
73	0x3e39af26	0.1813322
74	0xbe34beb4	-0.17650872
75	0xbd4c2e90	-0.049849093
76	0x3d06e670	0.032934606
77	0x3e91a572	0.28446537
78	0xbe4ecefa	-0.20196143
79	0xbe5c7522	-0.21529058
80	0x3e8c2a8e	0.27376217
81	0x3c11f660	0.008908838
82	0xbe79b5a8	-0.24385703
83	0x3e93fa48	0.28901887
84	0xbe907229	-0.28212097
85	0xbb435980	-0.0029807985
86	0x3e37b372	0.17939547
87	0xbe855066	-0.26037902
88	0x3e41d028	0.18927062
89	0xbe92a603	-0.28642282
90	0xbdfdcf14	-0.12393013
91	0x3de832d4	0.1133782
92	0xbe096bb1	-0.13419987
93	0xbcdf1600	-0.02723217
94	0xbe3411f3	-0.17584972
95	0xbdb7c4fe	-0.0897312
96	0x3e857c0c	0.26071203
97	0x3e292616	0.16518435
98	0x3c92a490	0.017900735
99	0xbe5b8f60	-0.21441412
100	0xbe18c720	-0.1491971
101	0x3e5ce190	0.2157042
102	0x3d9f0730	0.07765043
103	0x3e2074dc	0.15669578
104	0x3e62189c	0.220797
105	0xbe81cdc2	-0.25352293
106	0x3e6c0f70	0.23052764
107	0x3e2f3b00	0.1711235
108	0xbe903b1a	-0.2817009
109	0xbe4ad635	-0.19808276
110	0x3e81b444	0.25332844
111	0xbe67afea	-0.226257
112	0x3e754420	0.23951769
113	0xbe070827	-0.13186704
114	0xbde5e3d2	-0.11225094
115	0x3e0ec97a	0.13944045
116	0xbdeb062e	-0.11475788
117	0x3dcaa674	0.0989503
118	0x3de067d8	0.109573066
119	0x3d94522c	0.072422355
120	0x3d9cc0a0	0.07653928
121	0xbe07f181	-0.1327572
122	0xbcb1cf70	-0.02170536
123	0x3e8bc496	0.2729842
124	0x3d90b6e0	0.07066131
125	0xbda48fdc	-0.080352515
126	0x3ce5d6d0	0.028056532
127	0xbe6e7024	-0.23284966
128	0x3e4c45d6	0.19948515
129	0xbe5307ac	-0.20608395
130	0xbd314730	-0.04328078
131	0x3e733e64	0.23754269
132	0x3e70f804	0.2353211
133	0xbe5f6592	-0.2181609
134	0xbe3897d8	-0.18026674
135	0x3e525240	0.20539188
136	0xbdb30202	-0.08740617
137	0x3dd8d92c	0.10588297
138	0x3e7cb290	0.24677491
139	0x3e2b6134	0.16736299
140	0xbe6e569e	-0.2327523
141	0x3dfb2a98	0.122639835
142	0xbd1fa048	-0.038971215
143	0x3e868ec2	0.2628079
144	0x3e9072a0	0.28212452
145	0x3e5c6924	0.21524483
146	0x3d51d110	0.05122477
147	0x3e7057d0	0.23470998
148	0xbe345fac	-0.17614621
149	0x3e35d1b2	0.17755774
150	0xbc82e110	-0.015976459
151	0xbd31ab50	-0.043376267
152	0xbe580bf6	-0.21098313
153	0x3e5ca8b0	0.21548724
154	0x3e0051fe	0.12531278
155	0xbe47e870	-0.19522262
156	0xbe7b3155	-0.24530537
157	0xbe74299c	-0.23843998
158	0xbe82649a	-0.25467378
159	0xbe0098fb	-0.12558357
160	0x3d816d14	0.06319633
161	0x3e648f28	0.22320235
162	0x3dda03a8	0.106452286
163	0xbe7da42c	-0.24769658
164	0xbdd21d88	-0.10259539
165	0xbe8fb28d	-0.2806591
166	0xbe4a91a9	-0.19782127
167	0x3d8c6b3c	0.06856391
168	0x3d322a88	0.043497592
169	0x3e0dcd32	0.13847807
170	0xbe69cfd1	-0.22833182
171	0x3e928f78	0.28625083
172	0xbd97d0ac	-0.07412848
173	0xbe85f746	-0.26165217
174	0xbd79b364	-0.060962096
175	0xbe83a133	-0.25708923
176	0x3dbbf284	0.091771156
177	0x3d275880	0.040855885
178	0xbe22614d	-0.1585743
179	0xbe4a0154	-0.19727069
180	0x3e008550	0.12550855
181	0xbe80b6c4	-0.2513944
182	0x3e5e9968	0.21738207
183	0xbe3e8b78	-0.1860789
184	0xbcf49da0	-0.029860318
185	0xbdf9d7fe	-0.121994
186	0xbd725f98	-0.059173197
187	0xbb990200	-0.004669428
188	0xbdc84a8a	-0.09779842
189	0x3e0f6452	0.14003113
190	0xbe32cca0	-0.1746087
191	0xbce3e9d0	-0.027821451

mlp_extractor.value_net.0.bias f4 [64]
0	0x00000000	0.0
1	0x00000000	0.0
2	0x00000000	0.0
3	0x00000000	0.0
4	0x00000000	0.0
5	0x00000000	0.0
6	0x00000000	0.0
7	0x00000000	0.0
8	0x00000000	0.0
9	0x00000000	0.0
10	0x00000000	0.0
11	0x00000000	0.0
12	0x00000000	0.0
13	0x00000000	0.0
14	0x00000000	0.0
15	0x00000000	0.0
16	0x00000000	0.0
17	0x00000000	0.0
18	0x00000000	0.0
19	0x00000000	0.0
20	0x00000000	0.0
21	0x00000000	0.0
22	0x00000000	0.0
23	0x00000000	0.0
24	0x00000000	0.0
25	0x00000000	0.0
26	0x00000000	0.0
27	0x00000000	0.0
28	0x00000000	0.0
29	0x00000000	0.0
30	0x00000000	0.0
31	0x00000000	0.0
32	0x00000000	0.0
33	0x00000000	0.0
34	0x00000000	0.0
35	0x00000000	0.0
36	0x00000000	0.0
37	0x00000000	0.0
38	0x00000000	0.0
39	0x00000000	0.0
40	0x00000000	0.0
41	0x00000000	0.0
42	0x00000000	0.0
43	0x00000000	0.0
44	0x00000000	0.0
45	0x00000000	0.0
46	0x00000000	0.0
47	0x00000000	0.0
48	0x00000000	0.0
49	0x00000000	0.0
50	0x00000000	0.0
51	0x00000000	0.0
52	0x00000000	0.0
53	0x00000000	0.0
54	0x00000000	0.0
55	0x00000000	0.0
56	0x00000000	0.0
57	0x00000000	0.0
58	0x00000000	0.0
59	0x00000000	0.0
60	0x00000000	0.0
61	0x00000000	0.0
62	0x00000000	0.0
63	0x00000000	0.0

mlp_extractor.value_net.2.weight f4 [64, 64]
0	0xbbe0cba0	-0.0068602115
1	0x3e4a465d	0.19753404
2	0x3d731404	0.05934526
3	0x3e241557	0.16023766
4	0x3d9919c6	0.07475619
5	0xbd0448c4	-0.032295957
6	0x3d7af124	0.061265126
7	0xbe0ea277	-0.13929163
8	0xbd970c70	-0.07375419
9	0xbd640b9c	-0.055675134
10	0xbe49e69f	-0.19716881
11	0xbda65fa8	-0.08123714
12	0xbcec6c90	-0.02886036
13	0xbc777260	-0.015102953
14	0x3e105f85	0.14098938
15	0x3cdcefb0	0.02696976
16	0x3e574173	0.2102106
17	0xbe0f1ed8	-0.1397661
18	0x3dc66256	0.09686725
19	0x3e4d1c47	0.20030318
20	0x3de2853a	0.11060567
21	0xbdee8c0d	-0.11647806
22	0x3e386b37	0.18009649
23	0x3e2dd9eb	0.1697766
24	0xbe53a80c	-0.20669574
25	0x3dedaafe	0.1160488
26	0xbe3f8918	-0.18704641
27	0xbdcec5f3	-0.100963496
28	0xbe3bfec2	-0.18358901
29	0x3dc72786	0.09724335
30	0xbe22b392	-0.15888813
31	0xbdeaf67f	-0.11472797
32	0x3e222995	0.15836175
33	0x3e444e29	0.1917044
34	0x3d22d5bc	0.039754614
35	0xbd041c7c	-0.032253727
36	0xbdab576e	-0.08366285
37	0x3a930b80	0.0011218637
38	0x3dd8a71e	0.1057875
39	0x3e2d3f53	0.16918688
40	0xbe094d8e	-0.13408491
41	0x3e28eaf5	0.16495879
42	0xbd71f98c	-0.059075877
43	0xbdde8f87	-0.108672194
44	0x3dd8b556	0.10581462
45	0xbcd8cbc8	-0.026464358
46	0x3e50627b	0.20350067
47	0x3cad7640	0.02117455
48	0x3c90bf10	0.01766923
49	0x3def8282	0.11694814
50	0xbdfeddbb	-0.124446355
51	0xbc5e0ec0	-0.013553321
52	0xbe5c8a92	-0.21537235
53	0x3e0a481f	0.13504075
54	0xbddd3277	-0.10800641
55	0xbcb07470	-0.021539897
56	0xbd21978c	-0.039451167
57	0x3e014eef	0.12627767
58	0x3e49e1d9	0.1971506
59	0xbe1d78f8	-0.15378177
60	0xbe264c00	-0.16239929
61	0x3df47a36	0.119373724
62	0xbd9755c4	-0.07389405
63	0x3dd87f2a	0.105711296
64	0xbe571288	-0.21003163
65	0xbd19e4a8	-0.03757158
66	0xbdc2c878	-0.09510893
67	0x3e3b273d	0.18276687
68	0x3e2c3485	0.1681691
69	0xbda7ec34	-0.08199349
70	0x3d9577f2	0.072982684
71	0x3e136ee5	0.14397772
72	0x3e218acd	0.15775605
73	0x3da42f7e	0.08016871
74	0x3dedafc2	0.11605789
75	0xbd15ec58	-0.036602348
76	0xbddb3df5	-0.10705177
77	0xbe2343de	-0.15943858
78	0x3d9d5846	0.076828524
79	0xbd08874c	-0.033332154
80	0x3e061759	0.13094844
81	0xbe2bfdb6	-0.16796002
82	0x3e2d72b7	0.16938291
83	0xbd6edd00	-0.05831623
84	0x3d6b9404	0.057514206
85	0x3e5b0e25	0.21392114
86	0xbc6e8620	-0.014558345
87	0x3e2d3167	0.16913377
88	0xbe2b0b3b	-0.16703503
89	0xbdcdea3c	-0.10054442
90	0x3d68cf8c	0.056838557
91	0x3e43a0d3	0.19104318
92	0x3da7ed72	0.08199586
93	0x3dd2b012	0.10287489
94	0x3e18f635	0.1493767
95	0xbe24df54	-0.16100818
96	0xbe3f0e1a	-0.18657723
97	0x3c43a050	0.011940077
98	0xbe11e034	-0.14245683
99	0xbe27d13a	-0.16388407
100	0xbe27b822	-0.16378835
101	0xbbfe4240	-0.0077593625
102	0xbd1b93f0	-0.03798288
103	0x3e2b3ef3	0.16723232
104	0x3e255019	0.16143836
105	0xbca4a028	-0.0200959
106	0x3e00bfb9	0.12573136
107	0xbe3a7c86	-0.18211564
108	0xbe3f81cc	-0.18701857
109	0x3dde5d56	0.10857646
110	0x3cacc2f0	0.021089047
111	0xbc9e8b40	-0.019353509
112	0xbda0952e	-0.07840954
113	0x3e2585c3	0.16164307
114	0x3e4bdb67	0.19907914
115	0x3e536941	0.2064562
116	0x3d8ac02e	0.067749366
117	0x3e17c337	0.14820562
118	0x3e542f8f	0.20721267
119	0x3e00bf43	0.1257296
120	0x3e4246af	0.18972276
121	0x3dc11bea	0.09429152
122	0xbc1b8b70	-0.009493694
123	0x3e0e247f	0.1388111
124	0x3b045580	0.0020192564
125	0xbe009a24	-0.125588
126	0x3e0e0ebd	0.1387281
127	0x3e03feaf	0.12890123
128	0xbe216ae5	-0.15763433
129	0x3e25229d	0.16126485
130	0x3d67e24c	0.056612298
131	0xbdb2da92	-0.08733095
132	0x3d679284	0.056536213
133	0xbdaa800e	-0.08325206
134	0x3d828abe	0.06374119
135	0x3e2ea9e1	0.17056991
136	0xbcdb14b8	-0.026743278
137	0x3cc58068	0.02410908
138	0xbe3b5bee	-0.18296787
139	0xbe08aaa2	-0.13346341
140	0xbb4b14c0	-0.003098771
141	0x3e055c6f	0.13023542
142	0x3ca91168	0.020638183
143	0x3c819ae8	0.015820935
144	0xbe4e0eeb	-0.20122878
145	0x3e54ea2b	0.20792453
146	0xbd2e1788	-0.04250291
147	0x3e3c3e47	0.18383132
148	0xbe17aab0	-0.14811206
149	0xbd4badb0	-0.04972619
150	0x3c6e0cb0	0.014529392
151	0x3d7e74f4	0.062123254
152	0xbe0eed34	-0.13957673
153	0xbc7b5250	-0.015339449
154	0xbe12b3b6	-0.14326367
155	0xbdaa24ce	-0.08307801
156	0x3c973888	0.018459573
157	0x3d171354	0.036883667
158	0x3db0b742	0.08628704
159	0x3d9b258e	0.07575522
160	0xbe570286	-0.20997056
161	0x3d1c2314	0.03811939
162	0xbdc064da	-0.09394236
163	0x3d42402c	0.04742448
164	0xbd88c386	-0.06677918
165	0xbe56966b	-0.20955817
166	0x3d017ef0	0.031615198
167	0xbe21a786	-0.15786561
168	0xbbdb8320	-0.006698981
169	0x3e3370c1	0.17523481
170	0xbde31d17	-0.11089533
171	0x3dc9b36e	0.098486766
172	0x3e3e4a23	0.18582968
173	0x3c986568	0.018603042
174	0xbcda8958	-0.026676819
175	0x3e348a79	0.17630948
176	0xbdc18363	-0.09448888
177	0xbdd6fc10	-0.10497296
178	0x3b778ec0	0.0037774295
179	0xbe3bdda7	-0.18346272
180	0xbdb8a354	-0.09015527
181	0xbe328a79	-0.17435636
182	0xbe47d085	-0.19513138
183	0xbdd88dfe	-0.10573958
184	0xbded9e19	-0.1160242
185	0x3e55d2dd	0.20881219
186	0x3e4d6bd3	0.20060663
187	0xbe4ba88c	-0.19888514
188	0xbe36fed6	-0.1787065
189	0xbe41c81d	-0.18923993
190	0xbcabad50	-0.020956665
191	0x3dc15152	0.09439339
192	0x3e2d47df	0.16921948
193	0xbbae8a20	-0.0053265244
194	0x3e270649	0.16310991
195	0xbd0e8ab0	-0.03480023
196	0xbc253490	-0.010083333
197	0x3d03dbc8	0.03219202
198	0x3de8cac6	0.11366801
199	0x3dd50826	0.10401945
200	0xbe4eac32	-0.20182875
201	0xbe4348af	-0.19070695
202	0xbd0c9df0	-0.03433031
203	0x3dd77536	0.10520403
204	0xbe2cebe2	-0.16886857
205	0xbd55392c	-0.052056476
206	0xbe3ca4a4	-0.1842218
207	0x3cb948e8	0.022617772
208	0xbde4a7af	-0.111647956
209	0x3e15d7f5	0.14633162
210	0x3e2e8a09	0.17044844
211	0x3d536e6c	0.05161898
212	0x3d955e62	0.07293393
213	0xbe069750	-0.13143659
214	0xbe028fc4	-0.12750155
215	0x3e2f87bd	0.17141624
216	0xbc9e5000	-0.019325256
217	0x3e47c533	0.1950882
218	0x3e181df7	0.1485518
219	0xbe472269	-0.1944672
220	0xbe596c10	-0.21232629
221	0xbe20b5e7	-0.1569439
222	0xbd9cb4c6	-0.07651667
223	0xbdd5799d	-0.104235865
224	0x3db2b1ba	0.08725305
225	0xbe5330e9	-0.20624126
226	0x3e0cfde5	0.13768728
227	0x3e3811b1	0.17975499
228	0xbd462c80	-0.048382282
229	0xbd602d04	-0.05473043
230	0x3dc748de	0.09730695
231	0x3dafa42e	0.08576237
232	0x3e3096bd	0.17245002
233	0x3d6149d4	0.05500205
234	0x3e4bb1d9	0.19892062
235	0x3ce4bd60	0.027922332
236	0x3ccf1028	0.025276259
237	0xbe4813aa	-0.19538751
238	0xbdfffe78	-0.12499708
239	0x3d84f5be	0.06492184
240	0x3dee757e	0.116435036
241	0xbe4b67e3	-0.19863848
242	0x3e57582f	0.21029733
243	0x3d435784	0.047690883
244	0xbe0d025c	-0.13770431
245	0xbdbb8814	-0.09156814
246	0x3e41ea6b	0.1893708
247	0x3cddc398	0.027070805
248	0x3e5092d5	0.20368512
249	0x3df1ae26	0.11800794
250	0x3e1fd973	0.15610294
251	0xbcec9c60	-0.02888316
252	0xbe4f0d60	-0.20219946
253	0x3e074fe5	0.13214071
254	0xbd706d30	-0.05869788
255	0x3e1c88ad	0.15286513

mlp_extractor.value_net.2.bias f4 [64]
0	0x00000000	0.0
1	0x00000000	0.0
2	0x00000000	0.0
3	0x00000000	0.0
4	0x00000000	0.0
5	0x00000000	0.0
6	0x00000000	0.0
7	0x00000000	0.0
8	0x00000000	0.0
9	0x00000000	0.0
10	0x00000000	0.0
11	0x00000000	0.0
12	0x00000000	0.0
13	0x00000000	0.0
14	0x00000000	0.0
15	0x00000000	0.0
16	0x00000000	0.0
17	0x00000000	0.0
18	0x00000000	0.0
19	0x00000000	0.0
20	0x00000000	0.0
21	0x00000000	0.0
22	0x00000000	0.0
23	0x00000000	0.0
24	0x00000000	0.0
25	0x00000000	0.0
26	0x00000000	0.0
27	0x00000000	0.0
28	0x00000000	0.0
29	0x00000000	0.0
30	0x00000000	0.0
31	0x00000000	0.0
32	0x00000000	0.0
33	0x00000000	0.0
34	0x00000000	0.0
35	0x00000000	0.0
36	0x00000000	0.0
37	0x00000000	0.0
38	0x00000000	0.0
39	0x00000000	0.0
40	0x00000000	0.0
41	0x00000000	0.0
42	0x00000000	0.0
43	0x00000000	0.0
44	0x00000000	0.0
45	0x00000000	0.0
46	0x00000000	0.0
47	0x00000000	0.0
48	0x00000000	0.0
49	0x00000000	0.0
50	0x00000000	0.0
51	0x00000000	0.0
52	0x00000000	0.0
53	0x00000000	0.0
54	0x00000000	0.0
55	0x00000000	0.0
56	0x00000000	0.0
57	0x00000000	0.0
58	0x00000000	0.0
59	0x00000000	0.0
60	0x00000000	0.0
61	0x00000000	0.0
62	0x00000000	0.0
63	0x00000000	0.0

action_net.weight f4 [1, 64]
0	0x3e6235b8	0.22090805
1	0xbde419e2	-0.11137749
2	0x3e52d86c	0.20590371
3	0x3cd45720	0.02592045
4	0x3e83cec4	0.25743687
5	0x3e108470	0.14113021
6	0x3e7c573c	0.24642652
7	0xbde3ffb4	-0.11132756
8	0xbd85f53e	-0.06540917
9	0x3e84ac16	0.2591254
10	0xbe14817f	-0.14502524
11	0x3e84689e	0.25861067
12	0x3d80c7b8	0.06288093
13	0xbdad6784	-0.0846701
14	0x3e238a54	0.15970737
15	0xbe142d35	-0.1447037
16	0x3e6610c8	0.22467339
17	0x3e644278	0.22290981
18	0xbda1fd52	-0.07909645
19	0x3e89c258	0.26906085
20	0xbe1d2891	-0.15347506
21	0x3e2995d8	0.16561067
22	0x3decdb80	0.11565304
23	0xbdb8ec0e	-0.09029399
24	0x3dc3596c	0.0953854
25	0xbe14f4fa	-0.14546576
26	0x3e33fa74	0.17576009
27	0xbe3ffa82	-0.18747905
28	0xbe8a5dc8	-0.27024674
29	0x3e951e7a	0.29124814
30	0x3deebfb4	0.11657658
31	0xbd049db8	-0.032376975
32	0xbe8f2df8	-0.2796476
33	0xbcfe8ff0	-0.031074494
34	0xbd902b92	-0.070395604
35	0xbdc97f88	-0.09838778
36	0x3e4c551c	0.19954342
37	0x3e39adf0	0.18132758
38	0x3deafcc0	0.114739895
39	0xbe212266	-0.15735778
40	0x3e41ca52	0.18924835
41	0xbe453b06	-0.19260797
42	0xbddc7012	-0.10763563
43	0x3d3e1bf8	0.04641339
44	0xbd729d3c	-0.05923198
45	0x3e793994	0.2433837
46	0xbe83aa7d	-0.2571601
47	0x3e93b4f0	0.28848982
48	0xbe3ef366	-0.18647537
49	0x3dffb270	0.12485206
50	0x3e255eee	0.16149494
51	0xbe3a3560	-0.18184423
52	0xbe273b9b	-0.16331331
53	0x3e620718	0.22073019
54	0x3d8e0760	0.069350004
55	0x3d903408	0.07041174
56	0x3e65d0e0	0.2244296
57	0xbb3bd680	-0.0028661788
58	0x3e8d3a32	0.27583462
59	0x3e476b24	0.19474465
60	0xbda8b25e	-0.08237146
61	0x3e816aee	0.25276893
62	0xbd17ca30	-0.037058055
63	0x3dedc988	0.11610705

value_net.weight f4 [1, 64]
0	0xbe96c718	-0.2944877
1	0xbe0b4b84	-0.13603026
2	0xbe1ece71	-0.15508439
3	0x3e32f4fc	0.17476267
4	0x3e881008	0.2657473
5	0x3d81d76c	0.063399166
6	0x3e6e1bfc	0.23252863
7	0x3de4d800	0.11174011
8	0xbe6f5e99	-0.2337593
9	0xbdbe5496	-0.09293477
10	0x3b9608c0	0.00457868
11	0xbdfd13d6	-0.12357299
12	0xbe851790	-0.2599454
13	0x3dfdaf60	0.12386966
14	0xbd857cb2	-0.06517924
15	0x3e4a7398	0.19770658
16	0xbdee5676	-0.11637585
17	0xbe8ae989	-0.27131298
18	0xbd6ce6f0	-0.057837427
19	0xbe558b42	-0.20853904
20	0x3de248bc	0.11049029
21	0xbdffe87c	-0.12495515
22	0x3e2ce510	0.16884255
23	0x3e43bb58	0.19114435
24	0xbe094f76	-0.13409218
25	0x3e429040	0.1900034
26	0x3e0d996a	0.13828054
27	0x3d82e7f0	0.06391895
28	0xbd163cd8	-0.03667912
29	0xbe0a2a1c	-0.13492626
30	0x3e0dc30a	0.13843933
31	0x3d5d7118	0.054062933
32	0xbd90619c	-0.070498675
33	0x3d82dfb0	0.06390321
34	0xbe51b5c2	-0.20479491
35	0xbe0e8aeb	-0.1392018
36	0x3e9b75ca	0.30363303
37	0xbdd20850	-0.10255492
38	0x3e886dc2	0.2664624
39	0x3e97f434	0.296785
40	0x3daa57f0	0.08317554
41	0xbc157b00	-0.009123564
42	0xbe06a6f3	-0.13149624
43	0xbdb5a834	-0.08869973
44	0x3e451618	0.1924671
45	0x3e93c3b4	0.28860247
46	0x3e36d4e4	0.17854649
47	0xbe1debae	-0.15421936
48	0xbda44e2c	-0.080227226
49	0x3d87f8ac	0.06639227
50	0x3d7cacb8	0.061688155
51	0x3e2ee60a	0.1707994
52	0x3e665c78	0.22496212
53	0x3e63fc2c	0.22264165
54	0x3e8fab08	0.28060174
55	0x3e97ee04	0.2967378
56	0x3e389f84	0.180296
57	0x3d1d18c8	0.03835371
58	0x3e78bc9c	0.24290699
59	0x3db5a0b0	0.08868539
60	0x3e61d24c	0.22052878
61	0x3e49372c	0.19649953
62	0xbe1c199b	-0.15244143
63	0x3df78ff0	0.12088001
