policies/Pendulum/xavier_ppo_initialization.pt (torch, 40972 bytes, 10 tensors)

mlp_extractor.policy_net.0.weight f4 [64, 3]
000000 6f 86 1a be cc 94 84 3d e2 86 84 be fa b9 3e be
       -0.15090345 0.06473693 -0.25884157 -0.18625632
000010 f6 95 93 be b4 fb 42 3e 88 e6 69 be 73 11 03 be
       -0.2882535 0.1904133 -0.22841847 -0.12799625
000020 da 80 bc bd 1e 96 3f 3e 16 30 2f 3e 20 28 55 be
       -0.09204264 0.18709609 0.17108187 -0.20816088
000030 e4 a6 ba 3d 40 60 d9 bd 22 75 89 3e eb 3e 2a be
       0.09113863 -0.10614061 0.26847178 -0.16625564
000040 01 84 76 be 00 e2 6b bd 00 6d 47 3b 6b b6 0e be
       -0.24073793 -0.057588577 0.003042996 -0.13936774
000050 62 1a 04 3e 7a 48 3e 3e 62 f5 fd bd cd 16 74 be
       0.12900689 0.18582335 -0.12400319 -0.23836823
000060 48 fb 35 3d e4 8a 6c bd f4 95 7b 3e c6 ba 8e be
       0.044429094 -0.057749644 0.24568921 -0.27876872
000070 28 7a dd 3d 0f fe 2d be f2 e0 09 3e 76 d2 06 3e
       0.10814315 -0.16991447 0.13464716 0.13166222
000080 43 b6 64 be 3a 11 95 bd 13 40 7d be 9e 51 93 3e
       -0.22335152 -0.07278676 -0.24731474 0.28773206
000090 2d f7 91 be 1c 48 86 3d aa 36 34 3e a0 a7 72 3e
       -0.28508893 0.065567225 0.17598978 0.23696756
0000a0 12 84 91 be 64 42 2c 3e 6c f9 b5 3d 6a fa 87 3e
       -0.28421074 0.16822201 0.08885464 0.26558238
0000b0 70 84 ca 3c 00 08 21 3b f4 5b be bd 56 a7 89 be
       0.024721354 0.0024571419 -0.092948824 -0.2688548
0000c0 4a d0 0a be ed c5 84 be fa fd 68 be 32 d6 41 3e
       -0.13556018 -0.25932255 -0.22753134 0.18929365
0000d0 38 8b ed 3d 0c ea 67 be 08 9d 2a 3e 64 b5 8c 3d
       0.115988195 -0.22647876 0.16661465 0.06870535
0000e0 2d e8 1f be 20 f1 12 3c bc e9 d6 3d e4 57 2c be
       -0.15615912 0.0089686215 0.104938 -0.16830403
0000f0 d0 a8 fb 3d 80 07 08 bb a0 ad 2e bc f2 07 93 bd
       0.12288058 -0.0020756423 -0.010661513 -0.0717925
000100 e8 12 06 3d d0 7f 51 3e 5c f8 6d bd 8a 38 84 3e
       0.032732874 0.20458913 -0.058098182 0.25824386
000110 40 a8 14 3e b4 f4 7c bd 66 f4 99 bd 10 bf 6f bd
       0.14517307 -0.061756805 -0.075173184 -0.05853182
000120 08 2d 1f 3e a0 72 9e 3c d0 11 7b bd b0 11 7e 3d
       0.15544522 0.019341767 -0.061296284 0.062028587
000130 e0 69 cd 3d fc 13 4b 3e f0 18 e2 3d b0 9f b8 bd
       0.1002996 0.19831842 0.11039913 -0.09014833
000140 a0 c5 62 bd aa d4 39 3e 98 5b a4 3d ec 28 88 3e
       -0.05536425 0.18147531 0.080252826 0.2659372
000150 13 e3 8b be 40 cd 61 bd 0c b3 87 be 9c c3 69 3e
       -0.2732168 -0.055127382 -0.2650379 0.22828525
000160 12 b5 fe bd 22 88 92 3e e8 7f c0 bd ee 19 99 bd
       -0.1243688 0.28619486 -0.09399396 -0.07475649
000170 78 80 0d bd 68 2e 76 3d 88 67 84 3d ca 61 33 3e
       -0.034546345 0.06010285 0.064650595 0.17517772
000180 84 a0 20 3e 2e c8 36 3e 6e 46 3a be 70 a7 89 3c
       0.15686232 0.178498 -0.1819093 0.016803473
000190 54 50 5f be a2 3f 48 be f3 a5 69 be 70 b5 70 3e
       -0.21807986 -0.19555524 -0.22817211 0.23506713
0001a0 e0 82 ea bc fe 18 f0 bd 83 c7 80 be 88 bc 16 bd
       -0.02862686 -0.11723517 -0.25152215 -0.03680089
0001b0 ec fd 5b 3e 40 55 65 bd 56 c3 8e bd 9c 33 76 be
       0.21483582 -0.055989504 -0.06970851 -0.24043125
0001c0 e2 84 da bd ec e6 c0 3d da 89 00 3e 54 d5 7d 3e
       -0.10669877 0.09419045 0.12552586 0.2478841
0001d0 ae 36 53 be 70 97 11 bd 43 58 5f be e0 02 0b bc
       -0.20626327 -0.035544813 -0.21811013 -0.008484572
0001e0 94 bd 5c 3e a6 35 f4 bd 00 47 93 3e f0 33 c2 bc
       0.21556693 -0.11924295 0.28765106 -0.023706406
0001f0 32 38 17 3e 32 72 82 be 10 27 22 3d 64 74 93 3e
       0.1476753 -0.2547775 0.039588034 0.28799736
000200 62 90 9f bd a0 8d b6 bc 7c f8 55 3e 81 4d 29 be
       -0.07791211 -0.022284329 0.2089557 -0.16533472
000210 70 a1 97 bc 99 df 03 be 2c a9 2c be 30 f1 05 3d
       -0.018509597 -0.12878264 -0.16861409 0.032700717
000220 aa ea 93 bd a4 9f 8e 3e 0a 5a 89 bd a8 fb 72 bd
       -0.07222493 0.2785617 -0.06706627 -0.05932203
000230 ee 4c 0b be 90 a9 c5 bc 60 af 27 3e d0 e1 ab bc
       -0.13603565 -0.024128705 0.16375494 -0.0209817
000240 80 01 16 bc 14 22 45 3e 78 82 0b bd e0 5d c0 bc
       -0.009155631 0.19251281 -0.03405997 -0.023482263
000250 90 af 8a 3e 58 b4 00 bd 96 2d 8f be 18 b0 1c 3d
       0.2708707 -0.03142199 -0.27964467 0.038253874
000260 9c 4b 75 3e ba 29 65 be de cf 8b 3e 1e 51 3a 3e
       0.23954624 -0.22379199 0.27307028 0.18195006
000270 72 a6 92 3e a4 7b 94 3d 4a 9d 92 3e a6 f6 9b bd
       0.28642613 0.07250145 0.28635627 -0.07615404
000280 74 c1 43 be 80 33 8a 3b cd f2 90 be 30 a9 d8 3d
       -0.19116765 0.004217565 -0.28310242 0.10579145
000290 4c b0 8a 3e 64 d8 da 3d b2 46 02 be 3c 87 95 3e
       0.2708763 0.106858045 -0.1272228 0.29204738
0002a0 9a df 11 3e de c4 39 3e c8 c8 10 be 74 ec 8d be
       0.14245453 0.18141505 -0.14139092 -0.27719462
0002b0 a2 0f 95 3e 2e 8b 7e be 96 a1 ed bd 40 af 84 3d
       0.2911349 -0.2485778 -0.11603086 0.06478739
0002c0 f0 c8 29 be 03 38 55 be c9 ba 1b be cc aa 0f be
       -0.16580558 -0.20822148 -0.15207972 -0.14029998
0002d0 bc 58 6c bd 2e 86 8e be b7 e6 73 be 4c 23 0a 3e
       -0.05770181 -0.27836746 -0.2381848 0.13490027
0002e0 68 53 6d be 4c 1f e8 3d f8 24 65 be 9e 38 34 3e
       -0.23176348 0.113340944 -0.22377384 0.17599723
0002f0 88 42 2d 3d 20 0e 74 3e 1e 1e 22 3e a4 d1 54 be
       0.042299777 0.23833513 0.15831801 -0.20783097

mlp_extractor.policy_net.0.bias f4 [64]
000000 00 00 00 00 00 00 00 00 00 00 00 00 00 00 00 00
       0.0 0.0 0.0 0.0
000010 00 00 00 00 00 00 00 00 00 00 00 00 00 00 00 00
       0.0 0.0 0.0 0.0
000020 00 00 00 00 00 00 00 00 00 00 00 00 00 00 00 00
       0.0 0.0 0.0 0.0
000030 00 00 00 00 00 00 00 00 00 00 00 00 00 00 00 00
       0.0 0.0 0.0 0.0
000040 00 00 00 00 00 00 00 00 00 00 00 00 00 00 00 00
       0.0 0.0 0.0 0.0
000050 00 00 00 00 00 00 00 00 00 00 00 00 00 00 00 00
       0.0 0.0 0.0 0.0
000060 00 00 00 00 00 00 00 00 00 00 00 00 00 00 00 00
       0.0 0.0 0.0 0.0
000070 00 00 00 00 00 00 00 00 00 00 00 00 00 00 00 00
       0.0 0.0 0.0 0.0
000080 00 00 00 00 00 00 00 00 00 00 00 00 00 00 00 00
       0.0 0.0 0.0 0.0
000090 00 00 00 00 00 00 00 00 00 00 00 00 00 00 00 00
       0.0 0.0 0.0 0.0
0000a0 00 00 00 00 00 00 00 00 00 00 00 00 00 00 00 00
       0.0 0.0 0.0 0.0
0000b0 00 00 00 00 00 00 00 00 00 00 00 00 00 00 00 00
       0.0 0.0 0.0 0.0
0000c0 00 00 00 00 00 00 00 00 00 00 00 00 00 00 00 00
       0.0 0.0 0.0 0.0
0000d0 00 00 00 00 00 00 00 00 00 00 00 00 00 00 00 00
       0.0 0.0 0.0 0.0
0000e0 00 00 00 00 00 00 00 00 00 00 00 00 00 00 00 00
       0.0 0.0 0.0 0.0
0000f0 00 00 00 00 00 00 00 00 00 00 00 00 00 00 00 00
       0.0 0.0 0.0 0.0

mlp_extractor.policy_net.2.weight f4 [64, 64]
000000 08 e0 3b be 06 31 89 3d 8c 73 03 3d 57 c0 fe bd
       -0.1834718 0.066988036 0.032092616 -0.1243903
000010 b4 6b 3a be 3c d1 03 be 0e 1b 87 bd 85 ca dd bd
       -0.18205148 -0.12872785 -0.06596957 -0.10829643
000020 86 2d cd 3d e3 1d e3 bd b8 94 33 be 7a 9a c1 3d
       0.100184485 -0.11089685 -0.175372 0.09453292
000030 01 bb 4d 3e a4 a8 44 be 62 53 cd bd 01 a9 38 3e
       0.20090868 -0.19204956 -0.1002567 0.1803322
000040 d4 c7 16 3d 38 24 2b bd a8 95 9c bc 70 89 70 bd
       0.036811665 -0.041782588 -0.01911433 -0.05872482
000050 75 8f 2f be cb be 1e 3e 1a bc b7 bd 74 30 63 bd
       -0.17144568 0.15502469 -0.089714244 -0.05546613
000060 d5 33 05 3e a9 f3 0c 3e ee 7a b7 3d dc aa 22 3d
       0.13008054 0.13764824 0.08958994 0.039713725
000070 31 34 15 be 4c ab 72 bd ce 54 94 bd fa 48 f7 3d
       -0.1457069 -0.059245393 -0.07242738 0.12074466
000080 cf 3c 48 be 10 77 fb bd e5 fb 01 3e 26 74 f2 bd
       -0.19554447 -0.12278569 0.12693746 -0.1183856
000090 0e 2b 91 bd a0 20 8a 3c b0 f4 1d be 90 cf 34 be
       -0.0708829 0.01686126 -0.15425372 -0.17657304
0000a0 2d 75 5a 3e f2 57 d0 bd 1a 30 98 bd da e0 17 be
       0.21333762 -0.10173024 -0.0743105 -0.14831868
0000b0 d2 bb 85 bd b8 b7 07 be 4d 46 20 be 5c e4 2b be
       -0.065299645 -0.13253677 -0.15651818 -0.16786331
0000c0 37 8c 1c 3e 96 30 af 3d a7 83 51 3e a0 7d 02 bd
       0.15287863 0.08554189 0.20460378 -0.031858087
0000d0 d9 30 42 3e a3 cc 09 be 62 23 cd 3d 76 af 52 be
       0.18963946 -0.13456969 0.10016514 -0.20574746
0000e0 74 a7 21 bd c2 15 bd 3d fa bc 2a be d2 44 b3 bd
       -0.039466336 0.092326656 -0.16673651 -0.08753361
0000f0 e9 cf 06 be 9e c2 8b 3d 4c 86 56 bd ec 42 5e 3d
       -0.13165249 0.0682423 -0.05237417 0.05426304
000100 b5 ae 4a be 9c 4c 3f 3d 00 83 17 bb b5 67 1f 3e
       -0.19793208 0.04670392 -0.0023118854 0.15566905
000110 20 fc 06 3d e0 51 57 bc 53 97 5b be 77 10 1d 3e
       0.03295529 -0.013142079 -0.21444444 0.15338312
000120 4a 4a 4f be 53 6a 03 3e cf b7 22 3e 76 d2 cd 3d
       -0.20243183 0.12833528 0.1589043 0.10049908
000130 a2 a0 fc 3d 34 87 43 3d 81 0c 53 3e 1c 19 55 bd
       0.12335326 0.04773636 0.20610239 -0.0520259
000140 a2 b0 0b be 58 8c af 3c 30 4a 0b bc f3 dd 26 3e
       -0.13641599 0.021429226 -0.008501574 0.16295604
000150 3a d5 b4 bd ff ec 11 3e c0 47 f4 bb 2a 98 dd 3d
       -0.08829732 0.14250563 -0.0074548423 0.108200386
000160 73 7e 17 3e 59 91 0a 3e 42 d5 f9 3d f6 d4 9e bd
       0.1479433 0.13532008 0.12198879 -0.07755463
000170 02 8b 92 3d 1e 93 41 be 27 d3 fc bd 00 c3 01 3b
       0.0715542 -0.18903777 -0.123449616 0.0019800067
000180 8c f8 11 3d da e0 b0 3d bc 7f 7b 3d 47 b0 32 3e
       0.035637423 0.08636637 0.061401114 0.17450057
000190 b1 7b e4 bd 48 78 2d be d2 5a f2 3d 43 8f 3c 3e
       -0.11156405 -0.16940415 0.11833729 0.18414025
0001a0 b0 20 07 3d 02 c1 30 be 7a 49 82 bd ee bb e8 3d
       0.032990158 -0.17261127 -0.06361671 0.1136397
0001b0 9c 1b 28 3d 6e f1 9d 3d 4c 74 25 bd 45 af 45 3e
       0.041041955 0.07712065 -0.040394112 0.19305141
0001c0 b1 cb 57 be 60 dd e7 3c f0 15 4d be 40 39 d4 3c
       -0.21073796 0.028303802 -0.200279 0.025906205
0001d0 4e 95 5a be f3 68 24 be 1f fb 00 3e d6 11 ba 3d
       -0.21346018 -0.1605566 0.12595795 0.09085433
0001e0 b5 56 59 be 5d 5a 23 3e 26 9e 9f bd 40 2f 27 bd
       -0.21224482 0.1595244 -0.07793836 -0.040816545
0001f0 f9 50 e9 bd 8e ad 89 3d e1 4d 29 3e e2 79 3a be
       -0.113923974 0.06722556 0.16533615 -0.18210557
000200 70 ee 85 3c 9d 73 0f 3e 1f 9f 03 3e 9b 77 0d 3e
       0.016349047 0.14008947 0.12853669 0.13815157
000210 aa 3f 29 be 26 49 d5 3d d6 53 e5 3d ce 6c f5 3d
       -0.16528192 0.104143426 0.11197631 0.119836435
000220 20 28 a2 3c 93 43 3f be 83 20 04 3e 89 45 02 3e
       0.019794524 -0.18678121 0.12903027 0.12721838
000230 85 ce 27 be 2a 44 3e be 14 17 31 3d 8a 27 b5 bd
       -0.16387375 -0.1858069 0.0432349 -0.08845432
000240 71 f3 49 3e c4 f4 01 bd c5 62 0f be 0c 64 05 be
       0.19721772 -0.031727567 -0.14002521 -0.13026446
000250 eb 11 5c 3e 7a 33 92 bd ce e8 f3 3d bb 96 35 3e
       0.2149121 -0.071387246 0.11909638 0.1773328
000260 36 10 83 3d 80 d0 1d 3c b0 b4 7a 3c f0 8a 16 be
       0.06399576 0.00963223 0.015301868 -0.14701438
000270 13 e3 39 3e fb ad 13 be 09 6d 24 3e e0 1f f2 3c
       0.18153028 -0.14421837 0.16057219 0.029556215
000280 37 f3 3b be a8 b8 a1 bd b6 e9 8b 3d 52 a9 f1 3d
       -0.18354498 -0.078965485 0.06831686 0.117998734
000290 7a d8 e3 3d f8 89 88 bc c5 95 2d 3e d4 33 19 3d
       0.11125274 -0.016667351 0.16951664 0.037402943
0002a0 f8 b6 fd 3c 73 57 57 be 62 c9 eb 3d 00 b9 33 be
       0.030971035 -0.21029453 0.1151302 -0.1755104
0002b0 eb 32 35 be 58 c7 55 be 38 25 b5 bc 10 be 77 bc
       -0.17695205 -0.20876825 -0.022112474 -0.015120998
0002c0 5d c5 be bd a0 bf 31 be 65 d3 3a be 15 ca 0c 3e
       -0.09314988 -0.17358255 -0.18244703 0.13748963
0002d0 7d bd d0 bd c8 b0 f8 3c 48 03 80 3c c8 fb 4f be
       -0.10192392 0.030357733 0.015626565 -0.2031089
0002e0 5a 4d fe 3d 82 12 91 bd 4a 0d 02 be 00 63 28 ba
       0.124170974 -0.07083608 -0.12700382 -0.00064234436
0002f0 d8 3e c4 bc 4a 31 11 be 60 80 1c 3c 06 3b 85 3d
       -0.023955747 -0.14178959 0.009552091 0.065053985
000300 e0 06 63 bc 80 4f 6a 3b 14 4d 63 3d e8 41 c9 bc
       -0.01385662 0.0035752952 0.05549343 -0.02456756
000310 48 50 d7 bc 00 f3 46 3b 28 64 03 bd 84 d2 49 3d
       -0.026283398 0.0030357242 -0.03207794 0.04927303
000320 dc 8f 29 3d a1 10 e6 bd 63 ef 2a 3e 6a e9 35 be
       0.04139696 -0.112336405 0.16692881 -0.17764822
000330 d7 09 12 3e 67 f2 47 3e e6 d4 a7 bd c1 79 c4 bd
       0.14261566 0.19526063 -0.08194904 -0.09593535
000340 f3 c4 42 3e 77 b8 51 3e ce 53 2f be d4 6e 0e 3d
       0.19020443 0.20480524 -0.17121813 0.034773663
000350 f0 1c da 3c 8c 58 2a be 34 f7 58 3d 60 5d db 3c
       0.026625127 -0.1663534 0.052970126 0.026777923
000360 8a b9 e4 3d 76 17 f0 bd a6 48 89 3d cb 7a 2b be
       0.11168201 -0.11723225 0.0670331 -0.1674606
000370 34 0f 73 3d a6 4f dd 3d fc 2c 7b 3d 84 de 6b 3d
       0.05934067 0.10806207 0.061322197 0.057585254
000380 31 82 0b 3e f8 a5 86 3c eb f2 10 3e 35 05 5b 3e
       0.13623883 0.016436562 0.14155166 0.21388705
000390 d9 bc 4b 3e ba 3a dd 3d 94 0c 4f be 0c 20 43 3d
       0.19896258 0.10802217 -0.20219642 0.047637984
0003a0 ca 86 b7 3d 7b 7a 1b 3e 2e 0b a3 bd 18 2f 8f bd
       0.08961256 0.15183441 -0.07961117 -0.06991404
0003b0 fe f6 96 bd c5 61 56 3e ce 54 18 be 8e 59 97 3d
       -0.07371329 0.20935734 -0.148761 0.07390128
0003c0 65 0d 39 be f1 d5 14 3e 53 e0 43 3e 20 77 e1 bb
       -0.18071516 0.14534737 0.19128542 -0.006880656
0003d0 20 3e 07 3d be a6 82 bd c7 0d 00 3e 79 31 ec bd
       0.03301823 -0.0637946 0.12505256 -0.11532874
0003e0 9b 7f 31 3e 41 74 3e 3e a4 4e 75 3d 24 60 0d be
       0.17333834 0.18599035 0.05988945 -0.13806206
0003f0 bd 8a 44 3e d7 59 50 be 72 b4 97 3d bd a7 0b 3e
       0.1919355 -0.20346771 0.07407464 0.13638206

mlp_extractor.policy_net.2.bias f4 [64]
000000 00 00 00 00 00 00 00 00 00 00 00 00 00 00 00 00
       0.0 0.0 0.0 0.0
000010 00 00 00 00 00 00 00 00 00 00 00 00 00 00 00 00
       0.0 0.0 0.0 0.0
000020 00 00 00 00 00 00 00 00 00 00 00 00 00 00 00 00
       0.0 0.0 0.0 0.0
000030 00 00 00 00 00 00 00 00 00 00 00 00 00 00 00 00
       0.0 0.0 0.0 0.0
000040 00 00 00 00 00 00 00 00 00 00 00 00 00 00 00 00
       0.0 0.0 0.0 0.0
000050 00 00 00 00 00 00 00 00 00 00 00 00 00 00 00 00
       0.0 0.0 0.0 0.0
000060 00 00 00 00 00 00 00 00 00 00 00 00 00 00 00 00
       0.0 0.0 0.0 0.0
000070 00 00 00 00 00 00 00 00 00 00 00 00 00 00 00 00
       0.0 0.0 0.0 0.0
000080 00 00 00 00 00 00 00 00 00 00 00 00 00 00 00 00
       0.0 0.0 0.0 0.0
000090 00 00 00 00 00 00 00 00 00 00 00 00 00 00 00 00
       0.0 0.0 0.0 0.0
0000a0 00 00 00 00 00 00 00 00 00 00 00 00 00 00 00 00
       0.0 0.0 0.0 0.0
0000b0 00 00 00 00 00 00 00 00 00 00 00 00 00 00 00 00
       0.0 0.0 0.0 0.0
0000c0 00 00 00 00 00 00 00 00 00 00 00 00 00 00 00 00
       0.0 0.0 0.0 0.0
0000d0 00 00 00 00 00 00 00 00 00 00 00 00 00 00 00 00
       0.0 0.0 0.0 0.0
0000e0 00 00 00 00 00 00 00 00 00 00 00 00 00 00 00 00
       0.0 0.0 0.0 0.0
0000f0 00 00 00 00 00 00 00 00 00 00 00 00 00 00 00 00
       0.0 0.0 0.0 0.0

mlp_extractor.value_net.0.weight f4 [64, 3]
000000 41 b9 71 be 23 0e 7d be 30 8c ca bc 0a f1 93 bd
       -0.23605825 -0.24712424 -0.02472505 -0.07223709
000010 02 9b a6 bd 94 8a 05 3e f6 b5 2f be 2a 02 97 3e
       -0.08135034 0.13041145 -0.17159256 0.2949384
000020 40 6d 8e 3e 93 11 84 be 2f 96 15 be d0 ed d7 3c
       0.27817726 -0.25794658 -0.14608072 0.026358515
000030 9e 9e 08 3e 24 a6 11 3e b2 78 8b be 1c 1a 99 be
       0.13341758 0.14223534 -0.2724052 -0.29902732
000040 c0 d4 5a 3c 4a 87 e9 bd c5 df 4d be 30 04 5c 3e
       0.013356388 -0.114027575 -0.20104893 0.21485972
000050 ec 7f c4 3d d8 ab 74 3d 7f 96 6c be 00 4e a7 bb
       0.09594712 0.059734195 -0.23104285 -0.005105734
000060 3c 02 ae bd ee a0 93 3e d4 14 b0 3d 30 ea 56 3e
       -0.0849652 0.28833717 0.08597723 0.20987773
000070 34 b4 ec 3d 64 46 0f 3e 72 62 17 3e ca dd 5d be
       0.115578085 0.13991696 0.14783648 -0.21666637
000080 48 71 9a bd a6 bc 03 3e d8 1e c4 bd 90 de 90 be
       -0.07541138 0.12864932 -0.095761955 -0.28294802
000090 dc e9 ab 3d 4c 3f 5f 3e 46 1a e3 bd b2 6b ba bd
       0.083942145 0.2180149 -0.11088996 -0.091025725
0000a0 5c e4 75 3e 28 9f 46 3d e4 79 92 bd 70 70 81 3c
       0.24012893 0.048491627 -0.07152155 0.015800685
0000b0 b4 3d 0c 3e 86 8c ba bd 26 b4 1d be c8 2c 3b bd
       0.13695413 -0.09108834 -0.15400752 -0.045697004
0000c0 12 c0 8d be a0 f2 0c bd 08 c0 d9 bd 54 69 56 3e
       -0.276856 -0.034411073 -0.1063233 0.20938617
0000d0 18 45 0f 3d a8 8e f5 3d 7c b1 c5 bd 7e cc 82 3e
       0.034978002 0.119901 -0.09652993 0.2554664
0000e0 90 f7 92 3d c8 d0 5a 3e 90 f0 df 3c a0 3a d4 bc
       0.07176125 0.21368706 0.027336389 -0.02590686
0000f0 c0 c8 8a bb 91 7b 95 be e6 61 4b 3e 94 d9 cb 3d
       -0.004235357 -0.29195836 0.19861564 0.09953609
000100 40 2b b6 3b 50 ff 7f 3d e5 40 18 be 0c 59 44 3e
       0.005559355 0.062499344 -0.14868505 0.19174594
000110 21 4b 0e be c0 e1 25 bc 70 7d 9c bc b6 62 87 be
       -0.13895847 -0.010124624 -0.019102782 -0.26442498
000120 dc 8b ec bd 80 36 f2 3b a8 b0 94 3e 94 34 b8 3d
       -0.115501136 0.007391751 0.29041028 0.089944035
000130 32 f9 a1 bd b9 d2 97 be 6e d7 27 3e ac b1 b2 bd
       -0.07908858 -0.29652956 0.16390774 -0.087252945
000140 a0 18 ac 3c 2c e8 76 3e e4 d0 88 3d 80 95 1e 3c
       0.021007836 0.24112004 0.06680468 0.009679198
000150 cc c4 89 3d e8 9a 6c 3e 40 20 a2 bc a2 c0 f9 bd
       0.06726989 0.23105967 -0.019790769 -0.12194945
000160 66 fd 3c be 06 09 8f be 16 3a 75 be 4e b7 21 3e
       -0.18456039 -0.27936572 -0.2394794 0.15792581
000170 f8 1b 6c 3e 8e 3c 9d bd 78 c4 8a bd cc d7 7d bd
       0.23057544 -0.076775655 -0.06775755 -0.061973378
000180 60 d3 65 bc 36 37 1b 3e a0 b3 38 be 08 5e 5d 3e
       -0.0140274465 0.1515778 -0.18037271 0.21617901
000190 fa 5e 87 3e 7e f5 14 3e de 35 46 be 9a a3 54 be
       0.2643965 0.14546773 -0.19356486 -0.20765534
0001a0 42 23 66 be 10 65 0b 3e aa 43 c9 bd ae ac 83 bd
       -0.22474387 0.13612771 -0.09827359 -0.064294204
0001b0 48 7b 49 be 28 06 e3 3d 34 cb 91 3e ed 4e 84 be
       -0.19675934 0.110851586 0.28475344 -0.25841466
0001c0 f2 fc e9 bd c4 8b 5b 3e 42 ad 0f be 70 7b 73 3e
       -0.114251986 0.21440035 -0.14030936 0.23777556
0001d0 28 17 04 3d 70 2d 13 3e 62 11 3f 3e f0 b5 23 bd
       0.032248646 0.14372802 0.18658975 -0.03996843
0001e0 14 7c f6 3d f8 c9 61 3e b8 96 1e 3d f5 c9 1d be
       0.12035385 0.22049701 0.038717955 -0.15409072
0001f0 b0 d6 a5 bc 48 ed 35 3e a1 cd 81 be 66 47 42 3e
       -0.020243973 0.17766297 -0.25352195 0.18972549
000200 10 af 0e 3d 00 fe 26 3b 00 00 e1 37 62 c3 27 3e
       0.03483492 0.0025480986 2.682209e-05 0.16383126
000210 ac 16 cf 3d fc 65 a6 3d 80 4c 7b be de fe 04 3e
       0.10111746 0.08124921 -0.24540901 0.12987849
000220 ae bb 12 3e 88 1b 25 3e 6a 12 83 bd f2 59 2c be
       0.14329407 0.16123784 -0.063999966 -0.16831186
000230 70 53 38 3e 9e 89 0d 3e 0e 7c 41 be 58 20 13 3d
       0.18000579 0.13822028 -0.1889498 0.035919517
000240 20 29 1c bc 55 89 68 be 64 c1 4e 3e 7e c5 2f 3e
       -0.009531289 -0.22708638 0.2019096 0.17165181
000250 60 6f 40 3e cc cd c4 3d d4 e6 ce bd 34 97 06 be
       0.18792486 0.09609565 -0.10102621 -0.13143617
000260 a8 2f 2e 3d d0 64 04 3e 53 4a 88 be 40 88 c8 3c
       0.042525917 0.12929082 -0.26619205 0.024479032
000270 ec a5 62 3e 68 d7 aa 3d e2 4a 71 be 7a c9 3a be
       0.22133607 0.08341867 -0.23563722 -0.1824092
000280 6c c9 07 be 40 37 c5 3b dc d3 5c 3e 00 31 09 3e
       -0.1326043 0.006018549 0.21565193 0.13397598
000290 ec be 59 3e 2c 15 c6 bd 3e 99 99 bd 0e 33 9f bd
       0.21264237 -0.09672007 -0.07499932 -0.0777341
0002a0 82 5f 2a be 96 13 c8 bd 28 a7 95 be 90 dd 04 3e
       -0.16637996 -0.09769361 -0.29229093 0.12975144
0002b0 1a 8c 8a 3e 41 69 90 be 8c 4a 89 3d 04 fc 6a be
       0.27060014 -0.28205302 0.06703672 -0.22947699
0002c0 10 1b 08 3e 0a 20 a5 bd 2a 0a 9f bd 82 7f 8a bd
       0.13291574 -0.080627516 -0.077656105 -0.067626014
0002d0 e8 eb 7e 3e 05 45 2d be 36 f4 8f be 30 34 95 3c
       0.24894679 -0.1692086 -0.28116006 0.018213362
0002e0 2c 59 f3 3d d7 10 93 be 58 52 77 3e c6 d0 e2 bd
       0.118822426 -0.28723785 0.24152505 -0.110749766
0002f0 5c 33 79 be 2a 51 8b be 10 2e e3 bc 82 02 e7 bd
       -0.24335998 -0.2721036 -0.027731925 -0.11279775

mlp_extractor.value_net.0.bias f4 [64]
000000 00 00 00 00 00 00 00 00 00 00 00 00 00 00 00 00
       0.0 0.0 0.0 0.0
000010 00 00 00 00 00 00 00 00 00 00 00 00 00 00 00 00
       0.0 0.0 0.0 0.0
000020 00 00 00 00 00 00 00 00 00 00 00 00 00 00 00 00
       0.0 0.0 0.0 0.0
000030 00 00 00 00 00 00 00 00 00 00 00 00 00 00 00 00
       0.0 0.0 0.0 0.0
000040 00 00 00 00 00 00 00 00 00 00 00 00 00 00 00 00
       0.0 0.0 0.0 0.0
000050 00 00 00 00 00 00 00 00 00 00 00 00 00 00 00 00
       0.0 0.0 0.0 0.0
000060 00 00 00 00 00 00 00 00 00 00 00 00 00 00 00 00
       0.0 0.0 0.0 0.0
000070 00 00 00 00 00 00 00 00 00 00 00 00 00 00 00 00
       0.0 0.0 0.0 0.0
000080 00 00 00 00 00 00 00 00 00 00 00 00 00 00 00 00
       0.0 0.0 0.0 0.0
000090 00 00 00 00 00 00 00 00 00 00 00 00 00 00 00 00
       0.0 0.0 0.0 0.0
0000a0 00 00 00 00 00 00 00 00 00 00 00 00 00 00 00 00
       0.0 0.0 0.0 0.0
0000b0 00 00 00 00 00 00 00 00 00 00 00 00 00 00 00 00
       0.0 0.0 0.0 0.0
0000c0 00 00 00 00 00 00 00 00 00 00 00 00 00 00 00 00
       0.0 0.0 0.0 0.0
0000d0 00 00 00 00 00 00 00 00 00 00 00 00 00 00 00 00
       0.0 0.0 0.0 0.0
0000e0 00 00 00 00 00 00 00 00 00 00 00 00 00 00 00 00
       0.0 0.0 0.0 0.0
0000f0 00 00 00 00 00 00 00 00 00 00 00 00 00 00 00 00
       0.0 0.0 0.0 0.0

mlp_extractor.value_net.2.weight f4 [64, 64]
000000 6a fa 27 be 6d 1c 12 3e 44 f9 ab bd 7c 91 39 3d
       -0.16404119 0.14268656 -0.08397153 0.04530476
000010 c4 6b 39 be 94 e0 6d 3d 0e dc e5 3d 58 f9 8c bc
       -0.18107516 0.058075503 0.11223613 -0.01720874
000020 e8 81 8d bd 30 60 13 3c 04 ff fb bd 1f f0 2f 3e
       -0.06909543 0.008995101 -0.123045 0.17181443
000030 b8 69 83 bd 8b 8f 24 3e 28 40 8c 3c 3a d6 2a be
       -0.064166486 0.16070382 0.017120436 -0.16683283
000040 1a 32 a2 3d 77 b6 2f 3e 7a 93 87 3d 82 b0 d3 3d
       0.07919712 0.17159449 0.06619926 0.103364006
000050 84 8e fb bd c4 93 81 bd c0 22 88 3c 48 79 de 3c
       -0.12283042 -0.06327012 0.016618133 0.02715744
000060 8d a9 4a be e0 3b d3 3c 09 a4 2f 3e 40 d9 a6 bb
       -0.19791241 0.025785387 0.17152418 -0.005091816
000070 97 84 22 be 90 ab 5b bc 28 ed 8f 3c fc 55 3f bd
       -0.15870892 -0.013407603 0.01756914 -0.04671286
000080 94 df 51 3d 5c 04 30 bd 74 f7 4b be a2 6c 21 be
       0.05123861 -0.042972907 -0.19918615 -0.15764096
000090 78 77 b9 3c d8 c0 31 bd 70 75 2f be fe 6d d2 3d
       0.022639975 -0.0433968 -0.17134643 0.102748856
0000a0 5d 78 3c 3e b2 ba c1 3d e0 38 8a 3c a2 03 ac bd
       0.1840529 0.094594374 0.016872823 -0.083991304
0000b0 01 36 5a 3e 34 e6 05 3d 28 15 1f be 54 08 16 bd
       0.21309663 0.032690242 -0.15535414 -0.036629036
0000c0 a0 af 05 bd 2e 8f da 3d 64 00 18 bd 5d e9 13 3e
       -0.032638192 0.106718406 -0.037109748 0.1444449
0000d0 18 65 8f 3c 2e ca fc bd 87 c3 16 3e d5 7f 10 3e
       0.01750426 -0.1234325 0.14723025 0.14111264
0000e0 e9 ae 42 3e 92 2a 5c be 9b 6f 13 be c8 4d 90 3c
       0.19012035 -0.21500614 -0.14398043 0.017615214
0000f0 2d 95 13 3e 54 08 21 bd 16 c3 af 3d 88 3d fa bc
       0.14412375 -0.039314583 0.085821316 -0.030546919
000100 9a da ce 3d 9a a9 91 bd d0 d8 1c be 85 e1 22 3e
       0.10100289 -0.07112427 -0.15317082 0.15906341
000110 bb 47 56 3e c5 0a 42 3e 72 06 d0 3d 86 84 9c 3d
       0.209258 0.18949421 0.10157479 0.07642464
000120 20 eb 40 3c 9c fe eb bd 60 b9 a4 3c 8a 45 4a be
       0.011774808 -0.11523172 0.020107925 -0.1975309
000130 00 d8 e9 ba a9 2d 38 3e 65 8e e4 bd cc 42 63 3d
       -0.0017840862 0.17986168 -0.11159972 0.055483624
000140 32 dc a2 bd 21 21 48 be f2 40 1d be 53 f3 25 3e
       -0.07952155 -0.19543888 -0.15356806 0.16206102
000150 74 4e 59 be 58 ee 39 be 54 e1 6a bd 97 a1 4a 3e
       -0.21221334 -0.18157327 -0.057343796 0.19788204
000160 74 e2 23 3d de 27 ec bd 54 fa e0 bd 4c 9c 0f bd
       0.040010884 -0.115310416 -0.10985246 -0.035061166
000170 4b d2 4c be 3c 39 6b 3d e4 5b 36 be 76 5e 9b 3d
       -0.20002095 0.05742763 -0.17808491 0.07586376
000180 d5 ec 4f 3e ae d3 9c bd 06 c2 fa bd 7c d8 43 bd
       0.20305188 -0.07657562 -0.12244038 -0.047813877
000190 00 d2 be 3a c0 7d c8 bc 4c 02 02 bd 7c 18 1e bd
       0.0014558434 -0.024474025 -0.03174047 -0.03859757
0001a0 bf a4 47 3e bf ee 46 be 60 8f 06 bd 14 1a 14 bd
       0.1949644 -0.19427012 -0.032851577 -0.036157683
0001b0 c2 62 4f be 6d de 29 3e 68 0b 0b bd da 13 ec bd
       -0.20252517 0.16588755 -0.033946425 -0.11527224
0001c0 aa 22 cc bd 65 0e 30 3e 08 13 80 bd 3f e1 21 3e
       -0.09967549 0.17192991 -0.0625363 0.15808581
0001d0 c3 b7 39 3e c1 8f 3f 3e e1 1d c5 bd 79 bf 24 3e
       0.18136506 0.18707182 -0.096248396 0.16088666
0001e0 e6 5c bf 3d 31 56 21 3e fa 0e 8f 3d 80 84 60 bc
       0.09343891 0.15755536 0.069852784 -0.013703465
0001f0 1a f4 ae 3d ab a6 5a 3e 54 c8 22 3d 4e 42 2b be
       0.085426524 0.21352641 0.03974183 -0.16724512
000200 57 48 4f 3e f4 da 6c 3d e6 86 2a be cd 32 25 3e
       0.20242439 0.057825997 -0.16653022 0.1613266
000210 1c d1 72 3d 3c 84 6d 3d d4 8a 11 bd 28 67 00 be
       0.059281453 0.057987437 -0.035532787 -0.12539351
000220 92 f3 45 be c5 c2 2d 3e 56 a2 ef 3d 12 14 17 be
       -0.19331196 0.1696883 0.11700885 -0.1475375
000230 80 97 a5 bc d7 00 3e 3e 1a 2e b4 3d c7 bd 30 3e
       -0.020213842 0.18555008 0.08797856 0.17259894
000240 96 e6 d6 bd a6 33 f0 3d e0 03 76 3c 3c 49 41 bd
       -0.104931995 0.11728601 0.015015572 -0.047188982
000250 16 ca 09 be d2 da 84 bd 24 60 67 3d 26 4a c4 bd
       -0.13455996 -0.06487049 0.05648817 -0.09584455
000260 ac d3 37 3d 79 7c 12 3e 7a 64 bf 3d 60 66 ac 3c
       0.0448796 0.14305295 0.09345336 0.02104491
000270 d9 67 57 be 4a 43 b1 3d 16 b7 e3 3d 80 ce d6 bb
       -0.21035708 0.086554125 0.11118905 -0.0065553784
000280 18 14 2f bd 80 54 27 be 68 c5 04 3d 1a 12 ad 3d
       -0.042743772 -0.16340828 0.032414824 0.08450718
000290 67 fb c2 bd a7 78 06 3e 18 e9 14 be 30 c8 24 bc
       -0.095206074 0.13131963 -0.14542043 -0.010057494
0002a0 d1 3b 51 3e 90 a8 99 3c 1b 24 58 3e 31 37 11 3e
       0.20432974 0.018757135 0.21107523 0.1418121
0002b0 83 27 02 3e a1 7c f4 bd bc fd 20 be 60 13 55 3c
       0.12710385 -0.119378336 -0.15721792 0.013005108
0002c0 4f a6 fc bd e0 1e e2 3c 6d 53 4e 3e c2 a6 a6 3d
       -0.12336408 0.027602613 0.20149012 0.08137275
0002d0 ce c2 b1 3d b2 ef 01 be 96 0e 80 3d 1c 5a 06 be
       0.08679734 -0.12689093 0.06252782 -0.13120311
0002e0 a9 9a ff bd 65 6b 5b 3e 97 4a 25 be e1 0d 42 3e
       -0.12480671 0.21427687 -0.16141735 0.18950607
0002f0 54 35 72 3d 23 65 52 be 8a b7 40 be cb 80 bd bd
       0.05913289 -0.20546393 -0.18820015 -0.09253081
000300 f0 17 33 be 80 50 70 bd 6e 96 e5 3d ef c4 34 be
       -0.174896 -0.05867052 0.11210333 -0.17653249
000310 00 52 4e 3b 0d 9b ed bd 2a cd ac 3d 1d 81 2c 3e
       0.0031481981 -0.11601839 0.084375694 0.16846128
000320 5d 78 4a be 1c a8 49 3d b7 ba 18 3e 8d 8f 39 3e
       -0.19772477 0.049232587 0.14914976 0.18121167
000330 8a 53 4a be af e9 1c 3e e8 e2 b7 3c f8 f6 0c be
       -0.1975843 0.15323518 0.022447065 -0.13766086
000340 b4 b8 75 3d 72 e1 d5 3d 88 f0 d3 3c 2c 66 12 bd
       0.0599906 0.10443391 0.02587153 -0.03574197
000350 94 25 7b 3d 0f fe 02 be 49 c9 c8 bd cc 78 35 bd
       0.061315134 -0.12792228 -0.09804017 -0.044304654
000360 07 2a 0f 3e 94 6c 47 bd 8b 20 4a be 22 7c c9 bd
       0.13980876 -0.048687533 -0.19738977 -0.098381296
000370 a2 e3 e9 3d 8a b8 ea 3d 96 3c b9 3d 38 da 77 bd
       0.11420371 0.11460979 0.09044759 -0.060510844
000380 ca 48 31 be 60 53 0d bc 30 1e 59 3c be c0 f8 3d
       -0.17312923 -0.008625835 0.013251826 0.12146138
000390 d6 c7 07 be d6 85 00 be 6a 8f a8 3d 2e 39 d1 3d
       -0.13259825 -0.12551054 0.08230479 0.10215984
0003a0 c1 71 e0 bd 25 f7 e2 bd 19 da 19 be cc 0c 3b be
       -0.10959197 -0.11082295 -0.15024604 -0.182666
0003b0 d2 29 46 be 03 ab 39 3e 58 3a 98 bd 3e af 88 bd
       -0.1935189 0.18131642 -0.07433003 -0.0667405
0003c0 fe b1 e3 bd 28 66 ff bd 4b fb 1e 3e ea 9a fb 3d
       -0.11117934 -0.12470657 0.15525548 0.12285407
0003d0 ed c4 c0 bd 1e bd be 3d 72 54 ee 3d 28 e2 f4 bc
       -0.094125606 0.09313415 0.116372004 -0.029892996
0003e0 33 55 29 3e 25 64 57 3e 4b cb 43 3e 0a dd 47 be
       0.16536407 0.21034296 0.19120519 -0.19517913
0003f0 78 5e 18 be f5 6a 3b be a5 c4 48 3e 6a ef 1a be
       -0.14879787 -0.1830252 0.19606264 -0.15130392

mlp_extractor.value_net.2.bias f4 [64]
000000 00 00 00 00 00 00 00 00 00 00 00 00 00 00 00 00
       0.0 0.0 0.0 0.0
000010 00 00 00 00 00 00 00 00 00 00 00 00 00 00 00 00
       0.0 0.0 0.0 0.0
000020 00 00 00 00 00 00 00 00 00 00 00 00 00 00 00 00
       0.0 0.0 0.0 0.0
000030 00 00 00 00 00 00 00 00 00 00 00 00 00 00 00 00
       0.0 0.0 0.0 0.0
000040 00 00 00 00 00 00 00 00 00 00 00 00 00 00 00 00
       0.0 0.0 0.0 0.0
000050 00 00 00 00 00 00 00 00 00 00 00 00 00 00 00 00
       0.0 0.0 0.0 0.0
000060 00 00 00 00 00 00 00 00 00 00 00 00 00 00 00 00
       0.0 0.0 0.0 0.0
000070 00 00 00 00 00 00 00 00 00 00 00 00 00 00 00 00
       0.0 0.0 0.0 0.0
000080 00 00 00 00 00 00 00 00 00 00 00 00 00 00 00 00
       0.0 0.0 0.0 0.0
000090 00 00 00 00 00 00 00 00 00 00 00 00 00 00 00 00
       0.0 0.0 0.0 0.0
0000a0 00 00 00 00 00 00 00 00 00 00 00 00 00 00 00 00
       0.0 0.0 0.0 0.0
0000b0 00 00 00 00 00 00 00 00 00 00 00 00 00 00 00 00
       0.0 0.0 0.0 0.0
0000c0 00 00 00 00 00 00 00 00 00 00 00 00 00 00 00 00
       0.0 0.0 0.0 0.0
0000d0 00 00 00 00 00 00 00 00 00 00 00 00 00 00 00 00
       0.0 0.0 0.0 0.0
0000e0 00 00 00 00 00 00 00 00 00 00 00 00 00 00 00 00
       0.0 0.0 0.0 0.0
0000f0 00 00 00 00 00 00 00 00 00 00 00 00 00 00 00 00
       0.0 0.0 0.0 0.0

action_net.weight f4 [1, 64]
000000 40 0d 03 3d b0 8d 27 bd ee 7a 93 bd 80 d1 94 3c
       0.031995058 -0.040906608 -0.07201181 0.018166304
000010 7a 08 f3 bd e0 be ac 3c 46 57 09 be a0 f3 5e 3e
       -0.11866851 0.02108711 -0.13412198 0.21772623
000020 8c 49 fc bd c4 85 a8 bd e9 08 52 be fe b6 01 3e
       -0.123187155 -0.08228639 -0.20511211 0.12667462
000030 b0 f3 71 be e4 a7 5f 3e b8 56 5b 3e 00 f0 1d bd
       -0.23628116 0.21841389 0.214198 -0.03855896
000040 50 01 9f bc 46 d0 da bd f0 8a ce 3d 8a ce 11 be
       -0.019409806 -0.10684256 0.10085094 -0.14238945
000050 02 db e0 bd 80 46 ae 3b e8 31 27 3d de fa 7a be
       -0.109792724 0.005318463 0.04081908 -0.2450976
000060 28 2a 21 bd 87 9a 85 be 04 fa e2 bd 42 4c 2e 3e
       -0.039346844 -0.26094458 -0.11082843 0.17021278
000070 b8 ba 54 bd 60 b9 a7 bc 00 a3 97 3e 62 55 0a 3e
       -0.05193588 -0.020474136 0.29616547 0.13509133
000080 ea ea dd bd 32 18 85 be 98 9b 47 3d 18 41 d2 3d
       -0.10835822 -0.25995022 0.04873237 0.10266322
000090 ee e1 1d 3e 40 64 81 be 4f ef 81 be 70 54 b9 3d
       0.15418217 -0.25271797 -0.2537789 0.09049308
0000a0 56 95 91 be 0e 69 34 be d0 dd f6 3c 64 9d 96 3e
       -0.28434247 -0.176182 0.030135065 0.29416955
0000b0 70 48 b9 3d 30 23 2d bd 5e ac ce bd 32 e5 51 be
       0.090470195 -0.042269886 -0.1009147 -0.20497587
0000c0 58 9f df 3d 39 46 83 be 1a f3 98 be 62 5a 30 be
       0.10919064 -0.25639513 -0.29872972 -0.17221978
0000d0 58 52 53 3e 42 3b 16 3e 60 74 75 be b8 47 57 bd
       0.2063688 0.14671043 -0.23970175 -0.05255863
0000e0 98 dc 63 3d 6a cb fc bd ab ac 8e be 34 ca 3c 3e
       0.055630296 -0.12343486 -0.2786611 0.1843651
0000f0 e0 be 74 be 7e e7 b5 bd 1e 3b e7 bd 20 04 29 3e
       -0.23900938 -0.08882044 -0.112905726 0.1650548

value_net.weight f4 [1, 64]
000000 4d 46 41 be 66 5c 0a 3e 02 d8 23 3e 60 ce e1 3d
       -0.18874474 0.1351181 0.16000369 0.11025691
000010 20 b9 be 3c ee f6 e1 bd e0 c8 37 3c c3 19 48 be
       0.023281634 -0.11033426 0.011217326 -0.19541077
000020 31 b7 93 be 7a 50 92 3e 22 5f 86 be 60 1a 68 bc
       -0.288507 0.28577024 -0.26244456 -0.014166445
000030 d6 61 96 3e 30 83 c7 bc 00 a0 26 3b f6 ee 45 3e
       0.29371518 -0.024354547 0.0025424957 0.19329438
000040 b8 02 94 be 88 a0 38 be 40 b2 83 3b 36 48 0e 3e
       -0.28908324 -0.18029988 0.004019052 0.13894734
000050 80 93 2f 3c 3c da 8c bd e0 be 17 be 5e fd 0c be
       0.010716319 -0.068775624 -0.14818907 -0.13768527
000060 f8 17 0e 3d a0 b5 a4 3c a0 7f e0 3c de c9 0e 3e
       0.034690827 0.020106137 0.027404606 0.13944194
000070 80 d2 15 3d 30 84 d8 3c f0 5f f0 bd 49 50 81 be
       0.0365777 0.02643022 -0.117370486 -0.25256565
000080 ea a9 5a be 38 0e a5 3d b8 eb 12 3d c0 ab 38 3d
       -0.2135388 0.08059353 0.03586933 0.04508567
000090 00 78 6e 3b eb d6 97 be 38 17 2d bd 1c 91 2a be
       0.0036387444 -0.29656157 -0.04225847 -0.16656917
0000a0 f3 e5 26 be cc d4 8e 3d 11 e7 1c be 80 3e 4d bb
       -0.16298656 0.069741815 -0.1532252 -0.003131777
0000b0 13 69 3f be 8c 82 dd 3d 20 5d 8a bc b8 12 f3 3d
       -0.18692426 0.108159155 -0.016890109 0.11868805
0000c0 54 9b d0 bd d7 cf 05 be 20 72 0f bc d0 b4 0a be
       -0.101858765 -0.13067566 -0.008755237 -0.13545537
0000d0 68 22 7f be fd 5d 0f be 12 ab 45 be 16 a7 41 3e
       -0.24915469 -0.14000697 -0.1930354 0.18911394
0000e0 3c 00 14 3e f0 95 7e 3e 0c 0d 5b be 84 33 11 3e
       0.14453214 0.24861884 -0.21391696 0.14179808
0000f0 40 15 8e 3e 1f 3e 45 be 92 9d 8c 3e c8 98 7b 3e
       0.27750587 -0.19261979 0.27463967 0.2457
