policies/BipedalWalker/orthogonal_ppo_initialization.pt (torch, 52552 bytes, 12 tensors)

log_std f4 [4]
000000 00 00 00 00 00 00 00 00 00 00 00 00 00 00 00 00
       0.0 0.0 0.0 0.0

mlp_extractor.policy_net.0.weight f4 [64, 24]
000000 e0 97 27 3d 7d 89 43 bd 5d 92 aa 3d 92 82 28 3e
       0.040916324 -0.04773854 0.08328698 0.16456059
000010 c3 22 ae bc 0c d8 8f bd a1 c7 d1 bd 56 7d b4 3d
       -0.02125681 -0.070236295 -0.10243154 0.088129684
000020 dd 54 40 3e 30 cc 17 3e 34 f9 9b bc b2 18 94 bd
       0.18782373 0.14823985 -0.019039728 -0.07231273
000030 57 28 70 bd 28 30 63 be 56 a9 21 3d b4 03 a3 bc
       -0.05863222 -0.22186339 0.039468132 -0.019899227
000040 7e 9f eb bc 55 cc 10 3d ad 56 35 3d fe 1c ba 3d
       -0.028762575 0.035351116 0.044272114 0.09087561
000050 c7 96 76 bc 91 51 c8 bd 05 e5 19 3e 25 dc ae bd
       -0.015050597 -0.097811826 0.1502877 -0.08538083
000060 79 30 8b 3e 74 e5 5c 3d 91 96 0e 3e ee c2 c0 bc
       0.2718542 0.05392976 0.13924624 -0.02353045
000070 e7 a2 8b 3c 15 e3 d9 3d a3 c9 e9 3d 34 04 63 3e
       0.017045451 0.106390156 0.11415412 0.22169572
000080 39 4b 99 be 5e cc 8d be 45 4e 1b be 58 3f 27 3e
       -0.29940203 -0.27694982 -0.15166576 0.16332757
000090 96 89 31 3d 14 12 a0 bd 5a f1 38 bc 12 58 a2 3c
       0.043344103 -0.07815948 -0.011288011 0.019817386
0000a0 8a 37 ed bd 30 5b 14 3e 0d 15 5f 3d 73 7e 02 be
       -0.11582859 0.1448791 0.054463435 -0.12743549
0000b0 77 c2 48 be ef 32 4e bd c5 35 1d bd 49 73 52 bd
       -0.19605432 -0.050341543 -0.038381357 -0.051379476
0000c0 39 80 2c 3d 03 9f 10 3d c4 f0 6b 3e 4d 0b 32 bd
       0.04211447 0.035307895 0.23041064 -0.04346781
0000d0 56 ae 88 be 5d e7 08 3e 56 3e 40 be 54 95 01 be
       -0.26695508 0.13369508 -0.1877378 -0.1265462
0000e0 f7 ef 8f be 2b b3 8a bc a6 08 bd bd f0 da 4c be
       -0.28112766 -0.016931137 -0.09230165 -0.20005393
0000f0 cc 3b b5 bd 65 d0 f9 bb 92 af 2a be 4a 90 ce 3d
       -0.08849296 -0.0076237195 -0.16668537 0.10086115
000100 64 de 82 3e 87 76 b9 3d bc 15 99 bd b3 f4 df 3d
       0.25560296 0.090558104 -0.07474849 0.109353445
000110 8f e4 09 bd 6c d1 90 3c ab a6 84 3d 9c 8a ea bd
       -0.033665236 0.017677985 0.06477102 -0.11452219
000120 8d 14 24 bd f8 dc 29 bd 48 6a 81 3d 5d 9b a7 3d
       -0.04005866 -0.041470498 0.063191 0.0818393
000130 ac 42 83 3c 8a 21 8e 3d 86 9e 6e 3d 66 a4 da 3d
       0.016023003 0.06939991 0.05825665 0.10675888
000140 2d 34 38 3d a6 65 a9 3d 27 12 06 3e a6 5c b9 3d
       0.044971634 0.08271341 0.13092862 0.090508744
000150 65 f3 86 3d 34 2a f9 3d f6 5d 7f bd e8 e1 88 3e
       0.065893926 0.12166253 -0.062345468 0.26734853
000160 19 24 2b 3e db 77 74 bd 07 65 7e bc 1a 92 13 be
       0.16712989 -0.059684616 -0.0155270165 -0.14411202
000170 a2 fa 67 3d eb f5 31 3e 1e f6 7d bc 62 90 16 3e
       0.056635506 0.17378967 -0.015500573 0.14703515
000180 a4 20 d1 3c d8 b1 2d be 99 e2 62 bd 82 f1 07 be
       0.02552826 -0.16962373 -0.05539188 -0.13275722
000190 da 72 14 bc be c6 73 3e 50 8d 94 bd 72 3a 07 be
       -0.009060586 0.23806283 -0.07253516 -0.13205889
0001a0 ba 00 38 3e 42 7d 51 3d 1b c9 41 bc b0 e8 30 3d
       0.17969027 0.051144846 -0.011827732 0.043190658
0001b0 db 2c 87 be 4e 49 93 3e b9 b0 01 be 1d 15 1f bd
       -0.2640141 0.28766865 -0.1266507 -0.038838495
0001c0 1b 75 50 3e 15 a4 f4 bd e0 8e bb 3d fc d0 6e 3e
       0.20357172 -0.11945359 0.091581106 0.23321909
0001d0 48 94 10 bd f0 c8 07 3e 81 16 19 bd b2 55 30 3d
       -0.035297662 0.13260245 -0.037374977 0.043050475
0001e0 e9 06 32 3e e0 ef 56 3c 9e f1 03 be 4d 5a a9 bd
       0.17385449 0.013118714 -0.12885138 -0.08269177
0001f0 26 49 01 bb 4f ed 24 be 7b f6 fd 3d 8f fe 7a be
       -0.0019727438 -0.16106151 0.12400528 -0.24511169
000200 f2 07 9b bc 89 51 e3 3d c8 03 59 bd 61 9b 3d bd
       -0.018924687 0.11099536 -0.05298212 -0.04629076
000210 2a 9a 37 3c 5a 2e 1a be 7f 48 bb 3d 96 e0 01 3e
       0.011206189 -0.15056744 0.09144687 0.12683329
000220 7a f5 f6 3d ca d7 ec bd 7b b2 92 3c e2 26 25 bd
       0.1205854 -0.11564596 0.017907372 -0.040320285
000230 59 78 bf bd da ab dc 3d a4 eb bf bd 74 f3 21 be
       -0.09349126 0.107749656 -0.09371117 -0.15815526
000240 a7 dc 87 be b9 8c bf bd af e0 07 be 7e b7 f7 3d
       -0.26535532 -0.093530126 -0.13269304 0.12095545
000250 21 59 61 3d 66 04 f7 bd 0c ce 93 3d 68 46 0b be
       0.05501664 -0.12061386 0.07217035 -0.13601077
000260 14 d0 88 be 24 0e 3d 3d 85 31 c4 3d 0d c0 cf 3e
       -0.2672125 0.046156064 0.095797576 0.4057621
000270 78 2c ae bc 52 9a fb 3c 4b bd ff bd 95 22 a9 3d
       -0.021261439 0.030713234 -0.12487277 0.08258549
000280 b8 82 ab bd 24 a0 a0 3d 9a d0 a7 bd 6b 26 37 3e
       -0.08374542 0.078430444 -0.081940845 0.17885749
000290 15 34 65 3d 63 93 f4 bd a5 13 3a 3c 0d d5 cb bb
       0.055957872 -0.11942174 0.011357223 -0.006220466
0002a0 9a e9 e9 3d bc 0c f1 3d ae 08 8e bd 1d 4a 07 be
       0.11421509 0.11770007 -0.06935249 -0.13211866
0002b0 b9 89 e7 bd fc 1e ee bd fc 98 67 be 60 f1 2c be
       -0.113055654 -0.116270036 -0.22616953 -0.16888952
0002c0 99 e8 34 bc 54 d5 e3 3d 13 6f 2f 3e 2d 97 74 bd
       -0.011041784 0.111246735 0.17132215 -0.059714485
0002d0 25 53 44 3b d5 88 58 be 2c 83 07 be 52 3a 7c bd
       0.0029956785 -0.21145947 -0.13233632 -0.061579056
0002e0 69 4d 28 be 3f e9 70 be a4 a7 a0 3c 6e 0c 95 bc
       -0.1643578 -0.23526476 0.019611187 -0.018194403
0002f0 e6 61 e4 bc 50 1d f9 bc 2a fc 28 3c ef eb 04 3e
       -0.027878713 -0.030409485 0.010314027 0.12980627
000300 17 8e 91 3d 15 46 e6 3c f6 85 87 3d bb f3 0d be
       0.071071796 0.02810959 0.06617348 -0.13862507
000310 36 69 51 3d 08 78 05 3e c3 0d 1a be 07 b2 6e 3d
       0.051125728 0.1303407 -0.15044312 0.05827525
000320 11 33 08 3c e1 49 a2 bd 2f 2b 0c be 18 ec cd 3d
       0.008312956 -0.079242475 -0.13688348 0.10054797
000330 2c 97 db 3c e7 cd b6 3a 2c 2f 1d 3e 2d 7f 11 3e
       0.026805483 0.0013946862 0.15350026 0.1420867
000340 42 ce fd 3c 22 e6 17 bc d9 27 c7 3c 92 41 29 bd
       0.03098214 -0.0092711765 0.024310993 -0.0413223
000350 28 5e 8c bd ae 02 51 bd c4 58 15 3c 0f ce 1b 3e
       -0.068538964 -0.051027946 0.009115402 0.15215324
000360 0e 02 e3 bc b4 cc 64 3d 4e ab 73 bd d9 70 c1 bd
       -0.02771094 0.055859283 -0.05948954 -0.09445352
000370 95 c7 38 3d 44 6f 1e 3e 61 f3 6e 3e a2 e0 47 be
       0.04511221 0.15472132 0.23335029 -0.19519284
000380 1d e8 61 3d c4 c5 c6 3d 9c c1 de bd 7d ad 1f be
       0.055153 0.097056895 -0.10876772 -0.15593524
000390 8d 69 45 bd b6 7e 59 be c9 98 3f bd 51 e9 17 be
       -0.048196364 -0.21239743 -0.046776567 -0.14835097
0003a0 6a 5e 3b 3e ca c0 a1 3c 6e 81 a7 bd b8 45 2f 3d
       0.18297735 0.01974525 -0.08178984 0.0427911
0003b0 37 5e c2 3d 34 97 73 3c 0e af 4d bd 28 68 df 3d
       0.09490626 0.014867593 -0.050215773 0.10908538
0003c0 1f a9 cf bd 5c 9d b7 bd 73 bd b8 3d 64 ea d7 bb
       -0.10139679 -0.08965561 0.090205096 -0.006589221
0003d0 00 24 c0 bd 44 c3 31 be 1c 2b 90 be 75 98 88 3d
       -0.093818665 -0.17359644 -0.2815789 0.06669704
0003e0 43 c3 44 3c 59 a4 ac 3d aa 46 ee bc d4 27 ca bd
       0.012009445 0.08429784 -0.02908643 -0.09870878
0003f0 06 7b 1a 3e 55 0e 1e bc f3 f6 8c be 7b 23 26 bd
       0.15085992 -0.009646972 -0.27532157 -0.04056118

mlp_extractor.policy_net.0.bias f4 [64]
000000 00 00 00 00 00 00 00 00 00 00 00 00 00 00 00 00
       0.0 0.0 0.0 0.0
000010 00 00 00 00 00 00 00 00 00 00 00 00 00 00 00 00
       0.0 0.0 0.0 0.0
000020 00 00 00 00 00 00 00 00 00 00 00 00 00 00 00 00
       0.0 0.0 0.0 0.0
000030 00 00 00 00 00 00 00 00 00 00 00 00 00 00 00 00
       0.0 0.0 0.0 0.0
000040 00 00 00 00 00 00 00 00 00 00 00 00 00 00 00 00
       0.0 0.0 0.0 0.0
000050 00 00 00 00 00 00 00 00 00 00 00 00 00 00 00 00
       0.0 0.0 0.0 0.0
000060 00 00 00 00 00 00 00 00 00 00 00 00 00 00 00 00
       0.0 0.0 0.0 0.0
000070 00 00 00 00 00 00 00 00 00 00 00 00 00 00 00 00
       0.0 0.0 0.0 0.0
000080 00 00 00 00 00 00 00 00 00 00 00 00 00 00 00 00
       0.0 0.0 0.0 0.0
000090 00 00 00 00 00 00 00 00 00 00 00 00 00 00 00 00
       0.0 0.0 0.0 0.0
0000a0 00 00 00 00 00 00 00 00 00 00 00 00 00 00 00 00
       0.0 0.0 0.0 0.0
0000b0 00 00 00 00 00 00 00 00 00 00 00 00 00 00 00 00
       0.0 0.0 0.0 0.0
0000c0 00 00 00 00 00 00 00 00 00 00 00 00 00 00 00 00
       0.0 0.0 0.0 0.0
0000d0 00 00 00 00 00 00 00 00 00 00 00 00 00 00 00 00
       0.0 0.0 0.0 0.0
0000e0 00 00 00 00 00 00 00 00 00 00 00 00 00 00 00 00
       0.0 0.0 0.0 0.0
0000f0 00 00 00 00 00 00 00 00 00 00 00 00 00 00 00 00
       0.0 0.0 0.0 0.0

mlp_extractor.policy_net.2.weight f4 [64, 64]
000000 28 f9 17 3e 18 84 d5 bb 2c 63 aa 3c aa e7 b0 bd
       0.1484114 -0.006515991 0.020799242 -0.086379364
000010 00 f4 af ba 3f 94 74 3d 6a 8f 83 3e c0 18 ae 3a
       -0.0013424158 0.05971169 0.25695354 0.0013282523
000020 26 71 42 3e 0e 40 57 3e 3a 47 2a 3e 19 e4 d7 3d
       0.18988475 0.21020529 0.16628733 0.10541553
000030 e8 89 d3 3c 80 32 2d bc 9a 2b 52 3d 06 12 c8 bd
       0.025822595 -0.010571122 0.051311113 -0.09769063
000040 8c fa 82 3c 88 ae 7c bd 15 2b 01 3e cf a1 38 3d
       0.01598861 -0.061689883 0.1261409 0.045076188
000050 f5 20 d0 3d 08 39 95 bd df 95 0b 3c 6c a6 9c 3e
       0.10162536 -0.072862685 0.008519619 0.3059572
000060 86 0f 0c bd 00 da 2b bd 1a e0 48 be 61 d6 38 bd
       -0.03419449 -0.041955948 -0.19616738 -0.045126323
000070 0c c6 7a bd e4 3f eb 3d 55 bb 32 3c 14 f0 88 bd
       -0.06122403 0.114867955 0.010908921 -0.06686416
000080 22 6c 08 be af 33 c2 bb db 0a c0 bd 9b a6 38 3e
       -0.133225 -0.0059265713 -0.093770705 0.18032305
000090 07 d1 85 bd 80 b5 0c bd 0d 0c 8d bc f7 94 44 3e
       -0.065340094 -0.03435278 -0.01721766 0.1919745
0000a0 f9 5d fa bd 29 ab c5 3d 86 91 0b be 0f 21 02 3e
       -0.12224955 0.09651787 -0.13629732 0.12707923
0000b0 52 cb f2 bd 8f 21 d6 bd 38 28 e6 bb 28 e6 2a 3e
       -0.118551865 -0.104556195 -0.0070238374 0.1668936
0000c0 c5 98 90 be 62 54 c8 bd aa 27 26 be b0 2b 2f be
       -0.28241554 -0.0978172 -0.16226068 -0.17106509
0000d0 f3 2d 80 bd eb 1e 99 3e 50 3e 0a 3d 93 e6 75 bb
       -0.06258764 0.299064 0.033750832 -0.0037521466
0000e0 1d ab 28 be 2e 23 15 be fa 0c 4a 3d 52 73 9d 3c
       -0.16471525 -0.14564201 0.04932878 0.019220028
0000f0 99 f3 2b be 23 77 cc 3d 8b 59 9f bd 19 07 1e be
       -0.16792144 0.09983661 -0.07780751 -0.15432395
000100 13 bd 76 3d a4 bd a1 3e 73 4e 38 bd 62 ba cf 3d
       0.06023891 0.31589997 -0.04499669 0.101429716
000110 c1 cc 3a be 6d b2 01 3d f1 36 f6 3d f4 16 b3 3b
       -0.1824217 0.0316643 0.12022198 0.0054653827
000120 25 3b aa be 5d da 29 3d ab 91 8f bd 65 a5 21 3e
       -0.3324825 0.041468013 -0.07010206 0.1578575
000130 92 00 94 3d 7c 9f e4 3d 39 c4 eb 3d ad 77 51 3d
       0.07226671 0.11163232 0.11512036 0.051139522
000140 97 ec 3b 3d 0e d5 19 bd 09 4f b6 3d 6d da 0f be
       0.045879927 -0.0375567 0.089017935 -0.14048167
000150 b4 ca 84 3e 77 99 c0 3d 7e 01 18 be f3 9c 53 3c
       0.259359 0.09404271 -0.14844319 0.012915838
000160 60 0b 28 3d f1 56 8b 3b 6b 38 0b 3e 1b 54 2e 3e
       0.041026473 0.0042523076 0.1359574 0.17024271
000170 2a dc 1d 3e 20 f9 aa bd 02 f7 49 bc 16 15 d5 3c
       0.15416017 -0.08348298 -0.012326958 0.026011031
000180 0a ed bd bd b5 23 87 3d d4 2e ec 3d 60 cc 7b 3c
       -0.09273727 0.065986075 0.11532369 0.015368551
000190 b6 e9 31 3d 21 16 15 bd 05 5c ec 3d 91 3d cf 3d
       0.043435775 -0.036398057 0.11540989 0.10119165
0001a0 08 dc 0f ba 59 9a 1c 3e 82 4a 85 3d 3e dc fd 3d
       -0.00054878043 0.15293254 0.06508352 0.123955235
0001b0 54 c9 cb bd ac 08 4a 3c f4 6b 6d bd 4c 6e dc 3d
       -0.0995051 0.012331169 -0.05796428 0.10763225
0001c0 3b 62 62 3d 81 45 f6 bd ed 04 24 3e 1c 0b 4c 3e
       0.05526946 -0.120249756 0.16017504 0.19926113
0001d0 16 f1 48 3e 0f 9b 98 3d 44 89 5d be 9a 8b f7 bd
       0.19623217 0.0745145 -0.21634394 -0.12087174
0001e0 d5 ba 84 bb 82 55 e9 3c 22 f5 28 3e 04 e4 c0 bb
       -0.0040505924 0.028483156 0.16499761 -0.0058865566
0001f0 60 c1 e9 bd 7a fc 75 3e be 13 4f 3e 42 b2 92 bc
       -0.114138365 0.24022093 0.20222375 -0.017907266
000200 2e ec d3 bd 9b 4a 0a be 40 01 7c bd 93 94 90 bd
       -0.10347782 -0.13505022 -0.06152463 -0.07059588
000210 97 1b df 3d bb 49 4f 3d 8f 44 53 3e ce c7 cb bc
       0.10893934 0.050607424 0.20631622 -0.024875548
000220 56 67 a2 3d 30 d8 99 3c 58 20 6b be ae f9 18 be
       0.07929866 0.018779844 -0.22961557 -0.14938995
000230 90 38 02 3e cc 8b 2e be 15 f3 43 3e bc 40 f7 bc
       0.1271689 -0.17045516 0.19135697 -0.030182235
000240 64 76 b5 3c 9e cd cc bb 11 9b 57 3d fe 4c 17 be
       0.02215118 -0.0062500974 0.052638117 -0.14775464
000250 d4 da 2d be 1e 7e 67 bd d0 8e c9 bc de 01 1f 3e
       -0.16978008 -0.05651676 -0.024604231 0.15528056
000260 58 42 13 3e 84 8d 43 bd fb d7 40 bd 3c ce 89 bd
       0.14380777 -0.04774238 -0.047080975 -0.06728789
000270 f9 78 d8 3d d3 39 ed 3d c3 d5 a4 3c 12 c3 14 be
       0.10569949 0.11583295 0.02012146 -0.14527538
000280 a8 48 29 3e 2a 06 63 3d a4 f8 0a 3e 16 55 23 3d
       0.16531622 0.0554258 0.13571411 0.039876066
000290 c5 cc 8e 3d 62 8f 19 3e df 10 90 3e a0 23 29 bd
       0.069726504 0.14996102 0.28137872 -0.04129374
0002a0 ac 14 f9 3d 21 5e 86 3e 03 a9 d5 3d 1f 7c b9 bd
       0.12162146 0.2624369 0.10432627 -0.09056877
0002b0 58 de dc bd 49 2e 79 3e 55 43 14 3e 7e 3f 0a 3e
       -0.10784596 0.24334063 0.1447881 0.13500783
0002c0 ec 16 6f bd 52 45 ba 3d 49 48 2f 3e 52 46 ad bd
       -0.05837147 0.09095253 0.17117418 -0.08460678
0002d0 4a d7 e5 bc 20 ad b1 3b 50 0f 67 be 32 bd 04 bd
       -0.02805676 0.0054222494 -0.22564435 -0.032406993
0002e0 e5 76 03 3e 7e 7b d4 bb 4f 78 63 be ce eb 21 be
       0.12838323 -0.006484448 -0.22213863 -0.15812609
0002f0 43 c6 fe bd 82 ba 65 bd 8d c2 24 3c 4e 92 cb 3c
       -0.12440159 -0.05608607 0.01005615 0.024850037
000300 44 33 31 bd 3b 8a dd 3d 0c 9d ce 3d 80 ad 28 be
       -0.04326178 0.10817381 0.10088548 -0.16472435
000310 16 1f 34 bc 2a 1b 06 3e 84 18 8e 3d 99 5f 21 bd
       -0.01099374 0.130963 0.0693827 -0.03939781
000320 af ff 07 bd ae d7 97 bd f9 18 14 bc dd c6 12 3e
       -0.033202823 -0.074141845 -0.009039157 0.14333673
000330 63 e8 53 3d 29 b6 e1 bd 64 bb 7b 3c c4 99 06 3d
       0.051735293 -0.110210724 0.015364502 0.032861486
000340 f9 cf 9b bd 91 1a 84 be 3d 4b fe 3c d9 d7 21 3d
       -0.07608027 -0.2580152 0.031041736 0.03951249
000350 df 5d 05 3e 5f 22 cb bd a2 81 0d 3e de 28 0f 3e
       0.1302409 -0.09918665 0.13818982 0.13980433
000360 6c eb 50 bc 37 bb 1b 3e 76 79 33 3e 38 35 d2 bd
       -0.012751441 0.15208136 0.17526802 -0.10264057
000370 50 3c 31 bd f4 9b b3 3e e2 53 9a bd a5 ec ad bd
       -0.04327041 0.3507992 -0.075355306 -0.08492402
000380 7c d4 c7 3c 78 a4 22 bc 30 f1 af bd 86 5d 8a be
       0.024393313 -0.009926908 -0.08590925 -0.27024478
000390 01 68 6b 3d 82 eb 4d 3e e4 0a 5d 3e f9 cb 47 bd
       0.057472233 0.2010937 0.21586186 -0.048778508
0003a0 85 75 4f bd 10 94 1d bd 26 a3 09 be b9 f7 d6 bd
       -0.050649185 -0.03847128 -0.13441142 -0.10496468
0003b0 0a d1 05 3e 18 51 06 3c 04 65 a4 3d c4 85 e9 3d
       0.13068023 0.008198045 0.0802708 0.11402467
0003c0 41 ae e6 3d 5a 64 1a 3e 75 a6 69 bc 64 b8 21 3e
       0.11263705 0.15077344 -0.014260878 0.15792996
0003d0 04 29 89 3c e8 bd 23 be dd 83 9d 3e d6 5c 3e bc
       0.01674319 -0.15990412 0.30764666 -0.0116188135
0003e0 74 91 01 3b a9 c8 55 be e8 9d 69 3e 8e 81 5c 3d
       0.0019770535 -0.20877327 0.22814143 0.05383449
0003f0 1b 38 a3 bd 5b 52 c9 3c ef 67 a8 3d d1 9a 49 3d
       -0.07969686 0.024575403 0.08222949 0.04921991

mlp_extractor.policy_net.2.bias f4 [64]
000000 00 00 00 00 00 00 00 00 00 00 00 00 00 00 00 00
       0.0 0.0 0.0 0.0
000010 00 00 00 00 00 00 00 00 00 00 00 00 00 00 00 00
       0.0 0.0 0.0 0.0
000020 00 00 00 00 00 00 00 00 00 00 00 00 00 00 00 00
       0.0 0.0 0.0 0.0
000030 00 00 00 00 00 00 00 00 00 00 00 00 00 00 00 00
       0.0 0.0 0.0 0.0
000040 00 00 00 00 00 00 00 00 00 00 00 00 00 00 00 00
       0.0 0.0 0.0 0.0
000050 00 00 00 00 00 00 00 00 00 00 00 00 00 00 00 00
       0.0 0.0 0.0 0.0
000060 00 00 00 00 00 00 00 00 00 00 00 00 00 00 00 00
       0.0 0.0 0.0 0.0
000070 00 00 00 00 00 00 00 00 00 00 00 00 00 00 00 00
       0.0 0.0 0.0 0.0
000080 00 00 00 00 00 00 00 00 00 00 00 00 00 00 00 00
       0.0 0.0 0.0 0.0
000090 00 00 00 00 00 00 00 00 00 00 00 00 00 00 00 00
       0.0 0.0 0.0 0.0
0000a0 00 00 00 00 00 00 00 00 00 00 00 00 00 00 00 00
       0.0 0.0 0.0 0.0
0000b0 00 00 00 00 00 00 00 00 00 00 00 00 00 00 00 00
       0.0 0.0 0.0 0.0
0000c0 00 00 00 00 00 00 00 00 00 00 00 00 00 00 00 00
       0.0 0.0 0.0 0.0
0000d0 00 00 00 00 00 00 00 00 00 00 00 00 00 00 00 00
       0.0 0.0 0.0 0.0
0000e0 00 00 00 00 00 00 00 00 00 00 00 00 00 00 00 00
       0.0 0.0 0.0 0.0
0000f0 00 00 00 00 00 00 00 00 00 00 00 00 00 00 00 00
       0.0 0.0 0.0 0.0

mlp_extractor.value_net.0.weight f4 [64, 24]
000000 dc 57 93 3e 8a ff b0 3d cb 68 ec 3c 0e a3 38 3e
       0.2877797 0.0864249 0.028858563 0.1803095
000010 80 6e 64 bc 3f f7 30 be 0d 3c 1d be cd 11 c1 3d
       -0.013942361 -0.17281817 -0.15354939 0.09427223
000020 d7 90 52 bd c2 74 e3 3d 6b a9 f7 bc c1 5a cd bd
       -0.05140766 0.11106254 -0.030232152 -0.100270756
000030 48 d6 d1 3d a2 e8 81 bd 8e 05 5a 3d 5a 9b 93 3e
       0.10245949 -0.06343199 0.053227954 0.2882946
000040 01 a2 4f 3c b3 77 26 3e 97 af b1 3c 73 a8 8e bd
       0.012672902 0.16256599 0.021690173 -0.06965723
000050 6d 5f 84 3d df 8f cc bd 10 0e 27 be fa 69 4a 3e
       0.064635135 -0.09988379 -0.16313958 0.1976699
000060 c1 a7 26 be 46 19 fd bd b1 40 1f be 7d 26 9d 3d
       -0.1627493 -0.12358336 -0.15552022 0.07673357
000070 0e 09 20 be d0 9b c8 3e 1e f9 0e 3d e5 4d 35 3d
       -0.15628454 0.39181376 0.034905545 0.04426374
000080 3e 7d c3 3d 9c 22 75 3d 15 a4 08 bd b0 39 28 3e
       0.095453724 0.05984746 -0.033359606 0.16428256
000090 b8 df b3 3d e8 67 e5 3d ed 05 82 3e 5d 4d 58 3e
       0.08782905 0.11201459 0.25395146 0.21123262
0000a0 8c 71 8e 3d 36 ff ca 3d e3 d2 4b 3e 63 fe 24 3c
       0.06955251 0.09911959 0.19904666 0.010070416
0000b0 4b f8 93 bd 8b 7f f0 bd d9 24 91 3d ac 19 9b bb
       -0.072250925 -0.11743077 0.07087106 -0.004733285
0000c0 dc 90 a4 3b 2e 8e 33 3d 58 0e 83 bd d0 1b a1 bd
       0.0050221514 0.043836765 -0.0639922 -0.07866633
0000d0 71 b0 d4 bd e0 5f 20 bc b3 4d 83 be 06 bb 57 bd
       -0.10385216 -0.009788483 -0.25645217 -0.052668594
0000e0 20 e6 db bd ca 04 35 3d a0 09 29 bd 16 71 1c 3e
       -0.10737252 0.04419402 -0.041268945 0.15277514
0000f0 2d ca 8a bd 5f fb d7 bd 69 50 9a bc 94 06 cd 3c
       -0.06776843 -0.10545992 -0.01883717 0.02502755
000100 98 8f 74 3d 95 11 8b bd c6 84 34 3c 4d ec 0f be
       0.059707254 -0.06790463 0.011017984 -0.14054985
000110 97 c6 62 bd 11 c5 e8 3d b4 16 34 3e 1d bd 81 3d
       -0.05536517 0.113657124 0.17586786 0.063348986
000120 93 61 1a be ea aa b8 bd b8 4f 64 bc f7 84 15 bd
       -0.15076284 -0.09016974 -0.013935022 -0.03650376
000130 a1 f0 fb 3c 83 95 96 bb aa d0 a3 3d 65 d8 7a 3d
       0.03075439 -0.00459546 0.07998784 0.061241526
000140 70 2c da bd 86 27 3a be 49 ca dd bd 49 01 b9 3d
       -0.10653007 -0.1817914 -0.108295985 0.09033448
000150 b4 dc c2 bd 9f e6 8d 3d 54 08 ed 3c 6d f2 f5 bd
       -0.09514752 0.06928753 0.028934635 -0.1200913
000160 6f 4a 21 3e eb d6 b2 bd 36 5d 70 3d 16 df b8 bb
       0.1575105 -0.087323986 0.058682643 -0.0056418283
000170 85 a2 89 3c 60 8e ee 3d 3b b4 10 be ab fc c2 bd
       0.016801128 0.116482496 -0.14131252 -0.09520849
000180 c0 8d 70 3e f0 ba 4d be 52 60 4d 3e c9 a7 14 3e
       0.23491573 -0.20090842 0.20056275 0.1451713
000190 1e 1b 90 bc a0 0d 87 3d 87 8e 8f 3c 2e 76 d5 bc
       -0.017591055 0.06594396 0.017524017 -0.026057329
0001a0 09 9f 0a 3e 5e a4 c2 bd d3 af 2b 3c 35 95 0f bd
       0.1353723 -0.09504007 0.0104789315 -0.035054404
0001b0 43 49 fa bd ba 9e a8 3d 49 2c a7 be 9a 6d 9b bd
       -0.12221005 0.082334 -0.32650974 -0.07589264
0001c0 df ea 25 bd 7f 56 12 3c 11 fc 44 3e ee 34 01 3d
       -0.040507194 0.008931755 0.1923678 0.03154462
0001d0 6d b1 dc 3d 9b 14 01 3e 89 4c 37 3e 4d 84 42 3e
       0.10776029 0.12605517 0.1790029 0.18995781
0001e0 5f 11 46 3d 85 93 9f 3d a1 52 1a bd 83 89 f9 bc
       0.04835641 0.07791809 -0.037676457 -0.030461079
0001f0 7c 7a cd 3c 81 18 88 3d 61 9f 4e 3b 62 ce b1 bd
       0.02508282 0.06645299 0.0031528103 -0.086819425
000200 6e 0c e3 bd 93 92 94 3c 93 e7 3a be 96 46 6a 3e
       -0.11086355 0.018136298 -0.18252401 0.22878489
000210 4a 33 a9 3e 18 5d 59 3e 9d e5 0e be 7c 48 58 be
       0.33046943 0.21226919 -0.13954778 -0.211214
000220 3c 09 9e bd a6 79 9b 3e ec 72 7a 3c 8f 93 50 bd
       -0.07716605 0.30366248 0.015286189 -0.050921973
000230 e5 58 c4 bc cc 6c 13 be 64 79 22 be b0 14 15 3e
       -0.02396817 -0.14396971 -0.1586662 0.14558673
000240 81 5f 19 be f2 01 c6 3d 41 5b a0 3d 8c 43 46 bd
       -0.14977838 0.0966834 0.07829905 -0.04840426
000250 e3 2e ce bc d9 3d b4 3c 6a 4e cf 3d 47 ad 32 be
       -0.025168842 0.022002148 0.10122378 -0.17448913
000260 ac 0d c1 bb 6e 28 f4 3d cb 67 25 be 7f 0f 2a be
       -0.0058915224 0.11921774 -0.16152875 -0.16607474
000270 bd 42 bd 3d 0e 0d af 3d 3c 8e 74 bc 95 17 14 be
       0.09241245 0.08547412 -0.014926489 -0.14462121
000280 89 19 23 be dd 53 71 be f6 3d a2 3d 98 c6 bc bd
       -0.1592771 -0.23567148 0.07921974 -0.09217566
000290 e3 68 99 bd 8a 0a 80 3d 6b 4b 5c be 53 df 8a 3e
       -0.07490709 0.0625201 -0.21513145 0.27123508
0002a0 a2 0a 81 3d f9 37 3b 3d d2 19 35 be bd 99 79 3d
       0.06300856 0.045707677 -0.17685631 0.060937632
0002b0 49 ad 90 bd d1 b8 fb 3d 2c db 38 bc 09 be 5e 3d
       -0.070643015 0.1229111 -0.011282723 0.05438045
0002c0 8e f8 01 be ce 1d 9c 3d db 8b 91 3c 37 a1 25 be
       -0.12692472 0.07622872 0.017766884 -0.1617478
0002d0 3d 34 bb bd 99 9a 57 3e b5 4e b1 3c a3 8c e6 3b
       -0.09140823 0.21055068 0.021643976 0.007035808
0002e0 af 20 b2 bc f1 32 5d bd a8 03 c6 3d f6 61 bd 3d
       -0.0217441 -0.05400366 0.09668666 0.092472
0002f0 1e d1 05 be 5f 12 1c 3e 98 e7 9d bd f4 a7 44 be
       -0.13068053 0.15241383 -0.077101886 -0.19204694
000300 6c ba 6e 3e 14 52 2d 3c b6 41 1d be e5 fb b2 bd
       0.23313302 0.010578651 -0.15357098 -0.08739451
000310 34 d5 73 3d c6 17 05 3d 66 45 3d 3e ea a9 f6 3d
       0.0595295 0.032493375 0.18483505 0.12044127
000320 38 d5 90 3d 48 62 70 be ca f1 7a bc f9 f4 fd bd
       0.07071918 -0.23474991 -0.015316436 -0.124002405
000330 f0 d2 30 3e fb 9f 28 3d cd 51 27 bd c2 7e 84 bd
       0.17267966 0.041168194 -0.040849496 -0.0646949
000340 7c 9a 39 3e cc 99 07 be b8 02 23 3e 91 bb 32 be
       0.18125337 -0.13242263 0.15919006 -0.17454363
000350 f7 8d 01 be a2 d2 21 bb 61 b7 6f bd e6 f4 0b 3e
       -0.12651812 -0.0024692197 -0.058524493 0.1366764
000360 8e b9 20 3e 90 d7 18 3e 2b ef 3b bc 53 8a 77 3d
       0.15695783 0.1492598 -0.011470596 0.06043465
000370 c5 db a0 3b 9d 4b 09 3e 09 8b b2 3d 05 70 a2 3c
       0.004909011 0.1340775 0.08717925 0.019828806
000380 75 cf 32 3d f5 25 6b 3d 50 70 12 3e 29 95 d1 3d
       0.043654878 0.057409246 0.14300656 0.10233528
000390 ff 3a 87 3e ee 8a c4 be 24 92 13 be 29 34 4e bd
       0.26412198 -0.38387245 -0.14411217 -0.050342713
0003a0 5c 1a 44 be e0 ef 13 be be 4d 05 3e a4 4b 98 3d
       -0.1915068 -0.14446974 0.13017938 0.07436302
0003b0 ef ff dd bd b5 19 a9 bd 04 8f bc bd db 86 6f be
       -0.10839831 -0.08256856 -0.092069656 -0.23391287
0003c0 50 a5 a1 bd e5 e4 11 be eb 08 65 bd 96 e6 d8 bd
       -0.07892859 -0.14247473 -0.055916708 -0.10590856
0003d0 b9 15 2e 3e e7 9b e6 3d 66 56 2e bb 61 84 be 3c
       0.17000474 0.11260205 -0.002660179 0.023256483
0003e0 b8 90 7d be fe 2c e3 bd df 7b cf bc 51 28 5b bb
       -0.24762237 -0.11092566 -0.025327621 -0.0033440778
0003f0 91 79 65 3e 2a 06 97 bd b6 02 a9 3d f2 cd ee 3c
       0.22409655 -0.073742226 0.0825247 0.029150937

mlp_extractor.value_net.0.bias f4 [64]
000000 00 00 00 00 00 00 00 00 00 00 00 00 00 00 00 00
       0.0 0.0 0.0 0.0
000010 00 00 00 00 00 00 00 00 00 00 00 00 00 00 00 00
       0.0 0.0 0.0 0.0
000020 00 00 00 00 00 00 00 00 00 00 00 00 00 00 00 00
       0.0 0.0 0.0 0.0
000030 00 00 00 00 00 00 00 00 00 00 00 00 00 00 00 00
       0.0 0.0 0.0 0.0
000040 00 00 00 00 00 00 00 00 00 00 00 00 00 00 00 00
       0.0 0.0 0.0 0.0
000050 00 00 00 00 00 00 00 00 00 00 00 00 00 00 00 00
       0.0 0.0 0.0 0.0
000060 00 00 00 00 00 00 00 00 00 00 00 00 00 00 00 00
       0.0 0.0 0.0 0.0
000070 00 00 00 00 00 00 00 00 00 00 00 00 00 00 00 00
       0.0 0.0 0.0 0.0
000080 00 00 00 00 00 00 00 00 00 00 00 00 00 00 00 00
       0.0 0.0 0.0 0.0
000090 00 00 00 00 00 00 00 00 00 00 00 00 00 00 00 00
       0.0 0.0 0.0 0.0
0000a0 00 00 00 00 00 00 00 00 00 00 00 00 00 00 00 00
       0.0 0.0 0.0 0.0
0000b0 00 00 00 00 00 00 00 00 00 00 00 00 00 00 00 00
       0.0 0.0 0.0 0.0
0000c0 00 00 00 00 00 00 00 00 00 00 00 00 00 00 00 00
       0.0 0.0 0.0 0.0
0000d0 00 00 00 00 00 00 00 00 00 00 00 00 00 00 00 00
       0.0 0.0 0.0 0.0
0000e0 00 00 00 00 00 00 00 00 00 00 00 00 00 00 00 00
       0.0 0.0 0.0 0.0
0000f0 00 00 00 00 00 00 00 00 00 00 00 00 00 00 00 00
       0.0 0.0 0.0 0.0

mlp_extractor.value_net.2.weight f4 [64, 64]
000000 00 f4 38 bd f4 01 db 3d 07 8a 4f 3d 30 33 37 3d
       -0.04515457 0.10693732 0.050668743 0.04472655
000010 5e 47 39 3e 04 ab 2c 3d c8 dd d7 bd 0c f9 64 bc
       0.1809363 0.04215528 -0.10540348 -0.013975393
000020 6e 79 b6 3d 00 23 b6 bc 08 bf 4e 3e 24 6c 2e 3d
       0.089098796 -0.022233486 0.2019006 0.0425836
000030 2e fc 50 3e df ae 4c be 38 8b 23 3d c8 62 4b be
       0.20408699 -0.19988583 0.03992769 -0.19861901
000040 21 e6 54 be c4 b8 ce bd cb 4d a6 bc f0 59 19 bd
       -0.20790912 -0.10093835 -0.020300766 -0.037439287
000050 cd 04 1c be e8 93 23 be 02 6a d6 bd ff bb 34 3e
       -0.15236206 -0.1597439 -0.10469438 0.1764984
000060 06 b5 be bd a8 8e 49 3e ce d9 f0 3d d5 82 21 3e
       -0.09311871 0.19683325 0.11760293 0.15772565
000070 ca 02 60 bd 21 bc 84 3d 41 ed b8 bd 35 62 f7 bb
       -0.05469016 0.06481195 -0.090296276 -0.007549549
000080 61 e3 b5 bd 07 28 8d bd 76 f6 8e 3d 83 2b 0d 3d
       -0.0888126 -0.068924 0.069806024 0.034465324
000090 ca 82 78 3e ef f1 45 bd 5b 75 49 bd 7e 74 71 3d
       0.24268642 -0.04832643 -0.049184185 0.058948986
0000a0 92 29 91 3c 23 0c b4 3d fb 42 74 3e 76 b4 de bd
       0.017720018 0.087913774 0.23853676 -0.10874264
0000b0 4b cc ce 3d b8 2e 6d 3d 43 5e 9c 3a 4d a7 29 3e
       0.100975595 0.057905883 0.0011929948 0.16567726
0000c0 2e 32 67 3e e1 5a 1f be 6d bc 8b 3e 58 db 26 be
       0.22577736 -0.15562011 0.27292195 -0.1629461
0000d0 84 02 18 3d 6d b8 b5 bd c9 9b a1 3d 05 0a 0f 3e
       0.037111774 -0.08873067 0.07891042 0.13968666
0000e0 5a 4a 24 3d 64 c7 8f bc 95 3c 48 bc de 68 30 3e
       0.04010997 -0.017551132 -0.012221475 0.17227504
0000f0 e9 7d b8 3d 26 f7 71 bd fe 81 6c be 73 e0 6d bd
       0.090083905 -0.05907359 -0.23096463 -0.05807538
000100 50 f6 01 bd a0 c0 7f 3d 86 1b 95 be 9d d4 fb bd
       -0.031729043 0.06243956 -0.2912256 -0.12296412
000110 04 20 14 3e d0 28 a1 3e cc 3a b7 bd 4d c0 e5 3d
       0.14465338 0.3147645 -0.089467615 0.11218319
000120 91 4a e7 3d d7 c4 b5 bd ed 95 8d bc d7 33 1b 3d
       0.11293519 -0.08875435 -0.017283404 0.037891235
000130 11 ef 18 bd e3 ed 39 bd 70 4f a4 3d 7d dd 29 bd
       -0.037337366 -0.045392882 0.08022964 -0.041470993
000140 e4 d8 45 be 5d e5 a7 3e a8 4e a8 bd 2e c1 59 3d
       -0.19321018 0.32792178 -0.082181275 0.053162746
000150 dc 77 3c bc 15 da 12 be 62 b1 84 3d 33 1b 83 bd
       -0.011503186 -0.14341004 0.064791456 -0.06401672
000160 a0 0b 09 3d 59 d8 85 3d 8f 6a 9e 3d 64 7d f1 bd
       0.033458352 0.06535406 0.07735168 -0.117914945
000170 6b 6b 79 bb d1 a0 4f be 1a 5a 5e 3e 3d b7 f4 3d
       -0.003805841 -0.2027619 0.21714059 0.119490124
000180 e9 2d cc 3c ba 5a c1 bd a2 53 29 3c 82 5d 64 3d
       0.024924235 -0.09441133 0.010334881 0.05575324
000190 2a 9f 29 3d 7e 0b eb 3b 0e 3d 59 be 88 9d be 3d
       0.041411556 0.007173001 -0.21214697 0.093073905
0001a0 2c f5 36 be 44 40 f3 bd 56 d4 68 be c1 9a 42 be
       -0.17866963 -0.11877492 -0.2273725 -0.19004346
0001b0 05 da bb 3d f6 8d d2 bd bb 35 c0 bb b7 23 98 bb
       0.09172443 -0.10280983 -0.00586578 -0.0046429294
0001c0 48 c7 ad 3d 43 b2 ad bc 1d a9 e5 3c 2c 7d 2d 3e
       0.084852755 -0.021203166 0.028034741 0.1694228
0001d0 77 23 06 bd 15 1c 05 bd e8 79 be 3d a7 e2 aa 3d
       -0.032748666 -0.032497484 0.093005955 0.08344012
0001e0 5d 47 2a be 47 10 69 bd 46 bb 88 3d c3 23 97 be
       -0.16628785 -0.05690029 0.066763446 -0.29519472
0001f0 72 dd 65 3d a4 7f a0 3d 00 c9 c8 bc b9 30 01 bd
       0.05611939 0.078368455 -0.024509907 -0.031540606
000200 0b 87 ac bd fb b2 05 3e d0 5a 8a 3d b2 ba 1c be
       -0.08424195 0.13056557 0.06755602 -0.15305594
000210 4c ef b0 3b 19 bb 2e 3d 84 d0 94 3b 99 b6 2d be
       0.00539962 0.0426589 0.0045414586 -0.16964187
000220 60 98 50 bd 8e 33 12 3e 56 3d fe bd 38 b8 ab ba
       -0.050926566 0.14277479 -0.12414043 -0.0013101166
000230 c4 cb d3 bd ac 3a da 3d 24 9c 7f bd 65 e7 c9 3d
       -0.103415996 0.10655722 -0.062404767 0.09858588
000240 3e 9e c0 3d 45 80 ab 3d 5c 5a 61 3d 70 9c 56 be
       0.09405182 0.08374075 0.055017814 -0.20958114
000250 0d 2f 09 be 1f f9 e4 3d 79 e7 1f 3e 0a ec 37 3e
       -0.13396855 0.111803286 0.15615644 0.17961136
000260 c5 12 a3 bd 79 a4 f4 bd 88 6a 3e 3d f0 c0 a2 3c
       -0.079625644 -0.11945433 0.046488315 0.01986739
000270 8c 2b 24 bd fe a3 fd bc 80 51 9d 39 d6 62 e0 bc
       -0.040080592 -0.030961987 0.00030006096 -0.027390879
000280 02 e4 59 be 97 12 18 be a0 27 56 be 28 7b dc 3d
       -0.21278384 -0.14850841 -0.20913553 0.10765678
000290 3c 5a 41 3e 6e f1 35 3e 51 f9 e3 3c f3 17 ab bd
       0.18882078 0.1776788 0.027828844 -0.08354177
0002a0 bc ee a2 3e 94 eb 86 bd 28 ee 16 be 93 71 02 be
       0.31822765 -0.06587902 -0.14739287 -0.12738638
0002b0 05 36 ca 3d b6 d8 19 be d4 97 9e 3e d8 38 07 3e
       0.09873585 -0.15024075 0.3097521 0.13205278
0002c0 48 bc cc bd 41 d0 78 3d e8 21 6d 3d d6 b6 2c be
       -0.09996849 0.06074548 0.057893664 -0.16866621
0002d0 91 35 d9 bd 6b 4a 19 3d 4f ce b9 3d b2 d1 fe 3c
       -0.1060592 0.037424486 0.09072553 0.03110585
0002e0 08 4c 5d bd 82 c6 9a bc 11 a3 1f bd 4b 98 97 3c
       -0.054027587 -0.018893484 -0.03897387 0.018505236
0002f0 8a 6e b8 3d 8c a3 88 3e 1a 8d ac bd 0d 53 14 be
       0.09005459 0.26687276 -0.084253505 -0.14484806
000300 80 91 38 3e b1 bc fc 3d f7 8a ae bd 20 a9 06 3d
       0.18024254 0.123406775 -0.08522599 0.032876134
000310 d6 ce ac bd b5 d7 13 be 7e e9 c7 be 35 11 26 bd
       -0.08437888 -0.14437754 -0.39045328 -0.040543754
000320 5b 46 d5 3d 77 6b cf bd d1 89 f6 3d 46 71 2b 3d
       0.1041381 -0.10127919 0.12038005 0.041856073
000330 10 d6 b1 3d 73 7d 1b be 6c 93 4c 3d 44 79 61 3e
       0.08683407 -0.15184574 0.04994528 0.22018915
000340 6e 32 05 3b ba 94 91 bc 10 a5 06 3d 58 ed 59 bd
       0.0020324248 -0.017771114 0.03287226 -0.053204864
000350 2c 6c 6a 3d 3f 53 a5 bd e1 41 3b 3e c3 91 3b be
       0.057232067 -0.080725186 0.1828685 -0.18317322
000360 02 55 a7 3d 3c 8d 7c bd 91 d7 0b be 58 b8 65 be
       0.08170511 -0.06165813 -0.13656451 -0.22433603
000370 19 e6 c1 3d 28 c5 0d be 97 da d3 3d 7a d2 04 bd
       0.09467716 -0.1384474 0.10344427 -0.03242729
000380 7e a0 7b be f7 3f 0e 3e 4b 41 3c 3d da 97 4b 3d
       -0.24572942 0.13891588 0.045960706 0.049705364
000390 38 94 05 3c f5 bd 17 bd de cc 11 3d 27 1c fd 3c
       0.008153014 -0.03704639 0.035595767 0.030897213
0003a0 cc a4 0b 3d 40 53 aa ba 34 a8 37 3e c5 46 fd 3d
       0.03409271 -0.0012994781 0.17935258 0.12367014
0003b0 01 05 29 bd e5 16 7f be b0 59 90 bd 48 bb de 3c
       -0.041264538 -0.24911077 -0.070483565 0.027188912
0003c0 fe e2 7f be d2 21 60 bd 64 d9 87 3d ec aa 4f bd
       -0.24988934 -0.054719754 0.06633261 -0.050700113
0003d0 41 aa 76 be 03 09 12 be 82 82 7d 3d 17 70 2e 3e
       -0.24088384 -0.1426125 0.06189204 0.17034946
0003e0 74 0d 28 3c cc a8 13 3d aa f3 3e bd 62 34 97 3d
       0.010257114 0.03604965 -0.046619095 0.07383038
0003f0 3c 10 27 be b6 cd e9 bc 14 c7 aa bd 59 23 c8 bd
       -0.16314787 -0.028540473 -0.083387524 -0.09772367

mlp_extractor.value_net.2.bias f4 [64]
000000 00 00 00 00 00 00 00 00 00 00 00 00 00 00 00 00
       0.0 0.0 0.0 0.0
000010 00 00 00 00 00 00 00 00 00 00 00 00 00 00 00 00
       0.0 0.0 0.0 0.0
000020 00 00 00 00 00 00 00 00 00 00 00 00 00 00 00 00
       0.0 0.0 0.0 0.0
000030 00 00 00 00 00 00 00 00 00 00 00 00 00 00 00 00
       0.0 0.0 0.0 0.0
000040 00 00 00 00 00 00 00 00 00 00 00 00 00 00 00 00
       0.0 0.0 0.0 0.0
000050 00 00 00 00 00 00 00 00 00 00 00 00 00 00 00 00
       0.0 0.0 0.0 0.0
000060 00 00 00 00 00 00 00 00 00 00 00 00 00 00 00 00
       0.0 0.0 0.0 0.0
000070 00 00 00 00 00 00 00 00 00 00 00 00 00 00 00 00
       0.0 0.0 0.0 0.0
000080 00 00 00 00 00 00 00 00 00 00 00 00 00 00 00 00
       0.0 0.0 0.0 0.0
000090 00 00 00 00 00 00 00 00 00 00 00 00 00 00 00 00
       0.0 0.0 0.0 0.0
0000a0 00 00 00 00 00 00 00 00 00 00 00 00 00 00 00 00
       0.0 0.0 0.0 0.0
0000b0 00 00 00 00 00 00 00 00 00 00 00 00 00 00 00 00
       0.0 0.0 0.0 0.0
0000c0 00 00 00 00 00 00 00 00 00 00 00 00 00 00 00 00
       0.0 0.0 0.0 0.0
0000d0 00 00 00 00 00 00 00 00 00 00 00 00 00 00 00 00
       0.0 0.0 0.0 0.0
0000e0 00 00 00 00 00 00 00 00 00 00 00 00 00 00 00 00
       0.0 0.0 0.0 0.0
0000f0 00 00 00 00 00 00 00 00 00 00 00 00 00 00 00 00
       0.0 0.0 0.0 0.0

action_net.weight f4 [4, 64]
000000 d0 a2 f0 3d 23 64 a5 3d c6 21 c7 bc fe 22 50 3c
       0.11749804 0.0807574 -0.024308097 0.012703655
000010 cb 8b 99 bd 21 b1 bb 3d ca 11 87 3d b9 58 40 bd
       -0.074973665 0.09164644 0.0659519 -0.046959613
000020 f6 39 36 be 03 4b 64 bd 1c 2d eb 3d 97 f3 47 bd
       -0.17795548 -0.0557356 0.11483213 -0.04881629
000030 4e 88 50 be bd e3 e8 bd f1 f1 20 3d 7e 37 79 3c
       -0.20364496 -0.11371563 0.039293233 0.015210984
000040 99 11 0c 3e 80 79 36 3d 44 05 02 be 20 0b d4 bd
       0.13678588 0.044549465 -0.12697321 -0.103536844
000050 17 9e 32 be 31 3d 08 bd bb d2 14 3b c4 2d b4 3d
       -0.17443119 -0.03326148 0.0022708613 0.087977916
000060 69 49 31 3d ea a0 20 be 1d 52 fd 3c c7 ad cc bd
       0.0432829 -0.15686384 0.030922944 -0.09994083
000070 21 d5 cf bd a1 8a a6 3b 4d 28 04 3e a2 ba ea 3d
       -0.10148073 0.005082444 0.12905999 0.11461379
000080 9d 39 d6 bd c1 79 a4 3d da eb 30 bd 8a 14 1c 3e
       -0.104602076 0.08031035 -0.043193676 0.1524221
000090 88 48 2b be 8a 8f f9 3d 27 ba ee bc a8 a3 2c be
       -0.16726887 0.12185581 -0.029141499 -0.16859305
0000a0 00 a1 53 be 7d 61 04 3d 21 dc bb be 7b 2a 73 3e
       -0.20666885 0.032319535 -0.36691383 0.23746674
0000b0 6a 53 a0 3d 3a 27 4a be 03 8c b4 3d 2f ca b8 3c
       0.0782841 -0.19741526 0.088157676 0.022557346
0000c0 9d 22 18 3e 65 8d aa 3d 0c 75 21 bb de b2 41 3e
       0.14856954 0.0832775 -0.0024636416 0.18915889
0000d0 a4 71 71 be 59 5a 31 3d 4f 52 d3 bd 82 ee 28 3e
       -0.23578507 0.043299053 -0.103184335 0.16497234
0000e0 21 fe 6c 3a ef 16 54 3e 5b fc fc bd fe b6 29 be
       0.00090405537 0.20711873 -0.123528205 -0.16573712
0000f0 5f 32 8b bd 88 de ee 3d 27 3a 0a 3e ff c1 4d bd
       -0.06796717 0.11663538 0.13498746 -0.050233837
000100 36 67 8b 3d 66 fa 48 3e ee e8 1f 3e a8 c7 2e be
       0.06806795 0.1962677 0.156162 -0.1706835
000110 7b e9 d8 3c 47 d7 75 3d 72 ec d9 bc 84 2c 1e 3d
       0.02647852 0.060019758 -0.026602004 0.038616672
000120 da 80 29 3d 04 00 24 bc 87 08 08 3e 7c 74 5f bd
       0.041382648 -0.010009769 0.13284503 -0.054554448
000130 b9 85 55 bc c3 76 5d 3d 0e bd d2 3d bf c2 3c be
       -0.01303237 0.054068338 0.102899656 -0.18433665
000140 30 46 ac 3c 17 dd 66 be 3d aa d8 3d a2 b3 32 be
       0.021029562 -0.22545277 0.105793454 -0.17451337
000150 01 44 07 be b1 98 11 3e c3 e8 03 3d c3 c7 fb bd
       -0.13209535 0.14218403 0.0322044 -0.12293961
000160 15 22 1e be 34 08 2a bc 41 d7 b9 3d c4 94 3f bd
       -0.15442689 -0.010377932 0.090742595 -0.046772733
000170 e0 21 87 3d 83 56 9c bc e1 50 3f bd 88 7a 0f be
       0.06598258 -0.01908422 -0.04670799 -0.14011586
000180 90 d2 77 bd 1c 2a 0a 3e 5d c3 94 be 08 ab ce 3c
       -0.060503542 0.13492626 -0.290553 0.025228038
000190 de 9c 94 bd eb 45 8c 3e f8 0d d0 bd d5 ed 0c be
       -0.072564825 0.27397093 -0.10158914 -0.137626
0001a0 07 bc c8 bc 7d 1a 2b be 7b c1 03 3e 5a 26 63 be
       -0.02450372 -0.16709323 0.12866776 -0.22182599
0001b0 d6 8c c6 bd 9d cd 07 be 39 8e 9f 3c 39 50 95 3d
       -0.09694831 -0.13262029 0.019476997 0.07290692
0001c0 fe 31 3b bd b2 71 21 3e 63 0c 0d 3d 48 1a 39 3e
       -0.045701973 0.15766028 0.03443564 0.18076432
0001d0 09 93 81 3e dc ae 25 bd 28 7c 76 3e 01 a1 f6 3d
       0.2530749 -0.040449962 0.240708 0.12042428
0001e0 3d c6 fb bd f2 bf c6 bc 77 da 34 be 29 54 fe 3d
       -0.1229367 -0.024261449 -0.17661463 0.12418396
0001f0 4a 87 11 bd e2 56 8a 3d 53 ea bc bd 27 b7 9d 3b
       -0.035529412 0.06754853 -0.09224381 0.004813093
000200 a7 89 61 3e f6 d2 0d 3e 53 08 2a bd 98 f0 22 3e
       0.22025166 0.13850006 -0.041511845 0.15912092
000210 a6 ab 41 be ee 3c bb 3a cf a0 e3 bd 46 e2 a4 3e
       -0.18913135 0.0014285126 -0.11114656 0.32203883
000220 82 21 8f bd ac 74 bd 3c dc 5d 35 3e 12 15 0e 3d
       -0.06988813 0.023126923 0.17711586 0.034688063
000230 0f 26 30 3d 7e 1b a9 3d 4c 05 3e 3d 54 12 14 3e
       0.043005046 0.08257197 0.04639177 0.14460117
000240 b2 c6 44 bb 42 e7 f7 bc ea 1d eb bd 69 aa 45 be
       -0.0030025658 -0.03026164 -0.11480315 -0.19303288
000250 cc 0e 25 be 0e b5 d0 3d 97 a6 a1 bd a3 93 2f be
       -0.16118926 0.101907834 -0.078931026 -0.17146163
000260 5c 99 0d 3e da 8c 19 3d 1d 83 d2 bd 17 c5 c3 bd
       0.13828033 0.037487842 -0.10278914 -0.09559076
000270 86 81 09 3d 8a 1a 44 39 78 c0 07 be 33 91 07 3e
       0.03357079 0.00018701903 -0.13257015 0.13238983
000280 dd 68 77 bc 83 54 a2 be 5c 9f e9 3d 88 c4 d9 3d
       -0.015100685 -0.31705102 0.114073485 0.106331885
000290 b6 e9 44 bd 7b 6d 63 3d a6 22 0a 3c 47 be 82 3e
       -0.048074447 0.05552433 0.008431112 0.25535795
0002a0 aa c2 ef 3d 95 a1 27 3d 85 f2 93 3b e7 06 1e be
       0.11707051 0.04092558 0.0045149946 -0.1543232
0002b0 fb 27 6c 3e ac 2d b8 bd 5d 07 13 3e c7 bb 33 bd
       0.23062126 -0.08993086 0.14358278 -0.04388025
0002c0 c8 e5 92 3c a2 0f 86 bd 88 14 6a 3e 74 6d ab 3d
       0.017931834 -0.065459505 0.22859395 0.08370486
0002d0 0c f0 21 3c fa 5d c0 3c cc 71 a0 3d 83 80 a9 3b
       0.009883892 0.023482312 0.07834205 0.0051727905
0002e0 77 09 1c bd 4a 7b 74 bd 07 a7 ec 3d e6 ab 03 3e
       -0.038094964 -0.05968789 0.115552954 0.12858543
0002f0 d0 75 82 3c 0a 36 17 be 4b cf 15 3e 50 cd 01 be
       0.015925318 -0.14766708 0.14629857 -0.12675977
000300 e8 fc 1e 3d 95 18 24 3d 4d 32 22 3e 72 5b b3 bd
       0.03881541 0.040062506 0.158395 -0.08757676
000310 bf 81 1b 3c 58 8c 52 be 22 82 2b 3e c1 40 e4 3c
       0.009491383 -0.2056135 0.1674886 0.027862908
000320 67 f9 07 3e 66 ab c3 bd 15 30 16 bd a3 a1 e7 3d
       0.13278733 -0.09554176 -0.03666695 0.11310127
000330 75 2e fc b9 e2 7a 1f 3d 92 74 8e bd 46 df ee bc
       -0.000480998 0.03893555 -0.06955828 -0.0291592
000340 4a 97 3e 3d 16 31 3f 3e 9c 97 b6 be 74 40 19 bd
       0.046531 0.18671069 -0.35662544 -0.037414983
000350 c2 db e7 bd 54 53 b2 3d 6a 91 a6 bd e3 00 f2 bd
       -0.11321212 0.087073 -0.08133204 -0.118165754
000360 8b 5f a4 bd 89 9c c8 bc b0 7d d4 3d 19 50 2b bd
       -0.08026036 -0.024488704 0.103755355 -0.041824434
000370 94 a3 1f 3e af de f2 3d 32 c0 cf 3d b7 98 64 bd
       0.15589744 0.1185888 0.1014408 -0.055809703
000380 ce b0 ba 3d c2 c1 36 be b4 a2 0c 3e e5 fb a5 bd
       0.09115754 -0.1784735 0.13733941 -0.08104686
000390 4c ca 0b bd e4 bc 69 3b 2e 45 84 3d be 33 1f be
       -0.034128472 0.0035665566 0.064585075 -0.15547082
0003a0 01 92 37 3d 1a e0 19 be 68 7d a8 3d a6 43 28 3e
       0.044816975 -0.15026894 0.08227044 0.16432056
0003b0 38 0b 3c be f3 6b 47 be b0 7c 2a 3c 2b ae 9b bd
       -0.18363655 -0.19474773 0.010405704 -0.07601579
0003c0 3c 49 96 be 72 a6 6f bd 1e 95 df bd f2 c2 90 be
       -0.29352748 -0.058508344 -0.10917114 -0.2827373
0003d0 e3 ba ab bc 71 31 37 3d fd d7 ea 3d 25 32 4a 3e
       -0.020963138 0.044724885 0.11466978 0.19745691
0003e0 cd 78 94 bb da d7 e6 3d ec 2f 09 3c 2b 1c b6 bc
       -0.004531002 0.11271639 0.008373242 -0.022230228
0003f0 4c fc e4 bd e6 7f 85 bd 57 7b 4e 3c 95 2a 87 be
       -0.11180934 -0.06518535 0.012602649 -0.26399675

action_net.bias f4 [4]
000000 00 00 00 00 00 00 00 00 00 00 00 00 00 00 00 00
       0.0 0.0 0.0 0.0

value_net.weight f4 [1, 64]
000000 e0 91 09 bd e0 23 dc bc 7f 9d 5e bd 19 64 09 3d
       -0.033586383 -0.026872575 -0.05434942 0.033542726
000010 8c 05 15 be c6 21 30 3e 54 5a c0 bc d8 26 20 be
       -0.14552897 0.17200384 -0.023480572 -0.15639818
000020 c3 27 f1 3d 8d db 05 3e 0e 6c 9c be 12 12 0d 3e
       0.11775162 0.13072033 -0.3055119 0.13776425
000030 76 8d 2a be 9e 9f 73 3d 8a c9 a9 3d 5d 0d 70 3e
       -0.16655526 0.059478395 0.08290394 0.23442598
000040 e0 63 83 3e bd 47 b8 bc 0d 04 bc 3d da 3d e7 bd
       0.25662136 -0.022495145 0.0918046 -0.11291094
000050 5d 01 05 3e 59 76 64 be fe 52 37 3e 5a 08 ce 3d
       0.12988801 -0.22310771 0.17902753 0.10060187
000060 01 77 46 be 49 1e ab bd 09 ca 5b bd 4e 31 ae 3d
       -0.19381334 -0.08355386 -0.053659473 0.08505498
000070 c8 34 27 bb d8 b8 7d 3b 19 85 81 3e 38 f5 e5 bd
       -0.0025513638 0.0038714912 0.25296858 -0.112284124
000080 0d 99 04 3e 42 94 0b bd ec 99 ef bd 01 38 4d bc
       0.12949009 -0.034076937 -0.1169928 -0.012525559
000090 29 1e 8d be 46 eb 9e 3c f9 09 f1 3b 0f 61 7b bc
       -0.27562073 0.019399296 0.007355925 -0.015342965
0000a0 03 50 90 3b 99 17 49 3d 92 21 3a bc b4 31 94 3a
       0.0044040694 0.04909477 -0.011360543 0.0011306317
0000b0 91 34 72 bd 4a 37 73 3d be ad 88 bd bc d4 12 39
       -0.059132162 0.0593789 -0.06673764 0.00014002895
0000c0 d1 06 8d 3d 8f e4 a0 3b de 15 35 be b6 0f 98 be
       0.06886066 0.004910059 -0.17684123 -0.29699486
0000d0 51 af 63 bd ea 09 27 3e e6 6e 56 bd 31 0a 86 bd
       -0.055587117 0.16312376 -0.052351855 -0.065449126
0000e0 be dd 02 3e 6b 38 ac bd a1 69 04 bd 72 04 bb bd
       0.127799 -0.084091984 -0.032327298 -0.09131707
0000f0 64 01 55 3d be 49 bc bd a9 bf a0 3c 6c d2 26 3e
       0.05200328 -0.09193753 0.01962264 0.16291207
