policies/BipedalWalker/xavier_ppo_initialization.pt (torch, 40972 bytes, 10 tensors)

mlp_extractor.policy_net.0.weight f4 [64, 3]
00000000: 1cae 2f3e 7c3e 153e 25c9 86be 4020 8c3c
00000010: 4fa9 95be f800 c13d cf15 91be 0a11 8a3e
00000020: 4ebf 52be d89d 9d3d b0ee 813e edca 76be
00000030: 98c5 8f3d a0cf 7c3e 60f4 d83d dc3e ea3d
00000040: b085 c33c 14e6 873e 6c0a 6ebe 3558 20be
00000050: 8629 323e 9953 40be 9eca 853e 0c82 093e
00000060: 70c7 813c c6bc 8b3e fc51 8f3d 00ce 183c
00000070: 8089 463d 78dc 27be 64b2 603e 586e b93d
00000080: c025 473e 8842 883e 7c49 ce3d 008f 713e
00000090: bada 88be ccc1 2cbe 0000 6039 7bd1 6ebe
000000a0: d086 743e 7a6d 3c3e 64ac 67be 9c4a 84be
000000b0: c07d acbb f0d2 2ebd 9e8a 873e ec4e bb3d
000000c0: 24e0 8ebd b1df 8ebe 14ea 51be 98e7 b63d
000000d0: c81b 203d 34be f63d 1ae6 8cbe cc29 b13d
000000e0: da7a 6dbe 0618 153e 20ad 7f3c 95df 85be
000000f0: 32c3 86bd 1c25 ba3d 5494 853e 6c75 903d
00000100: d4c0 6f3e b83c c13d f67e e0bd eee4 bfbd
00000110: fc1a 98bd 386b e43d c480 70be d874 f93d
00000120: 00b0 99bd acb2 b63d 5ce1 a9bd 0adc 27be
00000130: d4bf 903e 7586 7fbe e4ef b33d f03e 72be
00000140: b85f c23d 1cf8 f03d 7641 403e 70e7 6d3e
00000150: 1b92 91be 48db 603e 4db7 79be cd80 91be
00000160: 9e75 443e a6e4 b3bd 6e43 34be 7cb4 d33d
00000170: 8255 76be 66fa 90bd c42b 673e 98a1 e33d
00000180: 7207 12be e2b3 47be b20d 3c3e e66c 8b3e
00000190: 9e47 5cbe 48f1 3cbe 6e05 063e 0431 00be
000001a0: a8e0 bc3d 80be babd 2c9a 8c3e a0e4 2fbe
000001b0: 1ad0 91bd fcd5 da3d 54fa 8c3e 1cd0 823d
000001c0: e8d5 803e e4e9 893e 5d63 60be 94cd 37be
000001d0: 6016 12bc 0648 3ebe e40a 063e f400 39be
000001e0: 8952 36be c81d 823d 8a9c 243e 84c9 133e
000001f0: ea96 803e c420 293e 0d89 19be 68ef 27be
00000200: 1054 edbd f000 d53d b007 fdbc 1a96 90be
00000210: 36fe 363e 34f6 8fbe c255 ecbd b850 5abe
00000220: 78de 46bd 7626 3a3e 3cfa bf3d a025 703d
00000230: 382c 943e 862a cabd d950 04be 60fa e33d
00000240: 9862 873d c08b 983e 78e2 88bd 9008 e43c
00000250: 8962 49be 1cd9 5e3e 10b7 663e d464 ec3d
00000260: a855 503d 983f f93d 38d3 06be d84c 733e
00000270: 7a08 423e f3ff 89be 880b 963e 1ce2 c13d
00000280: 36b8 3d3e 9073 0a3d 88be 323d e5f7 0bbe
00000290: 7648 8f3e bc0f a43d 8400 8c3e a2ac 25be
000002a0: d016 08bd 0e13 283e 7479 50bd 3082 8b3c
000002b0: a419 83be 28c6 68be 28b8 743d 343a 3d3e
000002c0: 0055 9cba 4a02 243e 1235 0abe a012 d83d
000002d0: 6077 b73c e095 593e 02f6 59be c7a8 24be
000002e0: 2b99 88be 5981 56be d49d 98be 849b 883e
000002f0: 087a f83d 7009 edbc 141b ab3d 71c4 80be
0.17156261 0.14574617 -0.26325336 0.017105222 -0.29230735 0.09424013 -0.2833695 0.26966125
-0.2058079 0.07696122 0.25377417 -0.24100848 0.0702011 0.24688578 0.10593486 0.11437771
0.023867458 0.26542723 -0.23246163 -0.15658648 0.17398652 -0.1878189 0.26131147 0.13428515
0.01584217 0.2729246 0.06998059 0.009326458 0.048470974 -0.16392696 0.2194305 0.090542495
0.19447994 0.2661326 0.1007261 0.23589706 -0.26729375 -0.16870803 0.00021362305 -0.23322098
0.23879552 0.18401137 -0.22624356 -0.25838172 -0.005264014 -0.042681634 0.26472944 0.091459125
-0.06976345 -0.27905038 -0.2049945 0.08930892 0.039088994 0.12047997 -0.27519304 0.0865055
-0.23191395 0.14559945 0.015605241 -0.26147142 -0.06580199 0.09089109 0.26089728 0.070536464
0.23413402 0.09435409 -0.10961716 -0.09369837 -0.07427022 0.11153263 -0.2348662 0.12180489
-0.075042725 0.08920798 -0.08294937 -0.16392532 0.28271353 -0.24953635 0.0878599 -0.23656821
0.09490913 0.11766073 0.18774971 0.23232818 -0.28431782 0.21958649 -0.2438633 -0.2841858
0.19185492 -0.087838456 -0.17603847 0.10337159 -0.24056056 -0.0707901 0.22575289 0.11114806
-0.14260653 -0.19502214 0.183646 0.2723152 -0.21511695 -0.18451416 0.13088009 -0.12518698
0.09222537 -0.09118366 0.27461374 -0.17177057 -0.0711977 0.106853455 0.27534735 0.0638735
0.25163198 0.26936257 -0.21912904 -0.17949516 -0.008916467 -0.18582162 0.13090092 -0.1806677
-0.17804922 0.063533366 0.1607534 0.14432341 0.25115138 0.16516405 -0.14993687 -0.1639992
-0.11588299 0.104005694 -0.030887455 -0.28239518 0.17870411 -0.28117526 -0.115397945 -0.21319854
-0.048552006 0.18178734 0.093739 0.058629632 0.28939986 -0.09871392 -0.12921466 0.111317396
0.06610602 0.2979412 -0.066838205 0.027836114 -0.19666494 0.21762508 0.2253077 0.11542669
0.05086294 0.12170333 -0.13166511 0.23759782 0.18948546 -0.26953086 0.29305673 0.09466955
0.18527302 0.033801615 0.043638736 -0.13668783 0.2798497 0.080108136 0.27344143 -0.16179135
-0.03322488 0.16413519 -0.050897077 0.017029852 -0.256055 -0.2273184 0.059745938 0.18479234
-0.0011927187 0.16016498 -0.13496807 0.105504274 0.02239579 0.21248579 -0.21285251 -0.16080008
-0.26679358 -0.2094778 -0.29807913 0.2668115 0.121326506 -0.028935164 0.08354774 -0.25149873

mlp_extractor.policy_net.0.bias f4 [64]
00000000: 0000 0000 0000 0000 0000 0000 0000 0000
00000010: 0000 0000 0000 0000 0000 0000 0000 0000
00000020: 0000 0000 0000 0000 0000 0000 0000 0000
00000030: 0000 0000 0000 0000 0000 0000 0000 0000
00000040: 0000 0000 0000 0000 0000 0000 0000 0000
00000050: 0000 0000 0000 0000 0000 0000 0000 0000
00000060: 0000 0000 0000 0000 0000 0000 0000 0000
00000070: 0000 0000 0000 0000 0000 0000 0000 0000
00000080: 0000 0000 0000 0000 0000 0000 0000 0000
00000090: 0000 0000 0000 0000 0000 0000 0000 0000
000000a0: 0000 0000 0000 0000 0000 0000 0000 0000
000000b0: 0000 0000 0000 0000 0000 0000 0000 0000
000000c0: 0000 0000 0000 0000 0000 0000 0000 0000
000000d0: 0000 0000 0000 0000 0000 0000 0000 0000
000000e0: 0000 0000 0000 0000 0000 0000 0000 0000
000000f0: 0000 0000 0000 0000 0000 0000 0000 0000
0.0 0.0 0.0 0.0 0.0 0.0 0.0 0.0
0.0 0.0 0.0 0.0 0.0 0.0 0.0 0.0
0.0 0.0 0.0 0.0 0.0 0.0 0.0 0.0
0.0 0.0 0.0 0.0 0.0 0.0 0.0 0.0
0.0 0.0 0.0 0.0 0.0 0.0 0.0 0.0
0.0 0.0 0.0 0.0 0.0 0.0 0.0 0.0
0.0 0.0 0.0 0.0 0.0 0.0 0.0 0.0
0.0 0.0 0.0 0.0 0.0 0.0 0.0 0.0

mlp_extractor.policy_net.2.weight f4 [64, 64]
00000000: 5917 363e f3fc 2f3e 7a20 b3bd 7d94 253e
00000010: 806a 273c c0ef 083b f302 d4bd 9681 0fbe
00000020: a0ac 95bb f15e 3abe 404f ce3c 64c1 0cbd
00000030: 803a 643b 3008 603c 9ca3 2fbd 5492 5e3d
00000040: 038c 423e fa8b 57be c6eb 1fbe 1a58 f73d
00000050: aaa7 a13d 5c3c 1e3d c0e1 7a3c 88cd e9bd
00000060: 2eca fc3d e06a 07bc 8048 bfbd e18b 043e
00000070: 547c 9ebd c2e8 b3bd e4aa 303d a008 203c
00000080: 10d1 41bd 5817 eebc 6664 a7bd fbd1 31be
00000090: db64 193e 0820 69bd fcf0 4fbd fe32 3ebe
000000a0: f08a e03c 3fe9 3f3e 3a0d 15be 647f 5f3d
000000b0: 3438 04bd 2064 c4bc 457e 403e 5cd2 29bd
000000c0: 7c97 3f3d 0658 ca3d a485 56be 00ee 7dbd
000000d0: 23b4 013e fc7c 673d 6764 3abe 8d74 4c3e
000000e0: f319 503e 67c1 223e 9468 3abe 6637 fd3d
000000f0: 405b b0bb 4fee 1d3e 2ad1 3cbe f50b debd
00000100: 80b9 d6bb 02d3 d53d c065 7b3b 06bb 3fbe
00000110: 7cbd 41be 6018 c53c 90c2 28bc 900e efbc
00000120: 68b1 9ebc cd35 253e 5b07 003e a51f 213e
00000130: 84cb 45be 9244 dd3d 9837 023d 32e8 893d
00000140: 0ec1 0fbe 2459 223d dc2d 563d 6eb9 5cbe
00000150: 732e 093e 1098 a6bc 5d05 523e 4a37 a6bd
00000160: 9841 933c ceae 26be 88cb 00be 00b3 223b
00000170: 46cf 55be 487d 86bc bce6 01be 3444 3f3d
00000180: 9b32 cfbd 4d10 193e 311c 0f3e f6a3 3bbe
00000190: b0cf 90bc 404d f8bc b473 0abe 1b0e c6bd
000001a0: c63a 53be 2a61 05be c3f8 bcbd e157 eabd
000001b0: f54f 213e 7170 413e ec09 42bd 8fa0 4fbe
000001c0: 57e9 4ebe c075 eebd bdf4 1bbe 6607 e53d
000001d0: c751 5a3e af96 033e 44c5 bbbd c3cf 0abe
000001e0: cc69 08bd c236 c73d 87be 133e 18a2 2dbe
000001f0: 7122 58be 8a24 87bd 5674 97bd f8d4 c03c
00000200: a444 213d 7f18 123e f6ef ddbd c944 1e3e
00000210: 606d ea3b bb87 debd 912f 363e 4c85 7f3d
00000220: ba5b c93d d074 52be 2693 1cbe d7f1 253e
00000230: d405 4a3d a39b debd 5be9 dabd 982c 23bd
00000240: 6967 423e e0cb 9a3c 5544 413e 4a8c dc3d
00000250: 95fd 4ebe 559e 4bbe 643a 0ebd f006 6d3c
00000260: c4ef 01bd 761f 37be d220 b03d b70a 3abe
00000270: cfed 4cbe d04f 02bd 14d3 36be dd9e 503e
00000280: 2eea 963d 8f51 0c3e 8053 b73c a64e 44be
00000290: 909e f1bd 2598 463e 3c0c 14be acaa b5bd
000002a0: fed8 8d3d 71c1 0dbe 6e2c 893d 67e1 273e
000002b0: df7f 043e 2e8e 25be 4706 483e 7e2e 5dbe
000002c0: b1a8 2a3e 7045 373c 3093 a3bc 6c60 583d
000002d0: 3267 28be e04d 6abc 581e 2cbd 5866 0ebe
000002e0: 5e06 e93d 0a74 5dbe 766f bf3d 4d5c 3b3e
000002f0: f2d9 2cbe 2c30 1cbd bf82 58be d835 4ebd
00000300: 9a6a 28be f2eb d33d 02db 8c3d 3276 b23d
00000310: 57b7 3dbe 4e0d ee3d 64bf 283d 78f3 91bc
00000320: 3ce7 12bd cb69 0a3e b04b 28bc ce01 85bd
00000330: 0323 573e 78e8 e93c 8f7f 40be f1d8 293e
00000340: 3cb4 37bd 0148 123e f02b 31bc d556 16be
00000350: 7a79 02be 763a b63d 86be a63d db88 3fbe
00000360: 97a7 e4bd 2e99 97bd 5ac9 1cbe 9654 99bd
00000370: 1bae 4a3e 0420 2e3d 62f2 1abe 346b 15bd
00000380: 4061 e33b 3006 0d3c 409d e5bb 2055 a9bb
00000390: 48f2 38bd 7862 25bd ce68 8cbd 018b 543e
000003a0: e82c 22be 49ef 493e f820 67bd 5987 1fbe
000003b0: 3a7b 26be 3b91 fdbd 16de 31be d83e 3dbd
000003c0: 9ea0 b23d b2c3 91bd c212 f03d 8095 ecbd
000003d0: 43a7 0f3e e43e 47be c2ca 823d dc47 5c3d
000003e0: 2818 18bd 6007 28bc 5499 6cbd f05d e63c
000003f0: 4630 fb3d 1a61 d33d ea0d e43d b123 41be
0.17782344 0.17186336 -0.08746429 0.16169925 0.010218263 0.0020894855 -0.10352125 -0.14014277
-0.0045676976 -0.1820028 0.025184274 -0.03436412 0.0034824908 0.013673827 -0.04288064 0.054338768
0.18998723 -0.2104949 -0.15617284 0.12077351 0.078933075 0.038631782 0.015312612 -0.11416155
0.1234325 -0.008265227 -0.0934 0.12943985 -0.077385575 -0.087846294 0.043131724 0.009767681
-0.04731852 -0.029063866 -0.08173446 -0.17365257 0.1497988 -0.056915313 -0.05076693 -0.1857414
0.02741 0.1874132 -0.14555827 0.05456485 -0.032280162 -0.023973525 0.18798168 -0.04146038
0.046775326 0.098800704 -0.20949417 -0.061994553 0.12666373 0.05651568 -0.18202363 0.19966336
0.20322399 0.1589409 -0.18203956 0.12364082 -0.0053819716 0.15422939 -0.18439165 -0.108421244
-0.006552875 0.10440637 0.0038360208 -0.18723688 -0.18919939 0.024059474 -0.010300294 -0.029181749
-0.019371703 0.16133805 0.12502806 0.15734728 -0.19315916 0.108040944 0.0317913 0.06733741
-0.14038488 0.039635792 0.05228983 -0.21555111 0.13396625 -0.02033618 0.20509858 -0.08116014
0.017975613 -0.1627762 -0.12577641 0.002482593 -0.2087985 -0.01641716 -0.12685674 0.046695903
-0.10117074 0.14947625 0.13975598 -0.18324265 -0.017677158 -0.030310273 -0.135207 -0.09670659
-0.20627889 -0.13025346 -0.09227135 -0.11442543 0.15753157 0.18890549 -0.047372743 -0.20276092
-0.202062 -0.11643553 -0.15230079 0.11183052 0.21320258 0.1285045 -0.09168485 -0.13555817
-0.03330402 0.09727241 0.14428149 -0.16956365 -0.21106888 -0.06598766 -0.07395236 0.023539051
0.0393721 0.14267157 -0.108367845 0.15455927 0.007154152 -0.10865732 0.17791583 0.06238298
0.098319486 -0.20552373 -0.15290508 0.16205536 0.049321964 -0.10869529 -0.1068904 -0.03983745
0.1898476 0.018896043 0.18873723 0.107689455 -0.20213921 -0.19884618 -0.034723654 0.014466986
-0.0317228 -0.17883095 0.0860001 -0.1816815 -0.20012592 -0.031814396 -0.17853957 0.20373102
0.07368885 0.13702987 0.022378683 -0.19170627 -0.117978215 0.19393976 -0.14457792 -0.08870444
0.069261536 -0.13843323 0.066979274 0.16394578 0.12939404 -0.16167518 0.19533645 -0.21599767
0.16665913 0.011185989 -0.019967645 0.05282633 -0.16445616 -0.014300793 -0.042021126 -0.13906229
0.113781676 -0.21626297 0.09347431 0.18296929 -0.16880015 -0.038131878 -0.21143626 -0.05034432
-0.16446915 0.10347737 0.0687771 0.0871395 -0.1852697 0.116236314 0.04119815 -0.01781629
-0.035865054 0.1351692 -0.010271952 -0.06494485 0.2100945 0.028553233 -0.1879866 0.16586663
-0.04484962 0.1428528 -0.010813698 -0.14681561 -0.12741652 0.08897869 0.08141808 -0.1870455
-0.11164778 -0.074022636 -0.15311185 -0.074868366 0.19792978 0.042511 -0.15131524 -0.03647919
0.0069390833 0.008607432 -0.007007271 -0.0051676184 -0.045152932 -0.04037711 -0.068559274 0.20756151
-0.15837443 0.19720186 -0.056427926 -0.15578975 -0.16257945 -0.12381216 -0.17369875 -0.04620251
0.087220415 -0.07117404 0.11722328 -0.11551952 0.14028649 -0.19457585 0.06386329 0.053779468
-0.037132412 -0.010255665 -0.057763413 0.028120965 0.12265067 0.10321255 0.111354664 -0.18861271

mlp_extractor.policy_net.2.bias f4 [64]
00000000: 0000 0000 0000 0000 0000 0000 0000 0000
00000010: 0000 0000 0000 0000 0000 0000 0000 0000
00000020: 0000 0000 0000 0000 0000 0000 0000 0000
00000030: 0000 0000 0000 0000 0000 0000 0000 0000
00000040: 0000 0000 0000 0000 0000 0000 0000 0000
00000050: 0000 0000 0000 0000 0000 0000 0000 0000
00000060: 0000 0000 0000 0000 0000 0000 0000 0000
00000070: 0000 0000 0000 0000 0000 0000 0000 0000
00000080: 0000 0000 0000 0000 0000 0000 0000 0000
00000090: 0000 0000 0000 0000 0000 0000 0000 0000
000000a0: 0000 0000 0000 0000 0000 0000 0000 0000
000000b0: 0000 0000 0000 0000 0000 0000 0000 0000
000000c0: 0000 0000 0000 0000 0000 0000 0000 0000
000000d0: 0000 0000 0000 0000 0000 0000 0000 0000
000000e0: 0000 0000 0000 0000 0000 0000 0000 0000
000000f0: 0000 0000 0000 0000 0000 0000 0000 0000
0.0 0.0 0.0 0.0 0.0 0.0 0.0 0.0
0.0 0.0 0.0 0.0 0.0 0.0 0.0 0.0
0.0 0.0 0.0 0.0 0.0 0.0 0.0 0.0
0.0 0.0 0.0 0.0 0.0 0.0 0.0 0.0
0.0 0.0 0.0 0.0 0.0 0.0 0.0 0.0
0.0 0.0 0.0 0.0 0.0 0.0 0.0 0.0
0.0 0.0 0.0 0.0 0.0 0.0 0.0 0.0
0.0 0.0 0.0 0.0 0.0 0.0 0.0 0.0

mlp_extractor.value_net.0.weight f4 [64, 3]
00000000: e007 033c ec73 bdbd 0412 7ebe b8b2 dfbd
00000010: d04a 1fbd 13ae 93be fcdc 713e 205b 683d
00000020: 0e20 3a3e 628e 953e ae7d 843e 689d 853e
00000030: 004d 96bb 5b0d 10be 3e13 37be 9c36 ab3d
00000040: ea79 4fbe 5b14 2fbe 7835 5b3e 08d7 943d
00000050: a832 693e 1061 f4bc c975 8dbe 80e9 6fbc
00000060: c078 94be 6c10 fe3d 02b5 943e 3937 91be
00000070: 7094 d33c cc63 fdbd 385c f03d 8c33 ef3d
00000080: 782c df3d 8a72 52be 1477 f33d 9e21 3c3e
00000090: 0504 6bbe 45fc 65be e22c 263e 01a4 5bbe
000000a0: 92a5 e1bd 47f8 81be a8ef fdbd e67e 843e
000000b0: eaae 32be 4e86 9abd 9403 9dbd 7469 913e
000000c0: 1c80 0a3e 90c8 a63d 41f0 1dbe 70ce 03bd
000000d0: 1096 7f3e 00c1 f6ba 087b 713e c083 b23b
000000e0: c0b7 d73b 644a 6e3e d6bd 8e3e d8a4 363d
000000f0: d84b 74be a818 8bbe ffe0 76be 2c62 f53d
00000100: a499 c43d 6947 39be 0860 93be d684 87be
00000110: 1053 a33d 64cc 7c3e 8010 93be 0210 923e
00000120: 9afc 483e c584 8abe c463 bb3d d29a 8f3e
00000130: acf4 64be f89b ae3d 24d8 a5bd 888c 85be
00000140: 3a0c 353e ea5f 7dbe e26d 363e 1488 933e
00000150: 008e 9b3a 5418 49be 4026 25bc e445 3e3e
00000160: 984d 44bd 79c3 97be d641 80be 9c77 dc3d
00000170: a9e1 55be ccc1 e13d 74be 8f3e a88f 01bd
00000180: d09f 553d 5a96 283e 40b9 17bc 58c2 02be
00000190: 4007 42be e475 bfbd 4ae7 393e 2854 5b3e
000001a0: 48a6 c63d 1ce6 af3d 420b 99be ba41 40be
000001b0: 9084 cbbc c0d8 2f3c 46b8 833e 1240 0d3e
000001c0: d47e b43d c03d af3c bded 12be 7255 213e
000001d0: b045 cdbc 9acc 823e f028 203e d0dc fc3c
000001e0: ec2e b33d c689 8abe 84ff 4cbd 080e 873e
000001f0: 86e7 1e3e 3a99 11be 7879 853e 48d9 7b3d
00000200: 5042 0bbd 18fd 453d c248 41be 88ef 28be
00000210: 9083 643e 41ff 91be 0a1d 82be e6a0 1d3e
00000220: 08f8 563e aad4 72be 47b7 95be 6c86 103e
00000230: c821 0c3e dc4c 793e e021 3bbe 40bc 99bd
00000240: 3421 cc3d 9cfd efbd 305e 1b3d c132 93be
00000250: c0b4 233e 0c51 ebbd 9847 cc3d e48a 66be
00000260: 8895 42be d834 023d b877 8abe 94fd 3dbe
00000270: ae9f 8bbe 06bc 37be 20fd 07bd e42c 69be
00000280: 6997 92be dc75 2f3e 8cbd 2abe ff1d 5cbe
00000290: d0df da3d c451 503e 7c75 353e 78bd 62be
000002a0: e8a6 61bd 531c 8ebe 8dc4 29be 930e 2ebe
000002b0: 8aed 4a3e 0085 313c 1892 643e a077 bf3d
000002c0: a87d 34bd 6927 8fbe 68a2 98be 7c7b ac3d
000002d0: e8f4 b63d 78d7 79be 406f cf3d 80bb 05bd
000002e0: d54a 95be 48f2 673e 7888 503e 90d9 20bd
000002f0: aefb 8e3e d204 7bbe 5ce8 793e d020 79be
0.007997483 -0.09250626 -0.2481156 -0.1092276 -0.038889706 -0.28843746 0.23619455 0.05672753
0.1817629 0.29210192 0.25877136 0.26096654 -0.004586816 -0.14067595 -0.17878434 0.08360025
-0.2026135 -0.17097609 0.21407115 0.072675765 0.2277323 -0.02983144 -0.27628925 -0.014643073
-0.28998375 0.12405476 0.29044348 -0.28362444 0.025827616 -0.1237255 0.11736339 0.11679754
0.108971536 -0.20551506 0.11887947 0.18372199 -0.22950752 -0.22459514 0.16228059 -0.21449281
-0.11017908 -0.25384733 -0.123992264 0.25878066 -0.17449537 -0.07545148 -0.07666698 0.28400767
0.13525432 0.08143723 -0.15423681 -0.032179296 0.24959588 -0.0018825829 0.23582089 0.0054478347
0.006583184 0.23270565 0.27879208 0.0445908 -0.23857057 -0.2716725 -0.24109267 0.119816154
0.09599617 -0.18093647 -0.28784204 -0.26468533 0.07974827 0.24687344 -0.28723526 0.28527838
0.1962761 -0.2705442 0.09149888 0.28047806 -0.2235896 0.085258424 -0.08097866 -0.2608378
0.17680445 -0.2474362 0.17815354 0.28814757 0.0011867881 -0.19638187 -0.01007992 0.18581349
-0.04792556 -0.2964132 -0.2505023 0.10765001 -0.20886864 0.11023292 0.28074992 -0.031631142
0.052154362 0.16463605 -0.009260476 -0.12769449 -0.18948078 -0.09348658 0.18154636 0.21418822
0.096996844 0.08588812 -0.29891402 -0.18775073 -0.024843484 0.01073283 0.25726527 0.13793972
0.08813253 0.02139175 -0.14348502 0.15755251 -0.025057644 0.25546724 0.15640616 0.03086701
0.08749184 -0.27058238 -0.050048366 0.26377892 0.15518007 -0.14218608 0.26069236 0.061486512
-0.033998787 0.048337072 -0.18875411 -0.16497624 0.22315812 -0.28515056 -0.2541278 0.15393409
0.20993054 -0.23713937 -0.29241392 0.14113778 0.13684762 0.24345726 -0.18274641 -0.07506609
0.099672705 -0.11718294 0.03793162 -0.2874966 0.1598692 -0.11490068 0.09974593 -0.2251392
-0.19002354 0.031788677 -0.27044463 -0.18553764 -0.27270263 -0.17942819 -0.033200383 -0.2277103
-0.28631142 0.17134804 -0.16673869 -0.21495818 0.1068722 0.20343691 0.17720598 -0.22142589
-0.055090815 -0.27755985 -0.16578884 -0.16997747 0.19817176 0.010834932 0.22321355 0.093489885
-0.044065148 -0.27959755 -0.29811406 0.0842199 0.08933431 -0.24398601 0.10128641 -0.032649517
-0.29158655 0.22651017 0.20364559 -0.039269984 0.2792639 -0.24513558 0.24405044 -0.24328923

mlp_extractor.value_net.0.bias f4 [64]
00000000: 0000 0000 0000 0000 0000 0000 0000 0000
00000010: 0000 0000 0000 0000 0000 0000 0000 0000
00000020: 0000 0000 0000 0000 0000 0000 0000 0000
00000030: 0000 0000 0000 0000 0000 0000 0000 0000
00000040: 0000 0000 0000 0000 0000 0000 0000 0000
00000050: 0000 0000 0000 0000 0000 0000 0000 0000
00000060: 0000 0000 0000 0000 0000 0000 0000 0000
00000070: 0000 0000 0000 0000 0000 0000 0000 0000
00000080: 0000 0000 0000 0000 0000 0000 0000 0000
00000090: 0000 0000 0000 0000 0000 0000 0000 0000
000000a0: 0000 0000 0000 0000 0000 0000 0000 0000
000000b0: 0000 0000 0000 0000 0000 0000 0000 0000
000000c0: 0000 0000 0000 0000 0000 0000 0000 0000
000000d0: 0000 0000 0000 0000 0000 0000 0000 0000
000000e0: 0000 0000 0000 0000 0000 0000 0000 0000
000000f0: 0000 0000 0000 0000 0000 0000 0000 0000
0.0 0.0 0.0 0.0 0.0 0.0 0.0 0.0
0.0 0.0 0.0 0.0 0.0 0.0 0.0 0.0
0.0 0.0 0.0 0.0 0.0 0.0 0.0 0.0
0.0 0.0 0.0 0.0 0.0 0.0 0.0 0.0
0.0 0.0 0.0 0.0 0.0 0.0 0.0 0.0
0.0 0.0 0.0 0.0 0.0 0.0 0.0 0.0
0.0 0.0 0.0 0.0 0.0 0.0 0.0 0.0
0.0 0.0 0.0 0.0 0.0 0.0 0.0 0.0

mlp_extractor.value_net.2.weight f4 [64, 64]
00000000: d4ab 92bd 854f 4f3e a7c0 353e bec8 8a3d
00000010: 485a f6bd e0e3 22bc d0bb 88bd cb47 0a3e
00000020: 6890 a8bd ad09 33be 11ed 433e 409b 1dbe
00000030: 7cb3 46be 22a0 af3d 92ce d23d 75e0 2f3e
00000040: 38f3 c3bc 209c aabd 7889 14bd b7b2 3f3e
00000050: dda1 523e 7afa 903d 6838 1ebd 03b8 55be
00000060: 83fc ebbd 480a ccbd 5624 e2bd a820 3fbe
00000070: 523e fd3d cee8 d93d 4bf2 153e 4f48 4cbe
00000080: 56af 12be d6a9 40be 4902 31be f385 53be
00000090: 31a6 133e 0512 493e 1ac0 da3d 94b8 e8bd
000000a0: 61be febd cbb6 093e 026a c0bd 3ea6 fa3d
000000b0: 001e e739 9df7 333e 25b5 ebbd 6ae8 bcbd
000000c0: 20cc 11be 4266 3dbe 122a c13d 3baf 3d3e
000000d0: 70bb d9bd 0735 2b3e 38ba 8ebd 231c 29be
000000e0: ca50 9e3d 1541 d6bd 6e1a 09be 21ce 043e
000000f0: 4b2c 3e3e 066e 1abe f5f9 223e 006e edba
00000100: fc05 12bd 6214 833d 9dc6 29be 0cd4 1d3d
00000110: f964 283e 411a 083e 8177 543e 22cb 2fbe
00000120: f594 013e c04b 15bd 460a e83d a854 06be
00000130: 58fa 2dbe f1b6 143e 76df be3d e1fc 053e
00000140: 750b e3bd e038 ad3c 48e3 dc3c 2023 10be
00000150: a552 2f3e 6f3f 453e 8812 57bd 08a1 e5bc
00000160: eae9 813d 26f9 9ebd c918 14be 1a96 27be
00000170: 32da ae3d 5a39 c23d 4afb e0bd 7d0d 263e
00000180: 9b50 1b3e c0b0 68bb dba8 1dbe 24be 1d3d
00000190: acb5 303d 010e 393e ec83 51be 8e55 bf3d
000001a0: 416b 223e a056 27bc 8608 0ebe 38a9 0cbe
000001b0: f90a 30be b33e 543e 5e31 4fbe b1c0 3b3e
000001c0: 5724 473e 6f1c 0b3e db49 4abe f034 29be
000001d0: a7a2 3e3e 9c38 773d b0ed 013d ba16 0bbe
000001e0: f4bd d1bd ce84 0ebe 63e4 1b3e 80e6 05be
000001f0: 808c 3dbe 3c82 6dbd d067 b2bc 7271 83bd
00000200: 3891 cf3c aa39 ff3d 1450 0ebe 1701 5bbe
00000210: 82e7 b53d 733e 5b3e 1d95 2e3e d9f7 2f3e
00000220: 75fa 53be e4a4 b9bd b180 30be c7de 463e
00000230: 909c 91bd a629 de3d 8cbb 7d3d a8c9 aabd
00000240: d837 4cbd 3461 0dbe a0a6 d1bc b190 453e
00000250: 462a 25be 68ad f2bc a089 adbd 46ad 8f3d
00000260: 54d2 6cbd eed7 a1bd c6cb e23d ba15 b73d
00000270: 4a6d a33d 9e70 ca3d 58f8 21bd 418e 26be
00000280: 32bf e03d 7afa af3d da24 a83d 6e13 36be
00000290: 2894 3ebd 19d4 293e 4633 c0bd e164 10be
000002a0: d960 163e 420f 56be 0e68 893d c1db 253e
000002b0: 2b77 323e 0769 4b3e eeea 9fbd 369a 1fbe
000002c0: 32fa 873d a6d4 e33d bf96 f7bd 045a 35be
000002d0: 4ae9 ad3d c02b 853b c08d a5bd dbd5 3a3e
000002e0: 3b1e 4dbe 929e cd3d 00de ff3b a900 d9bd
000002f0: f597 d4bd 9d5a 273e c892 bebd 8f37 1a3e
00000300: fabd dc3d 00df 4ebd d240 a9bd ce43 d43d
00000310: e31c 0c3e 229d 2ebe 69c1 253e a24e c23d
00000320: 5a02 48be 14a6 403d c848 bdbc e6bd f13d
00000330: 39f1 1a3e fc41 25be 4058 473c be30 11be
00000340: 4c46 633d 8396 053e affc 1a3e 98a5 a4bd
00000350: 2c29 08bd d091 44bd d3d8 553e f8f1 ddbc
00000360: 143c 553d edce 013e f09a 0b3c 7bd6 1f3e
00000370: 4b54 05be 68e5 b9bd e820 d1bd 6694 54be
00000380: 0814 cabc ce22 a13d 8a8b 03be cd1b 4ebe
00000390: b473 6f3d 3521 dcbd b034 29be c55b 2d3e
000003a0: 092b 2f3e 2687 b43d 707d a6bc f829 cebc
000003b0: 468d 9b3d b630 b7bd 7efe f9bd f831 fe3c
000003c0: 659d c1bd 6ba6 d8bd 4f7d 00be 2b4e 413e
000003d0: bad4 d43d 5c5a 7b3d f0f8 b6bc 6e15 e33d
000003e0: 802c 9dba d6d6 ff3d 3bba e0bd a0ab d8bb
000003f0: 84ff 58bd 31cc 323e b0ee 45bd 601f 98bd
-0.0716168 0.20245178 0.17749272 0.0677657 -0.120289385 -0.009942025 -0.066764474 0.1350395
-0.08230668 -0.1748416 0.19133402 -0.15391254 -0.19404405 0.08575465 0.102933064 0.17175467
-0.023919687 -0.0833056 -0.036263913 0.18720518 0.20569558 0.070790246 -0.038628012 -0.20870976
-0.11522772 -0.099628985 -0.11042087 -0.18664801 0.12365402 0.10640107 0.14643209 -0.19949459
-0.14324698 -0.18814787 -0.17286028 -0.20656566 0.14418866 0.1963578 0.10681172 -0.113633305
-0.12438656 0.13448636 -0.093952194 0.122387394 0.00044082105 0.17574926 -0.1150916 -0.09224017
-0.14238024 -0.1849604 0.094318524 0.18523876 -0.10631454 0.16719447 -0.06969112 -0.1651464
0.07730253 -0.10461632 -0.13388988 0.12969257 0.18571584 -0.15081033 0.15915664 -0.0018114448
-0.03565024 0.06400372 -0.16579671 0.0385323 0.16444768 0.13291265 0.20748712 -0.17167333
0.12654479 -0.036449194 0.113300845 -0.13118231 -0.1699003 0.14522912 0.093199655 0.13084747
-0.1108617 0.021145284 0.026963845 -0.14075899 0.1712137 0.19262479 -0.052507907 -0.028030887
0.06343444 -0.07762365 -0.1446258 -0.16365853 0.08537711 0.09483595 -0.109854296 0.16216083
0.15167467 -0.0035505742 -0.15396444 0.03851141 0.043142006 0.18071748 -0.2046048 0.0934249
0.15861227 -0.010213524 -0.13870439 -0.13736427 -0.17191686 0.20727043 -0.20233676 0.18335225
0.19447456 0.13585065 -0.19754736 -0.165241 0.18616734 0.06035672 0.031720817 -0.13582888
-0.10241309 -0.13917848 0.15223841 -0.1307621 -0.18510628 -0.05798553 -0.021778017 -0.06418122
0.0253378 0.124621704 -0.13897735 -0.21387134 0.08882047 0.21410541 0.1704907 0.1718439
-0.2070101 -0.090646535 -0.17236592 0.1942092 -0.0710994 0.108477876 0.061946437 -0.08339244
-0.049857944 -0.13806611 -0.025592148 0.19293477 -0.16129407 -0.029623702 -0.084735155 0.07015471
-0.057817772 -0.079025134 0.11074023 0.08939691 0.079798296 0.09884761 -0.03954348 -0.16265203
0.109739676 0.085926965 0.08210154 -0.1778085 -0.04652801 0.16584815 -0.0938478 -0.14100982
0.14685382 -0.20904258 0.067093 0.1619711 0.17428271 0.19864284 -0.07808481 -0.1558617
0.06639518 0.11124544 -0.120892994 -0.1771012 0.08491762 0.0040640533 -0.08083677 0.18245642
-0.20031063 0.100400105 0.007808447 -0.10595829 -0.10380546 0.1634316 -0.0930534 0.15060256
0.10778423 -0.050505638 -0.082643166 0.10364495 0.13682894 -0.17052129 0.16187061 0.09487654
-0.19532147 0.047033384 -0.023105994 0.118037984 0.15131082 -0.16138452 0.0121670365 -0.1417875
0.055486962 0.13045697 0.15135454 -0.08039397 -0.03324239 -0.04799062 0.20883493 -0.027092919
0.052059248 0.12676592 0.008520827 0.15609162 -0.13020436 -0.09076959 -0.102113545 -0.20759735
-0.024667755 0.078679666 -0.12846199 -0.20127793 0.058459952 -0.10748521 -0.16524005 0.16929539
0.1710626 0.0881484 -0.020323485 -0.025166497 0.07595305 -0.08944838 -0.12206744 0.031029686
-0.09453849 -0.10578617 -0.12547801 0.18877475 0.10392137 0.06136547 -0.0223355 0.11088072
-0.0011991411 0.124921486 -0.10973021 -0.006612256 -0.052978054 0.17460705 -0.048323333 -0.07427859

mlp_extractor.value_net.2.bias f4 [64]
00000000: 0000 0000 0000 0000 0000 0000 0000 0000
00000010: 0000 0000 0000 0000 0000 0000 0000 0000
00000020: 0000 0000 0000 0000 0000 0000 0000 0000
00000030: 0000 0000 0000 0000 0000 0000 0000 0000
00000040: 0000 0000 0000 0000 0000 0000 0000 0000
00000050: 0000 0000 0000 0000 0000 0000 0000 0000
00000060: 0000 0000 0000 0000 0000 0000 0000 0000
00000070: 0000 0000 0000 0000 0000 0000 0000 0000
00000080: 0000 0000 0000 0000 0000 0000 0000 0000
00000090: 0000 0000 0000 0000 0000 0000 0000 0000
000000a0: 0000 0000 0000 0000 0000 0000 0000 0000
000000b0: 0000 0000 0000 0000 0000 0000 0000 0000
000000c0: 0000 0000 0000 0000 0000 0000 0000 0000
000000d0: 0000 0000 0000 0000 0000 0000 0000 0000
000000e0: 0000 0000 0000 0000 0000 0000 0000 0000
000000f0: 0000 0000 0000 0000 0000 0000 0000 0000
0.0 0.0 0.0 0.0 0.0 0.0 0.0 0.0
0.0 0.0 0.0 0.0 0.0 0.0 0.0 0.0
0.0 0.0 0.0 0.0 0.0 0.0 0.0 0.0
0.0 0.0 0.0 0.0 0.0 0.0 0.0 0.0
0.0 0.0 0.0 0.0 0.0 0.0 0.0 0.0
0.0 0.0 0.0 0.0 0.0 0.0 0.0 0.0
0.0 0.0 0.0 0.0 0.0 0.0 0.0 0.0
0.0 0.0 0.0 0.0 0.0 0.0 0.0 0.0

action_net.weight f4 [1, 64]
00000000: aeb9 383e 5012 d8bd d8a0 cd3d f6f2 45be
00000010: 44f6 04be 8085 78bb d2da 3f3e 140d 07be
00000020: 4859 093e 703f 453d 76ad cbbd 7884 48bd
00000030: c171 4fbe 8042 6a3d 0eb6 fdbd 706f 2ebd
00000040: dccb 91bd 24c8 503e a67a 873e e23e 6abe
00000050: a064 3dbe 1528 8dbe 3449 673e 8f1a 97be
00000060: 0471 273e 40df c6bd 0990 4cbe 2cce cdbd
00000070: c0d7 cdbc d1f0 96be dea2 8c3e d4bc 4a3e
00000080: e06e 74bd b2f1 d6bd 7426 823e 588d a03d
00000090: c0fc d33b 781f 94be d38b 96be b8e1 923e
000000a0: 7416 27be 9c55 0b3e c4c2 703e 58bc 3cbe
000000b0: 9c1e 243e ae73 803e 9ff8 8dbe 48d4 0fbd
000000c0: c533 0cbe d9b4 5cbe 4067 39bc d45c 653e
000000d0: 0e65 dcbd a806 293e 48f7 183e 28c4 5fbe
000000e0: dcd0 763e 0283 71be a69d 933e 205e 1e3e
000000f0: 48ba cbbd 4223 c3bd 9d5f 47be 2cef 823d
0.18039581 -0.10550368 0.10040444 -0.19330963 -0.12984568 -0.003792137 0.18735817 -0.13188583
0.13412964 0.0481562 -0.099451944 -0.048954457 -0.20258237 0.057192326 -0.1238824 -0.042586744
-0.07118961 0.20388848 0.2646076 -0.2287555 -0.18495417 -0.27569643 0.22586519 -0.2951245
0.16351706 -0.0971055 -0.1997682 -0.1004909 -0.025127292 -0.29480603 0.27468008 0.19798595
-0.05967605 -0.104953185 0.25419962 0.07839459 0.006469339 -0.2893026 -0.29403552 0.28687835
-0.16317159 0.13606876 0.23511797 -0.18431222 0.16027302 0.25088257 -0.27728745 -0.035114557
-0.13691624 -0.21553363 -0.011316121 0.22398692 -0.10761462 0.16506445 0.1493808 -0.21852171
0.24103111 -0.23585132 0.28831214 0.15465593 -0.0994764 -0.09528209 -0.19470067 0.06393275

value_net.weight f4 [1, 64]
00000000: 3cd8 df3d 1044 0c3d 20b6 fe3d f27a 54be
00000010: e007 6d3c 4cfd 043e 3426 4e3e c46b 663e
00000020: c631 eebd 8026 773b 46a2 b5bd 64d5 7fbd
00000030: 4079 673c dc2c e43d 1c2e ccbd c850 7b3e
00000040: a074 4a3e a414 513e c4e9 843e 9677 8c3e
00000050: 2804 6b3e 388e 10bd c6c1 94be 2099 36bd
00000060: 68cc 52bd 008c 3b3e c6df 84bd 24e3 3f3e
00000070: 269e 833e c44f 85be 1a56 a5bd 7825 6bbe
00000080: a0bb 2fbc 3ef5 59be 9ccd a9bd c0bf 1b3d
00000090: fcf3 fd3d 4aef 03be 7eaf 1b3e 6a82 373e
000000a0: 4412 943d 32e1 97bd b231 94be 6c47 d13d
000000b0: 10f3 773e c79b 83be e837 8c3e d8df 613e
000000c0: 70d2 aa3c ba10 28be 6452 d0bd d0d6 023e
000000d0: bab7 223e 307c 433e e849 31be 18a0 6b3d
000000e0: d80f 8f3e 28fc 6f3d 2e83 97bd f83b 00bd
000000f0: 005f d23a 1417 7e3e 3e69 57be 0cf3 7b3e
0.10929915 0.034244597 0.12437081 -0.20750025 0.01446721 0.1298725 0.20131761 0.22502047
-0.11630587 0.0037712157 -0.08868842 -0.062459365 0.014128029 0.11141369 -0.09969732 0.24542534
0.19771051 0.2041803 0.259596 0.27434987 0.22950804 -0.03529188 -0.29054087 -0.044579625
-0.05146447 0.18315125 -0.06487994 0.18738991 0.25706595 -0.2603742 -0.08073063 -0.22963512
-0.010725886 -0.21284959 -0.0829117 0.038024664 0.12400052 -0.1288425 0.15203664 0.17920843
0.072300464 -0.074159995 -0.28944165 0.10218701 0.24213815 -0.25704786 0.27386403 0.22058046
0.020852298 -0.1641263 -0.10171965 0.12777257 0.15890399 0.19090343 -0.17313349 0.057525724
0.27941775 0.058590084 -0.073980674 -0.03130719 0.0016050041 0.24813491 -0.2103624 0.24604434
