policies/Hopper/pure_random_ppo.pt (torch, 45943 bytes, 12 tensors)

log_std f4 [3]
00000000: 0ad4 2dc0 247f 2ec0 a674 2fc0
-2.7160668 -2.72651 -2.7414947

mlp_extractor.policy_net.0.weight f4 [64, 11]
00000000: 9c26 0d25 6412 50a5 95c1 47a5 7933 aca6
00000010: cae3 6aa6 7daa 63a3 6305 6ca3 0852 a4a4
00000020: a1b1 3025 4ba2 0f26 fd25 24a6 b010 acab
00000030: 0cb3 4d2b 7881 a62b 988d d12c ace1 962c
00000040: 1db8 a4aa 68ad 7229 3c46 1ca9 116c 9fab
00000050: 7b30 1dac 168b 222c d7f6 3da3 39fb 9623
00000060: c8c5 9323 e90e fe24 43fc ad24 d0e1 f1a0
00000070: 070e 1d22 434a fa22 7c31 71a3 c1ac 53a4
00000080: d5df 7724 4fa9 e0a5 957b b926 cb3d 8926
00000090: acfb 0528 d4fe b727 01bc 0fa5 63f5 4925
000000a0: 72aa 2726 222f 5ea6 3a8d 54a7 253b 9227
000000b0: f2ec dea9 7ec7 a529 4db5 e229 1bd5 252b
000000c0: 9221 ea2a 5ae8 e4a7 de2b 49a7 4eea 9128
000000d0: 00bc e8a9 d025 6caa 793c 892a 963d 4bb5
000000e0: a9ff abb4 e036 0b35 0ff3 22b6 32ae 68b5
000000f0: 2ab9 1935 9f20 a0b4 e9fd 71b1 099f 5bb4
00000100: ef1c b435 acb7 27b6 bb7f 1623 680c 24a4
00000110: 821e fda3 5474 8aa5 b8fd 41a5 99c2 5723
00000120: 7f98 6ba3 f08f bea3 1cf2 c423 80e4 d324
00000130: 1038 1ea5 3e66 f3a0 16e5 2422 c1cf 3f22
00000140: 1b9e c823 92cb 9023 d8b4 57a2 273b 4622
00000150: 3f62 2222 5fcf c9a1 8f72 0ba3 b2f1 7123
00000160: 5555 68a5 9393 a025 d14e a225 00a2 0827
00000170: d53c bb26 7d75 aea0 62df e723 435a f624
00000180: 9a34 8ea5 32ef 5ba6 3bb9 7f26 25ba d731
00000190: 2a42 4430 281c 2eb2 a77c 4f2f c339 a731
000001a0: 5428 2db1 fc95 3132 0a2b 88b1 6496 f2af
000001b0: f25b ae30 fd5a f631 0234 15b3 dee2 bfb1
000001c0: 458b 5333 dbd4 d3b2 8a1c 2fb3 ba7d 7032
000001d0: 9e02 84b3 f008 8c32 c012 22b0 8998 8232
000001e0: 6fd2 8cb3 7201 9e23 fb22 81a3 03f7 a6a3
000001f0: d992 dca4 473a a0a4 90c5 9921 9329 fa21
00000200: 9576 1ba2 4574 9a23 67d7 3224 7a30 31a4
00000210: a1db cb28 a6b9 58a9 9d44 42a9 b8e7 c6aa
00000220: 71b7 8eaa 58b6 c428 7bc0 29a8 78b8 b0a8
00000230: 8351 2529 5585 1d2a 0e7e 44aa 09b4 c137
00000240: 148d 9f36 e30c 14b7 b828 6038 acb9 1637
00000250: 0cea 52b7 eb4e 0137 3e36 bbb6 f8fa d335
00000260: 782a 9fb7 771f 5a38 ff30 a739 ed57 9538
00000270: 8b8e 31b9 e1cc e3b9 b7b3 dab9 0940 7f39
00000280: 5b04 f2b8 aff3 6c39 029a 4939 1c74 4339
00000290: 03cb 22b9 4f50 a927 7aec 8ca7 388b b6a7
000002a0: a30d 02a9 182e b6a8 cb6e 9025 ce3e 1625
000002b0: b454 73a6 5f73 b127 67cd 3928 b87a 57a8
000002c0: 6b10 0722 792e 01a3 a42a caa2 2251 48a4
000002d0: 3fde 08a4 83e2 fe21 ad23 f5a1 5b78 83a2
000002e0: 307e 9822 15e7 9c23 fc90 e0a3 03ae caa8
000002f0: 42f3 8028 ce66 bb28 668c e029 60f1 a329
00000300: c593 64a7 a033 5da6 fe03 eb25 e592 a1a8
00000310: c9da 3ea9 1379 2129 73ea 6127 79cc ada7
00000320: 5450 94a7 7228 0ba9 75df cda8 fb1b e925
00000330: 5f46 8d25 4d8e e0a6 2a26 9627 ee96 6728
00000340: 6261 86a8 065c 8ea5 0a51 5525 9193 8125
00000350: 3664 b126 fcf2 7c26 bd36 16a0 2a58 49a3
00000360: 4c29 2924 c0d8 77a5 bb9e 1ba6 5895 0b26
00000370: 2e5e ce1e 15e5 e21f 0416 8a1f 1720 8021
00000380: d375 3e21 e743 16a0 9b18 1620 0dfd 0620
00000390: d460 399f c4fc bda0 aca0 3c21 ea6b 402a
000003a0: a541 8daa 552e 97aa 43c5 e3ab 033c 96ab
000003b0: e65a 6829 934d 0828 2317 23a9 e01c 682a
000003c0: 4c3d 222b 77fa 3bab b761 cc2e b86a 1dae
000003d0: 5cc1 1eb0 9adb ca30 636a 7b30 f739 3130
000003e0: 6197 2e2f a282 a92f 2f6e f7af 3970 bab0
000003f0: cf22 e830 b4a1 d0a8 8b81 2d29 cc5c 1f29
1.2242882e-16 -1.8047355e-16 -1.7326087e-16 -1.1948849e-15 -8.149377e-16 -1.2341797e-17 -1.2794726e-17 -7.126263e-17
1.532575e-16 4.983304e-16 -5.6950414e-16 -1.2225967e-12 7.307911e-13 1.1830944e-12 5.9558573e-12 4.288311e-12
-2.9260006e-13 5.38852e-14 -3.4699877e-14 -1.1327624e-12 -2.2337954e-12 2.3098793e-12 -1.0297981e-17 1.636943e-17
1.6021536e-17 1.101802e-16 7.545414e-17 -4.0976418e-19 2.1284894e-18 6.7841263e-18 -1.3075115e-17 -4.589966e-17
5.374918e-17 -3.8972534e-16 1.2870451e-15 9.523034e-16 7.437556e-15 5.106899e-15 -1.2466971e-16 1.7517111e-16
5.817076e-16 -7.70856e-16 -2.949747e-15 4.0587265e-15 -9.899884e-14 7.3620783e-14 1.0067867e-13 5.891552e-13
4.1590044e-13 -6.353463e-15 -2.7918134e-15 1.6199847e-14 -1.03354825e-13 -2.097413e-13 2.437805e-13 -7.571301e-07
-3.203725e-07 5.186139e-07 -2.428136e-06 -8.668022e-07 5.726639e-07 -2.9826057e-07 -3.5214447e-09 -2.0453821e-07
1.3419466e-06 -2.499185e-06 8.158564e-18 -3.557234e-17 -2.7443236e-17 -2.401801e-16 -1.6826045e-16 1.1696381e-17
-1.2771668e-17 -2.0660801e-17 2.13529e-17 9.189376e-17 -1.372331e-16 -4.123346e-19 2.2347422e-18 2.599531e-18
2.1751004e-17 1.5698727e-17 -2.9233671e-18 2.6865319e-18 2.2007105e-18 -1.367518e-18 -7.559464e-18 1.3115817e-17
-2.0151704e-16 2.7855576e-16 2.8155928e-16 1.8961612e-15 1.299222e-15 -2.9554494e-19 2.5139676e-17 1.068384e-16
-2.4668718e-16 -7.630506e-16 8.872193e-16 6.2784857e-09 7.139841e-10 -1.0134535e-08 1.8870826e-10 4.8669064e-09
-2.5197737e-09 1.03368585e-08 -3.963014e-09 -4.4126403e-10 1.2686299e-09 7.1698865e-09 -3.4739067e-08 -5.5846234e-09
4.925393e-08 -2.4660428e-08 -4.077132e-08 1.39984255e-08 -6.147205e-08 1.630221e-08 -5.89619e-10 1.5203357e-08
-6.557536e-08 1.7131006e-17 -1.4001023e-17 -1.810237e-17 -9.565856e-17 -6.9487665e-17 1.0419978e-18 1.6951664e-18
-2.1069194e-18 1.6745956e-17 3.878005e-17 -3.8421818e-17 2.2632776e-14 -4.812266e-14 -4.3136166e-14 -3.5332653e-13
-2.5351555e-13 2.183945e-14 -9.423122e-15 -1.9619926e-14 3.670806e-14 1.399066e-13 -1.7452031e-13 2.3091228e-05
4.754993e-06 -8.824488e-06 5.3443684e-05 8.983927e-06 -1.2571469e-05 7.707374e-06 -5.579349e-06 1.5793767e-06
-1.8974053e-05 5.2004554e-05 0.00031889227 7.121251e-05 -0.00016933137 -0.0004344946 -0.00041714098 0.0002434255
-0.000115402705 0.00022597493 0.00019226226 0.00018639903 -0.00015525152 4.6993994e-15 -3.9114194e-15 -5.066609e-15
-2.8877627e-14 -2.0226049e-14 2.5055094e-16 1.3031705e-16 -8.4422355e-16 4.9252454e-15 1.03141025e-14 -1.1961508e-14
1.8304603e-18 -7.002945e-18 -5.4797357e-18 -4.343681e-17 -2.967855e-17 1.7271667e-18 -1.6611289e-18 -3.5635052e-18
4.133329e-18 1.7011421e-17 -2.4347532e-17 -2.250197e-14 1.4316351e-14 2.0805755e-14 9.9719535e-14 7.280526e-14
-3.1721462e-15 -7.674474e-16 4.0768707e-16 -1.7938296e-14 -4.237824e-14 3.5854197e-14 3.1352118e-15 -4.8238836e-15
-4.1165344e-15 -3.089928e-14 -2.2856481e-14 4.0438017e-16 2.4507286e-16 -1.5581693e-15 4.167474e-15 1.2855804e-14
-1.4919222e-14 -2.469543e-16 1.8502262e-16 2.2477928e-16 1.2309004e-15 8.775937e-16 -1.2723606e-19 -1.0914901e-17
3.6681013e-17 -2.1497273e-16 -5.399155e-16 4.842771e-16 2.185005e-20 9.609371e-20 5.8481695e-20 8.682111e-19
6.4530443e-19 -1.2727961e-19 1.2713635e-19 1.1433969e-19 -3.9255368e-20 -3.2185112e-19 6.3909525e-19 1.7090466e-13
-2.5092181e-13 -2.6855138e-13 -1.6184071e-12 -1.0674798e-12 5.159319e-14 7.566338e-15 -3.621334e-14 2.0615757e-13
5.763903e-13 -6.6783336e-13 9.2942036e-11 -3.5792452e-11 -5.7754845e-10 1.4759849e-09 9.146445e-10 6.44746e-10
1.5878988e-10 3.083374e-10 -4.5007328e-10 -1.3565177e-09 1.6890115e-09 -2.3162766e-14 3.8526077e-14 3.538558e-14

mlp_extractor.policy_net.0.bias f4 [64]
00000000: 21cf 92a6 f7a2 db2c 9a78 d024 3c98 e727
00000010: 1a26 2b2b 2471 2ab6 6923 6fa5 6653 a123
00000020: 540d eb26 b5c6 b52f 36d4 dcb2 dc42 dba4
00000030: 409a aaaa 6599 3238 987e 2cba c4e7 01a9
00000040: b1da 28a4 718a dd29 b4f2 04a9 5aa7 ab26
00000050: 0c1a 5821 762e bdab 72fb 1231 aabb 802a
00000060: 11b0 e427 5188 00a7 2dd1 dba7 a0b9 b92b
00000070: 31a9 b2ab 4850 0735 1b96 c535 e68c 7838
00000080: ed11 c7a5 1455 1c25 64a9 8729 d375 15a6
00000090: fe2e 9a21 f9a5 55a6 9697 dfaa e18f 7eb8
000000a0: 334e c9a2 eec8 be2a 98d0 a7a7 e6ef 5224
000000b0: c52b a12b ab45 0d2d be9a dea9 7c72 a9aa
000000c0: bde6 c6a7 d2a1 a4a2 7ef2 adaa b771 40a4
000000d0: 0b66 8727 48c0 30a4 b762 adab 3b92 8bab
000000e0: ff55 83a7 6f38 15a7 ab0d 33a1 c0e7 46b7
000000f0: 9b1d 98a4 3412 a929 7044 8bb6 b455 8627
-1.0186928e-15 6.242447e-12 9.040993e-17 6.4280433e-15 6.080428e-13 -2.539783e-06 -2.0741943e-16 1.7490976e-17
1.6310013e-15 3.3064898e-10 -2.5707873e-08 -9.5089374e-17 -3.03051e-13 4.2581367e-05 -0.0006580143 -2.884478e-14
-3.6614432e-17 9.838387e-14 -2.95204e-14 1.1910869e-15 7.321812e-19 -1.3442153e-12 2.1388726e-09 2.2867586e-13
6.3473604e-15 -1.7837466e-15 -6.10115e-15 1.3196562e-12 -1.2694621e-12 5.0408244e-07 1.472133e-06 5.925903e-05
-3.4533144e-16 1.3559669e-16 6.024589e-14 -5.185444e-16 1.0447885e-18 -7.4124155e-16 -3.9717941e-13 -6.0692317e-05
-5.4563956e-18 3.3890203e-13 -4.657797e-15 4.5739693e-17 1.1451887e-12 8.0303915e-12 -9.885624e-14 -3.009987e-13
-5.5206207e-15 -4.4623623e-18 -3.0899236e-13 -4.1729684e-17 3.7580662e-15 -3.8326785e-17 -1.2319788e-12 -9.917131e-13
-3.645304e-15 -2.0708497e-15 -6.066565e-19 -1.1855678e-05 -6.5969646e-17 7.5082654e-14 -4.15049e-06 3.728539e-15

mlp_extractor.policy_net.2.weight f4 [64, 64]
00000000: b26a 0625 6435 46ab a958 4ca3 9a9f 3ca6
00000010: cf83 8ba9 9f8a 2e34 b832 c923 03bf 25a2
00000020: c1bf 5ea5 17ec 8331 6d86 4fb2 9a7a 4423
00000030: ee30 3d29 b9c5 0cb7 e327 d738 7e5f 5927
00000040: 4569 9022 3379 5fa8 96bd 6927 99a2 1ea5
00000050: 9de6 b19f 14a7 5b2a 6384 2b2f 70fd baa8
00000060: 4481 1da6 081f 8f25 a415 0b26 1bd9 4caa
00000070: 8d4b 602a b974 6434 ab62 dd34 b3d6 4eb7
00000080: 5508 3924 8150 59a3 49b5 9ca7 0f08 6724
00000090: 0ce7 ed9f 0d4d 2025 82ac c428 924b 4c37
000000a0: c40a 3121 0121 4ea9 3a27 1f26 d7c8 b6a2
000000b0: b64b 2faa 181c 78ab 2a63 3d28 6801 ed28
000000c0: 4f98 2626 ed2b 2321 c232 91a8 4958 a122
000000d0: 271d d8a5 8100 9622 c6c2 4a2a 0e89 1d2a
000000e0: 74d7 8e25 f51f b325 18bf 951f c300 a135
000000f0: 4b82 ae22 0230 c1a7 321b b732 0526 daa5
00000100: 6792 cb24 a475 0bab 5815 1aa3 16e6 08a6
00000110: c762 46a9 1bd6 f933 3fb3 9123 d058 eea1
00000120: 0659 26a5 30b8 5b31 e0bd 44b2 193f 1a23
00000130: eb33 1329 e012 dbb6 a7ec ba38 83b4 1b27
00000140: 64dc 5122 7612 2fa8 18e3 3427 3924 f9a4
00000150: c7fb 4b9f a2f2 2c2a 26e6 202f f92b 89a8
00000160: e958 eda5 7000 5a25 bc54 c325 49b3 22aa
00000170: 167a 2d2a eb3b 5634 cc65 c834 f2b7 20b7
00000180: 33c3 1424 e817 21a3 be07 5fa7 3a92 2d24
00000190: e0d6 969f 152e f924 b433 8528 4742 3337
000001a0: 1fd7 0421 c8db 20a9 7210 d825 ade8 85a2
000001b0: df61 07aa 5971 39ab 1435 1b28 943b ad28
000001c0: 916d 1b26 3c36 f220 ea48 94a8 87b3 6822
000001d0: bfeb 9ba5 861e 5922 e1d2 042a b0f6 cc29
000001e0: 8b58 3d25 f4c1 8525 cd2d 221f e44c 7535
000001f0: 52d2 7422 9882 82a7 c288 5532 965d a3a5
00000200: e6f1 8f21 c9bd b1a7 f2a8 e49f b811 dda2
00000210: 9a5b f2a5 a739 8d31 ac7e 7320 5ae9 d39e
00000220: f012 f4a1 4fc8 6a2d aa63 c8ad 531b bb1f
00000230: d6a8 d825 46f2 deb3 0e4a 6c35 b0e5 cb23
00000240: a30b 301f bb7f d7a4 792d f623 97e4 96a1
00000250: c50a 6c9c f1f6 d626 bd69 172c e700 3ca5
00000260: 6288 94a2 01e7 2422 5de5 4b22 6750 d3a6
00000270: 87d8 f426 77a4 f6af b92b 36b1 7512 1eb4
00000280: 8819 b320 dbdc d49f 9082 0fa4 c6e0 d920
00000290: a0db 9d9c ceae c321 b11d fd24 5b47 0034
000002a0: fde6 b51d 68ee e4a5 b69e 9422 b60f 5a9f
000002b0: b3c3 b5a6 16cc e0a7 080d b124 6155 3425
000002c0: 5f62 9822 902e c41d 8b6c 8ba5 b7d4 451f
000002d0: 8fe1 7da2 a569 371f cbd5 e226 6c90 b426
000002e0: fc92 9c21 e825 3222 7c62 471c c0f7 ed32
000002f0: d66a ed1e d829 95a3 8d03 0e32 ed45 5ea2
00000300: 6f29 5f22 4c68 b0a8 d09b a6a0 c52f a5a3
00000310: 1908 f1a6 937b 4632 f7ee 3021 5925 889f
00000320: 5aca b6a2 40ab 0f2e 4885 27ae 3acc a920
00000330: 9f7d 9726 73f1 95b4 db99 2736 432a bc24
00000340: 37a6 fd1f c50c bca5 dce1 c124 c042 88a2
00000350: 8950 289d 8842 a927 c45d 9aab 2960 21a6
00000360: b5dd 89a3 297f e322 9f21 8023 4336 b5a7
00000370: 085f af27 1280 d6b0 81f4 e6b1 1d4f d4b4
00000380: 414e a021 532d bda0 2c55 15a5 5a47 c921
00000390: 248f 5e9d 22d2 7722 17f9 7c26 aa48 9034
000003a0: 6185 941e 2d8d a5a6 fd8f 8c23 e40c 1ea0
000003b0: 58ef 85a7 9000 e9a8 3dfa 9b25 f618 6f26
000003c0: b1f4 8823 b275 841e 13bc 7825 5c09 0f20
000003d0: 7845 3fa3 c838 0420 70db ae27 d311 8c27
000003e0: 111c 0223 c313 0323 bfb7 0c1d 9f8e 9d33
000003f0: 6ea1 2720 34ab 2aa5 9312 bd32 a144 35a3
1.1658797e-16 -7.0417825e-13 -1.1077637e-17 -6.5441903e-16 -6.195705e-14 1.6255443e-07 2.1813944e-17 -2.246279e-18
-1.9320399e-16 3.839442e-09 -1.2079551e-08 1.0651143e-17 4.200887e-14 -8.390686e-06 0.000102594284 3.0166566e-15
3.9142737e-18 -1.2405268e-14 3.243802e-15 -1.3759406e-16 -7.5343934e-20 1.9509074e-13 1.5599393e-10 -2.076006e-14
-5.4645505e-16 2.4827573e-16 4.825464e-16 -1.8194163e-13 1.9921409e-13 2.1276618e-07 4.1236248e-07 -1.2328545e-05
4.0122538e-17 -1.1780641e-17 -4.3495248e-15 5.0096966e-17 -1.0075564e-19 1.3903894e-16 2.1835185e-14 1.2176943e-05
5.998418e-19 -4.5769815e-14 5.521737e-16 -4.9543846e-18 -1.556939e-13 -8.8146287e-13 1.051311e-14 2.6312896e-14
5.7799236e-16 5.5284683e-19 -1.6120247e-14 4.3732613e-18 -3.7489781e-16 4.0658115e-18 1.800878e-13 1.3991952e-13
2.477907e-16 3.1073205e-16 6.342009e-20 1.1995656e-06 4.7300748e-18 -5.362031e-15 2.1316371e-08 -3.7842735e-16
8.828523e-17 -4.954598e-13 -8.3528764e-18 -4.7496303e-16 -4.4050507e-14 1.16339116e-07 1.5796845e-17 -1.6151016e-18
-1.4428367e-16 3.1973393e-09 -1.1451874e-08 8.361718e-18 3.268559e-14 -6.528906e-06 8.913251e-05 2.1608427e-15
2.8441456e-18 -9.7184545e-15 2.5103126e-15 -1.080479e-16 -4.3195187e-20 1.5360849e-13 1.463368e-10 -1.5229126e-14
-4.1173194e-16 1.8908634e-16 3.3884526e-16 -1.4450692e-13 1.5407844e-13 1.9952101e-07 3.732697e-07 -9.579571e-06
3.2257724e-17 -8.73289e-18 -3.0951664e-15 3.7637254e-17 -6.388295e-20 1.080646e-16 1.4788389e-14 1.0684663e-05
4.500805e-19 -3.5717767e-14 3.748117e-16 -3.6296077e-18 -1.2024365e-13 -6.5882505e-13 8.615738e-15 1.9232696e-14
5.392492e-16 4.1032284e-19 -1.6462922e-14 3.1536904e-18 -2.7047962e-16 2.9425143e-18 1.1797118e-13 9.1022133e-14
1.6423136e-16 2.320325e-16 3.434272e-20 9.1381503e-07 3.3179509e-18 -3.622384e-15 1.2429327e-08 -2.833941e-16
9.754087e-19 -4.9333134e-15 -9.684125e-20 -5.992093e-18 -4.204238e-16 4.1101944e-09 2.0624813e-19 -2.2437006e-20
-1.6539096e-18 1.33458375e-11 -2.2781627e-11 7.9242785e-20 3.7584435e-16 -1.038175e-07 8.8024615e-07 2.210658e-17
3.7279075e-20 -9.345777e-17 2.6690632e-17 -1.0224903e-18 -7.809977e-22 1.4916167e-15 2.1517087e-12 -1.6306706e-16
-4.025988e-18 2.2348437e-18 2.7633054e-18 -1.4662859e-15 1.6989591e-15 -4.4864e-10 -2.650934e-09 -1.4721611e-07
3.0340675e-19 -9.015087e-20 -3.1118773e-17 3.6909972e-19 -1.044616e-21 1.3259984e-18 1.0977156e-16 1.1946888e-07
4.8149137e-21 -3.9713246e-16 4.0283522e-18 -4.617629e-20 -1.2612442e-15 -6.239376e-15 7.678359e-17 1.5641439e-16
4.1303837e-18 5.1928913e-21 -2.4186208e-16 4.1892326e-20 -3.4407303e-18 3.8839144e-20 1.5739849e-15 1.2529155e-15
1.0609878e-18 2.4143566e-18 6.5970865e-22 2.7703095e-08 2.5137537e-20 -1.6172334e-17 8.266295e-09 -3.0123629e-18
3.024407e-18 -1.9585157e-14 -2.8224602e-19 -1.7909567e-17 -1.6724929e-15 1.1553214e-08 5.9947387e-19 -5.766003e-20
-4.9545447e-18 3.2666536e-11 -3.808978e-11 2.876486e-19 1.0511779e-15 -2.792909e-07 2.4974495e-06 8.16036e-17
1.0742465e-19 -3.2621454e-16 8.408303e-17 -3.693355e-18 -2.227625e-21 4.6979056e-15 -1.0968383e-12 -5.5988417e-16
-1.4947466e-17 6.166311e-18 1.3892027e-17 -5.0296423e-15 4.867529e-15 -1.5606949e-09 -6.721678e-09 -3.954564e-07
1.0862735e-18 -3.2047838e-19 -1.2952547e-16 1.3639176e-18 -2.9455457e-21 3.3585985e-18 8.7767643e-16 2.687496e-07
1.5725274e-20 -1.1487441e-15 1.5239812e-17 -1.3387386e-19 -3.7174413e-15 -2.586844e-14 2.7057782e-16 8.295361e-16
1.484878e-17 1.4024721e-20 2.1574293e-16 1.2115668e-19 -1.0368841e-17 1.1199622e-19 4.8532616e-15 3.887713e-15
7.0532574e-18 7.105709e-18 1.862384e-21 7.336825e-08 1.4198863e-19 -1.4803155e-16 2.2010942e-08 -9.826562e-18

mlp_extractor.policy_net.2.bias f4 [64]
00000000: 2a60 9a3a 9cf1 c83a 70de b837 920e 0234
00000010: 8488 4a36 0282 5eb6 f6dd 9237 104d efb6
00000020: 640c 8337 b093 2bba b449 8bb6 f834 c036
00000030: 76fa f5ba 7ea1 22b6 574b b6b8 7645 663a
00000040: 7d6a 443b 1a9f b2ba ec91 82ba 0a81 8439
00000050: fe87 53b8 82b9 9637 624c 15b9 8cd2 ae37
00000060: 9f25 2e37 4b0c 4db6 331d 193a a495 b937
00000070: 18bb 9c38 6173 7836 1b98 8037 3e1c a0b7
00000080: 18b1 2d37 b5d2 5235 459a 1c3b 1b50 4138
00000090: f80a 313b e34d ac39 3fa7 bdba 87fb 6c36
000000a0: 962e 48b8 e627 8637 2b38 cdb8 82a1 d338
000000b0: 5cb3 b23a e616 ff38 8821 2c3a 40b2 e9b8
000000c0: e621 d239 a831 b7b5 22b3 6f36 77b9 93ba
000000d0: dd03 463a 318a 7cb7 8482 f83a fc10 9539
000000e0: 747a 12b9 014e 2937 4729 8ab7 3e6c bd38
000000f0: ab7b c1b7 e7a9 ca36 76bf 63ba a602 8a37
0.0011777927 0.0015330794 2.203809e-05 1.2112494e-07 3.0179808e-06 -3.3156252e-06 1.7507915e-05 -7.1317263e-06
1.5622187e-05 -0.00065451395 -4.151103e-06 5.7282123e-06 -0.001876666 -2.4233882e-06 -8.6924694e-05 0.0008784154
0.0029970699 -0.0013627738 -0.0009961701 0.00025273144 -5.0432973e-05 1.7967777e-05 -0.00014238202 2.084046e-05
1.03799675e-05 -3.0554536e-06 0.0005840838 2.21234e-05 7.4735086e-05 3.702204e-06 1.5329619e-05 -1.9086638e-05
1.0352836e-05 7.8537715e-07 0.0023895663 4.608939e-05 0.0027014595 0.00032864427 -0.0014469399 3.5313149e-06
-4.7727102e-05 1.5992624e-05 -9.785624e-05 0.00010091347 0.0013633776 0.00012163613 0.0006566276 -0.000111435074
0.00040079578 -1.3649014e-06 3.5718044e-06 -0.0011270483 0.0007553676 -1.5052546e-05 0.0018959795 0.0002843215
-0.00013969262 1.0091347e-05 -1.6470103e-05 9.032384e-05 -2.306498e-05 6.0398484e-06 -0.00086878927 1.6452115e-05

mlp_extractor.value_net.0.weight f4 [64, 11]
00000000: 216e a53d 5b8b 3d3d 6a81 f93d b1f9 873e
00000010: aa46 473d 5ed7 11be 8dfe b2bc eaeb 653d
00000020: 9d86 14be 511c 71be 06d0 95bd a9a9 8dbd
00000030: 910b c23c fb27 b7bd abe6 e53d 50cc 153e
00000040: d21b b3be 3c0b 21bd aa24 5abd f660 c9bd
00000050: dd41 843e 0126 c23d 0dba 48be dd98 d03c
00000060: 3eb9 a8be 936a 4bbd 00ea c83c f69f c73d
00000070: 3433 a03e b85d 913d dce3 153d 37b6 6b3d
00000080: 1858 05bc 22c0 73be 975d 0cbd 4975 033d
00000090: 1cc2 8ebd 0322 f23c cc63 1bbe 0f47 153c
000000a0: 27e8 1dbe f711 513d b4af 463d a201 b43e
000000b0: ccbe 4bbe 2cfa b9bd ccd1 8ebe d9b3 8f3e
000000c0: 25f3 463e 3e04 443e 3893 12bd 8ce0 753b
000000d0: 6f66 e33c 31e0 4cbe 8bc2 753e c31e 503d
000000e0: 5bb1 05bf c23e 613b c375 983d a17a 82be
000000f0: bbe9 85be 5188 70be 251b 6dbd a6b9 50bd
00000100: 2892 4f3e d864 5e3d ce87 bd3d 0f14 8fbd
00000110: 4ea2 1bbe d962 fdbc 0775 833e 355b 0cbd
00000120: 360a 08be 5036 d8bc 0075 fd3d 4385 1b3e
00000130: 292a b23e bdc3 a73c 03eb 013e 6cee 9d3d
00000140: b4a7 303e fe43 933e 607c a13b b9b3 8fbe
00000150: 36a0 9a3d df60 91bd 592a b13e 4494 14bd
00000160: c453 033d 9663 9d3d 2cb5 563e ad14 53be
00000170: f010 4d3d 7c14 ce3d d1dc 8d3c 4d58 3b3e
00000180: 07f5 06be 1367 a23d 1aa3 d8be 26e3 62be
00000190: c7aa 2abe 852d 89be c28c 963d 67a4 5b3e
000001a0: 8e90 383d 60ce 173b a953 babd 50ca 3abe
000001b0: 6e36 efba 993d a6be 2bfc bbbe d722 14be
000001c0: 3ba0 cabd 0abe 2ebe eac1 633e 0c18 5c3e
000001d0: fb45 99bd 59a2 da3e c37e 2fbd b2b5 393e
000001e0: ca38 b33c b5f3 90bc be4c c23d 2b80 44be
000001f0: a7f8 8dbe 0ed8 143e d6e6 f03c 73f3 dfbd
00000200: c0e8 af3d e000 1d3d ac13 1fbc bc21 34be
00000210: 9b7d 1e3e 074c d93c 962b b8bd f5e7 43be
00000220: e70a b23c 22d4 03be e978 28bc d8a4 b7bd
00000230: b484 f33d 977b 04bd 932c 8c3d 3712 b1bd
00000240: acbd 063f 06d3 af3d b2b0 40be 4b4d 07bd
00000250: bf42 84bc 6586 4cbc 6de8 1fbd b085 103e
00000260: c294 10be 7e19 01be c3f1 6ebd 08b2 31bd
00000270: 5a7f 153e 99c4 323e 75ab 5f3e cc28 883e
00000280: 122d 15be c7eb f7bd 83b1 6f3d 8213 8ebd
00000290: e1d9 cfbd 333f e63c 5864 bdbc 26ec 283e
000002a0: 7104 603b 7762 e3bd 0285 03be 2ed3 493e
000002b0: b0c2 373e 4d4c ee3d 7cd1 ea3d fff3 a93c
000002c0: 6c60 cebe ec38 4abd b8a1 8a3e c7ef 14be
000002d0: e559 3e3e 45cf 593d cdde de3d 14a8 bebd
000002e0: 0604 6c3e b1fd 29be 1587 4e3d 43cc d03d
000002f0: b0c6 4f3d 7c79 01be 4532 993e e350 b3bd
00000300: c837 9dbd dc50 9cbe cd48 433d ab23 a23e
00000310: 8149 dbbd a2a5 10be b400 a3be f17c 4b3e
00000320: 94d5 c43b a592 fa3d ced2 eb3c 4ccb 193e
00000330: 7932 13bf d231 06be a7b8 59bc 6471 c6be
00000340: c3d4 d13d 2fbb 6dbd 2af2 95be 75ff b0bc
00000350: ce10 da3c fa84 9d3e c1e3 19be 679c 773e
00000360: 6b87 0ebd 8487 8b3e 1e10 3b3d 554f 3dbd
00000370: b142 67be eb0e 1abc ae92 dcbb 1e78 b13d
00000380: 9582 0a3e abb5 2fbe 26b1 2dbe 3325 ed3c
00000390: 7e6c 9cbe eaeb b63d 53f9 2f3e 258d 5ebd
000003a0: 17d1 4cbe 8bb4 c6bd 23b8 4cbd 114f 0fbd
000003b0: a79d abbd 957b c9bd 6a17 ee3d e281 9c3c
000003c0: 050e 843d d326 b6bc 6009 0bbd 1c39 e13d
000003d0: f7dd 5ebe fd2a 993c 9a0a 3bbe 8534 3e3e
000003e0: 5f2c 1c3e 184c b03e 639c f4bc 2415 b7bd
000003f0: 5b43 c5bc 6201 133f db92 c73d e5d8 f33c
0.08077646 0.046275478 0.12182887 0.26557687 0.048651375 -0.14242312 -0.021849895 0.05613319
-0.14504476 -0.23545958 -0.07315068 -0.06917126 0.023687156 -0.089431725 0.11225637 0.1462872
-0.34982163 -0.039317355 -0.05325762 -0.09832947 0.258315 0.09479905 -0.19602223 0.025463516
-0.3295383 -0.049662184 0.024525642 0.09747307 0.31289065 0.070979536 0.036594257 0.05754682
-0.008138679 -0.23803762 -0.03426894 0.032094274 -0.06970617 0.029557234 -0.15174788 0.00911118
-0.1542059 0.051042523 0.048507407 0.35157496 -0.19897002 -0.090809196 -0.27894437 0.280669
0.1942869 0.19142243 -0.03578493 0.0037517874 0.027758805 -0.20007397 0.23999994 0.050810587
-0.5222375 0.0034369682 0.07444336 -0.25484183 -0.26154885 -0.234895 -0.057887215 -0.0509583
0.20270598 0.05429539 0.09254418 -0.06986248 -0.15198633 -0.030930923 0.25675222 -0.03426667
-0.13285145 -0.026393086 0.123758316 0.15187554 0.3479779 0.020479077 0.12687306 0.07711491
0.17251474 0.2876281 0.0049281567 -0.28066805 0.07550089 -0.07098555 0.3460262 -0.03627421
0.032062307 0.0768501 0.20967549 -0.20613356 0.05006498 0.10062501 0.017317208 0.18295403
-0.13179408 0.07929816 -0.42311937 -0.22156963 -0.16666709 -0.2679254 0.07351066 0.21449433
0.045059733 0.002316378 -0.09097988 -0.18241239 -0.0018250474 -0.3246887 -0.36715826 -0.14466415
-0.09893843 -0.17064682 0.22241941 0.21493548 -0.07484051 0.42701986 -0.0428455 0.18135718
0.021877665 -0.017694334 0.09487294 -0.19189517 -0.2772877 0.14535543 0.029406946 -0.10935106
0.085893154 0.038330913 -0.00970928 -0.17590994 0.15477602 0.02652551 -0.08992688 -0.19131453
0.021733714 -0.12873891 -0.0102827335 -0.08966988 0.118905455 -0.032344427 0.06844439 -0.08646052
0.52633166 0.085851714 -0.18817404 -0.033032697 -0.016145108 -0.012483214 -0.039040018 0.14113498
-0.14119247 -0.12607381 -0.05833603 -0.043382674 0.14599362 0.17457809 0.2184275 0.26593626
-0.14567974 -0.12105518 0.058518898 -0.069373146 -0.10148979 0.028106308 -0.023119137 0.16496333
0.0034182335 -0.11102765 -0.12843707 0.19709465 0.17945361 0.11635647 0.11465737 0.02074623
-0.4030794 -0.04937069 0.27076507 -0.14544593 0.1858898 0.053176183 0.108823396 -0.09309402
0.2304841 -0.16600682 0.050421793 0.1019521 0.050726593 -0.12643999 0.29921165 -0.08755662
-0.07676655 -0.3053044 0.04767685 0.31667838 -0.10707379 -0.14125684 -0.31836474 0.1987188
0.006006906 0.122350015 0.028787043 0.15018958 -0.5749889 -0.13104942 -0.013288653 -0.38758385
0.10245659 -0.05803984 -0.2928632 -0.021606186 0.026619341 0.30765516 -0.15028287 0.24180757
-0.034797113 0.27251828 0.045669667 -0.046218235 -0.22584035 -0.009402971 -0.006731353 0.08665489
0.13526376 -0.17159145 -0.16962108 0.028948402 -0.30551523 0.08931716 0.17184953 -0.054333825
-0.20001636 -0.097024046 -0.049980294 -0.034987513 -0.08379679 -0.098380245 0.1162556 0.019104902
0.064479865 -0.02223531 -0.033944488 0.10997221 -0.2176436 0.018697256 -0.18265763 0.18574722
0.15251301 0.34433055 -0.029859727 -0.08939579 -0.02407997 0.57423985 0.09744807 0.02976651

mlp_extractor.value_net.0.bias f4 [64]
00000000: 0000 0000 0000 0000 0000 0000 0000 0000
00000010: 0000 0000 0000 0000 0000 0000 0000 0000
00000020: 0000 0000 0000 0000 0000 0000 0000 0000
00000030: 0000 0000 0000 0000 0000 0000 0000 0000
00000040: 0000 0000 0000 0000 0000 0000 0000 0000
00000050: 0000 0000 0000 0000 0000 0000 0000 0000
00000060: 0000 0000 0000 0000 0000 0000 0000 0000
00000070: 0000 0000 0000 0000 0000 0000 0000 0000
00000080: 0000 0000 0000 0000 0000 0000 0000 0000
00000090: 0000 0000 0000 0000 0000 0000 0000 0000
000000a0: 0000 0000 0000 0000 0000 0000 0000 0000
000000b0: 0000 0000 0000 0000 0000 0000 0000 0000
000000c0: 0000 0000 0000 0000 0000 0000 0000 0000
000000d0: 0000 0000 0000 0000 0000 0000 0000 0000
000000e0: 0000 0000 0000 0000 0000 0000 0000 0000
000000f0: 0000 0000 0000 0000 0000 0000 0000 0000
0.0 0.0 0.0 0.0 0.0 0.0 0.0 0.0
0.0 0.0 0.0 0.0 0.0 0.0 0.0 0.0
0.0 0.0 0.0 0.0 0.0 0.0 0.0 0.0
0.0 0.0 0.0 0.0 0.0 0.0 0.0 0.0
0.0 0.0 0.0 0.0 0.0 0.0 0.0 0.0
0.0 0.0 0.0 0.0 0.0 0.0 0.0 0.0
0.0 0.0 0.0 0.0 0.0 0.0 0.0 0.0
0.0 0.0 0.0 0.0 0.0 0.0 0.0 0.0

mlp_extractor.value_net.2.weight f4 [64, 64]
00000000: a841 92bc 049c 063f 4193 0b3d 9c12 e7bb
00000010: f2b0 33bd 1bf9 e4bd 0360 5d3d 6ded 21ba
00000020: e5a1 5bbd 76df df3d 90d4 b4bd 4acb a1bd
00000030: 3e88 95bd e233 ae3d 138f babd 0410 fc3e
00000040: 5d48 ae3d c13f a93d 8038 a03c 70ad 7b3e
00000050: 2016 5fbe db47 99bd aed5 df3c 8b39 533d
00000060: 636f a03e 3366 f0bd 3a13 6bbe 1b74 613d
00000070: 7ca7 8f3d 6620 7d3c ff94 79be 3ce6 0fbe
00000080: 683b 3f3d 7090 87bd a277 1a3e 5129 853d
00000090: 86c8 21be c28d 263e 32a0 c0be 9644 783e
000000a0: f889 05bd 6746 84bd cfc0 ca3d d07d fcbc
000000b0: 1ab5 d73d 6344 75be 90d2 0dbe 77a7 ccbe
000000c0: c508 11bd d5e8 3cbd b37c a13b b7f6 653e
000000d0: b582 d8be 8df1 afbd c82e 843d c4b3 333d
000000e0: 56a0 5f3e c474 873c 2b31 23bd ef62 e23c
000000f0: f849 45be 1ad7 31bd e18c 11be 89eb b4be
00000100: 1361 343d 39c1 233e 1f90 ed3d 1cb5 50be
00000110: 6f0d 8d3d 7e1f 2cbe ad5c 39be d93e 83be
00000120: a2c6 e5bb b95e ebbe 9566 7d3e 94d5 0bbe
00000130: 9b25 b8bd a772 873c 8bd9 7d3d c56c ffbd
00000140: 84cf 653e 3778 043e e204 ab3e 186a f13d
00000150: 4c4a e53d 50cb 40be dc75 143d db5d abbc
00000160: 0042 ffbd 4599 d4bc eebe 703e d8d0 6cbe
00000170: 8400 453e 5249 43be 9cf1 b0be 25d9 edbd
00000180: 22a0 72be 13d3 093e d159 bd3d 5cf0 9abe
00000190: a7e8 f23c 0d94 b83d 2004 233e d99e 2b3d
000001a0: 0f8d 143d 2761 1fbb 6ec6 203e 4431 4ebe
000001b0: b377 473e e837 66bd fdd3 29be d36c a53d
000001c0: 8f83 fb3d 30f9 5bbd cb67 b0be d4ab 83bd
000001d0: 3fb4 a4bd f41f e53e e90d f6bd 882c f73d
000001e0: be22 4ebd 78cd cabd acce 293d 1989 253e
000001f0: 648f 923e e266 173d a075 06be 99b0 1ebe
00000200: 56bf c2bc cf97 df3e deea 87be 87d7 d8be
00000210: df30 953e 5c24 5b3d 0cbd f5bd 946e 73bc
00000220: d103 9dbd ea7c e23d 658e dfba 2fab 7bbd
00000230: 1574 96bd 1b56 0d3e a370 313e 4735 2cb9
00000240: 3837 433d b8ed 973d b046 2c3d d4ac 493c
00000250: f8aa 05bd a191 693e ea64 fdbd ed38 ac3e
00000260: 5044 6dbe 749a 333e 8f55 f23c ce9a c13d
00000270: 8804 7cbe bbb2 48bb fb81 dabd 79cb 003e
00000280: a7e6 023e dabc 99be dc4b 26bd 59e9 6b3d
00000290: 2c16 99be b0a5 863d b610 933d 2b33 e73d
000002a0: 1555 c83d 70a9 5bbe 2939 5c3e 6bbe ad3c
000002b0: a2bc 14bd d52a f63d 3494 803d d89c 8b3e
000002c0: b1da a93d 116a 15be 64df 483e 6781 58be
000002d0: 369e 643d 13b2 f2bd bcdf 513e ccc9 13be
000002e0: 1526 6abe fbe6 2b3e 167f a6bd bf18 7a3e
000002f0: 8e4e a33d 5d7d f93e 5d03 1b3c 760e 97bd
00000300: beed 383e 6d2b d0bd 55ff 33bb aa83 1e3e
00000310: 30f5 953d 774f 46bc 4042 d8be c0f7 8cbe
00000320: 46c0 3a3e 530a df3e 8bdc 96bd 0ab1 663d
00000330: 0808 5dbe 4720 2e3a de53 453e b59e 1e3e
00000340: 436c 52be 0bcb 363d 476d 90be 8758 c93c
00000350: 0fdf 9a3d 49d4 97bd 0ebf 70be 8f22 033e
00000360: 2810 0cbd a19d 85bd 1dd0 9338 1dcf b3bd
00000370: 3ea1 36be 9120 25be eb19 423d 389b 40be
00000380: df8f bebd 5221 713d edc0 af3e d41c d3be
00000390: d8fe afbd 5ae1 3a3e 717e 93ba 116b 8fbd
000003a0: 32b2 4bbe 7d6b c33e 9be0 cebb ea7c 6e3e
000003b0: 9b1b 9c3c de90 8abd cabf 033e c67c 7abd
000003c0: 2919 9a3d f98d 1dbd 6968 133e 725e 82be
000003d0: d685 62be aa54 c93d 5f37 ca3d e76d 2dbe
000003e0: 1c6e 86be 8417 1dbd cd5f a53e fee7 cb3b
000003f0: ab7c b93d 968d 22be b7b2 cbbd 3b5a af3b
-0.017853573 0.5258181 0.03407598 -0.007051779 -0.04386992 -0.111803256 0.054046642 -0.0006177042
-0.05362119 0.10931294 -0.088296056 -0.079001024 -0.07301377 0.085059896 -0.091093205 0.4923097
0.08509896 0.08264113 0.019558191 0.2457788 -0.21785784 -0.074844085 0.02732357 0.05156855
0.3133498 -0.11738243 -0.22956553 0.055042367 0.07014367 0.015449619 -0.24373244 -0.14052671
0.046687514 -0.06619346 0.15084699 0.06502021 -0.1579915 0.16265014 -0.3762222 0.24244913
-0.03260228 -0.06458741 0.099000566 -0.03082171 0.10532589 -0.23951869 -0.13849854 -0.39971516
-0.035408754 -0.046120483 0.0049281954 0.22457395 -0.42287222 -0.08590994 0.06454235 0.04387261
0.21838507 0.01653517 -0.039841812 0.027635066 -0.19266498 -0.043418027 -0.14213897 -0.3533595
0.04403789 0.15991677 0.115997545 -0.20381588 0.06887328 -0.16808888 -0.18101759 -0.25633886
-0.0070122043 -0.45970705 0.24746163 -0.13655692 -0.08991548 0.016534163 0.061975043 -0.12471918
0.22442442 0.12936483 0.33402163 0.11787814 0.11195812 -0.18827558 0.036245212 -0.020918777
-0.124637604 -0.02595199 0.23510334 -0.23126543 0.19238478 -0.19070938 -0.34559333 -0.11613683
-0.23693898 0.13459425 0.09245647 -0.30261505 0.029651953 0.090126134 0.15919542 0.041899536
0.036267336 -0.0024319382 0.15700695 -0.20135981 0.19479255 -0.05620566 -0.16584773 0.08077397
0.12280952 -0.05370444 -0.34454188 -0.06429258 -0.08042192 0.4475094 -0.12014372 0.120690405
-0.0503261 -0.09902471 0.041456863 0.1616558 0.28625023 0.03696335 -0.13130808 -0.15497054
-0.023772877 0.43670508 -0.26546377 -0.42351934 0.29138848 0.053501472 -0.119989485 -0.014857907
-0.076667435 0.11058982 -0.0017055987 -0.06144255 -0.0734636 0.13802378 0.17328124 -0.00016423046
0.047660083 0.07418388 0.0420596 0.012309272 -0.03263375 0.2280946 -0.123727635 0.3363718
-0.2317059 0.17539388 0.029581813 0.09453355 -0.24611104 -0.003062411 -0.10669323 0.12577619
0.127833 -0.30026895 -0.04059969 0.057595585 -0.29899728 0.06574571 0.07180922 0.112890564
0.09781853 -0.21451354 0.2150618 0.021208962 -0.036312707 0.12019888 0.062782675 0.272681
0.08293665 -0.14591242 0.19616467 -0.21143113 0.055814944 -0.11850371 0.20495504 -0.14432448
-0.2286609 0.16787331 -0.081297085 0.24423502 0.079739675 0.48728457 0.009461251 -0.07375805
0.18059441 -0.10164533 -0.0027465422 0.15479913 0.073221564 -0.012103907 -0.42238045 -0.27532768
0.18237409 0.43562564 -0.07366284 0.05632118 -0.21585095 0.0006642383 0.19270274 0.1549023
-0.20549111 0.04462723 -0.28208372 0.024578346 0.07562076 -0.07413537 -0.23510382 0.12806152
-0.034195095 -0.06524206 7.04827e-05 -0.08779738 -0.17834947 -0.16125704 0.047388 -0.18809211
-0.09304785 0.058869667 0.34326878 -0.41232932 -0.085935295 0.18250027 -0.0011252892 -0.07002843
-0.19892195 0.38167945 -0.006313396 0.23289838 0.019056132 -0.067659125 0.1286613 -0.06115415
0.0752433 -0.038465474 0.14395298 -0.2546268 -0.22121367 0.098306015 0.098738424 -0.16936456
-0.26255882 -0.038352504 0.32299653 0.006222724 0.09056982 -0.15874323 -0.099461965 0.0053513325

mlp_extractor.value_net.2.bias f4 [64]
00000000: 0000 0000 0000 0000 0000 0000 0000 0000
00000010: 0000 0000 0000 0000 0000 0000 0000 0000
00000020: 0000 0000 0000 0000 0000 0000 0000 0000
00000030: 0000 0000 0000 0000 0000 0000 0000 0000
00000040: 0000 0000 0000 0000 0000 0000 0000 0000
00000050: 0000 0000 0000 0000 0000 0000 0000 0000
00000060: 0000 0000 0000 0000 0000 0000 0000 0000
00000070: 0000 0000 0000 0000 0000 0000 0000 0000
00000080: 0000 0000 0000 0000 0000 0000 0000 0000
00000090: 0000 0000 0000 0000 0000 0000 0000 0000
000000a0: 0000 0000 0000 0000 0000 0000 0000 0000
000000b0: 0000 0000 0000 0000 0000 0000 0000 0000
000000c0: 0000 0000 0000 0000 0000 0000 0000 0000
000000d0: 0000 0000 0000 0000 0000 0000 0000 0000
000000e0: 0000 0000 0000 0000 0000 0000 0000 0000
000000f0: 0000 0000 0000 0000 0000 0000 0000 0000
0.0 0.0 0.0 0.0 0.0 0.0 0.0 0.0
0.0 0.0 0.0 0.0 0.0 0.0 0.0 0.0
0.0 0.0 0.0 0.0 0.0 0.0 0.0 0.0
0.0 0.0 0.0 0.0 0.0 0.0 0.0 0.0
0.0 0.0 0.0 0.0 0.0 0.0 0.0 0.0
0.0 0.0 0.0 0.0 0.0 0.0 0.0 0.0
0.0 0.0 0.0 0.0 0.0 0.0 0.0 0.0
0.0 0.0 0.0 0.0 0.0 0.0 0.0 0.0

action_net.weight f4 [3, 64]
00000000: 62de 80ba ba68 91ba 0828 f1b7 215a feb7
00000010: fa54 65b7 a020 d236 648f eeb7 17e5 0c38
00000020: 63a3 adb6 04e6 dab8 b80a 1b37 70fd 3d39
00000030: 2821 573c 81c8 bb36 6a43 8e39 e890 57ba
00000040: 1119 4fbc 68d5 333a f964 5e3a 0fb6 f0b9
00000050: 5ba1 2639 823e e3b7 7d81 9439 3807 c1b9
00000060: fe05 cd38 08b0 6536 2180 efb9 f153 e2b7
00000070: 6194 a0b9 03f1 11b8 9f8b adb5 ad02 9e37
00000080: d592 e4b7 e06b e3b5 8623 3ebc 8a5a c3b8
00000090: a5c1 cfbb b660 b139 870f c13a cb44 02b8
000000a0: 7e1c 02b8 d5a2 c2b6 4483 6039 3456 9fb9
000000b0: 7504 18ba 9a9a 96b9 b588 98ba 18fe a138
000000c0: 2bbd a13b db4a 2bb3 d2d1 2938 98a8 603c
000000d0: a752 c0ba 557c c037 ea06 57bc 948f 04ba
000000e0: aa1d 8136 1731 3cb7 b080 e837 bee2 efb8
000000f0: 00d0 e737 eeb4 33b7 a6c9 343a 1f95 6136
00000100: 2a43 b5bb f00e 95bb 0818 5ab8 d372 10b9
00000110: 2a41 4fb8 2085 4337 e466 55b8 b205 6738
00000120: 4f27 38b7 b401 b839 87c4 8637 77d8 9f3a
00000130: b080 ab3c 5458 2637 f53f f539 35cb a0bb
00000140: 9517 c7bc dc6e 503b 9a2f ad3b 119c 66ba
00000150: 4443 8c39 e3a9 4bb8 3671 153b 8652 10ba
00000160: 9ad3 e439 7b97 2238 a384 49ba 46cc 4cb8
00000170: 968a 25ba afe9 60b8 b90b 00b6 a84a ba38
00000180: e447 45b8 8533 48b6 1193 8dbc b809 fa37
00000190: fd1e 1dbc 4d9c c139 8973 c13b 4935 4eb8
000001a0: da26 f139 7c31 3a37 3243 d93a 7794 07ba
000001b0: 582a 67bb 644f 2ebb abab 2fbb 6374 4cb9
000001c0: b868 f33b 9250 26b5 0f0b 8238 97f7 b13c
000001d0: 191b 35bb 1c21 2d38 f020 abbc 3a25 82ba
000001e0: bec2 deb9 7207 3fb7 cff8 4e38 4f91 4e38
000001f0: af1e 5138 3317 9bb7 75b2 a03b 6c23 2837
00000200: f3dd f6bb 2e23 dabb 2b56 9cb8 042f eab8
00000210: b8ce 5eb8 0db5 6c37 3d43 88b8 a85a 5238
00000220: 9508 0bb8 fcee a53a 0df6 9637 67a8 b63a
00000230: 4896 60bb afdc 3c37 5215 ec39 266d d8bb
00000240: e06d 3a3c 2a12 a73b 64db ea3b 74b0 94ba
00000250: 83c5 8439 0ed0 87b8 cb40 343b 77f2 cdb8
00000260: bfbe ea39 eb40 ee37 e127 d8ba e702 99b8
00000270: 9a08 35ba c144 2cb8 8d8f dbb7 a505 d838
00000280: d4a8 4ab8 966a 67b6 6bde 52bb dabe 30b9
00000290: 7570 05bc bb66 12b9 17ff 023c 03e9 0cb8
000002a0: 2ec9 9939 0a55 dcb7 fab5 013b 0aa9 ffb9
000002b0: 9f96 b1bb 535d 50bb 46fc 3cbb 4b7a 1a39
000002c0: 5e7b a43b 5e43 0836 82a0 7e36 aa4e 05bc
000002d0: eb72 5abb bd13 6638 36be 553b fec8 aeba
000002e0: 5a17 93b7 a344 08b8 0842 8238 e178 77b9
000002f0: f619 9e38 b09f c8b7 5095 d93b a70b 8db7
-0.00098319 -0.0011093833 -2.874808e-05 -3.0321129e-05 -1.3669249e-05 6.2622858e-06 -2.8438582e-05 3.3591958e-05
-5.1748225e-06 -0.00010437894 9.241216e-06 0.00018118857 0.013130464 5.596376e-06 0.00027134578 -0.0008223192
-0.012640254 0.0006860108 0.0008483674 -0.0004591201 0.00015891103 -2.7089616e-05 0.00028325236 -0.00036817207
9.776278e-05 3.4226123e-06 -0.00045681096 -2.6980388e-05 -0.0003062813 -3.4795154e-05 -1.293014e-06 1.8836314e-05
-2.7248092e-05 -1.6944214e-06 -0.011605149 -9.315189e-05 -0.006340223 0.00033832126 0.0014729359 -3.1058484e-05
-3.102095e-05 -5.8006067e-06 0.00021411205 -0.0003039107 -0.0005799004 -0.00028725417 -0.0011637422 7.724407e-05
0.0049358807 -3.988212e-08 4.048815e-05 0.013712071 -0.001467307 2.294608e-05 -0.013124207 -0.0005056795
3.847953e-06 -1.1217103e-05 2.771648e-05 -0.00011438642 2.7634203e-05 -1.0711357e-05 0.0006896503 3.3614413e-06
-0.005531688 -0.0045489 -5.199763e-05 -0.00013775686 -4.9413335e-05 1.1653901e-05 -5.087898e-05 5.5079996e-05
-1.0976407e-05 0.00035096484 1.606556e-05 0.0012195249 0.020935386 9.9149365e-06 0.00046777693 -0.0049070367
-0.024303237 0.0031804359 0.0052852156 -0.00087970594 0.00026752998 -4.855719e-05 0.0022803075 -0.0005505461
0.00043645204 3.8764887e-05 -0.0007687306 -4.8827635e-05 -0.00063149014 -5.3623397e-05 -1.908031e-06 8.883077e-05
-4.7035413e-05 -2.983231e-06 -0.01728204 2.9806848e-05 -0.009589908 0.00036928282 0.0059036654 -4.9163853e-05
0.0004599605 1.1097985e-05 0.0016575812 -0.00051719643 -0.0035273042 -0.0026597613 -0.0026805203 -0.00019498313
0.007428255 -6.1957064e-07 6.200943e-05 0.021724505 -0.002763456 4.127725e-05 -0.02088973 -0.0009929307
-0.00042488234 -1.1386221e-05 4.934595e-05 4.9249556e-05 4.985806e-05 -1.8488243e-05 0.0049040862 1.0021828e-05
-0.0075337826 -0.006657026 -7.45471e-05 -0.00011166747 -5.3121446e-05 1.410885e-05 -6.4975095e-05 5.0152332e-05
-3.3148175e-05 0.0012659724 1.799597e-05 0.0013935686 -0.0034269262 1.1257055e-05 0.00045029313 -0.0066048084
0.011378735 0.005098601 0.0071672667 -0.0011344091 0.0002532416 -6.476055e-05 0.002750444 -9.820324e-05
0.00044774075 2.840204e-05 -0.0016491377 -7.296149e-05 -0.0006905884 -4.1072028e-05 -2.617368e-05 0.00010300734
-4.8317786e-05 -3.4483724e-06 -0.0032176028 -0.00016855766 -0.008144488 -0.00013961915 0.0079953885 -3.359561e-05
0.00029332325 -2.6265643e-05 0.0019792304 -0.00048763334 -0.0054195668 -0.0031793907 -0.002883689 0.00014732142
0.0050195893 2.0304792e-06 3.7942377e-06 -0.008136431 -0.0033332657 5.4854656e-05 0.0032614595 -0.0013335047
-1.753464e-05 -3.248885e-05 6.211182e-05 -0.00023600787 7.538863e-05 -2.3916218e-05 0.006640114 -1.6813936e-05

action_net.bias f4 [3]
00000000: 0ccd 4dbc 8b1c a7ba e48a 9cbb
-0.012561094 -0.0012749595 -0.0047772992

value_net.weight f4 [1, 64]
00000000: 60ff 02be 85c7 13bd 5b74 d33d 8210 963d
00000010: 1eb2 96bd ec32 b33d 7113 423d 2409 a2bc
00000020: ad22 fe3d 41e1 093e 676e b53d 40e6 8d3d
00000030: b6de 053e 40f9 1dbe bf83 a9bd 0246 ad3d
00000040: 3bc2 22be bbc4 843d 5c88 c73d b745 2dbe
00000050: 391f 1dbe 19d0 92bd be2e 1a3e b645 2b3d
00000060: 8d05 85be 17ca 643d d71a c7bd 355b 793e
00000070: 5e15 ab3c b6c8 443d aa25 223d ea95 9dbc
00000080: ddd7 fabd 3f22 64be fb39 83be 5d44 97be
00000090: 9e1f 31be 797a 333e bb99 1ebe 211b f03c
000000a0: 11f9 1fbe 48b5 d3bc 65b7 e43d a17a fbbd
000000b0: 3320 663e e204 0ebd 1718 5f3d df39 c63b
000000c0: d473 dabd 04e6 12be b7d6 9b3c b6e3 f03d
000000d0: 5eff c6bd b80a 333c 9ecc fbbc d3dc c7ba
000000e0: 885c e93d 8337 7a3e 1ff1 93bd 0005 063d
000000f0: 847e 9cbd ca7c e3bc 4a4b 29be c73d 8d3d
-0.1279273 -0.03607895 0.103249274 0.07327367 -0.07358192 0.08749947 0.047381822 -0.01977975
0.12408958 0.13464834 0.08858948 0.06928682 0.13073239 -0.15427113 -0.08277082 0.084606186
-0.15894406 0.06482836 0.09742805 -0.16921125 -0.15343942 -0.07168598 0.15056893 0.04181453
-0.25980797 0.05585679 -0.09721916 0.24351199 0.020884212 0.048042975 0.0395867 -0.019236524
-0.12248204 -0.22278689 -0.25630173 -0.29544345 -0.17297217 0.17527188 -0.15488331 0.029309811
-0.15622355 -0.025843278 0.11167792 -0.12279249 0.2247322 -0.034672625 0.054466333 0.0060493792
-0.10666624 -0.14345556 0.019023282 0.117621824 -0.09716676 0.0109278485 -0.030737218 -0.0015248306
0.11394602 0.24435239 -0.072237246 0.032719612 -0.076413184 -0.027769465 -0.16532627 0.06896549
