policies/MountainCar/good_ppo.pt (torch, 40269 bytes, 10 tensors)

mlp_extractor.policy_net.0.weight f4 [64, 2]
00000000: 4318 c5bf 3b58 88c1 cc70 1f40 3175 f141
00000010: 8006 b5bf 83b1 a941 96fa c5bf f46f cac3
00000020: 5f52 48c0 17fe 1743 eb8c 61bf 74d3 2542
00000030: 4c97 cb3e a81a c7c1 3a9f 953e 5b56 c5c2
00000040: b382 d33f 0e50 9e42 f323 91c1 576f 5143
00000050: 8f52 8bc0 27f9 3242 804e 4e3f ace0 79c0
00000060: 8114 d4bf 48ce cdc3 d0ef d8bf 3c8d 13c1
00000070: b0a4 9740 1c8b 4bc0 7367 fa3e 92d0 d5c3
00000080: ca7d 97bf aaab bb43 4341 3dc1 7f1c 40c3
00000090: fcce a63f 9c88 81c2 cf8d 05c1 7ba8 4b42
000000a0: eb6a 1840 4ad9 1043 d7a1 8e3f 252a 25c2
000000b0: 1d99 d9be 52d2 cf43 9c60 9c3f 2233 a9c3
000000c0: a050 77be a96f 6541 de09 203f b3f1 d4c3
000000d0: 5ccd ba3e 0d1d d0c3 0b52 3c40 e9db 8ac3
000000e0: 3799 0cbd 6079 90c2 e7ca 8640 2c17 9742
000000f0: 0618 273e 73fd ce43 87ef f53f c572 0cc3
00000100: 7125 4140 e220 18c1 fab0 62c0 4d31 2c42
00000110: 873e 4ec0 d482 9bc1 3767 0342 dc36 c341
00000120: 16ec 10c0 c091 c6c3 ff01 7d3f 29ba bf41
00000130: 507d 3640 d113 7cc2 1c7e 293f d812 2f41
00000140: 0898 01bf 3f82 d443 47b6 88bf 1e46 86c1
00000150: fe32 8440 d628 e340 2d31 20c0 9630 1d41
00000160: 826f 883f 4742 0340 acfd 83c0 0e57 de41
00000170: d497 9dc1 b1ac 88c3 c65c 07c0 b607 eac1
00000180: 49da c8bf 210f 5dc1 722d 21c0 a27d 87c1
00000190: 4e25 74c1 f1b3 e2c2 67a1 52bf 271c 913f
000001a0: ab22 eb3e 3c23 9f40 3c64 afbf 88ea b242
000001b0: fc59 a240 9eb8 acc1 59aa 5bbf dfd6 b6bf
000001c0: d01e cdbf 6c43 3fc0 78a2 9a40 f732 1b42
000001d0: a96a cebf 5457 af41 c6d0 5f3d 0d83 d543
000001e0: b5f0 d3bf c069 c542 9b4f 96c1 de86 8f43
000001f0: 573b 083f db8e d3c0 9e0c ef3d c13d c543
-1.5398029 -17.043081 2.4912596 30.182222 -1.4142609 21.211676 -1.5467098 -404.87463
-3.1300275 151.99254 -0.8810565 41.456497 0.39763868 -24.888016 0.29223043 -98.66866
1.6524261 79.15636 -18.142553 209.43492 -4.353828 44.743313 0.8058853 -3.904338
-1.6568757 -411.61157 -1.6948185 -9.221981 4.7388535 -3.1803656 0.4890705 -427.62946
-1.1835263 375.34113 -11.828433 -192.11131 1.3031917 -64.766815 -8.347121 50.91453
2.3815258 144.84879 1.114314 -41.291157 -0.4249963 415.64313 1.2216983 -338.39948
-0.2415185 14.339761 0.62515056 -425.88828 0.36484802 -416.22696 2.9425075 -277.71805
-0.034325805 -72.23706 4.2122684 75.54526 0.16317758 413.98007 1.9213723 -140.44832
3.0179102 -9.508028 -3.5420518 43.048145 -3.2225664 -19.43888 32.850796 24.401787
-2.2644095 -397.13867 0.9883117 23.965899 2.8513985 -63.019352 0.6620805 10.942101
-0.50622606 425.01755 -1.0680627 -16.784237 4.1312246 7.098735 -2.5030015 9.824362
1.065903 2.0509202 -4.124716 27.792507 -19.699135 -273.34915 -2.1150374 -29.253765
-1.5691615 -13.816194 -2.5183988 -16.936344 -15.259108 -113.35145 -0.8227753 1.1336716
0.45924887 4.973051 -1.3702464 89.45807 5.0734844 -21.590145 -0.85806805 -1.4284323
-1.6025028 -2.98849 4.8323326 38.79977 -1.61263 21.91764 0.05464246 427.02383
-1.6557833 98.70654 -18.78887 287.05365 0.53215545 -6.6111884 0.116723284 394.48245

mlp_extractor.policy_net.0.bias f4 [64]
00000000: c21d 0241 b27e 08c1 0fe0 29c1 6089 5ec0
00000010: 43e2 7ec1 e0d8 1fc1 5a8d 1641 8d93 4fc1
00000020: 1cf0 16c1 c154 31c0 3602 67c1 e40f 1ac1
00000030: b940 4ac0 dd38 0641 3872 6c41 e143 8cc0
00000040: cd7f a440 26c9 1940 9fc7 3741 17c1 8fc1
00000050: 35d4 40c1 fa77 2241 d1c4 8740 cba0 04c1
00000060: 287f 14c1 4cec 8ac0 bcd8 87c0 c3be 0241
00000070: 567a 2141 70ac 7341 d4f0 7440 a464 73c1
00000080: 23fd 4941 f64d 3a41 2d94 d740 d6fe 84c1
00000090: eba6 47c0 4b8f eec0 b245 38c1 cb02 0ec1
000000a0: ab27 9340 f62f 1341 a0f1 5f41 aea0 41c1
000000b0: cd28 2841 fe98 5cc1 c1a8 29c0 8a71 e940
000000c0: fa43 1541 f9cc 0041 3eb7 8c41 eb1a 20c1
000000d0: f59c 0fc1 91cd 52c1 fc99 7041 5c5a 1841
000000e0: c5ff 2fc1 e452 7441 5101 3bc1 ef88 8140
000000f0: f40d 5941 f68d 8140 fac3 1a41 8fb7 9e40
8.132265 -8.530931 -10.617202 -3.4771347 -15.93024 -9.990448 9.40951 -12.973523
-9.43362 -2.770798 -14.43804 -9.62888 -3.1602004 8.388883 14.777885 -4.383286
5.1406007 2.4029021 11.486236 -17.969282 -12.051808 10.154291 4.2427754 -8.289256
-9.281044 -4.341345 -4.245207 8.171573 10.092367 15.229599 3.827199 -15.21207
12.624301 11.644033 6.736838 -16.624432 -3.1195629 -7.454992 -11.517015 -8.875682
4.5985923 9.199209 13.9964905 -12.101728 10.509961 -13.787352 -2.650925 7.2951097
9.329096 8.050042 17.589474 -10.006572 -8.97582 -13.175187 15.037594 9.52206
-10.999944 15.270237 -11.687821 4.0479655 13.565907 4.048579 9.672846 4.959907

mlp_extractor.policy_net.2.weight f4 [64, 64]
00000000: fa15 1ac0 70fe 11c1 a1af 14c1 27f9 4742
00000010: eac3 c1c1 f8d4 a9c1 8f0f d440 7333 dcc0
00000020: de6b 65c1 e808 edc1 f603 83c1 a8b7 05c1
00000030: 3101 c942 030d 39c0 d9d4 0e41 4c75 9a42
00000040: 1373 e3c1 c8d0 3642 bec7 ec40 2aa6 34c2
00000050: b17a c2c0 b511 5d41 a6f8 94c2 e4bb c041
00000060: 5b2d 88c1 8700 8042 ad2a 5742 6b41 a042
00000070: 4e39 af40 2d76 06c1 aa85 a9c2 f3c6 da41
00000080: c663 aa41 9f4c c940 5407 213f 3fc5 adc1
00000090: 9797 2542 4ed6 78bd 42e2 75c0 2917 6f3f
000000a0: 9dcc d5c2 2aaf e0c0 e476 0342 b913 e7c0
000000b0: 8497 fa41 f408 28c1 98d6 f041 183d 0240
000000c0: 0868 2540 2af5 bf40 10a8 9c41 20aa 98c0
000000d0: f352 e3c0 b021 e9c0 3625 8141 08bc 8dc0
000000e0: 8f1b db40 bfed 9e40 b837 9cc0 c037 a0c2
000000f0: 7de3 cb3f 26ec 5dc2 843a 2041 d3d2 fdc1
00000100: c965 8040 61b7 1dc1 e491 62bf e096 d542
00000110: 5d05 9cc1 1d77 6ac0 a5cb 3241 c643 6141
00000120: 8c0f 2841 93a8 b7c1 8c69 a6c1 2efc 2340
00000130: cd3f 5d42 dd73 133f cb99 7d41 c454 3a42
00000140: 21a2 e1c2 cdaa 8e41 9fc7 0a41 48e8 7bc1
00000150: 123f 0bc0 a9fa f9c0 6549 70c2 0fc3 9442
00000160: d790 1841 e1b5 6942 1bde b342 ac2b d441
00000170: a9f2 18c0 eae4 66c1 4043 92c2 f638 4241
00000180: 4979 01c1 d510 9241 443e d93f 6ff0 4cc0
00000190: 3cae 7642 0c94 d7c0 5b99 12c1 e488 0ec1
000001a0: 03cb 6ec2 52b9 f940 2752 9a40 c069 dec0
000001b0: d897 0a41 2e9f 5fc1 0386 60c1 3e5f a140
000001c0: b46c f240 18cb dec0 b292 9b40 5fdd b2bf
000001d0: 8d0b 7440 05e9 b240 83e0 97c1 8d6b 87be
000001e0: ca80 56c0 9b26 8cc1 187a 9241 f708 c4c2
000001f0: 0119 24c1 2f6d 39c0 6069 7a40 26da 98c2
00000200: 15a3 68c1 b5e3 7e41 7793 a4c0 ab3d ba42
00000210: 4367 0242 4785 a241 b0d3 0e40 8b81 08c1
00000220: 3804 8d41 986b 0641 48e2 2241 bab8 1b41
00000230: 0364 a842 51a0 57c1 7641 8ec1 a07e 0143
00000240: 12b9 bdc1 7820 e3c0 3a44 cac1 95d0 c241
00000250: 60d1 a6c1 ae8c 05c2 8edd b9c2 7bd3 9141
00000260: 427b ac41 35f7 5c42 2b9f 6e42 d0f2 dac1
00000270: 3315 53c1 be65 9440 082a acc2 eb45 4441
00000280: 8ccc b9c1 dbbc d040 9a88 cbbf 70f7 4bc1
00000290: 695c 9f42 7be2 a141 88f4 4141 4bcf 0a41
000002a0: 0ca7 b4c2 0ba4 1ac1 3bcd 1cc1 7e57 aebe
000002b0: 92cb 06c1 bb5f 1cc1 51c5 8941 2783 67c1
000002c0: b67c 52c1 1737 52c1 5673 3d41 2265 8841
000002d0: cb8a 8741 fbf8 99c1 1636 7e41 c18c 46c1
000002e0: 095c 9e41 6857 c440 9293 3d41 548f b2c2
000002f0: 4a83 2ec0 e041 8640 2e27 03c1 54db 62c2
00000300: 68d1 b7c0 7721 83bf 0446 2fc1 df25 0542
00000310: 2b3a 4a41 0b20 5240 bb0b 9640 e181 5041
00000320: 2734 4bc0 a981 7c41 cb23 af40 8b29 e540
00000330: a949 9f42 795c 38c1 0031 7641 caca e642
00000340: f50c 55c2 6afc 0ec1 bf8f d3bf b536 53c1
00000350: 63b1 30bf fc7e 0ec0 aedf 98c2 d336 bc40
00000360: 4f82 66c0 2ccc b242 72d7 a942 f120 fc41
00000370: 0250 3ec0 800b c0c1 988f aec2 35b6 97c0
00000380: e24d 8ec0 9123 b2c0 0fa8 b8c0 c97a d741
00000390: 0721 8a42 bfc7 1341 9dd8 b140 c8f9 9f40
000003a0: f3af afc2 6efd 2040 2182 2040 006f d4c0
000003b0: e4b2 4441 c2fe 81c0 e2a3 6d41 8d1c d2c0
000003c0: 73e4 46c1 39cb 42c1 6e56 ccc1 579b 0b41
000003d0: dadd 41c0 97db 3ebf fd9d 2541 cd19 87c1
000003e0: 2289 9141 e5b3 1ec0 fb14 3441 cdcf b3c2
000003f0: 2578 b53f 0d2f 39c2 7c4a 98c1 5d4d 41c2
-2.4075913 -9.124619 -9.292878 49.993313 -24.220661 -21.228989 6.6268992 -6.8812804
-14.338835 -29.629349 -16.376934 -8.357338 100.50233 -2.8914192 8.926965 77.229095
-28.431189 45.703888 7.3993826 -45.16227 -6.077477 13.816823 -74.48564 24.091743
-17.022146 64.00103 53.791676 80.12777 5.475745 -8.4038515 -84.76106 27.347143
21.298717 6.290603 0.62901807 -21.721312 41.398037 -0.060751252 -3.8419347 0.93394715
-106.899635 -7.0213823 32.866104 -7.2211576 31.323982 -10.502186 30.104782 2.0349789
2.5844746 5.9986773 19.582062 -4.770767 -7.1038756 -7.2853622 16.14317 -4.429203
6.847114 4.9665217 -4.8818016 -80.10889 1.5928799 -55.480614 10.014286 -31.727942
4.012425 -9.85727 -0.8850386 106.79468 -19.502619 -3.66352 11.174718 14.079046
10.503796 -22.957312 -20.801537 2.5622668 55.312305 0.5759867 15.850047 46.58278
-112.81666 17.833399 8.673736 -15.744209 -2.1757245 -7.811848 -60.071674 74.380974
9.535361 58.427616 89.9338 26.521324 -2.3898108 -14.430887 -73.13135 12.1389065
-8.092111 18.258219 1.6972127 -3.202175 61.67015 -6.736822 -9.16244 -8.908421
-59.698254 7.803872 4.8225284 -6.950409 8.662071 -13.976362 -14.032718 5.0428762
7.5757694 -6.9622917 4.861657 -1.3973807 3.813205 5.590945 -18.984625 -0.26449242
-3.3516107 -17.51885 18.309616 -98.01751 -10.256104 -2.897289 3.9126816 -76.42607
-14.539815 15.930593 -5.143001 93.120445 32.60084 20.315077 2.2316704 -8.531627
17.62706 8.401268 10.180244 9.732599 84.195335 -13.47664 -17.781963 129.49463
-23.715366 -7.0977135 -25.283314 24.351847 -20.852234 -33.387383 -92.932724 18.228262
21.560184 55.241413 59.655437 -27.36856 -13.192676 4.6374197 -86.08209 12.26707
-23.224876 6.5230536 -1.5901062 -12.74791 79.68049 20.235586 12.1222 8.675609
-90.32626 -9.66505 -9.800105 -0.34051126 -8.4247 -9.773372 17.221346 -14.46952
-13.155447 -13.13845 11.840658 17.049381 16.94277 -19.246572 15.888205 -12.409364
19.794939 6.1356697 11.848528 -89.27994 -2.7267632 4.1955414 -8.197065 -56.714188
-5.7443123 -1.0244588 -10.954594 33.286983 12.639201 3.2832057 4.688932 13.031709
-3.1750581 15.781655 5.4731193 7.161321 79.64387 -11.522576 15.386963 115.39607
-53.262653 -8.936625 -1.6528243 -13.200856 -0.6902067 -2.2265005 -76.436874 5.8816924
-3.6017034 89.39877 84.92079 31.516085 -2.9736333 -24.005615 -87.28046 -4.740992
-4.447007 -5.5668416 -5.770515 26.934954 69.06451 9.236266 5.557692 4.999241
-87.84365 2.5154681 2.5079424 -6.63855 12.293674 -4.0623484 14.85251 -6.565985
-12.430774 -12.174615 -25.542202 8.725425 -3.0291657 -0.7455382 10.351071 -16.887598
18.19196 -2.47973 11.255122 -89.90586 1.417729 -46.295948 -19.03637 -48.32555

mlp_extractor.policy_net.2.bias f4 [64]
00000000: ae9d 0b41 f1c8 a4bf 4101 53c1 7234 d1c0
00000010: cd71 8ac0 0f7c 19c1 b975 27c0 eb0f f2be
00000020: 30c6 4040 f01f d940 73d0 e2bf 5611 543f
00000030: c8bc de41 4609 2740 326a 46be 9320 b440
00000040: f85d 8e40 3389 8e41 73e4 2cc1 c6be 3041
00000050: 4e7b 2340 f1ca 2f40 5db7 f7c0 bd34 7c40
00000060: 94c8 c0bf 149c 833f 885e 15c1 3f80 25c1
00000070: 471b adc0 c972 2140 7048 31c1 fc3c 3fc1
00000080: 0d5c 77bf 0953 a040 f85b 83c1 4c0a 48c1
00000090: d736 3a40 5a38 60c0 aaac ee40 95d9 2841
000000a0: 3644 4f41 c805 01c0 ea5f 4940 07b0 b541
000000b0: f2ae 0e40 5412 4741 46ad 1140 17d2 44c1
000000c0: 18c7 d540 a488 bf40 4fa5 dec0 aebd 9f41
000000d0: e7a5 913f f041 1740 22fb f640 90fc 27c1
000000e0: 4a27 d240 ad9d 2d41 6185 cfc0 42a6 5c41
000000f0: 1a15 fac0 405e 53c0 0adf 4040 3163 c9c0
8.725996 -1.2873822 -13.187806 -6.537652 -4.3263917 -9.592788 -2.6165602 -0.4727777
3.0120964 6.7851486 -1.7719864 0.8283895 27.842178 2.609941 -0.19376448 5.6289763
4.448971 17.816992 -10.805774 11.046576 2.554401 2.7467616 -7.741133 3.940719
-1.5061212 1.0282006 -9.335579 -10.34381 -5.4095798 2.522631 -11.080185 -11.952389
-0.96624833 5.010136 -16.419907 -12.502514 2.9095972 -3.5034394 7.458577 10.553121
12.954153 -2.0159779 3.1464791 22.71095 2.2294278 12.441975 2.2762008 -12.301291
6.6805534 5.98543 -6.9576793 19.967617 1.1378754 2.3633995 7.718156 -10.499161
6.567296 10.850995 -6.4850316 13.79059 -7.815076 -3.3026276 3.0136132 -6.2933583

mlp_extractor.value_net.0.weight f4 [64, 2]
00000000: 8872 6bbe 0525 df3d 3e28 2cbe 5d40 013e
00000010: 6933 fb3d 1ddf d5be 07a6 b5bc 422e 3cbd
00000020: 5ed5 d9bd 95d7 d33d 4ef6 823e 8415 b73d
00000030: 2b42 1c3e 7563 fbbd e6e1 1cbe dd62 513d
00000040: 7724 edbb bd2e 8cbd b749 863c 2c46 92be
00000050: 827e 303e 2068 eebd aeef 0a3e 4548 ac3e
00000060: db0e 21bd 028e 18bd 40ce 6a3e 733a a83d
00000070: d1cd ccbd 1dee 83be 7fbf 783e 4cf2 82be
00000080: 8b53 b3be f76b 99bb c42f 333e 4b8b 2b3e
00000090: a41a b3bd b374 3a3e e954 5abc 7333 533e
000000a0: aea8 76bc dd44 023e c202 3cbe ab17 4fbe
000000b0: b41d 9e3e f70b 4f3d 9229 713e 9976 773e
000000c0: 72bc 0b3e 44e0 79bd 8d98 d7bd c594 833e
000000d0: 38b6 613e c249 c83d 4f7b cc3c 4f61 b038
000000e0: 4e6f 28be ffd3 e53c 29a2 983c f37c 623d
000000f0: b57f d03c 22ff 243e bfe4 88be 8177 83be
00000100: c0e2 283e d4a5 633e dbe5 51bc 0874 c63d
00000110: 26ba 313e caf7 eabd 7492 81bc 6cc1 723d
00000120: 727d 84be 13b8 50be 9331 5c3e cc8d 47bd
00000130: 7f5a bbbe 3924 05be f08c 573e 7198 c33d
00000140: 34d6 243e fe29 8dbe efa8 e0bd f6c3 233e
00000150: d146 23bd b59c 3e3e cca3 d8b9 0be9 aabd
00000160: ff76 59be 0458 a6bd 8791 7e3d b088 a83e
00000170: e0fd bd3e 5e5a e4bd dba8 b3bb 9f60 acbc
00000180: a090 ab3e 8dda a43d e942 9dbd a3c4 70be
00000190: 395d b73d 43f3 a9be cdf4 c03e a130 6cbe
000001a0: f147 843e 5f94 babd 77f5 2a3e 11e5 003e
000001b0: 1338 53bd e083 8b3e dc2f 7abd 8aea 9c3d
000001c0: a7c3 ed3c 8c50 233e 7b9b 58bc 7f74 c7bd
000001d0: f2c3 09bd 324e 61be 7d65 90bd fbac db3d
000001e0: d536 09be 6436 97bd 607c 563d 4a57 9ebe
000001f0: e5a1 aabe 7eed c83d 3ed5 a7bc 7e5a 76be
-0.22992909 0.10895733 -0.16812226 0.12622209 0.12265665 -0.41771784 -0.022173895 -0.045942552
-0.106364 0.103438534 0.2557854 0.08939651 0.15259616 -0.12274829 -0.15320548 0.051119674
-0.007237013 -0.06844852 0.016392572 -0.28569162 0.17235759 -0.11640954 0.13567993 0.33648887
-0.039320808 -0.037244804 0.2293024 0.08214273 -0.10000194 -0.25767604 0.242918 -0.25575483
-0.35024676 -0.00468206 0.1749869 0.16752355 -0.08745316 0.1820858 -0.013325908 0.20625095
-0.015054865 0.12721582 -0.18360427 -0.20223872 0.30882037 0.05054852 0.23551014 0.24166335
0.13646105 -0.061004892 -0.105271436 0.2569944 0.22042167 0.09779693 0.024961142 8.410459e-05
-0.1644871 0.02805519 0.018632011 0.055294942 0.02545152 0.1611295 -0.2673702 -0.25677112
0.16492748 0.22231227 -0.0128111495 0.096901 0.17356166 -0.11473043 -0.015816905 0.059266493
-0.25876957 -0.20382719 0.21503286 -0.048719212 -0.3659248 -0.13002099 0.21049857 0.0955056
0.16097337 -0.275711 -0.109697215 0.15992722 -0.039862458 0.18614466 -0.0004132077 -0.08345231
-0.212368 -0.081222564 0.062150504 0.32916784 0.37107754 -0.11150049 -0.0054827756 -0.021042166
0.33508778 0.08049498 -0.07678778 -0.23512511 0.08953328 -0.33193406 0.37686768 -0.23065425
0.25836137 -0.09110331 0.166952 0.12587382 -0.05156715 0.2724905 -0.0610808 0.07661922
0.029023958 0.15948695 -0.013220663 -0.09739017 -0.033634134 -0.22002485 -0.07050607 0.10726353
-0.13399823 -0.07383421 0.052364707 -0.3092597 -0.3332664 0.09810923 -0.020487424 -0.24057958

mlp_extractor.value_net.0.bias f4 [64]
00000000: 0000 0000 0000 0000 0000 0000 0000 0000
00000010: 0000 0000 0000 0000 0000 0000 0000 0000
00000020: 0000 0000 0000 0000 0000 0000 0000 0000
00000030: 0000 0000 0000 0000 0000 0000 0000 0000
00000040: 0000 0000 0000 0000 0000 0000 0000 0000
00000050: 0000 0000 0000 0000 0000 0000 0000 0000
00000060: 0000 0000 0000 0000 0000 0000 0000 0000
00000070: 0000 0000 0000 0000 0000 0000 0000 0000
00000080: 0000 0000 0000 0000 0000 0000 0000 0000
00000090: 0000 0000 0000 0000 0000 0000 0000 0000
000000a0: 0000 0000 0000 0000 0000 0000 0000 0000
000000b0: 0000 0000 0000 0000 0000 0000 0000 0000
000000c0: 0000 0000 0000 0000 0000 0000 0000 0000
000000d0: 0000 0000 0000 0000 0000 0000 0000 0000
000000e0: 0000 0000 0000 0000 0000 0000 0000 0000
000000f0: 0000 0000 0000 0000 0000 0000 0000 0000
0.0 0.0 0.0 0.0 0.0 0.0 0.0 0.0
0.0 0.0 0.0 0.0 0.0 0.0 0.0 0.0
0.0 0.0 0.0 0.0 0.0 0.0 0.0 0.0
0.0 0.0 0.0 0.0 0.0 0.0 0.0 0.0
0.0 0.0 0.0 0.0 0.0 0.0 0.0 0.0
0.0 0.0 0.0 0.0 0.0 0.0 0.0 0.0
0.0 0.0 0.0 0.0 0.0 0.0 0.0 0.0
0.0 0.0 0.0 0.0 0.0 0.0 0.0 0.0

mlp_extractor.value_net.2.weight f4 [64, 64]
00000000: 50f8 12be bc99 cb3d 18b6 823e eb6c f73d
00000010: 1d2c e4bd 976e 1a3e 7b6f 173d e84e 59be
00000020: 1e38 4f3e 9494 28be 4151 24be f788 30be
00000030: feef bebd 18dc 2d3e baaa c13e 94e4 f43e
00000040: 08ec 983e 58cd 8fbe 287e 063e 2dcb 553d
00000050: 856f 0dbd 578c 2bbd 06fb bc3d dadc b23d
00000060: ab29 abbe 7be5 793d 017b 7cbb 771c 863d
00000070: 4f83 793d 0dd9 af3e fd66 b5bd 4cab 773e
00000080: 09e1 a0bc 0fbe 4abc 409e 913d 25b5 1f3e
00000090: dbd8 53be 6024 693d 7ed0 233e 35a4 9f3c
000000a0: fde3 1e3d a1a2 4fbe 968d 403b 6c27 383e
000000b0: 59df f73c b087 84be b9a3 60be 58c7 08bd
000000c0: 1167 a6bd ebd9 68bd b8c6 183c 8c79 8f3e
000000d0: 6814 15be 8e79 373e 8adc b8bb 553d a4be
000000e0: c221 98bd 6953 a0be fc24 873d 2e8b 033e
000000f0: 239c 7dbe 876d 8f3d 9ba2 9c3d 262a 22be
00000100: d354 83be e90a cf3e d7da bd3e f566 03be
00000110: 08f7 ffbc d92e cebe f4d1 203d 5551 72bd
00000120: 659d e63d f360 96be 0152 4d3d 8c6c a13d
00000130: 2c82 aebd bfac ba3e 5865 96bb 36f2 1abe
00000140: 66dc aebd 3b1a 1c3e 350a 90bc 1487 c33b
00000150: db26 1dbc 1826 19be cb23 9dbe 3676 09be
00000160: c7b5 bbbe dba4 6e3d 9c5c e0bc 8071 f03d
00000170: 0a24 15be 65af b53e d260 3d3e 17e5 16be
00000180: ea91 b63c 7a6d a7be 41a9 b93c 5861 18bd
00000190: 25a8 25be 804b 00bc a451 81bd 1601 30bc
000001a0: 2094 033e d27a 393e 34a8 613d 2910 82bd
000001b0: 1354 ca3d 087b a93e a4b1 7c3c f82b b5bd
000001c0: a722 c8bd fc63 0dbe acdb 4fbd 1f2b 1cbe
000001d0: 3a71 353e 8587 9dbe 6cb2 0e3d 91dc 343d
000001e0: b944 23be dd65 3f3e 4a61 653e fa4d 803c
000001f0: 3239 09bd 3500 3abe a767 3c3d 69de 53bd
00000200: e8a7 853e c76e b73c a398 2a3e e881 c13c
00000210: fccd 18bc b673 afbd 398d b7bb 94c7 0f3d
00000220: d433 0e3e 0860 b4be c0f5 473d 207d 3dbe
00000230: 01ee c0bc d4dd 2d3b 5ddd d1bd 7e33 16be
00000240: fe8b 0e3c 93b8 bebe ddd5 c0bd 15db 72be
00000250: f219 7cbd 3dde 873e a725 c23d 014a ddbd
00000260: b05b 19be bdd8 4ebe 2675 cfbe 5a16 bb3e
00000270: e576 bcbb 136f 94be 9825 41be 4550 913c
00000280: c02c 843d e20a 943d 4fba 2fbe 4701 aa3e
00000290: ba21 213e 024b 5abc d81e babd 814e 29be
000002a0: 9fa5 45bd 36cf 19bd 6ab7 7a3e 09cd 26bd
000002b0: 6ac1 dabc 4898 eebc 7fb9 a6bb 76bf 09be
000002c0: 94a9 8cbd d757 973e e9ea 2cbe bf4e c8bc
000002d0: e2c7 0c3e c38b 2f3d 029c 3c3e 304c 2d3e
000002e0: eaf4 dfbe 3702 c3bd 1a92 a6be edc7 7abd
000002f0: b2aa 55bd 687f 94be 9299 793d f371 45bd
00000300: 3275 e93d c1fd d1bd 48af 793e 9dbf 4c3e
00000310: eb1d 15be a695 a8bc 7181 d53d 550f 1a3d
00000320: a12e 6f3e 0faa 043e 759b c0bd 4bcd 90bd
00000330: 0a12 aa3c 5b68 fa3d d325 b03d cf21 0cbe
00000340: 2aec 9e3e 65d9 863d eba7 f53d 7211 903e
00000350: 47b8 98be 275d 65be 921a 4a3e 1147 75be
00000360: ee5f 3f3e f34d 2e3e 472d 4abc a209 373e
00000370: 6159 c3bd 2583 d3bd 7b77 a7bd dd05 8dbd
00000380: d115 31bd e6df 243e f02e 833e 645b 5bbc
00000390: bd74 c73e 24e1 b73c 6a8d d53d ece2 afbc
000003a0: 9be9 71be 9aff 2f3e bf66 163e f04e d0bc
000003b0: 19f7 683e eff3 843d 5f41 f7bd f9ed d7bd
000003c0: 2a28 abbe f665 8d3e 8093 11be 9284 cebd
000003d0: b8c4 743d a092 9fbe fb00 7bbc 30e4 d53d
000003e0: 6187 693e 7115 79be 6dfb 943e 4f64 903e
000003f0: 518d 853e 5336 1a3e 8209 c03d 3b99 b63d
-0.14352536 0.09941432 0.25529552 0.12081321 -0.111412264 0.15081249 0.03697155 -0.21221507
0.20236251 -0.16462928 -0.16046621 -0.17239748 -0.093231186 0.1697849 0.37825567 0.4783064
0.29867578 -0.28086352 0.13134062 0.052195717 -0.03453018 -0.041881885 0.092275664 0.0873353
-0.33430228 0.061009865 -0.0038525464 0.06548398 0.06091624 0.34345284 -0.08857534 0.24186438
-0.019638555 -0.012374415 0.07110262 0.15596445 -0.20688193 0.056919456 0.15997502 0.01948748
0.038791645 -0.20276882 0.0029381267 0.17983788 0.030257868 -0.2588477 -0.21937455 -0.033393234
-0.08125127 -0.056848448 0.009324722 0.2802242 -0.14558566 0.17917463 -0.0056415247 -0.32078043
-0.07428314 -0.31313637 0.06598851 0.12846062 -0.24766593 0.070033126 0.07648202 -0.15836391
-0.25650653 0.4043801 0.37081024 -0.12832244 -0.031245723 -0.40270117 0.039262727 -0.059159596
0.112604894 -0.2937084 0.050127033 0.07882032 -0.08520922 0.3645992 -0.004589718 -0.15131459
-0.085381314 0.15244381 -0.017582992 0.0059670303 -0.009591783 -0.14955938 -0.3069137 -0.13424
-0.36662123 0.058262687 -0.02738791 0.117403984 -0.14564529 0.35485378 0.18493965 -0.14735828
0.022286374 -0.3270071 0.022663714 -0.03720221 -0.16177423 -0.007830501 -0.063144 -0.010742446
0.12849474 0.18113258 0.05509205 -0.063507386 0.09879317 0.33101678 0.015423212 -0.08846277
-0.097722344 -0.13807672 -0.050746605 -0.15250824 0.17718974 -0.30767456 0.034838125 0.04415566
-0.15944184 0.18691202 0.22400394 0.015662182 -0.03350181 -0.18164141 0.045997288 -0.05172578
0.26104665 0.02239169 0.16659789 0.023621514 -0.009326454 -0.08566992 -0.005601552 0.035102442
0.13886958 -0.35229516 0.04881835 -0.18504763 -0.02355099 0.0026529925 -0.102473 -0.1466808
0.008700369 -0.37250194 -0.09415791 -0.23716386 -0.06154818 0.26536742 0.09479838 -0.10805131
-0.14976382 -0.20199867 -0.40519065 0.3654049 -0.005751478 -0.28990993 -0.18861997 0.01773847
0.06453848 0.07228638 -0.17160915 0.332041 0.15735522 -0.013323547 -0.09087914 -0.16533853
-0.04825365 -0.037551127 0.2448403 -0.04072288 -0.026703555 -0.029125348 -0.005088031 -0.13451943
-0.06868282 0.29559204 -0.16886486 -0.024451612 0.13748124 0.042857897 0.18418887 0.16923594
-0.43741542 -0.09521907 -0.32533342 -0.06122582 -0.05216474 -0.29003453 0.06093747 -0.048204374
0.11399306 -0.10253478 0.2438327 0.1999497 -0.14562194 -0.02057917 0.104250796 0.037612278
0.23357631 0.12955497 -0.09404651 -0.070704065 0.020760555 0.122269355 0.086009644 -0.13684772
0.31039554 0.065844335 0.119949184 0.2813831 -0.29828092 -0.22398816 0.19736698 -0.23952891
0.18688938 0.17021923 -0.0123398965 0.17874768 -0.09538532 -0.10327748 -0.08177086 -0.06885884
-0.043233696 0.16101035 0.25621748 -0.013388488 0.38956252 0.022446223 0.10427363 -0.02147051
-0.2362427 0.17187348 0.14687632 -0.025428265 0.2275051 0.06491839 -0.120730154 -0.105434366
-0.3342908 0.27616853 -0.14216423 -0.100838795 0.059757918 -0.31166553 -0.015320058 0.10443914
0.22805549 -0.24324585 0.29098073 0.2820153 0.26084378 0.15059786 0.093768135 0.08915945

mlp_extractor.value_net.2.bias f4 [64]
00000000: 0000 0000 0000 0000 0000 0000 0000 0000
00000010: 0000 0000 0000 0000 0000 0000 0000 0000
00000020: 0000 0000 0000 0000 0000 0000 0000 0000
00000030: 0000 0000 0000 0000 0000 0000 0000 0000
00000040: 0000 0000 0000 0000 0000 0000 0000 0000
00000050: 0000 0000 0000 0000 0000 0000 0000 0000
00000060: 0000 0000 0000 0000 0000 0000 0000 0000
00000070: 0000 0000 0000 0000 0000 0000 0000 0000
00000080: 0000 0000 0000 0000 0000 0000 0000 0000
00000090: 0000 0000 0000 0000 0000 0000 0000 0000
000000a0: 0000 0000 0000 0000 0000 0000 0000 0000
000000b0: 0000 0000 0000 0000 0000 0000 0000 0000
000000c0: 0000 0000 0000 0000 0000 0000 0000 0000
000000d0: 0000 0000 0000 0000 0000 0000 0000 0000
000000e0: 0000 0000 0000 0000 0000 0000 0000 0000
000000f0: 0000 0000 0000 0000 0000 0000 0000 0000
0.0 0.0 0.0 0.0 0.0 0.0 0.0 0.0
0.0 0.0 0.0 0.0 0.0 0.0 0.0 0.0
0.0 0.0 0.0 0.0 0.0 0.0 0.0 0.0
0.0 0.0 0.0 0.0 0.0 0.0 0.0 0.0
0.0 0.0 0.0 0.0 0.0 0.0 0.0 0.0
0.0 0.0 0.0 0.0 0.0 0.0 0.0 0.0
0.0 0.0 0.0 0.0 0.0 0.0 0.0 0.0
0.0 0.0 0.0 0.0 0.0 0.0 0.0 0.0

action_net.weight f4 [1, 64]
00000000: ec5a 8f3d ac5a 00bd 44e0 6a3c 1f3d 8e39
00000010: 4b93 c6bd 1c7c f13b 1d37 a73d 1e77 52bd
00000020: 2774 3e3d bc26 02bd b6bc 8b3d 5a6a dd3c
00000030: 2f6b 483c 4f61 97bc 71fe 373d 3237 b43d
00000040: dd0a a8bb 8aa5 c5bb ae3b 823b d5bd 663d
00000050: 5929 e23b 373c 653d 553c 583c a951 70bd
00000060: 8665 8f3d be15 6d3b 344f 0cbd ff65 acbd
00000070: 4f8a 643b bccb a4bc 47d6 b8b9 9074 41bd
00000080: 2dfc 823d 2f16 15bd a104 163c b81e 303d
00000090: f25d 26bd 75e4 383d 1bae f9bb 0a6f 523d
000000a0: 86a6 003d de7c 633c 03c3 34bd c3a9 15bb
000000b0: 4f16 733b 1a64 8bbc 7724 c73c a22b 99bd
000000c0: 1587 7a3c e9e9 253c f65e edbc c154 afbc
000000d0: 50ba 5e3c 10f1 5a3d 6324 273a 8918 f73d
000000e0: fcd5 fcbc 2376 423b 5024 0fbb 27b0 5d3d
000000f0: f725 8ebc 532d d23b d039 50bd af43 093d
0.06999764 -0.03133647 0.014335696 0.0002712989 -0.09696063 0.0073695313 0.08164809 -0.05138313
0.04649749 -0.03177522 0.06823103 0.027028251 0.012232586 -0.018479018 0.04492039 0.0879959
-0.005128248 -0.0060316967 0.0039743995 0.05633338 0.0069019017 0.05596563 0.013197978 -0.058671627
0.07001786 0.003617629 -0.03425522 -0.08417892 0.0034872477 -0.02011668 -0.00035254864 -0.047230303
0.06395755 -0.03639811 0.009156377 0.042998046 -0.040616937 0.04513975 -0.007619632 0.051375426
0.03140881 0.013884751 -0.04413129 -0.0022836782 0.0037092154 -0.017015506 0.02430938 -0.074790254
0.015290995 0.010126569 -0.028975945 -0.021402718 0.013594225 0.05345255 0.00063759665 0.120652266
-0.030863754 0.0029672466 -0.0021841712 0.05412307 -0.017352087 0.0064140945 -0.050836384 0.033511814

value_net.weight f4 [1, 64]
00000000: 80b1 40bc 6929 15bd 2456 8b3e 7e53 a43d
00000010: 869c 70bd ce3a 063e a2df 06be 101b 3bbe
00000020: e285 b23d 7546 1f3e 8940 123e 9073 49bd
00000030: e5b5 6e3e 9830 d9bd fdcb 6abd 7d80 183d
00000040: 201c 7e3e 779e 2dbe 0594 d6bd fdb4 893d
00000050: 0bc7 3bbe 1639 12bc 9d0b 3fbc dc9c 813d
00000060: 8414 143e ff54 e13d c6d9 39be 9cb3 e0bd
00000070: f644 56bd c087 b83c a94c 0f3e 65c6 023e
00000080: 54e6 273d 2273 9e3d e24f 5e3d 3b9d 263e
00000090: e23f 17bb 85f5 003e 068a 693e 64a4 42bd
000000a0: 2e8b c6bd c352 583d 53a4 e83c a463 9cbc
000000b0: 2099 9b3d aca0 7fbd 1b36 9cbd 7877 65bd
000000c0: 4538 13bd 37d7 b3bd 6f7d 113e 3348 23be
000000d0: 9b61 26bd ed4b 8fbd d26d 04be b276 1d3e
000000e0: 8fdf ad3d a830 163e 8d9b acbd c015 313d
000000f0: 3e3b 1abe 5e02 bc3e 42df b7bd f267 053e
-0.011761069 -0.036416445 0.27214158 0.08023737 -0.058743022 0.1310837 -0.13171247 -0.18272042
0.08716942 0.15554221 0.1428243 -0.049182475 0.23311575 -0.10604972 -0.057323445 0.03723191
0.24815416 -0.16954981 -0.10477451 0.06723974 -0.18337648 -0.008924743 -0.011660484 0.06328747
0.14460951 0.1100254 -0.1814948 -0.10971758 -0.05231186 0.022525668 0.13994087 0.12770994
0.040991142 0.077368036 0.0542754 0.16270916 -0.0023078849 0.12593658 0.22806558 -0.047520056
-0.09694515 0.052813303 0.028398668 -0.019090481 0.07597566 -0.062409088 -0.07627507 -0.056022137
-0.035942335 -0.08781283 0.14208005 -0.1594551 -0.040620428 -0.069969036 -0.12932518 0.1537731
0.08489906 0.14666998 -0.084281065 0.043233633 -0.15061662 0.36720556 -0.0897813 0.13027933
