policies/MountainCar/he_a2c_initialization.pt (torch, 40848 bytes, 10 tensors)

mlp_extractor.policy_net.0.weight f4 [64, 3]
1.0888971 -0.14389157 -0.5060999 0.023721457 -1.0048096 -0.68742335 -0.14182973 0.32996738
-0.93846345 -0.87415177 -0.8786276 -0.10642648 1.3780047 -1.2166777 -0.62090784 -1.3937079
0.4734285 0.25377512 0.32417607 -0.5417842 0.58958614 -0.10648143 -0.49522662 1.2105309
-1.30165 0.9842571 -0.8159065 0.19181669 0.27913964 -0.6238799 -1.3534952 0.37218368
0.23179972 0.7449261 0.087809086 0.7880744 0.47166455 0.009901524 0.760676 0.4310819
-0.57593465 -1.2591873 -0.21034515 -0.012176037 0.7660595 -0.7706988 -0.76382935 -0.73018974
0.6137067 -0.2099824 -0.52877927 0.27576983 0.3659687 -0.023726702 -0.9621109 0.43558598
1.1260751 0.2037679 -0.1309998 -1.1151576 0.2547406 0.47272742 -1.3624808 -0.092161894
-0.49815738 -1.2109641 1.4089881 0.39853585 -0.17164779 0.8571259 0.47004497 -0.45499426
1.1993555 -0.5794514 0.70449626 -0.33668506 -0.21765852 -0.0035756826 -1.3306335 0.8551816
-1.2626587 -0.23631215 0.96443546 0.65137875 0.77537715 -0.80999583 -0.87473524 0.9633106
0.76369655 0.022770405 0.68511045 0.5746708 -1.1766478 0.08034909 1.3383447 0.72717583
-0.9411521 1.1611637 -0.19906187 -0.45513052 0.30156755 -0.65563285 -0.31565213 -0.8515432
-0.17636049 0.068792105 -0.1976744 0.021956444 0.61306846 0.3616408 0.46465313 -0.50771457
-0.41812438 0.16600072 0.9548608 0.46773303 -0.59146965 0.769755 1.0842081 0.42444742
-1.316256 0.14752746 1.2394701 -0.8970552 -0.10823667 0.7209352 -0.14368725 -0.910965
-0.522556 -1.0667248 -0.75148016 1.2577661 0.1515081 -1.0475374 -0.9044221 -0.3082317
-0.6207966 -1.3243132 -0.094852805 1.0411922 -1.226766 -0.5531777 0.21761632 -1.3255615
1.0130984 -0.2931168 -0.3706305 -0.5486152 1.128729 1.2821163 1.3248087 0.33039522
0.4471711 -0.076705456 0.29217327 -1.3390996 1.0496577 0.16650236 0.85309875 1.1244539
1.1424705 -0.27256536 -0.8897505 -0.11922538 -1.1522932 0.70299876 -0.14168441 -0.761996
0.60316193 0.57550967 0.99530494 -0.52616835 -0.2742511 -1.2217071 0.41815138 0.71735156
0.04320395 -0.5258522 1.0112818 0.59406126 0.40573323 0.5639951 -1.2322028 0.22928023
1.0439078 -0.033231735 0.114026666 0.29271913 -1.0382453 -0.22630358 0.60634434 -1.0184319
00000000: fb60 8b3f 5058 13be c38f 01bf 8053 c23c
00000010: 9a9d 80bf fafa 2fbf d03b 11be 7cf1 a83e
00000020: 243f 70bf 69c8 5fbf bded 60bf 20f6 d9bd
00000030: 7562 b03f 18bc 9bbf d1f3 1ebf 0565 b2bf
00000040: 3865 f23e d0ee 813e 68fa a53e 5fb2 0abf
00000050: 1eef 163f f012 dabd 588e fdbe adf2 9a3f
00000060: 789c a6bf 46f8 7b3f 40df 50bf 986b 443e
00000070: 64eb 8e3e 98b6 1fbf 553f adbf dc8e be3e
00000080: e85c 6d3e 7ab3 3e3f 40d5 b33d 3ebf 493f
00000090: 047e f13e 003a 223c aabb 423f c4b6 dc3e
000000a0: 7470 13bf 0d2d a1bf b864 57be 007e 47bc
000000b0: 7a1c 443f 844c 45bf 528a 43bf b7ed 3abf
000000c0: e21b 1d3f a005 57be 145e 07bf b431 8d3e
000000d0: 4060 bb3e 805e c2bc e64c 76bf 2005 df3e
000000e0: 3b23 903f 88a8 503e d024 06be 7cbd 8ebf
000000f0: 5c6d 823e 5409 f23e c565 aebf 60bf bcbd
00000100: 7c0e ffbe df00 9bbf b959 b43f e40c cc3e
00000110: 70c4 2fbe 9a6c 5b3f bca9 f03e 02f5 e8be
00000120: 7b84 993f ed56 14bf de59 343f fc61 acbe
00000130: e0e1 5ebe 0056 6abb 3352 aabf 2eed 5a3f
00000140: cd9e a1bf d0fb 71be 3ee5 763f c2c0 263f
00000150: 1e7f 463f e35b 4fbf a6ee 5fbf 869b 763f
00000160: 9e81 433f 0089 ba3c 6663 2f3f a01d 133f
00000170: 659c 96bf 108e a43d e14e ab3f 3228 3a3f
00000180: 58ef 70bf 03a1 943f e0d6 4bbe de06 e9be
00000190: 1067 9a3e 8ed7 27bf 289d a1be bcfe 59bf
000001a0: d897 34be e0e2 8c3d 286b 4abe 00de b33c
000001b0: 0ef2 1c3f fc28 b93e 04e7 ed3e 95f9 01bf
000001c0: 6614 d6be 18fc 293e c271 743f b47a ef3e
000001d0: 8e6a 17bf aa0e 453f 55c7 8a3f 2c51 d93e
000001e0: 147b a8bf 7011 173e f5a6 9e3f 69a5 65bf
000001f0: 30ab ddbd 368f 383f c022 13be 0135 69bf
00000200: 3bc6 05bf 708a 88bf 0161 40bf 7bfe a03f
00000210: f024 1b3e b515 86bf 3588 67bf 8cd0 9dbe
00000220: 87ec 1ebf 1883 a9bf 3042 c2bd c945 853f
00000230: ab06 9dbf 0e9d 0dbf d0d6 5e3e 00ac a9bf
00000240: 35ad 813f 6813 96be 48c3 bdbe 0c72 0cbf
00000250: 317a 903f 631c a43f 5593 a93f 9029 a93e
00000260: 9cf3 e43e c017 9dbd bc97 953e 9e67 abbf
00000270: 2f5b 863f 987f 2a3e ae64 5a3f 1bee 8f3f
00000280: 793c 923f b08d 8bbe b0c6 63bf 702c f4bd
00000290: 587e 93bf baf7 333f b815 11be 2b12 43bf
000002a0: d268 1a3f 9a54 133f 4ecc 7e3f f8b2 06bf
000002b0: a46a 8cbe e660 9cbf f017 d63e 5aa4 373f
000002c0: a0f6 303d 409e 06bf af71 813f 6614 183f
000002d0: 44bc cf3e fc61 103f d2b8 9dbf 70c8 6a3e
000002e0: c59e 853f 001e 08bd d086 e93d 48df 953e
000002f0: 39e5 84bf 20bc 67be 6239 1b3f fa5b 82bf

mlp_extractor.policy_net.0.bias f4 [64]
0.0 0.0 0.0 0.0 0.0 0.0 0.0 0.0
0.0 0.0 0.0 0.0 0.0 0.0 0.0 0.0
0.0 0.0 0.0 0.0 0.0 0.0 0.0 0.0
0.0 0.0 0.0 0.0 0.0 0.0 0.0 0.0
0.0 0.0 0.0 0.0 0.0 0.0 0.0 0.0
0.0 0.0 0.0 0.0 0.0 0.0 0.0 0.0
0.0 0.0 0.0 0.0 0.0 0.0 0.0 0.0
0.0 0.0 0.0 0.0 0.0 0.0 0.0 0.0
00000000: 0000 0000 0000 0000 0000 0000 0000 0000
00000010: 0000 0000 0000 0000 0000 0000 0000 0000
00000020: 0000 0000 0000 0000 0000 0000 0000 0000
00000030: 0000 0000 0000 0000 0000 0000 0000 0000
00000040: 0000 0000 0000 0000 0000 0000 0000 0000
00000050: 0000 0000 0000 0000 0000 0000 0000 0000
00000060: 0000 0000 0000 0000 0000 0000 0000 0000
00000070: 0000 0000 0000 0000 0000 0000 0000 0000
00000080: 0000 0000 0000 0000 0000 0000 0000 0000
00000090: 0000 0000 0000 0000 0000 0000 0000 0000
000000a0: 0000 0000 0000 0000 0000 0000 0000 0000
000000b0: 0000 0000 0000 0000 0000 0000 0000 0000
000000c0: 0000 0000 0000 0000 0000 0000 0000 0000
000000d0: 0000 0000 0000 0000 0000 0000 0000 0000
000000e0: 0000 0000 0000 0000 0000 0000 0000 0000
000000f0: 0000 0000 0000 0000 0000 0000 0000 0000

mlp_extractor.policy_net.2.weight f4 [64, 64]
0.22486344 0.21598974 -0.19982952 -0.042805403 -0.041067094 -0.18614957 -0.25915888 -0.23582971
-0.08727807 -0.17763817 -0.30239567 0.21523282 -0.11284436 -0.10866673 0.24395308 -0.06640671
-0.10026617 -0.13406725 -0.15235329 0.15404835 -0.13221571 -0.13859077 0.30167517 0.024877131
0.02774319 -0.14832509 0.25810304 -0.032621443 0.19488427 -0.1113614 0.020329237 0.22081307
-0.06734416 0.05651924 0.021551251 -0.060061216 -0.27357614 -0.0990053 -0.3014959 0.07998496
-0.071092725 -0.29856542 0.10479942 0.27580807 0.2742677 0.07567114 0.12372056 -0.28924337
-0.1327067 0.053216755 -0.30279496 0.007497072 -0.02689138 -0.27808693 -0.10708599 -0.20253474
0.25075844 -0.17159943 0.013350189 0.11119804 0.06269038 -0.17247975 -0.081715316 0.2607958
-0.09711656 -0.2156549 0.16489697 0.10429707 0.13132372 0.29480186 0.17274615 -0.073375195
-0.19394869 -0.25370193 -0.047582775 -0.20166048 0.0050263405 0.15386394 0.04678276 0.27352294
-0.10786869 -0.12691127 -0.057162076 -0.05280435 -0.07553604 -0.14724173 0.098309964 -0.021493495
-0.16049623 -0.30172616 -0.10592611 -0.20701101 0.017853647 -0.08638491 -0.10502532 0.19021124
-0.2716326 -0.16217357 -0.19728309 0.028452635 -0.11534339 0.15707368 0.06534025 0.06352553
-0.0010293424 0.24715814 0.16308168 0.16427943 0.16748324 0.021955997 0.18669036 0.15003955
0.15495408 0.10378203 0.21014604 -0.2981113 -0.27647954 0.114454806 -0.17883272 0.30144337
-0.08681342 -0.21301761 0.2928324 0.0009367466 0.07278454 -0.051721245 0.25146994 0.22895065
-0.13062079 -0.077230826 0.22537991 0.00453496 -0.059324652 -0.19089977 0.21395823 -0.13953759
0.12086627 -0.07291284 0.11047068 0.25010106 -0.04020545 -0.024251342 0.15825382 0.29474726
0.042379767 0.19408056 0.09226218 0.11891469 0.03783691 0.07842383 -0.20613538 -0.023462802
-0.2305893 0.21153596 -0.02587685 0.02228263 0.29763708 0.060017288 0.19038442 0.25359812
-0.24985716 -0.24318096 0.22861597 -0.05689439 0.033489376 -0.13970175 0.055636942 0.26368394
-0.08712791 -0.048779905 -0.0772351 0.21213403 0.2276468 0.2532262 0.138488 -0.08185811
0.2893447 0.032276392 -0.13039424 -0.2970562 0.052168876 -0.121136636 0.12400636 0.028529018
0.14331177 0.25262865 0.04721579 0.13007984 0.10394496 0.25146165 0.13785416 0.07272473
-0.004133582 -0.09361254 0.24802187 -0.050347 -0.28328595 0.30145147 0.041197866 0.05456981
-0.15496989 -0.19141136 -0.06905955 0.25529382 -0.23526457 0.2026492 0.033320606 0.29984078
0.122119844 -0.2915262 -0.24437475 0.21198592 0.21520266 0.012475967 0.27339903 0.17067078
0.20234314 0.18546373 -0.21334107 -0.19425513 0.02412954 0.017075688 0.007514149 0.075907916
-0.113946274 -0.045238644 -0.033586293 -0.07832368 -0.29750282 -0.042480737 0.30307356 -0.29523823
0.08911869 -0.20149285 0.27239993 0.014055997 0.28207925 -0.10586542 -0.28323323 0.0015431345
0.16724962 0.045331866 -0.14677685 -0.113299966 0.26593426 -0.26583654 0.01732096 -0.25529712
0.07092261 0.030187786 0.13782197 -0.034426093 -0.2571349 -0.26970074 -0.29034108 -0.1683197
00000000: 9a42 663e 6a2c 5d3e 1ca0 4cbe b854 2fbd
00000010: f835 28bd fe9d 3ebe 79b0 84be 587d 71be
00000020: d8be b2bd c8e6 35be 9bd3 9abe fe65 5c3e
00000030: f21a e7bd aa8c debd d6ce 793e 3e00 88bd
00000040: 5a58 cdbd ed48 09be 8002 1cbe dabe 1d3e
00000050: 8e63 07be bdea 0dbe 2b75 9a3e 20cb cb3c
00000060: b045 e33c 88e2 17be 1526 843e 109e 05bd
00000070: be8f 473e 7211 e4bd 8089 a63c d21c 623e
00000080: bceb 89bd b880 673d 408c b03c c002 76bd
00000090: 2c12 8cbe 4ac3 cabd ac5d 9abe 28cf a33d
000000a0: 1099 91bd 91dd 98be 14a1 d63d b736 8d3e
000000b0: d16c 8c3e 78f9 9a3d 3461 fd3d b517 94be
000000c0: 44e4 07be d0f9 593d f107 9bbe 00aa f53b
000000d0: 504b dcbc 6961 8ebe e64f dbbd 4465 4fbe
000000e0: 6963 803e c3b7 2fbe c0ba 5a3c ccbb e33d
000000f0: d063 803d 889e 30be 5c5a a7bd 0787 853e
00000100: 0ce5 c6bd a3d4 5cbe c0da 283e b499 d53d
00000110: ba79 063e 45f0 963e 5ee4 303e bc45 96bd
00000120: 7c9a 46be 38e5 81be 28e6 42bd 1680 4ebe
00000130: 00b4 a43b 828e 1d3e 489f 3f3d 330b 8c3e
00000140: 42ea dcbd 07f5 01be c822 6abd 6049 58bd
00000150: a4b2 9abd 89c6 16be bc56 c93d 2013 b0bc
00000160: 2059 24be da7b 9abe caef d8bd b2fa 53be
00000170: d041 923c 92ea b0bd 8417 d7bd bcc6 423e
00000180: 6e13 8bbe d410 26be 9404 4abe 8015 e93c
00000190: 2839 ecbd ecd7 203e 1cd1 853d ac19 823d
000001a0: 00eb 86ba 0617 7d3e e2fe 263e de38 283e
000001b0: ba80 2b3e 10dd b33c c22b 3f3e f8a3 193e
000001c0: 48ac 1e3e ac8b d43d 8630 573e 0ba2 98be
000001d0: ba8e 8dbe 4867 ea3d ed1f 37be c956 9a3e
000001e0: 3ccb b1bd 4a21 5abe 21ee 953e 0090 753a
000001f0: 1010 953d a8d9 53bd abc0 803e 0a72 6a3e
00000200: 75c1 05be 322b 9ebd fec9 663e 009a 943b
00000210: 68fe 72bd 3b7b 43be de17 5b3e f1e2 0ebe
00000220: bc88 f73d 5453 95bd 743e e23d 3f0d 803e
00000230: 78ae 24bd c0aa c6bc 4a0d 223e 1de9 963e
00000240: 6896 2d3d 0ebd 463e f4f3 bc3d 8c89 f33d
00000250: e0fa 1a3d ac9c a03d 2715 53be 1035 c0bc
00000260: 9a1f 6cbe e29c 583e b0fb d3bc 108a b63c
00000270: e363 983e b0d4 753d 22f4 423e 9dd7 813e
00000280: 8eda 7fbe 6e04 79be 4e1a 6a3e 180a 69bd
00000290: 282c 093d fa0d 0fbe 90e3 633d 9501 873e
000002a0: 1e70 b2bd 70cd 47bd 702d 9ebd aa39 593e
000002b0: 3e1c 693e dda6 813e cccf 0d3e 3aa5 a7bd
000002c0: fd24 943e 4034 043d 1186 05be c017 98be
000002d0: 08af 553d 7c16 f8bd 0cf7 fd3d b0b5 e93c
000002e0: 52c0 123e 8b58 813e 5865 413d a633 053e
000002f0: 18e1 d43d 95bf 803e a429 0d3e b4f0 943d
00000300: 0073 87bb eeb7 bfbd 72f9 7d3e a838 4ebd
00000310: db0a 91be d957 9a3e 18bf 283d 9884 5f3d
00000320: 6db0 1ebe 5701 44be 186f 8dbd dfb5 823e
00000330: 32e9 70be 4683 4f3e 307b 083d bb84 993e
00000340: f819 fa3d ec42 95be 603d 7abe d612 593e
00000350: 165e 5c3e 0068 4c3c f5fa 8b3e 52c4 2e3e
00000360: 0a33 4f3e 34ea 3d3e 1576 5abe d1ea 46be
00000370: 50ab c53c 50e2 8b3c 4039 f63b 9c75 9b3d
00000380: aa5c e9bd 284c 39bd c891 09bd 2a68 a0bd
00000390: 4a52 98be 4800 2ebd 752c 9b3e 7729 97be
000003a0: dc83 b63d 2454 4ebe 0178 8b3e 204b 663c
000003b0: b16c 903e f8cf d8bd f203 91be 0043 ca3a
000003c0: 7c43 2b3e e8ad 393d ac4c 16be d009 e8bd
000003d0: 8928 883e ba1b 88be b0e4 8d3c 4eb6 82be
000003e0: e03f 913d 604c f73c 3421 0d3e 6002 0dbd
000003f0: 30a7 83be 3716 8abe 96a7 94be 005c 2cbe

mlp_extractor.policy_net.2.bias f4 [64]
0.0 0.0 0.0 0.0 0.0 0.0 0.0 0.0
0.0 0.0 0.0 0.0 0.0 0.0 0.0 0.0
0.0 0.0 0.0 0.0 0.0 0.0 0.0 0.0
0.0 0.0 0.0 0.0 0.0 0.0 0.0 0.0
0.0 0.0 0.0 0.0 0.0 0.0 0.0 0.0
0.0 0.0 0.0 0.0 0.0 0.0 0.0 0.0
0.0 0.0 0.0 0.0 0.0 0.0 0.0 0.0
0.0 0.0 0.0 0.0 0.0 0.0 0.0 0.0
00000000: 0000 0000 0000 0000 0000 0000 0000 0000
00000010: 0000 0000 0000 0000 0000 0000 0000 0000
00000020: 0000 0000 0000 0000 0000 0000 0000 0000
00000030: 0000 0000 0000 0000 0000 0000 0000 0000
00000040: 0000 0000 0000 0000 0000 0000 0000 0000
00000050: 0000 0000 0000 0000 0000 0000 0000 0000
00000060: 0000 0000 0000 0000 0000 0000 0000 0000
00000070: 0000 0000 0000 0000 0000 0000 0000 0000
00000080: 0000 0000 0000 0000 0000 0000 0000 0000
00000090: 0000 0000 0000 0000 0000 0000 0000 0000
000000a0: 0000 0000 0000 0000 0000 0000 0000 0000
000000b0: 0000 0000 0000 0000 0000 0000 0000 0000
000000c0: 0000 0000 0000 0000 0000 0000 0000 0000
000000d0: 0000 0000 0000 0000 0000 0000 0000 0000
000000e0: 0000 0000 0000 0000 0000 0000 0000 0000
000000f0: 0000 0000 0000 0000 0000 0000 0000 0000

mlp_extractor.value_net.0.weight f4 [64, 3]
-0.967473 0.15244079 -0.21769452 -1.2254527 1.117567 -0.6520871 0.9719871 -0.49802858
-0.26810896 -0.8112698 0.6931697 0.39229882 -0.086054444 0.84131587 -0.653162 -0.6871565
-0.15691638 0.009491801 -0.3732667 0.28727865 -0.70180416 0.49170768 -1.3975329 -0.0006583929
0.6769198 1.2418 0.6754986 0.0567137 0.6331054 -0.21997464 -0.35973012 0.011379838
0.3752153 -0.23095524 0.004459977 0.10584319 1.0702242 -0.76791424 -1.0472591 0.023029923
-0.8921213 1.3087898 0.62873566 0.45267606 -0.42651767 -1.2567475 -0.013543844 0.223912
1.2500933 -1.018187 1.0661336 -1.4082981 0.8716148 0.3247764 -0.36185527 -0.1883086
-0.97778356 -0.39793992 0.15149832 -0.3082831 0.50349176 0.6484405 -1.2759165 0.0058481693
1.3447756 -0.7886498 0.0983274 0.4279387 1.1703595 1.2336746 1.2648882 0.6498784
0.7143034 -0.40662384 1.185115 -0.7764513 -0.7973787 -1.1541997 -0.6618127 0.23152542
-0.30628467 0.3972597 -0.7539456 -0.9876754 0.9842526 -0.19040275 0.27081907 -1.032048
1.1109763 0.870643 -0.9371311 1.4007176 0.6815766 -1.2530423 -0.2157129 -1.1462306
0.32262754 1.1351255 0.41546524 1.156552 1.2907542 -0.8950018 0.75924385 0.7111689
-0.20188844 -1.3575468 0.09443021 1.222253 1.1235608 0.11843765 -0.15074372 -0.14674139
0.47111356 -1.0996841 1.3382436 -0.23175454 1.1152974 0.41829312 0.6530036 -0.16380358
-0.14563453 -0.94459987 0.3987689 0.4831332 0.62712586 1.2266732 -1.3023897 0.71559846
0.65233934 -0.8568712 -0.2598549 -0.85998875 0.28375113 -0.008455157 -0.5301817 1.2956136
0.65294325 0.8253652 -1.1898192 -1.2839683 0.6072148 0.16342926 0.12778974 1.0727593
0.25104368 -0.96016926 1.2329072 0.3579626 -0.14013994 0.03253448 0.212865 0.6035994
0.5323572 1.0115432 -0.86898947 0.44887233 -0.6880144 -0.64217114 -0.9597788 -0.7756478
0.8081895 -0.41126382 1.0200464 1.3404049 0.92686903 1.2945334 0.44861734 1.1557511
0.77359855 -1.3912055 -0.87110454 -0.45027906 1.2789878 0.1787082 0.23519361 -1.0997641
-0.05855882 0.4876938 0.48750448 -0.2682842 -1.2922679 1.0922273 0.75923145 -1.2656668
-0.890586 1.2884749 0.6839522 0.1973747 -0.94582856 -0.13162708 0.436782 1.403335
00000000: 4fac 77bf 7019 1c3e 50eb 5ebe a2db 9cbf
00000010: 6f0c 8f3f 2eef 26bf 26d4 783f 9afd febe
00000020: 9445 89be 61af 4fbf 9273 313f 64db c83e
00000030: 503d b0bd 7a60 573f a035 27bf 7de9 2fbf
00000040: b0ae 20be 8083 1b3c d01c bfbe 3016 933e
00000050: 70a9 33bf 1cc1 fb3e 5ce2 b2bf 0098 2cba
00000060: 9e4a 2d3f 4df3 9e3f 7aed 2c3f a04c 683d
00000070: 3213 223f 0841 61be 8c2e b8be 8072 3a3c
00000080: 381c c03e 887f 6cbe 0025 923b 50c4 d83d
00000090: 1bfd 883f 0796 44bf 960c 86bf 40a9 bc3c
000000a0: 1062 64bf 6d86 a73f d2f4 203f 28c5 e73e
000000b0: 8660 dabe 1add a0bf 00e7 5dbc 3049 653e
000000c0: 0f03 a03f f453 82bf 1177 883f 1d43 b4bf
000000d0: 2622 5f3f 1849 a63e 1845 b9be f8d3 40be
000000e0: 0650 7abf c8be cbbe 6022 1b3e 48d7 9dbe
000000f0: d6e4 003f 3200 263f 3b51 a3bf 00a2 bf3b
00000100: 9b21 ac3f f4e4 49bf e05f c93d c81a db3e
00000110: 57ce 953f 0de9 9d3f dbe7 a13f 6e5e 263f
00000120: 96dc 363f 0031 d0be d9b1 973f 83c5 46bf
00000130: 0321 4cbf d1bc 93bf 8f6c 29bf 0015 6d3e
00000140: 58d1 9cbe a065 cb3e 9402 41bf 4cd8 7cbf
00000150: faf7 7b3f f0f8 42be cca8 8a3e 261a 84bf
00000160: 7934 8e3f 76e2 5e3f d3e7 6fbf b74a b33f
00000170: ce7b 2e3f b163 a0bf d8e3 5cbe afb7 92bf
00000180: 702f a53e cb4b 913f dcb7 d43e e509 943f
00000190: 6f37 a53f d71e 65bf ce5d 423f 2a0f 363f
000001a0: d8bb 4ebe 18c4 adbf a064 c13d c972 9c3f
000001b0: d7d0 8f3f 708f f23d 905c 1abe 6043 16be
000001c0: cc35 f13e 73c2 8cbf 914b ab3f 1051 6dbe
000001d0: 11c2 8e3f 842a d63e 3e2b 273f 20bc 27be
000001e0: 3821 15be 4cd1 71bf 702b cc3e 3c5d f73e
000001f0: 528b 203f a103 9d3f b5b4 a6bf 7631 373f
00000200: b6ff 263f e95b 5bbf b40b 85be 3928 5cbf
00000210: d447 913e 8087 0abc fdb9 07bf abd6 a53f
00000220: 4a27 273f 224b 533f ff4b 98bf 1359 a4bf
00000230: 6e72 1b3f 005a 273e 50db 023e 2d50 893f
00000240: cc88 803e a7cd 75bf e7cf 9d3f e046 b73e
00000250: d880 0fbe e042 053d 48f9 593e 7e85 1a3f
00000260: 9048 083f 3f7a 813f 1876 5ebf 98d2 e53e
00000270: b621 30bf 5465 24bf 10b4 75bf db90 46bf
00000280: 82e5 4e3f 2c91 d2be e190 823f 6392 ab3f
00000290: 4a47 6d3f 45b3 a53f 2cb1 e53e a7ef 933f
000002a0: 8e0a 463f 0613 b2bf b500 5fbf fa8a e6be
000002b0: dfb5 a33f 48ff 363e 98d6 703e 12c5 8cbf
000002c0: 60db 6fbd 00b3 f93e 309a f93e 8c5c 89be
000002d0: 0969 a5bf 1bce 8b3f fe5c 423f 5f01 a2bf
000002e0: 72fd 63bf bfec a43f 7e17 2f3f 981c 4a3e
000002f0: d221 72bf 40c9 06be e4a1 df3e 7ba0 b33f

mlp_extractor.value_net.0.bias f4 [64]
0.0 0.0 0.0 0.0 0.0 0.0 0.0 0.0
0.0 0.0 0.0 0.0 0.0 0.0 0.0 0.0
0.0 0.0 0.0 0.0 0.0 0.0 0.0 0.0
0.0 0.0 0.0 0.0 0.0 0.0 0.0 0.0
0.0 0.0 0.0 0.0 0.0 0.0 0.0 0.0
0.0 0.0 0.0 0.0 0.0 0.0 0.0 0.0
0.0 0.0 0.0 0.0 0.0 0.0 0.0 0.0
0.0 0.0 0.0 0.0 0.0 0.0 0.0 0.0
00000000: 0000 0000 0000 0000 0000 0000 0000 0000
00000010: 0000 0000 0000 0000 0000 0000 0000 0000
00000020: 0000 0000 0000 0000 0000 0000 0000 0000
00000030: 0000 0000 0000 0000 0000 0000 0000 0000
00000040: 0000 0000 0000 0000 0000 0000 0000 0000
00000050: 0000 0000 0000 0000 0000 0000 0000 0000
00000060: 0000 0000 0000 0000 0000 0000 0000 0000
00000070: 0000 0000 0000 0000 0000 0000 0000 0000
00000080: 0000 0000 0000 0000 0000 0000 0000 0000
00000090: 0000 0000 0000 0000 0000 0000 0000 0000
000000a0: 0000 0000 0000 0000 0000 0000 0000 0000
000000b0: 0000 0000 0000 0000 0000 0000 0000 0000
000000c0: 0000 0000 0000 0000 0000 0000 0000 0000
000000d0: 0000 0000 0000 0000 0000 0000 0000 0000
000000e0: 0000 0000 0000 0000 0000 0000 0000 0000
000000f0: 0000 0000 0000 0000 0000 0000 0000 0000

mlp_extractor.value_net.2.weight f4 [64, 64]
-0.2216625 -0.16412392 0.17206866 -0.29426125 0.12735361 -0.033975303 0.023436189 -0.09282556
-0.23022693 -0.17424066 -0.03419572 0.24414733 -0.23284231 -0.037173867 -0.056568876 -0.24741182
-0.013294399 -0.10132179 0.08762774 0.19935796 0.23303822 0.25330582 -0.1878293 0.18175128
-0.14518934 -0.06784673 0.021971405 -0.20958692 -0.07744847 0.102458596 0.27292898 -0.0887391
-0.19996783 0.23264083 -0.27066997 -0.2634036 0.09321323 -0.2803275 0.07648566 -0.08959828
-0.17289063 -0.026067317 -0.14456585 0.059978515 0.015229464 0.20604864 -0.21293932 -0.122504994
-0.27564207 -0.1979951 0.2156193 -0.29969734 -0.2949967 -0.29340312 -0.027313411 0.029236376
0.30090138 0.030447513 -0.036695182 -0.0131661 -0.04066953 -0.27871042 -0.14917602 -0.091749236
-0.022614926 0.13893259 -0.16383258 0.023498386 -0.1502069 -0.08074978 0.30343768 0.16683224
-0.28347707 0.29632816 -0.2919738 -0.05918522 0.25941172 -0.1351419 0.050055116 -0.03220713
0.10746938 -0.09259561 -0.1535989 0.18275085 -0.104370624 -0.017172664 -0.10353342 -0.076127455
0.24170682 -0.23741576 -0.28794327 -0.23419662 0.037649125 0.06378773 -0.19294645 -0.21857297
-0.095439225 -0.08689898 -0.15466766 -0.25769818 -0.23398179 0.035726756 0.17598674 -0.05789724
0.15318435 0.04043299 -0.27141893 -0.16760334 0.27030072 0.15703541 -0.12238462 -0.21816906
0.15325809 0.2465721 0.2027447 0.11185816 -0.23965643 -0.18751408 0.21585855 -0.17438488
0.10710552 0.21648642 0.2217054 0.2775574 -0.29877213 0.23254457 -0.013397038 -0.18568686
-0.21552306 0.025349647 0.005492598 0.28490797 0.06678042 -0.07204944 -0.15311618 0.21002117
-0.16243903 -0.1891279 0.23604652 0.20082715 -0.25617743 0.055597305 -0.15581639 0.0428679
-0.046313256 0.009370476 0.050844043 -0.22461292 -0.28195733 0.13454387 -0.026725769 0.2518724
-0.067519456 0.017141461 -0.016535163 -0.17939778 -0.19228025 -0.05500117 -0.2947886 0.265564
0.23196432 -0.10487042 0.0749163 0.026690364 -0.08190195 -0.027821839 -0.25310096 0.027954727
0.03126976 -0.24020828 -0.22978151 -0.29907915 -0.116421655 -0.19657099 -0.17541198 0.23666897
-0.12549 -0.23759001 0.07537675 -0.26635987 0.13700041 -0.16048686 -0.19746548 -0.13154998
-0.13990529 0.0038744211 0.1293478 -0.14245085 0.15780899 -0.12892394 -0.19479519 -0.11473352
-0.13122794 0.13659036 -0.11944565 0.0014247596 -0.04650402 0.28336468 -0.08718766 -0.16938029
0.23105279 -0.1741708 -0.29383564 -0.08825752 0.3000625 -0.027031302 -0.30168927 0.18526727
0.13183671 0.1648288 -0.27850583 -0.12987885 -0.11296895 -0.11718632 0.15078229 0.22753373
-0.16297854 -0.20916282 -0.2749959 -0.21612236 0.21310434 0.22631893 -0.14934468 -0.24295226
-0.23520896 -0.17683123 0.29759666 0.041331768 -0.16318999 0.22559646 0.29588076 -0.1815655
0.027590811 -0.018476248 0.1413117 0.27101424 -0.034336567 0.29240796 -0.27813357 -0.04815933
-0.16082966 -0.260572 0.053290784 -0.28575662 -0.003379047 -0.04748127 -0.0352875 -0.13039978
-0.013687819 -0.08978559 0.15793231 -0.053804427 -0.057657897 0.07644376 -0.16009977 -0.30422956
00000000: 7ffb 62be 1a10 28be c432 303e 69a9 96be
00000010: fc68 023e b029 0bbd 40fd bf3c 541b bebd
00000020: 9cc0 6bbe 256c 32be d010 0cbd c201 7a3e
00000030: 376e 6ebe a043 18bd c4b4 67bd 8659 7dbe
00000040: c0d0 59bc cc81 cfbd 2c76 b33d 7e24 4c3e
00000050: 92a1 6e3e 4db1 813e 5356 40be 021d 3a3e
00000060: 84ac 14be 3af3 8abd 60fd b33c f49d 56be
00000070: 4e9d 9ebd d0d5 d13d 59bd 8b3e d8bc b5bd
00000080: 5ec4 4cbe 6639 6e3e 4195 8abe d6dc 86be
00000090: 94e6 be3d 1687 8fbe 84a4 9c3d 4e7f b7bd
000000a0: 3e0a 31be 208b d5bc 1209 14be 08ac 753d
000000b0: 0085 793c 6afe 523e c40c 5abe e6e3 fabd
000000c0: f520 8dbe 3abf 4abe 4ecb 5c3e ee71 99be
000000d0: cf09 97be ef38 96be 60c0 dfbc 2081 ef3c
000000e0: bf0f 9a3e 106d f93c b04d 16bd a0b6 57bc
000000f0: 1895 26bd 22b3 8ebe 99c1 18be 06e7 bbbd
00000100: f042 b9bc 5844 0e3e bac3 27be b07f c03c
00000110: d6cf 19be 2460 a5bd 2f5c 9b3e 12d6 2a3e
00000120: e823 91be 53b8 973e 977d 95be 346c 72bd
00000130: 9dd1 843e a362 0abe 9806 4d3d a0eb 03bd
00000140: e818 dc3d c4a2 bdbd 0849 1dbe 0a23 3b3e
00000150: 44c0 d5bd b0ad 8cbc 5409 d4bd b6e8 9bbd
00000160: fe81 773e 1e1d 73be 4d6d 93be 3dd1 6fbe
00000170: f835 1a3d 24a3 823d c193 45be 98d1 5fbe
00000180: a475 c3bd 18f8 b1bd 3361 1ebe 04f1 83be
00000190: ec98 6fbe 3856 123d de35 343e a825 6dbd
000001a0: 5cdc 1c3e 109d 253d 6cf7 8abe 36a0 2bbe
000001b0: db64 8a3e e4cd 203e caa4 fabd b667 5fbe
000001c0: b0ef 1c3e 667d 7c3e 4e9c 4f3e e415 e53d
000001d0: 7f68 75be b103 40be 060a 5d3e f391 32be
000001e0: 245a db3d 9eae 5d3e be06 633e 011c 8e3e
000001f0: a9f8 98be 2a20 6e3e 407f 5bbc b224 3ebe
00000200: 14b2 5cbe 10aa cf3c 40fb b33b 75df 913e
00000210: 2cc4 883d a88e 93bd 7dca 1cbe ca0f 573e
00000220: 6b56 26be bfaa 41be 2eb6 713e a2a5 4d3e
00000230: b029 83be 00ba 633d 558e 1fbe 4096 2f3d
00000240: f8b2 3dbd a086 193c d841 503d ee00 66be
00000250: b65c 90be dec5 093e 00f0 dabc 6bf5 803e
00000260: a447 8abd 406c 8c3c c074 87bc 0db4 37be
00000270: 1de5 44be e848 61bd 88ee 96be 01f8 873e
00000280: 0e88 6d3e 4ec6 d6bd b86d 993d c0a5 da3c
00000290: 36bc a7bd a0ea e3bc 7396 81be 5001 e53c
000002a0: b814 003d 29f9 75be d84b 6bbe e720 99be
000002b0: 7a6e eebd e849 49be 339f 33be 5a59 723e
000002c0: 7380 00be cc4a 73be 205f 9a3d 5260 88be
000002d0: d649 0c3e ab56 24be 6434 4abe 0ab5 06be
000002e0: 5543 0fbe 00ea 7d3b c073 043e a3de 11be
000002f0: ae98 213e a304 04be 6478 47be 68f9 eabd
00000300: 9e60 06be 58de 0b3e ec9f f4bd 00bf ba3a
00000310: 007b 3ebd 2d15 913e 728f b2bd 0772 2dbe
00000320: 1a99 6c3e d559 32be a071 96be 5cc0 b4bd
00000330: cba1 993e c070 ddbc 0477 9abe b4b6 3d3e
00000340: 3400 073e e2c8 283e 5198 8ebe f6fe 04be
00000350: 445c e7bd 62ff efbd ac66 1a3e 9afe 683e
00000360: d9e3 26be c72e 56be 43cc 8cbe 2e4f 5dbe
00000370: 0638 5a3e 26c0 673e d0ed 18be 7ac8 78be
00000380: 9eda 70be 3f13 35be 975e 983e 804b 293d
00000390: 471b 27be c202 673e af7d 973e 4eec 39be
000003a0: 2006 e23c 805b 97bc 04b4 103e 61c2 8a3e
000003b0: 80a4 0cbd 7fb6 953e 8667 8ebe b842 45bd
000003c0: 88b0 24be b169 85be 7047 5a3d b14e 92be
000003d0: 0073 5dbb b87b 42bd a089 10bd 8587 05be
000003e0: e042 60bc 82e1 b7bd 02b9 213e 0862 5cbd
000003f0: b02a 6cbd 8c8e 9c3d 32f1 23be fac3 9bbe

mlp_extractor.value_net.2.bias f4 [64]
0.0 0.0 0.0 0.0 0.0 0.0 0.0 0.0
0.0 0.0 0.0 0.0 0.0 0.0 0.0 0.0
0.0 0.0 0.0 0.0 0.0 0.0 0.0 0.0
0.0 0.0 0.0 0.0 0.0 0.0 0.0 0.0
0.0 0.0 0.0 0.0 0.0 0.0 0.0 0.0
0.0 0.0 0.0 0.0 0.0 0.0 0.0 0.0
0.0 0.0 0.0 0.0 0.0 0.0 0.0 0.0
0.0 0.0 0.0 0.0 0.0 0.0 0.0 0.0
00000000: 0000 0000 0000 0000 0000 0000 0000 0000
00000010: 0000 0000 0000 0000 0000 0000 0000 0000
00000020: 0000 0000 0000 0000 0000 0000 0000 0000
00000030: 0000 0000 0000 0000 0000 0000 0000 0000
00000040: 0000 0000 0000 0000 0000 0000 0000 0000
00000050: 0000 0000 0000 0000 0000 0000 0000 0000
00000060: 0000 0000 0000 0000 0000 0000 0000 0000
00000070: 0000 0000 0000 0000 0000 0000 0000 0000
00000080: 0000 0000 0000 0000 0000 0000 0000 0000
00000090: 0000 0000 0000 0000 0000 0000 0000 0000
000000a0: 0000 0000 0000 0000 0000 0000 0000 0000
000000b0: 0000 0000 0000 0000 0000 0000 0000 0000
000000c0: 0000 0000 0000 0000 0000 0000 0000 0000
000000d0: 0000 0000 0000 0000 0000 0000 0000 0000
000000e0: 0000 0000 0000 0000 0000 0000 0000 0000
000000f0: 0000 0000 0000 0000 0000 0000 0000 0000

action_net.weight f4 [1, 64]
0.13233268 -0.21308868 0.2536861 -0.19916405 0.24655828 0.097090065 -0.1538751 0.24694768
0.016698599 -0.03810683 -0.028868735 -0.09611799 -0.12406765 -0.20467839 -0.1643926 -0.031098157
0.024142325 0.12178099 -0.20066968 0.10750458 0.08649516 0.21007505 -0.023977697 -0.21674559
-0.25506827 -0.2017389 0.21275648 0.26885542 -0.21183348 -0.12946159 -0.25064033 -0.2155823
0.08318251 0.109181434 -0.025612503 -0.112000406 -0.28895444 -0.27967685 0.16450286 -0.17735453
0.27178308 -0.06769255 0.21846643 0.10519168 -0.24717209 0.25216237 0.1306493 -0.15589768
-0.18653455 0.2104486 0.17207342 -0.05670835 -0.26817152 -0.19861537 0.09564301 0.058828205
-0.25180772 0.096678585 0.17243245 -0.1383342 -0.17620663 0.22931191 0.14089996 0.024131775
00000000: 3882 073e eb33 5abe 25e3 813e a9f1 4bbe
00000010: c679 7c3e 28d7 c63d 6f91 1dbe dadf 7c3e
00000020: 80cb 883c e815 1cbd 207e ecbc 82d9 c4bd
00000030: 2e17 febd 3697 51be 8956 28be 90c1 febc
00000040: 20c6 c53c 5068 f93d 5a7c 4dbe 5c2b dc3d
00000050: 6024 b13d ea1d 573e e06c c4bc 8ef2 5dbe
00000060: 4f98 82be a494 4ebe d6dc 593e 6ba7 893e
00000070: e0ea 58be 9491 04be ee53 80be 9bc1 5cbe
00000080: 985b aa3d 849a df3d 50d1 d1bc 7860 e5bd
00000090: d6f1 93be ce31 8fbe 7073 283e 6d9c 35be
000000a0: 2727 8b3e 64a2 8abd aab5 5f3e bc6e d73d
000000b0: ae1a 7dbe 6d1b 813e eec8 053e a4a3 1fbe
000000c0: ea02 3fbe d67f 573e 0434 303e 0447 68bd
000000d0: c74d 89be d461 4bbe 7ce0 c33d d8f5 703d
000000e0: f1ec 80be 6cff c53d 2292 303e 7ba7 0dbe
000000f0: 836f 34be bed0 6a3e 1448 103e 00b0 c53c

value_net.weight f4 [1, 64]
-0.20180938 -0.2605229 0.011285096 0.28164688 -0.12771752 -0.11421539 -0.08303718 0.035326153
0.10028204 0.25675318 -0.27163315 0.21648452 -0.28644055 -0.29650888 0.06167522 -0.04523489
-0.1219265 0.18369806 0.2399917 0.2635667 -0.10897541 0.004785657 0.12267092 -0.20178612
0.10160637 -0.013040721 0.045387805 -0.2879128 0.025430053 -0.09922694 -0.0912863 0.0024970472
0.024962246 0.3008544 0.07008973 0.17027104 0.28780213 0.016486794 0.050060928 0.2927766
-0.089392304 -0.18006778 0.038939297 -0.2656038 0.09370002 -0.25220507 0.27836493 0.14446092
0.24937609 0.2123327 0.22037664 0.16256383 -0.15967973 -0.23736691 -0.06728269 0.09214333
-0.045211107 -0.29326186 -0.077089906 0.03218296 0.036627382 -0.26313025 -0.23849748 0.0921402
00000000: 1ea7 4ebe 4263 85be 20e5 383c 0534 903e
00000010: 62c8 02be c2e9 e9bd 660f aabd 28b2 103d
00000020: ac60 cd3d 2775 833e 8013 8bbe 1eae 5d3e
00000030: 56a8 92be 03d0 97be 289f 7c3d 3848 39bd
00000040: 9ab4 f9bd 581b 3c3e 62c0 753e 37f2 863e
00000050: 802e dfbd 00d1 9c3b e43a fb3d 05a1 4ebe
00000060: 0017 d03d c0a8 55bc 90e8 393d 4e69 93be
00000070: b052 d03c 7e37 cbbd 50f4 babd 80a5 233b
00000080: a07d cc3c 9709 9a3e 348b 8f3d 885b 2e3e
00000090: cd5a 933e 500f 873c b00c 4d3d d1e6 953e
000000a0: 5013 b7bd b063 38be d07e 1f3d 39fd 87be
000000b0: cce5 bf3d 0621 81be d985 8e3e 90ed 133e
000000c0: 725c 7f3e be6d 593e 6aaa 613e 2277 263e
000000d0: 1583 23be 5010 73be 82cb 89bd a4b5 bc3d
000000e0: 482f 39bd 6b26 96be 50e1 9dbd 48d2 033d
000000f0: 9806 163d 02b9 86be af38 74be 00b4 bc3d
