policies/MountainCar/orthogonal_a2c_initialization.pt (torch, 40520 bytes, 10 tensors)

mlp_extractor.policy_net.0.weight f4 [64, 2]
0	0x3dfe1060	0.12405467
1	0xbe2804e6	-0.16408119
2	0xbe227fcc	-0.15869063
3	0x3e25fc06	0.1620942
4	0x3e6218b9	0.22079743
5	0x3dc90ea4	0.098172456
6	0xbd8bc19b	-0.06824037
7	0x3e0e946b	0.13923804
8	0x3dfd9809	0.12382514
9	0xbe352283	-0.17688946
10	0xbe0f2cc0	-0.13981915
11	0xbe4e444b	-0.20143239
12	0xbba7f913	-0.0051261275
13	0xbe1c7ac3	-0.15281205
14	0x3d86c395	0.06580273
15	0x3e499097	0.19684063
16	0x3d079118	0.033097357
17	0x3dc11527	0.094278626
18	0xbc8e8514	-0.017397441
19	0xbd2f202e	-0.0427553
20	0x3dcd8f69	0.10037119
21	0xbdfdd53b	-0.12394186
22	0x3de6fcea	0.11278708
23	0xbdaa9fc9	-0.08331258
24	0xbbd08560	-0.006363556
25	0xbe9cd0ed	-0.30628148
26	0xbd22d2e8	-0.039751917
27	0x3ce669a1	0.02812654
28	0x3dbe0b00	0.09279442
29	0x3dbe5d90	0.092951894
30	0xbd466697	-0.04843768
31	0xbd19842d	-0.03747957
32	0x3e855c3c	0.26046932
33	0x3e040f77	0.12896524
34	0x3e652fdc	0.22381538
35	0xbe809537	-0.25113842
36	0xbe0c95a3	-0.13728957
37	0x3dd7551b	0.105142795
38	0x3e16b8f3	0.1471899
39	0x3c2bb190	0.010479346
40	0xbdc757cd	-0.097335435
41	0x3df8220c	0.12115869
42	0x3e498288	0.196787
43	0xbe47b722	-0.19503453
44	0xbe187f71	-0.14892365
45	0xbdd07aa9	-0.101796456
46	0xbd53c939	-0.051705573
47	0x3c5f66ea	0.0136353765
48	0xb9952709	-0.00028448578
49	0xbccd0c91	-0.025030406
50	0x3e4d52ca	0.20051113
51	0xbde8d2b7	-0.11368316
52	0xbdb6fe95	-0.089352764
53	0xbce2296f	-0.027607648
54	0xbda0eecb	-0.07858046
55	0xbda0d0c3	-0.07852318
56	0x3d7148ee	0.05890744
57	0xbd57f3a1	-0.052722577
58	0xbe193a0c	-0.1496355
59	0x3dbc2ebc	0.091886014
60	0x3b81136a	0.003939082
61	0xbddc3582	-0.10752393
62	0x3dde8862	0.10865857
63	0x3e081dbc	0.13292593
64	0x3c3781bb	0.011200364
65	0x3e0d4c75	0.13798697
66	0x3d5630fb	0.052292805
67	0x3d364262	0.0444969
68	0x3c4b422c	0.012405913
69	0xbd218ae9	-0.039439116
70	0xbec2ab55	-0.3802134
71	0x3d9f6993	0.077838086
72	0xbcd6d8d7	-0.026226444
73	0x3d8c6d3f	0.068567745
74	0x3cb3e8c2	0.021961574
75	0x3df9dc42	0.12200214
76	0x3c0b02a6	0.008484518
77	0x3d8630a6	0.06552248
78	0x3e2b8709	0.1675073
79	0x3cebab66	0.028768253
80	0x3d43bafe	0.04778575
81	0xbdcc96f7	-0.09989732
82	0x3d16ab24	0.036784306
83	0xbd37ee21	-0.04490483
84	0x3de1fb22	0.11034228
85	0x3df4ebc4	0.11959031
86	0xbd03857a	-0.032109715
87	0xbe4197c8	-0.18905556
88	0x3b0d59a8	0.0021568332
89	0xbdde2517	-0.10846918
90	0x3deb8267	0.11499482
91	0xbcdc93cc	-0.026925944
92	0x3da9ab19	0.082845874
93	0xbe4ed315	-0.20197709
94	0xbc800740	-0.015628457
95	0xbbf41e49	-0.0074498993
96	0xbd173e11	-0.036924426
97	0x3cd38e73	0.025824761
98	0x3ca2941c	0.019846015
99	0x3da73e00	0.081661224
100	0x3e22b6cc	0.15890044
101	0xbda52790	-0.080641866
102	0xbe0823fe	-0.1329498
103	0xbcdef1b9	-0.027214872
104	0xbe0e620c	-0.1390459
105	0x3d1a81c4	0.03772141
106	0x3e850511	0.25980428
107	0x3e852bef	0.2601008
108	0x3de14d49	0.11001069
109	0xbd7b6ebc	-0.0613849
110	0xbdfbe6a0	-0.122998476
111	0xbd70f776	-0.058829747
112	0xbdbdd133	-0.09268417
113	0xbc790929	-0.015199938
114	0xbc6bac76	-0.01438438
115	0x3e58859f	0.21144722
116	0x3d150877	0.036385026
117	0x3e4aa272	0.1978853
118	0x3c5067b8	0.012720041
119	0xbe40619a	-0.18787232
120	0xbe024fa0	-0.12725687
121	0xbde9bc13	-0.114128254
122	0x3e5a34d2	0.21309212
123	0x3e0d88aa	0.13821664
124	0x3e74307c	0.2384662
125	0x3e003fa8	0.12524283
126	0x3d8f7be5	0.07006053
127	0x3d85d4e9	0.0653475

mlp_extractor.policy_net.0.bias f4 [64]
0	0x00000000	0.0
1	0x00000000	0.0
2	0x00000000	0.0
3	0x00000000	0.0
4	0x00000000	0.0
5	0x00000000	0.0
6	0x00000000	0.0
7	0x00000000	0.0
8	0x00000000	0.0
9	0x00000000	0.0
10	0x00000000	0.0
11	0x00000000	0.0
12	0x00000000	0.0
13	0x00000000	0.0
14	0x00000000	0.0
15	0x00000000	0.0
16	0x00000000	0.0
17	0x00000000	0.0
18	0x00000000	0.0
19	0x00000000	0.0
20	0x00000000	0.0
21	0x00000000	0.0
22	0x00000000	0.0
23	0x00000000	0.0
24	0x00000000	0.0
25	0x00000000	0.0
26	0x00000000	0.0
27	0x00000000	0.0
28	0x00000000	0.0
29	0x00000000	0.0
30	0x00000000	0.0
31	0x00000000	0.0
32	0x00000000	0.0
33	0x00000000	0.0
34	0x00000000	0.0
35	0x00000000	0.0
36	0x00000000	0.0
37	0x00000000	0.0
38	0x00000000	0.0
39	0x00000000	0.0
40	0x00000000	0.0
41	0x00000000	0.0
42	0x00000000	0.0
43	0x00000000	0.0
44	0x00000000	0.0
45	0x00000000	0.0
46	0x00000000	0.0
47	0x00000000	0.0
48	0x00000000	0.0
49	0x00000000	0.0
50	0x00000000	0.0
51	0x00000000	0.0
52	0x00000000	0.0
53	0x00000000	0.0
54	0x00000000	0.0
55	0x00000000	0.0
56	0x00000000	0.0
57	0x00000000	0.0
58	0x00000000	0.0
59	0x00000000	0.0
60	0x00000000	0.0
61	0x00000000	0.0
62	0x00000000	0.0
63	0x00000000	0.0

mlp_extractor.policy_net.2.weight f4 [64, 64]
0	0xbdaed4d0	-0.085366845
1	0x3d98e19a	0.07464905
2	0xbc1d22a8	-0.009590782
3	0xbd472cf9	-0.048626874
4	0x3e4ae19b	0.19812624
5	0xbdbe8164	-0.09302023
6	0x3e190cb1	0.14946248
7	0xbe0a3108	-0.13495266
8	0x3e460e78	0.19341457
9	0xbd3831d8	-0.04496941
10	0xbc472577	-0.012154928
11	0x3e3058c4	0.17221361
12	0x3e080a49	0.13285173
13	0x3d89cdde	0.06728719
14	0xbdaf83f0	-0.08570087
15	0xbe5f125d	-0.21784349
16	0x3dfb16be	0.12260197
17	0xbd3dd57c	-0.046346173
18	0xbd7e042b	-0.062015694
19	0xbc1c8d9f	-0.0095552495
20	0x3e084b50	0.1330998
21	0x3df60300	0.12012291
22	0x3e22a628	0.15883696
23	0xbdaa2fc1	-0.083098896
24	0xbe976db0	-0.29575872
25	0x3cca8147	0.024719847
26	0xbe1babb5	-0.1520222
27	0xbdc72963	-0.09724691
28	0xbdb4191a	-0.0879385
29	0x3d15b81a	0.036552526
30	0x3c7bfac7	0.015379614
31	0xbd596255	-0.053072292
32	0xbe90f1fa	-0.28309613
33	0x3d0733d6	0.03300842
34	0xbdadb4cc	-0.0848175
35	0x3c87463a	0.016512979
36	0xbe32f648	-0.17476761
37	0xbd73247e	-0.059360974
38	0xbe3870f8	-0.18011844
39	0x3c25bb76	0.010115495
40	0x3d55429e	0.052065484
41	0x3e67117e	0.22565266
42	0x3dc584cf	0.09644472
43	0xbd268527	-0.040654328
44	0xbd9058cc	-0.07048187
45	0xbbf984f8	-0.007614728
46	0x3d17319a	0.036912538
47	0x3d9700e6	0.07373218
48	0x3c0f5852	0.008749085
49	0xbd532de4	-0.051557437
50	0x3dc0dd84	0.09417251
51	0x3e0a09ad	0.13480254
52	0xbd46703a	-0.04844687
53	0x3e9d111d	0.3067712
54	0xbcb7f959	-0.022457765
55	0x3e28266c	0.16420907
56	0xbdf19680	-0.11796284
57	0x3cded353	0.027200377
58	0x3d0cfff7	0.034423795
59	0xbe31eb2f	-0.17374872
60	0xbe4ea009	-0.20178236
61	0xbe228b2e	-0.15873405
62	0x3e214b48	0.15751374
63	0xbdc9602b	-0.09832796
64	0xbdde1118	-0.10843104
65	0x3d7cf4e0	0.06175697
66	0xbc8a807b	-0.016906967
67	0xbd372e17	-0.04472169
68	0xbdf364cb	-0.11884459
69	0xbe46d2a4	-0.1941629
70	0x3dc1c72a	0.09461816
71	0xbd3874ba	-0.045033194
72	0x3d7c6916	0.061623655
73	0xbdabd91d	-0.083910204
74	0x3d2cef83	0.042220604
75	0x3dc3ce47	0.09560829
76	0xbdbf527d	-0.09341905
77	0xbcf531be	-0.029930945
78	0x3dc1eb92	0.094687596
79	0xbd905204	-0.07046893
80	0xbce71b16	-0.028211158
81	0x3d551530	0.05202216
82	0x3c0d15dd	0.00861117
83	0x3e6a32b2	0.22870901
84	0xbd960795	-0.07325665
85	0xbca4f120	-0.020134509
86	0xbe5f9b3a	-0.21836558
87	0xbced4936	-0.028965574
88	0xbe07169d	-0.1319222
89	0xbccdb03d	-0.025108451
90	0x3c52330b	0.012829552
91	0xbda40cd2	-0.08010258
92	0xbe58f6c3	-0.21187882
93	0x3d142513	0.03616817
94	0xbdbd8b3f	-0.09255075
95	0xbe0c6220	-0.13709307
96	0xbe8819a3	-0.2658206
97	0x3ca52c6d	0.020162785
98	0xbe33afd6	-0.17547545
99	0xbc34b493	-0.01102938
100	0x3e0af033	0.13568191
101	0xbe680958	-0.22659814
102	0xbdcd33a6	-0.10019617
103	0xbe7b7ecd	-0.2456009
104	0xbdea78e7	-0.114488415
105	0xbe28483c	-0.16433805
106	0xbdb61020	-0.08889794
107	0xbe149a3e	-0.14511964
108	0x3daf84fb	0.08570286
109	0xbdbab707	-0.09116941
110	0xbda75e9b	-0.081723414
111	0xbd479238	-0.04872343
112	0x3df0d4e2	0.11759354
113	0x3e3bc10b	0.18335359
114	0xbdab27cb	-0.08357199
115	0x3d976aba	0.07393403
116	0x3e882440	0.26590157
117	0xbcad80ec	-0.021179639
118	0x3e641ca6	0.22276554
119	0xbd00bddc	-0.031431064
120	0x3e2ec731	0.17068173
121	0x3dd9a9b8	0.106280744
122	0x3d84f908	0.064928114
123	0x3e5dd1cf	0.21662067
124	0x3db8251d	0.08991454
125	0x3e1b3fde	0.15161082
126	0x3e1d9d04	0.15391928
127	0x3d2d81b4	0.042360023
128	0x3df10507	0.11768537
129	0x3ced57bc	0.0289725
130	0xbe6471e8	-0.22309077
131	0x3d3b3581	0.045705322
132	0xbde91ce5	-0.11382464
133	0xbdc2a81e	-0.09504722
134	0xbe5654fc	-0.20930856
135	0xbe0b41d9	-0.13599338
136	0xbdcf0a98	-0.101094425
137	0xbb9cba64	-0.0047829617
138	0xbd1bcb09	-0.038035426
139	0x3e017e04	0.12645727
140	0xbe122115	-0.14270432
141	0xbcc15600	-0.023600578
142	0xbd9f6853	-0.0778357
143	0xbe90d9b7	-0.28291103
144	0x3d8f485e	0.06996225
145	0xbbad9878	-0.0052977167
146	0xbd7f8aff	-0.062388416
147	0x3daecda2	0.08535315
148	0xbc837f92	-0.016052041
149	0xbe3f54d2	-0.186847
150	0xbd12144a	-0.03566388
151	0x3da4efce	0.080535516
152	0x3e058e1e	0.13042495
153	0xbd48ab7c	-0.048991665
154	0x3d53a6c5	0.051672716
155	0x3c9979e8	0.018734887
156	0x3dd37b93	0.10326304
157	0x3b899f2e	0.004199884
158	0xbe05ffe1	-0.13085891
159	0x3e36b7d1	0.17843558
160	0x3d2f2ba0	0.042766213
161	0x3df2c8fb	0.1185474
162	0xbd4543e8	-0.048160464
163	0xbebe157e	-0.37125772
164	0xbd2259dc	-0.039636478
165	0x3d33f37e	0.043933384
166	0xbda68ac8	-0.08131939
167	0x3dadbdcb	0.08483466
168	0xbc78c729	-0.015184202
169	0x3e927ed5	0.2861239
170	0xbd5a3ad0	-0.053278744
171	0xbd38f1ce	-0.045152478
172	0x3da3f01f	0.08004784
173	0xbd91cb25	-0.07118825
174	0x3db71f91	0.08941568
175	0xb9efc180	-0.000457298
176	0x3ec5048b	0.3848003
177	0xbd97b4dc	-0.07407543
178	0xbc57b6c7	-0.013166136
179	0x3b3a7d64	0.0028456086
180	0xbd09eebe	-0.033674948
181	0x3d7b64a3	0.06137527
182	0xbb09982c	-0.0020995243
183	0xbb3169a8	-0.0027071033
184	0x3e3e8d58	0.18608606
185	0xbe82ffea	-0.25585872
186	0x3cb5c4bf	0.022188542
187	0x3dfc1b0b	0.123098455
188	0xbd271df2	-0.040800042
189	0xbdb3a9f8	-0.08772653
190	0x3c4ead14	0.012614507
191	0xbdc93ab6	-0.09825651
192	0x3d79d74b	0.060996335
193	0x3e8ea0c5	0.27857032
194	0xbea69be8	-0.32540822
195	0x3e0e0140	0.13867664
196	0xbe014b04	-0.12626272
197	0xbdefc814	-0.11708084
198	0xbdcc0f72	-0.099638835
199	0x3e1690c6	0.14703664
200	0x3d14e799	0.03635368
201	0x3c3db790	0.011579409
202	0xbcaa6291	-0.020798953
203	0xbddef4b2	-0.10886516
204	0xbd4a120e	-0.049333625
205	0xbdbcffca	-0.092284754
206	0xbd452aaa	-0.04813639
207	0xbd03dfda	-0.032195903
208	0xbe5b7d32	-0.21434477
209	0x3e15e5ff	0.14638518
210	0x3d1b0205	0.037843723
211	0xbdf59782	-0.119917884
212	0x3e8ebae9	0.27876976
213	0xbd049d6e	-0.0323767
214	0x3d0789d4	0.033090428
215	0x3d6c5df0	0.057706773
216	0xbe07f17b	-0.13275711
217	0xbd4cab26	-0.049967907
218	0xbe35831c	-0.17725796
219	0x3d720db4	0.0590951
220	0xbe362c45	-0.17790325
221	0xbdabad94	-0.08382717
222	0xbd9f8546	-0.07789092
223	0xbe2cb310	-0.16865182
224	0x3d6020cb	0.054718774
225	0xbce31864	-0.027721591
226	0xbded9c52	-0.11602081
227	0x3df3e5fa	0.11909099
228	0x3d9145f3	0.0709342
229	0x3db4d56f	0.08829772
230	0xbd7e9d54	-0.06216176
231	0xbe2137cf	-0.15743946
232	0x3b112ec0	0.002215311
233	0x3caad3cf	0.020852951
234	0x3d1c9507	0.03822806
235	0x3e34f953	0.17673235
236	0x3e37175c	0.17880005
237	0x3d0e711d	0.034775842
238	0x3ce25031	0.027626129
239	0xbcb0d1ee	-0.021584477
240	0x3cab68d4	0.02092401
241	0xbe9e2a4f	-0.30891654
242	0xbdc35508	-0.09537703
243	0xbd7dc469	-0.06195489
244	0xbe88edb8	-0.26743865
245	0xbbb56789	-0.005536024
246	0xbcdbc4fe	-0.026827332
247	0x3d06f50e	0.032948546
248	0xbba59480	-0.005053103
249	0x3d00b77b	0.03142498
250	0x3dbe3732	0.092878714
251	0xbd514918	-0.0510951
252	0x3d6eb6bd	0.05827974
253	0x3e0e0ac7	0.13871299
254	0x3dfc66a2	0.12324263
255	0x3e451e2b	0.1924979

mlp_extractor.policy_net.2.bias f4 [64]
0	0x00000000	0.0
1	0x00000000	0.0
2	0x00000000	0.0
3	0x00000000	0.0
4	0x00000000	0.0
5	0x00000000	0.0
6	0x00000000	0.0
7	0x00000000	0.0
8	0x00000000	0.0
9	0x00000000	0.0
10	0x00000000	0.0
11	0x00000000	0.0
12	0x00000000	0.0
13	0x00000000	0.0
14	0x00000000	0.0
15	0x00000000	0.0
16	0x00000000	0.0
17	0x00000000	0.0
18	0x00000000	0.0
19	0x00000000	0.0
20	0x00000000	0.0
21	0x00000000	0.0
22	0x00000000	0.0
23	0x00000000	0.0
24	0x00000000	0.0
25	0x00000000	0.0
26	0x00000000	0.0
27	0x00000000	0.0
28	0x00000000	0.0
29	0x00000000	0.0
30	0x00000000	0.0
31	0x00000000	0.0
32	0x00000000	0.0
33	0x00000000	0.0
34	0x00000000	0.0
35	0x00000000	0.0
36	0x00000000	0.0
37	0x00000000	0.0
38	0x00000000	0.0
39	0x00000000	0.0
40	0x00000000	0.0
41	0x00000000	0.0
42	0x00000000	0.0
43	0x00000000	0.0
44	0x00000000	0.0
45	0x00000000	0.0
46	0x00000000	0.0
47	0x00000000	0.0
48	0x00000000	0.0
49	0x00000000	0.0
50	0x00000000	0.0
51	0x00000000	0.0
52	0x00000000	0.0
53	0x00000000	0.0
54	0x00000000	0.0
55	0x00000000	0.0
56	0x00000000	0.0
57	0x00000000	0.0
58	0x00000000	0.0
59	0x00000000	0.0
60	0x00000000	0.0
61	0x00000000	0.0
62	0x00000000	0.0
63	0x00000000	0.0

mlp_extractor.value_net.0.weight f4 [64, 2]
0	0x3dc1e110	0.094667554
1	0x3e0553a6	0.1302019
2	0xbe1dab26	-0.15397319
3	0x3e028581	0.1274624
4	0xbe1663c7	-0.146865
5	0xbd58741c	-0.052845106
6	0xbd51eb13	-0.051249575
7	0xbd91cc7a	-0.07119079
8	0x3dbae4bf	0.09125661
9	0xbe0ddff3	-0.13854961
10	0xbe183a47	-0.14865981
11	0x3e337349	0.17524447
12	0xbd7007e7	-0.058601286
13	0xbd8cf5e4	-0.068828374
14	0x3c65a04d	0.0140152695
15	0xbba2e487	-0.0049710902
16	0xbdb2cfd8	-0.08731049
17	0x3e207ba3	0.15672164
18	0x3d92cf0f	0.071683995
19	0x3d95ecbb	0.073205434
20	0xbd2ed8b1	-0.04268712
21	0xbde63147	-0.11239868
22	0xbe09ba56	-0.13449988
23	0x3e06b641	0.13155462
24	0xbe71b756	-0.23605093
25	0xbdf79690	-0.120892644
26	0x3d87a689	0.06623561
27	0x3e22b9f9	0.15891255
28	0x3d59925a	0.053118087
29	0x3e6f1cf6	0.23350891
30	0x3a8d9456	0.0010801654
31	0x3e706c4c	0.23478812
32	0xbc923e88	-0.017852083
33	0xbe2338b5	-0.15939601
34	0x3d8d27b2	0.06892337
35	0xbe0ef4ec	-0.13960618
36	0x3d482502	0.04886342
37	0xbc8049f8	-0.015660271
38	0xbe8473f4	-0.25869715
39	0xbd0438a9	-0.032280598
40	0xbdd4c059	-0.1038825
41	0xbdf92279	-0.12164778
42	0xbdc719cf	-0.097217195
43	0xbd0d8948	-0.03455475
44	0xbd503f5f	-0.050841685
45	0x3c8e22c6	0.017350566
46	0xbdd6fd99	-0.10497589
47	0xbddce71c	-0.10786268
48	0x3de159f4	0.11003485
49	0xbe7074b3	-0.23482017
50	0xbd72e235	-0.05929776
51	0xbd9d617e	-0.07684611
52	0xbe10d846	-0.14145002
53	0x3d69e67a	0.057104565
54	0xbde4bad4	-0.11168447
55	0x3d33bae7	0.043879416
56	0x3d3e2cf7	0.0464296
57	0xbc3f3b85	-0.011671905
58	0x3e01cedb	0.12676565
59	0x3da5fac3	0.081044696
60	0x3d826e6c	0.063687176
61	0xbbe3b9fd	-0.0069496618
62	0x3dc65922	0.096849695
63	0xbcf2a12f	-0.029617874
64	0xbde35085	-0.11099342
65	0xbde67006	-0.112518355
66	0x3e8b6d44	0.272318
67	0x3d02cd7c	0.031934246
68	0xbd7fcbc5	-0.06245019
69	0x3caf4a81	0.02139783
70	0x3c24c3f4	0.0100564845
71	0xbdfb89ca	-0.122821406
72	0x3e326f55	0.17425282
73	0xbe492eb6	-0.19646725
74	0x3dbee59f	0.093211405
75	0x3e51f356	0.20502982
76	0xbd742c48	-0.059612542
77	0xbdc5a473	-0.09650507
78	0xbc8a7668	-0.016902164
79	0x3cc2b3d4	0.02376739
80	0x3db445be	0.08802365
81	0x3cb48a98	0.022038743
82	0xbdf35e56	-0.118832275
83	0x3e59e96e	0.21280453
84	0xbdc3a876	-0.09553616
85	0x3e057935	0.13034518
86	0xbbc2e53b	-0.0059477366
87	0x3e934901	0.28766635
88	0x3db0fa87	0.08641534
89	0xbd38816b	-0.045045298
90	0xbd03419a	-0.032044984
91	0xbbd6dc0c	-0.0065569934
92	0xbe76e106	-0.24109277
93	0x3db29db1	0.087214835
94	0x3d2f89cd	0.042856026
95	0xbda6d3f6	-0.08145897
96	0x3e1e0139	0.15430154
97	0x3e5a8378	0.21339214
98	0x3eae146f	0.33999965
99	0x3df719c8	0.12065464
100	0xbe8399f7	-0.25703403
101	0xbd3c7820	-0.046012998
102	0x3d836a1f	0.06416725
103	0xbc1f7712	-0.009732978
104	0x3d083547	0.033253934
105	0xbc011eed	-0.007880908
106	0xbe01be50	-0.12670255
107	0x3d335e7d	0.043791283
108	0x3d10b0ce	0.035324864
109	0xbc61c7cf	-0.013780548
110	0x3d9df734	0.07713166
111	0x3e67337b	0.22578232
112	0x3e6f7158	0.23383081
113	0xbd5c9750	-0.05385524
114	0xbd893fc8	-0.067016184
115	0x3d84243c	0.06452224
116	0x3e75407f	0.23950385
117	0x3cba7ce0	0.022764623
118	0xbe1288cf	-0.14310001
119	0x3d3c7af5	0.0460157
120	0x3db65b7d	0.08904169
121	0xbe1cf1e3	-0.15326647
122	0x3d32cfb8	0.043655127
123	0xbea9fe9b	-0.3320206
124	0x3d242fe1	0.040084723
125	0x3d80213a	0.062563375
126	0xbdcf0d9d	-0.101100184
127	0xbd4f1ca1	-0.050564412

mlp_extractor.value_net.0.bias f4 [64]
0	0x00000000	0.0
1	0x00000000	0.0
2	0x00000000	0.0
3	0x00000000	0.0
4	0x00000000	0.0
5	0x00000000	0.0
6	0x00000000	0.0
7	0x00000000	0.0
8	0x00000000	0.0
9	0x00000000	0.0
10	0x00000000	0.0
11	0x00000000	0.0
12	0x00000000	0.0
13	0x00000000	0.0
14	0x00000000	0.0
15	0x00000000	0.0
16	0x00000000	0.0
17	0x00000000	0.0
18	0x00000000	0.0
19	0x00000000	0.0
20	0x00000000	0.0
21	0x00000000	0.0
22	0x00000000	0.0
23	0x00000000	0.0
24	0x00000000	0.0
25	0x00000000	0.0
26	0x00000000	0.0
27	0x00000000	0.0
28	0x00000000	0.0
29	0x00000000	0.0
30	0x00000000	0.0
31	0x00000000	0.0
32	0x00000000	0.0
33	0x00000000	0.0
34	0x00000000	0.0
35	0x00000000	0.0
36	0x00000000	0.0
37	0x00000000	0.0
38	0x00000000	0.0
39	0x00000000	0.0
40	0x00000000	0.0
41	0x00000000	0.0
42	0x00000000	0.0
43	0x00000000	0.0
44	0x00000000	0.0
45	0x00000000	0.0
46	0x00000000	0.0
47	0x00000000	0.0
48	0x00000000	0.0
49	0x00000000	0.0
50	0x00000000	0.0
51	0x00000000	0.0
52	0x00000000	0.0
53	0x00000000	0.0
54	0x00000000	0.0
55	0x00000000	0.0
56	0x00000000	0.0
57	0x00000000	0.0
58	0x00000000	0.0
59	0x00000000	0.0
60	0x00000000	0.0
61	0x00000000	0.0
62	0x00000000	0.0
63	0x00000000	0.0

mlp_extractor.value_net.2.weight f4 [64, 64]
0	0x3de3b600	0.11118698
1	0x3e14b59c	0.14522403
2	0xbc9393f0	-0.018014878
3	0x3dfb768a	0.12278469
4	0x3e49fa72	0.19724444
5	0xbdffdf36	-0.12493746
6	0xbe0a78da	-0.13522664
7	0xbaef1760	-0.0018241219
8	0x3d3595fc	0.04433249
9	0x3e0966bf	0.13418101
10	0xbe00e954	-0.12589008
11	0xbb4820c0	-0.0030537099
12	0xbdd96f16	-0.10616891
13	0xbd966380	-0.07343197
14	0xbd9cc234	-0.07654229
15	0xba94d880	-0.0011356026
16	0x3d1aed8a	0.03782419
17	0xbd86a95d	-0.06575272
18	0x3e542b50	0.20719647
19	0xbe514f26	-0.20440349
20	0x3e578420	0.21046495
21	0x3db94029	0.09045441
22	0xbd3f3473	-0.04668088
23	0x3eb5d257	0.3551204
24	0x3d3872ec	0.045031473
25	0x3e2e42c4	0.17017657
26	0x3d43f03d	0.04783653
27	0xbe8cb309	-0.27480343
28	0xbd12ecf9	-0.035870526
29	0xbd38b09c	-0.045090303
30	0xbc8013ad	-0.015634382
31	0xbdeabc90	-0.11461747
32	0xbdecd243	-0.11563542
33	0x3e6b9e42	0.2300959
34	0x3c015165	0.007892941
35	0x3e0174e1	0.12642242
36	0x3db2570d	0.0870801
37	0x3ac05f33	0.0014676809
38	0x3db303e2	0.08740975
39	0xbd51f0cf	-0.051255044
40	0xbdd0a7f1	-0.10188282
41	0xbc27a1ef	-0.010231479
42	0x3e2cf4f8	0.16890323
43	0x3dc8c916	0.09803979
44	0x3d6c303b	0.057663184
45	0xbd0e8002	-0.034790047
46	0x3e920063	0.2851592
47	0x3da4cf58	0.0804736
48	0xbd99052f	-0.07471692
49	0x3ca08a10	0.019597083
50	0x3dc6af43	0.09701397
51	0x3db3e39f	0.0878365
52	0x3e02e8c8	0.12784111
53	0xbdb9feec	-0.090818256
54	0x3d9efd8e	0.077632055
55	0x3dc1206b	0.09430011
56	0xbd66c9c9	-0.05634478
57	0x3e2b2788	0.16714299
58	0x3daa32c2	0.083104625
59	0xbdd27497	-0.10276144
60	0x3e83b344	0.25722706
61	0xbc820eba	-0.015876163
62	0xbd725bd6	-0.059169613
63	0x3d0161c5	0.03158738
64	0xbd86d5f3	-0.06583776
65	0xbd6c83e0	-0.057742953
66	0x3d8cc0f8	0.06872743
67	0xbd11aeea	-0.0355672
68	0xbea13e64	-0.31492913
69	0xbdbf020e	-0.09326564
70	0xbd893eb7	-0.06701415
71	0x3d40dc49	0.04708508
72	0xbe947846	-0.2899801
73	0x3dfd04b6	0.12354414
74	0xbe075da2	-0.13219312
75	0xbe051c57	-0.12999092
76	0x3d4e6153	0.050385784
77	0x3e9a3c4a	0.30124122
78	0x3d9c7df0	0.07641208
79	0xbdf3b720	-0.11900163
80	0xbd42f2d8	-0.047594875
81	0xbc215103	-0.009845975
82	0x3e262b56	0.16227469
83	0xbcd9c359	-0.026582407
84	0xbdf2ebf8	-0.11861414
85	0xbe049c47	-0.1295024
86	0x3e21102e	0.15728828
87	0x3e23cd5b	0.15996306
88	0xbe1c560b	-0.15267198
89	0xbd472885	-0.048622627
90	0x3d328bae	0.04359024
91	0xbca104d1	-0.019655617
92	0x3cd1a1d8	0.025589868
93	0x3dae9c7c	0.08525941
94	0xbe82173e	-0.25408357
95	0xbd471767	-0.048606303
96	0xbde82c95	-0.11336628
97	0x3bd3a5de	0.006458982
98	0xbd8d1af2	-0.06889905
99	0x3d44934c	0.047992036
100	0x3d515bf4	0.051113084
101	0x3d285adb	0.04110227
102	0x3d431be9	0.04763404
103	0xbd01f7c7	-0.03173044
104	0x3e7ba546	0.24574766
105	0xbe51a3ab	-0.2047259
106	0x3ae77490	0.001765864
107	0x3d7579ea	0.05993072
108	0xbbc02a18	-0.005864393
109	0xbdd6e11f	-0.10492157
110	0x3e58b698	0.21163404
111	0xbe6a83bd	-0.22901817
112	0xbdba003d	-0.09082077
113	0x3d83db15	0.06438271
114	0xbe44320a	-0.19159713
115	0x3dc194e9	0.094522305
116	0xbdfd0f19	-0.12356395
117	0x3ccb47ae	0.024814453
118	0xbbbffeef	-0.005859248
119	0x3dd3a53a	0.10334249
120	0xbdfa838c	-0.12232122
121	0xbd3ba4ac	-0.04581134
122	0x3d1563bc	0.036472067
123	0xbdb4fe3c	-0.08837554
124	0xbe2a7294	-0.1664527
125	0xbddbc3c8	-0.10730702
126	0xbe06e20e	-0.1317217
127	0x3d42c36e	0.047549658
128	0x3e8c6033	0.27417144
129	0x3e0541ce	0.13013384
130	0x3d9ccac0	0.07655859
131	0xbda7015c	-0.08154556
132	0x3cce3ecc	0.025176428
133	0xbea2f249	-0.31825474
134	0x3e00a007	0.12561046
135	0x3e46c12b	0.19409625
136	0xbdfa662e	-0.122265205
137	0x3dc1ae4a	0.09457071
138	0x3d895a2e	0.067066535
139	0xbe5ae1c7	-0.2137519
140	0x3e2bd93f	0.16782092
141	0x3bc79270	0.0060904548
142	0xbd374492	-0.044743128
143	0xbdf14e81	-0.117825516
144	0x3e1dcd3b	0.1541032
145	0x3d4e3ff3	0.050353955
146	0x3d9a49e8	0.07533628
147	0xbc38e600	-0.011285305
148	0x3df01804	0.117233306
149	0x3e6088ce	0.21927187
150	0xbcb664a6	-0.02226479
151	0xbe5636ba	-0.20919314
152	0xbc675aec	-0.014120799
153	0xbe115fc4	-0.14196688
154	0xbd161647	-0.03664234
155	0x3dc088e2	0.09401108
156	0xbdd0dc08	-0.10198218
157	0xbd6ebcd4	-0.05828555
158	0xbe625356	-0.22102103
159	0xbdacaa62	-0.084309354
160	0x3dde8e06	0.108669326
161	0xbd89ef8c	-0.06735143
162	0xbb6f990c	-0.003655973
163	0x3d6e5b38	0.05819246
164	0xbc6d3fb2	-0.014480518
165	0x3bfda7b5	0.0077409395
166	0x3d3c0d6a	0.04591123
167	0x3ddd7149	0.10812623
168	0x3d7b2d65	0.06132259
169	0x3dea81be	0.114505276
170	0x3d22dc8b	0.039761107
171	0xbc4e3790	-0.012586489
172	0x3e2696dc	0.16268486
173	0xbe512f2d	-0.20428152
174	0x3cc520b3	0.024063444
175	0x3d525d90	0.05135876
176	0x3e08393a	0.1330308
177	0xbceef86e	-0.029171195
178	0xbe909a9f	-0.28242967
179	0x3d3ecac7	0.046580102
180	0x3e2b5722	0.16732457
181	0xbd498383	-0.049197685
182	0xbdbe964a	-0.09306009
183	0xbd2cb33c	-0.04216312
184	0x3e1bfc3b	0.15232937
185	0x3d24cddd	0.04023539
186	0x3c03ee5f	0.008052438
187	0x3d823ae8	0.06358892
188	0x3dede2da	0.11615534
189	0x3e585548	0.21126282
190	0x3dce48c4	0.10072473
191	0xbe146bed	-0.14494295
192	0x3e0131ad	0.12616606
193	0x3d6ada1e	0.05733692
194	0xbdf6765a	-0.120342925
195	0x3da10e20	0.07864022
196	0xbd305817	-0.04305276
197	0x3d5914e0	0.052998424
198	0xbc857b63	-0.016294187
199	0xbcb49e54	-0.022048153
200	0x3dd515d0	0.10404551
201	0xbdcef5f8	-0.101055086
202	0xbe8969cf	-0.26838538
203	0xbec004a8	-0.37503552
204	0x3d8da773	0.06916704
205	0xbd7f4116	-0.06231793
206	0x3ca30cb0	0.01990351
207	0x3e31e824	0.17373711
208	0xbe03051a	-0.12794915
209	0x3d8e71ef	0.06955325
210	0xbd84e02e	-0.064880714
211	0xbdb30c4a	-0.08742578
212	0x3e0cb865	0.13742216
213	0x3e136c71	0.14396836
214	0x3e705a2c	0.23471898
215	0x3c80eeb0	0.015738815
216	0x3dc9abcc	0.09847221
217	0xbcbb9fda	-0.022903372
218	0x3d944411	0.07239545
219	0x3e374056	0.17895636
220	0x3bd20da2	0.0064103166
221	0xbe042fed	-0.12908907
222	0xbce63be8	-0.028104737
223	0xbd028714	-0.0318671
224	0x3c9d3f3b	0.01919519
225	0x3db2b4ab	0.08725866
226	0x3c890f35	0.016730884
227	0xbdcb1f65	-0.099180974
228	0x3e482093	0.19543676
229	0xbc07c7fa	-0.008287424
230	0xbe8a4d8f	-0.27012298
231	0x3c4d9f3c	0.012550171
232	0x3cfb9a40	0.0307132
233	0xbcdc92af	-0.026925413
234	0x3e566f48	0.20940888
235	0xbe4b44b7	-0.19850431
236	0xbdc1a7dc	-0.09455845
237	0x3e0b9333	0.13630371
238	0xbceb2fc8	-0.028709307
239	0xbdda961b	-0.106731616
240	0x3c0643e8	0.008194901
241	0xbe1ab26a	-0.15107122
242	0xbd1bb7a9	-0.03801695
243	0x3e11c3e9	0.1423489
244	0xbd4505b8	-0.048101157
245	0x3e0c184b	0.13681142
246	0x3e1dc511	0.15407206
247	0xbe07d4bf	-0.1326475
248	0xbd8b2c68	-0.06795579
249	0x3e14e323	0.14539771
250	0x3ccfe112	0.025375877
251	0xbd9e38f4	-0.07725707
252	0xbe0e90c2	-0.13922408
253	0xbe1f354a	-0.15547672
254	0x3e187df3	0.14891796
255	0xbe2cedc5	-0.16887577

mlp_extractor.value_net.2.bias f4 [64]
0	0x00000000	0.0
1	0x00000000	0.0
2	0x00000000	0.0
3	0x00000000	0.0
4	0x00000000	0.0
5	0x00000000	0.0
6	0x00000000	0.0
7	0x00000000	0.0
8	0x00000000	0.0
9	0x00000000	0.0
10	0x00000000	0.0
11	0x00000000	0.0
12	0x00000000	0.0
13	0x00000000	0.0
14	0x00000000	0.0
15	0x00000000	0.0
16	0x00000000	0.0
17	0x00000000	0.0
18	0x00000000	0.0
19	0x00000000	0.0
20	0x00000000	0.0
21	0x00000000	0.0
22	0x00000000	0.0
23	0x00000000	0.0
24	0x00000000	0.0
25	0x00000000	0.0
26	0x00000000	0.0
27	0x00000000	0.0
28	0x00000000	0.0
29	0x00000000	0.0
30	0x00000000	0.0
31	0x00000000	0.0
32	0x00000000	0.0
33	0x00000000	0.0
34	0x00000000	0.0
35	0x00000000	0.0
36	0x00000000	0.0
37	0x00000000	0.0
38	0x00000000	0.0
39	0x00000000	0.0
40	0x00000000	0.0
41	0x00000000	0.0
42	0x00000000	0.0
43	0x00000000	0.0
44	0x00000000	0.0
45	0x00000000	0.0
46	0x00000000	0.0
47	0x00000000	0.0
48	0x00000000	0.0
49	0x00000000	0.0
50	0x00000000	0.0
51	0x00000000	0.0
52	0x00000000	0.0
53	0x00000000	0.0
54	0x00000000	0.0
55	0x00000000	0.0
56	0x00000000	0.0
57	0x00000000	0.0
58	0x00000000	0.0
59	0x00000000	0.0
60	0x00000000	0.0
61	0x00000000	0.0
62	0x00000000	0.0
63	0x00000000	0.0

action_net.weight f4 [1, 64]
0	0x37a80000	2.002716e-05
1	0x3c0bb940	0.008528054
2	0x3ca770a4	0.020439453
3	0xbe57fe89	-0.21093191
4	0x3e349040	0.17633152
5	0x3e3b236a	0.18275228
6	0xbdf2a442	-0.11847736
7	0x3d0b7864	0.03405036
8	0x3dcc4ca3	0.09975555
9	0x3c9abb2c	0.018888079
10	0x3dd61acd	0.104543306
11	0x3dc02ff4	0.09384146
12	0x3e1415c6	0.14461431
13	0x3e3e1e51	0.18566252
14	0xbd36c87d	-0.044624794
15	0x3e0582ba	0.1303815
16	0xbdf8b1b0	-0.12143266
17	0x3d3e7638	0.04649946
18	0xbb92b3b9	-0.004476991
19	0x3d96dcfb	0.073663674
20	0xbb08e0bf	-0.0020885912
21	0xbddfdbc1	-0.109305866
22	0x3e30a569	0.17250599
23	0xbd9875c6	-0.074443385
24	0x3d5459ce	0.051843457
25	0x3d24f877	0.040276017
26	0x3e33f7f8	0.17575061
27	0x3e4f6a4c	0.20255393
28	0x3e31280e	0.17300436
29	0xbc285c47	-0.010275907
30	0xbd2f81d5	-0.042848427
31	0xbe2cc14d	-0.16870613
32	0x3db256f8	0.08707994
33	0x3dc04258	0.09387654
34	0x3d915552	0.07096352
35	0xbe1b798c	-0.15183085
36	0xbbbf82cc	-0.0058444496
37	0x3d9c4f2d	0.07632289
38	0x3e5006f9	0.2031516
39	0x3dc92575	0.098215975
40	0xbdfd1f3e	-0.123594746
41	0x3e11b6c3	0.14229874
42	0x3dd25a77	0.10271161
43	0x3e577d96	0.21044001
44	0xbe3084c4	-0.17238146
45	0x3e52f385	0.20600708
46	0x3c65a70b	0.014016877
47	0x3e531fb1	0.20617558
48	0x3e5b5afe	0.2142143
49	0x3e291ea3	0.16515593
50	0xbd440fe1	-0.047866706
51	0xbc6b4b1b	-0.014361168
52	0x3e1750f2	0.14776972
53	0xbd9d3797	-0.076766185
54	0x3e549125	0.20758493
55	0xbce3e004	-0.02781678
56	0x3d4768d7	0.048683967
57	0x3e40cf5d	0.18829103
58	0xbe05e1f8	-0.13074481
59	0xbdd61d20	-0.10454774
60	0xbe42cc40	-0.19023228
61	0x3d8c25f4	0.068431765
62	0xbd4f8dd7	-0.05067238
63	0xbd2a0425	-0.04150786

value_net.weight f4 [1, 64]
0	0x3e2777e8	0.16354334
1	0xbebaa27c	-0.3645209
2	0xbe809033	-0.25110015
3	0xbe86b8c9	-0.26312855
4	0xbde09e57	-0.10967701
5	0xbe18d045	-0.14923199
6	0xbc1332b5	-0.0089842575
7	0xbd96f49d	-0.07370875
8	0x3d47dc2a	0.04879395
9	0x3e4d30fe	0.2003822
10	0xbd61990a	-0.05507759
11	0x3e11d718	0.14242208
12	0xbe44849c	-0.19191211
13	0x3d389dbd	0.045072306
14	0xbda2ca1d	-0.07948706
15	0x3bad195e	0.005282565
16	0x3ddde058	0.10833806
17	0x3e0c6f01	0.1371422
18	0x3e116db8	0.1420201
19	0x3db1b087	0.08676248
20	0x3b3db38b	0.0028946127
21	0xbd56b4be	-0.052418463
22	0xbd17324c	-0.0369132
23	0x3dc7d1c5	0.09756807
24	0xbce62df7	-0.02809809
25	0x3d4cae7b	0.049971085
26	0x3db80623	0.089855455
27	0x3dafcbff	0.08583831
28	0x3e44fbe9	0.19236721
29	0x3c0aae13	0.008464354
30	0x3eac2973	0.33625373
31	0xbe0a58dd	-0.13510461
32	0xbc88f39e	-0.016717728
33	0x3ea107a3	0.3145114
34	0xbdd6961e	-0.10477851
35	0xbd09219a	-0.03347931
36	0x3d8747d8	0.066055
37	0xbc9ec43a	-0.019380677
38	0x3d83163c	0.06400725
39	0xbc60bc8e	-0.01371683
40	0x3e0b9587	0.13631259
41	0xbd98e0ce	-0.07464753
42	0x3cef22c1	0.029191377
43	0xbb460c7b	-0.0030219841
44	0x3c4c6154	0.012474377
45	0xbd8b7b81	-0.06810666
46	0x3d92d475	0.07169429
47	0x3c59e388	0.013298877
48	0x3da9175f	0.08256411
49	0xbcd75ae4	-0.026288457
50	0xbdb45b1d	-0.08806441
51	0x3d827b53	0.063711785
52	0xbe1bc946	-0.15213498
53	0x3d80639a	0.062689975
54	0x3dcb76e5	0.09934787
55	0x3e54f6d0	0.20797276
56	0xbdd770db	-0.10519572
57	0x3d904c5d	0.07045815
58	0x3d9398f6	0.07206909
59	0x3d9718ee	0.07377802
60	0x3da7709b	0.08175775
61	0x3d95651d	0.072946765
62	0x3d81c551	0.06336463
63	0x3cc16274	0.023606516
