policies/MountainCar/orthogonal_ppo_initialization.pt (torch, 41032 bytes, 10 tensors)

mlp_extractor.policy_net.0.weight f4 [64, 3]
0	0xbe03f118	-0.12884939
1	0x3da0f725	0.07859639
2	0x3e64b9c5	0.2233649
3	0xbe6189e4	-0.22025257
4	0x3e3f3d2b	0.18675677
5	0xbc0a5f0b	-0.008445512
6	0x3cc14d86	0.023596536
7	0xbb9a7098	-0.0047131293
8	0x3dc34733	0.095350645
9	0xbddc0896	-0.10743825
10	0x3e5c838c	0.21534556
11	0xbd409b14	-0.047022894
12	0xbd158c05	-0.036510486
13	0x3d9e8d7b	0.07741829
14	0x3d437e74	0.047728017
15	0xbdd3df79	-0.103453584
16	0xbd0bfdb1	-0.034177486
17	0x3df7bbeb	0.120963894
18	0xbe28f8c5	-0.16501148
19	0xbe898b66	-0.26864165
20	0xbd811c11	-0.06304181
21	0x3e985961	0.2975569
22	0xbe099d66	-0.13438949
23	0x3dfdca79	0.12392134
24	0x3d276f1f	0.040877458
25	0x3aad0e49	0.001320311
26	0xbe5780a2	-0.21045163
27	0x3b730bf1	0.0037085975
28	0xbe1dee16	-0.15422854
29	0xbd96058b	-0.07325276
30	0xbe30769e	-0.17232749
31	0xbcf46768	-0.029834464
32	0x3d5d4ed4	0.054030254
33	0x3bf0b7f5	0.007346148
34	0xbd3c54d6	-0.045979343
35	0xbe120f4b	-0.14263646
36	0xbd3b3a2c	-0.045709774
37	0xbbf29643	-0.0074031665
38	0x3e44b0d7	0.19208084
39	0xbe27c7d3	-0.1638482
40	0xbe3e57fc	-0.18588251
41	0xbb98ddc7	-0.00466511
42	0x3c147cde	0.009062974
43	0x3c8a3ef9	0.01687573
44	0x3d32afd5	0.043624718
45	0xbd0c34c0	-0.034229994
46	0xbc881401	-0.016611101
47	0xbd168519	-0.036748026
48	0xbe1fbdf5	-0.15599807
49	0x3e49d150	0.19708753
50	0x3ea0f63c	0.31437862
51	0x3c8577d7	0.016292496
52	0x3dafe263	0.08588102
53	0x3e880eff	0.2657394
54	0x3e1a704a	0.15081897
55	0xbe19c56a	-0.15016714
56	0x3db7f663	0.089825414
57	0x3d63888e	0.05555015
58	0x3dae1330	0.084997535
59	0xbbd0019c	-0.006347848
60	0x3cf06e35	0.029349426
61	0x3e8afb4f	0.27144858
62	0xbd80e020	-0.062927485
63	0x3d93a78b	0.07209691
64	0xbe277235	-0.1635216
65	0xbd9e7248	-0.07736641
66	0xbd9e3637	-0.077251844
67	0x3e27903e	0.16363618
68	0xbd17b7bd	-0.03704046
69	0x3cab0620	0.020876944
70	0xbdd7af41	-0.10531474
71	0xbe3102ce	-0.17286226
72	0xbe20215c	-0.15637726
73	0x3de45e37	0.111507826
74	0xbe234e54	-0.15947849
75	0xbc09a3d7	-0.008400879
76	0xbde85c61	-0.11345745
77	0x3b20c96d	0.0024534122
78	0xbd287422	-0.041126378
79	0x3c716b02	0.014734985
80	0xbdc4d62a	-0.09611161
81	0x3e3b4fef	0.18292211
82	0xbda98d9e	-0.082789645
83	0x3d25dd26	0.040494107
84	0x3d78a462	0.060703643
85	0xbcd99504	-0.026560314
86	0xbe0ffda8	-0.14061606
87	0xbe743738	-0.2384919
88	0xbdd2acb8	-0.1028685
89	0x3d9c959a	0.07645722
90	0xbd03d138	-0.03218195
91	0xbd7ae983	-0.06125785
92	0xbd6de9ef	-0.058084425
93	0x3c70f922	0.014707835
94	0xbcf4f574	-0.029902197
95	0xbe31911b	-0.1734051
96	0x3e0a7be2	0.1352382
97	0x3de066af	0.10957085
98	0xbd8fcd69	-0.07021601
99	0xbc857430	-0.016290754
100	0xbcf8612c	-0.030319773
101	0x3e0f2513	0.13978986
102	0xbd91cc6c	-0.071190685
103	0xbda517d7	-0.08061188
104	0xbd8396d4	-0.064252526
105	0xbdddbe1f	-0.10827278
106	0xbe936d8c	-0.28794515
107	0x3dbbad07	0.09163862
108	0x3df2564d	0.11832867
109	0x3df479d6	0.11937301
110	0x3e468faf	0.19390748
111	0x3e68bae3	0.22727542
112	0x3d52a7ee	0.05142968
113	0xbd8fcf9a	-0.07022019
114	0x3ba9b8f1	0.0051795174
115	0x3e4b6c46	0.19865522
116	0x3da2aa6d	0.079426624
117	0x3e06c35b	0.1316046
118	0x3e0a69e7	0.13516961
119	0xbe3c87ea	-0.18411222
120	0x3e2b1e9b	0.16710894
121	0x3d384c90	0.04499489
122	0xbdde60e3	-0.108583234
123	0xbd49413c	-0.049134478
124	0x3e4d16f1	0.20028283
125	0x3e3f926a	0.18708196
126	0xbe41ddd6	-0.1893228
127	0xbb67a6f5	-0.0035347317
128	0xbe47a169	-0.19495167
129	0xbe4ccb65	-0.19999464
130	0x3db796b9	0.08964295
131	0x3d893497	0.06699484
132	0x3df1c845	0.118057765
133	0x3e32e911	0.1747172
134	0xbd47069b	-0.048590284
135	0x3dea0071	0.114258654
136	0x3d2ebf69	0.04266301
137	0x3e1502db	0.1455187
138	0xbe69870a	-0.2280542
139	0xbd91cfda	-0.07119723
140	0xbe64edde	-0.22356364
141	0xbbd3ee77	-0.006467636
142	0x3cfd1d35	0.030897716
143	0xbd3a271e	-0.04544746
144	0x3e825770	0.25457335
145	0xbe17550d	-0.14778538
146	0x3dc9c7db	0.098525725
147	0x3d565ce5	0.052334685
148	0xbe10275b	-0.14077513
149	0x3d09cc89	0.033642326
150	0xbcf1e167	-0.029526426
151	0x3d30cba9	0.043162975
152	0x3d8c1a65	0.06840972
153	0xbe07e4d6	-0.13270888
154	0x3e17a19d	0.14807744
155	0xbdfb815b	-0.12280532
156	0xbdd173c0	-0.10227156
157	0xbe6ae0cb	-0.22937314
158	0x3e27ffe1	0.16406204
159	0x3d6eaca3	0.058270108
160	0x3d8b568f	0.06803619
161	0xbcdcca35	-0.026951889
162	0xbccaabd0	-0.02474013
163	0xbda0a7db	-0.07844516
164	0xbc832bb5	-0.016012052
165	0x3db9aace	0.090657815
166	0xbd3a8f34	-0.045546725
167	0x3e5899bf	0.211524
168	0xbca74192	-0.020417009
169	0xbd241da3	-0.040067326
170	0xbdb2ad54	-0.08724466
171	0x3eaa5ce4	0.33273995
172	0x3e2a36af	0.16622423
173	0xbdebcd29	-0.115137406
174	0xbd78966e	-0.060690336
175	0x3d9ba3d7	0.07599609
176	0xbcb11d89	-0.021620529
177	0x3dbcd9d1	0.09221233
178	0x3b8beb8f	0.004270024
179	0x3dd77f3d	0.10522316
180	0xbc32137d	-0.010868904
181	0x3dbe7414	0.09299484
182	0xbe2d0b75	-0.16898902
183	0xbd9a2721	-0.075269945
184	0x3e4f5089	0.20245565
185	0x3daa1052	0.08303894
186	0xbdb24a85	-0.0870562
187	0x3d96f4f9	0.073709436
188	0xbd92e842	-0.07173206
189	0x38b6892e	8.703988e-05
190	0xbd8288fa	-0.063737825
191	0x3df5e47a	0.12006469

mlp_extractor.policy_net.0.bias f4 [64]
0	0x00000000	0.0
1	0x00000000	0.0
2	0x00000000	0.0
3	0x00000000	0.0
4	0x00000000	0.0
5	0x00000000	0.0
6	0x00000000	0.0
7	0x00000000	0.0
8	0x00000000	0.0
9	0x00000000	0.0
10	0x00000000	0.0
11	0x00000000	0.0
12	0x00000000	0.0
13	0x00000000	0.0
14	0x00000000	0.0
15	0x00000000	0.0
16	0x00000000	0.0
17	0x00000000	0.0
18	0x00000000	0.0
19	0x00000000	0.0
20	0x00000000	0.0
21	0x00000000	0.0
22	0x00000000	0.0
23	0x00000000	0.0
24	0x00000000	0.0
25	0x00000000	0.0
26	0x00000000	0.0
27	0x00000000	0.0
28	0x00000000	0.0
29	0x00000000	0.0
30	0x00000000	0.0
31	0x00000000	0.0
32	0x00000000	0.0
33	0x00000000	0.0
34	0x00000000	0.0
35	0x00000000	0.0
36	0x00000000	0.0
37	0x00000000	0.0
38	0x00000000	0.0
39	0x00000000	0.0
40	0x00000000	0.0
41	0x00000000	0.0
42	0x00000000	0.0
43	0x00000000	0.0
44	0x00000000	0.0
45	0x00000000	0.0
46	0x00000000	0.0
47	0x00000000	0.0
48	0x00000000	0.0
49	0x00000000	0.0
50	0x00000000	0.0
51	0x00000000	0.0
52	0x00000000	0.0
53	0x00000000	0.0
54	0x00000000	0.0
55	0x00000000	0.0
56	0x00000000	0.0
57	0x00000000	0.0
58	0x00000000	0.0
59	0x00000000	0.0
60	0x00000000	0.0
61	0x00000000	0.0
62	0x00000000	0.0
63	0x00000000	0.0

mlp_extractor.policy_net.2.weight f4 [64, 64]
0	0x3cd69780	0.026195288
1	0xbe34a778	-0.1764201
2	0xbda46224	-0.08026531
3	0x3bc51ed0	0.006015636
4	0xbe1febd7	-0.1561731
5	0xbd0a87e6	-0.03382101
6	0xbd86a4ce	-0.06574403
7	0x3de0c580	0.1097517
8	0x3d387634	0.045034602
9	0x3dc936d2	0.09824909
10	0x3d11cb97	0.03559455
11	0x3d2a9e1c	0.04165469
12	0x3e9d956e	0.30778068
13	0x3e8a4f30	0.2701354
14	0xbdcd2038	-0.10015911
15	0xbdb871a2	-0.09006049
16	0x3cd8bb57	0.026456518
17	0x3d5f2d9a	0.05448685
18	0xbd5a719c	-0.053331003
19	0x3c1d7e8f	0.009612693
20	0x3e3d580d	0.1849062
21	0xbe5afd1c	-0.21385616
22	0xbd3559f9	-0.044275258
23	0x3e591662	0.21199945
24	0x3e0014eb	0.1250798
25	0xbe552cd6	-0.20817885
26	0xbe8196ac	-0.25310266
27	0x3def3b2a	0.116812065
28	0xbe7637ac	-0.24044675
29	0x3da17908	0.07884413
30	0xbdf6cce7	-0.12050801
31	0xbe822fed	-0.2542719
32	0xbd4f0fac	-0.050552055
33	0xbe190a3d	-0.14945312
34	0xbcf53b79	-0.029935585
35	0x3d7c42bf	0.06158709
36	0x3bb8f604	0.0056445617
37	0x3e25f7eb	0.16207854
38	0xbd20e39c	-0.039279565
39	0x3db4cae5	0.088277616
40	0x3d0fa459	0.035068844
41	0xbe8d7b31	-0.2763305
42	0xbcf455bf	-0.029826043
43	0xbd3fb8c2	-0.04680706
44	0x3d987935	0.074449934
45	0xbd99a280	-0.075016975
46	0xbd2577ac	-0.04039733
47	0x3d1d46fa	0.038397767
48	0xbcbf11f1	-0.023323985
49	0x3d85a9eb	0.0652655
50	0x3e44d2d0	0.19221044
51	0xbc74cf77	-0.014942042
52	0xbcbb46c9	-0.022860901
53	0x3c8c9b16	0.017163794
54	0xbd861dbc	-0.0654864
55	0xbca3fc76	-0.020017844
56	0xbdf001ef	-0.11719119
57	0xbd66024c	-0.056154534
58	0xbdcf0d36	-0.10109942
59	0x3d9619a6	0.07329111
60	0xbe7047b3	-0.23464851
61	0x3cf12be8	0.029439881
62	0x3d29b2c6	0.041430257
63	0xbdb94bc0	-0.09047651
64	0x3d318f23	0.043349396
65	0xbd8bcff0	-0.0682677
66	0xbc8bff5d	-0.01708954
67	0x3da4f6a9	0.08054859
68	0xbce2102c	-0.027595602
69	0x3d6f7918	0.058465093
70	0xbd9715b3	-0.07377186
71	0xbd8456c9	-0.064618655
72	0xbe8458ee	-0.25849098
73	0xbd2bf487	-0.041981246
74	0x3d22d119	0.039750192
75	0x3d70afe6	0.0587615
76	0xbdf0c4de	-0.117562994
77	0xbcfd3795	-0.030910293
78	0xbe127e73	-0.14306049
79	0x3dd9934b	0.10623797
80	0x3df06740	0.117384434
81	0x3d53cbf4	0.051708177
82	0xbe2c1a5f	-0.16806935
83	0xbe426ef8	-0.18987644
84	0xbd27bfc2	-0.04095436
85	0x3d27c7d1	0.040962044
86	0x3e356876	0.1771563
87	0x3e12c14e	0.14331552
88	0xbd96b89c	-0.0735943
89	0xbd618f88	-0.055068523
90	0xbd9181ce	-0.071048364
91	0x3c97f1cf	0.01854792
92	0xbd31c9b6	-0.043405257
93	0x3e49e2a9	0.1971537
94	0xbca854da	-0.020548273
95	0xbe072f25	-0.13201578
96	0x3c0fa300	0.00876689
97	0xbe006ab0	-0.12540698
98	0x3d9b2798	0.07575911
99	0x3dc84240	0.09778261
100	0xbcddd177	-0.02707742
101	0x3e2b4a8b	0.16727655
102	0x3dab744b	0.083717905
103	0xbe64e667	-0.22353517
104	0x3da6c923	0.081438325
105	0x3e8d963f	0.2765369
106	0x3e77e23d	0.24207397
107	0xbd9f4d5a	-0.077784255
108	0x3e15c59b	0.14626162
109	0xbe477ae2	-0.1948047
110	0x3d241290	0.040056765
111	0xbcf52ba7	-0.029928042
112	0xbdf81638	-0.12113613
113	0xbe9911f9	-0.29896525
114	0x3e321635	0.17391284
115	0x3e122b29	0.14274277
116	0x3d55a9e9	0.052163992
117	0x3d4ee289	0.05050901
118	0x3d1109e5	0.035409827
119	0x3d8c9271	0.06863869
120	0x3eb02993	0.3440672
121	0x3d95e341	0.07318736
122	0x3db35d89	0.08758075
123	0x3d8bc10b	0.068239294
124	0xbccbcfdd	-0.02487939
125	0x3c73f556	0.014890036
126	0xbdf58d99	-0.11989898
127	0x3cd50963	0.026005452
128	0xbd5b6aca	-0.05356864
129	0x3e53ec8b	0.20695703
130	0x3c0db200	0.008648396
131	0xbd34bb51	-0.04412395
132	0xbd2885d4	-0.041143253
133	0xbe58be0e	-0.2116625
134	0xbdfe9179	-0.124300905
135	0x3dcc5820	0.09977746
136	0x3c9c7fca	0.019103903
137	0xbe49fedc	-0.19726127
138	0x3e706d23	0.23479132
139	0x3c1dbb72	0.00962721
140	0x3e036ce5	0.12834509
141	0xbc8040c6	-0.015655886
142	0xbd8b61e9	-0.06805784
143	0x3dfbe00a	0.122985914
144	0xbdc06434	-0.09394112
145	0x3e613e45	0.2199641
146	0x3d0fbc6e	0.03509181
147	0x3d804325	0.06262807
148	0x3e0ed536	0.13948521
149	0x3c911b4c	0.017713211
150	0x3dc0fe5c	0.09423515
151	0xbd9d150f	-0.07670032
152	0x3e1f3262	0.15546563
153	0xbdad76e1	-0.0846994
154	0x3db97f83	0.09057524
155	0x3d6e42c5	0.058169145
156	0x3d961480	0.07328129
157	0xbe04090b	-0.12894075
158	0x3d515651	0.05110771
159	0x3d80b4ed	0.06284509
160	0xbbea635b	-0.0071529574
161	0xbd0798d0	-0.033104718
162	0xbe3e4c89	-0.18583883
163	0xbd50ecce	-0.051007085
164	0x3d60644f	0.05478316
165	0xbd480eea	-0.04884235
166	0xbe835bb6	-0.25655907
167	0xbd5fbbab	-0.054622333
168	0xbe0221e7	-0.12708245
169	0x3ba4da60	0.005030915
170	0x3d9b85e6	0.075938985
171	0xbe31c093	-0.17358617
172	0xbd7aa714	-0.061194494
173	0x3ddc4fa2	0.10757376
174	0x3d5afc4b	0.05346326
175	0xbd74b69a	-0.059744455
176	0x3ea2a672	0.31767613
177	0xbe6e60b4	-0.23279077
178	0x3ddd35e8	0.108012974
179	0x3db4b2d8	0.08823174
180	0xbc4a1230	-0.012333438
181	0x3e295552	0.16536453
182	0x3de6fd77	0.11278813
183	0x3e47ddc5	0.19518192
184	0xbdc870ec	-0.09787163
185	0x3e094db1	0.13408543
186	0x3e2d434a	0.169202
187	0x3e232a1f	0.15934037
188	0xbe394d5a	-0.18095914
189	0x3d2773ca	0.04088191
190	0xbde5eca2	-0.11226775
191	0x3debbfef	0.11511218
192	0xbd71faf8	-0.059077233
193	0x3dd571e5	0.10422114
194	0xbdb78734	-0.08961335
195	0x3dd427a0	0.1035912
196	0xbe16c132	-0.14722136
197	0x3e1b6f6b	0.15179221
198	0xbe372ba7	-0.17887746
199	0x3d6107c4	0.054939047
200	0xbd4ff252	-0.050768204
201	0x3d947c10	0.072502255
202	0xbe6ce6b4	-0.23134881
203	0x3c7480c4	0.014923278
204	0xbe7e90f7	-0.24859987
205	0xbe3eec8f	-0.18644927
206	0x3e7ac68f	0.24489807
207	0xbb7ee0f8	-0.0038891416
208	0x3deecc4e	0.11660062
209	0x3d19b290	0.037523806
210	0xbd4b984a	-0.04970578
211	0xbd068089	-0.032837424
212	0x3d7db0ac	0.061936066
213	0x3e2cc129	0.1687056
214	0x3d95a3c0	0.073066235
215	0x3e407290	0.18793702
216	0x3d0fcebc	0.035109267
217	0x3cf01a4a	0.02930941
218	0x3d71b1a8	0.059007317
219	0x3cb7675e	0.022388157
220	0xbe82dbb9	-0.2555826
221	0x3e1b66e0	0.15175962
222	0xbc95bded	-0.01827904
223	0x3dbc875b	0.092055045
224	0xbd83a3d7	-0.06427734
225	0x3e75014e	0.23926279
226	0xbe6cee3c	-0.23137754
227	0xbe05aa29	-0.13053192
228	0xbd3997c5	-0.045310754
229	0x3c804ec6	0.015662562
230	0x3da1e5d3	0.079051636
231	0x3ccae05a	0.024765182
232	0x3d946054	0.07244936
233	0xbdd9474f	-0.10609304
234	0x3d231529	0.0398151
235	0xbdf7dfa2	-0.121032014
236	0xbc3d4a22	-0.011553319
237	0x3dc690e6	0.09695606
238	0xbe0ae607	-0.13564311
239	0x3dde52ce	0.108556375
240	0x3dfcddd0	0.12346995
241	0xbd5c45ef	-0.05377763
242	0x3d55030e	0.052004866
243	0xbe18a252	-0.1490567
244	0xbd6ad88d	-0.057335425
245	0x3e3541bb	0.17700855
246	0xbdef3910	-0.11680806
247	0x3dbd9161	0.092562445
248	0xbdb0efac	-0.08639464
249	0xbe12bc5c	-0.14329666
250	0xbe78efc6	-0.24310216
251	0x3e0badcc	0.13640517
252	0xbd324e20	-0.043531537
253	0x3e06ef5c	0.13177246
254	0xbe2462af	-0.1605327
255	0x3dcda50e	0.10041247

mlp_extractor.policy_net.2.bias f4 [64]
0	0x00000000	0.0
1	0x00000000	0.0
2	0x00000000	0.0
3	0x00000000	0.0
4	0x00000000	0.0
5	0x00000000	0.0
6	0x00000000	0.0
7	0x00000000	0.0
8	0x00000000	0.0
9	0x00000000	0.0
10	0x00000000	0.0
11	0x00000000	0.0
12	0x00000000	0.0
13	0x00000000	0.0
14	0x00000000	0.0
15	0x00000000	0.0
16	0x00000000	0.0
17	0x00000000	0.0
18	0x00000000	0.0
19	0x00000000	0.0
20	0x00000000	0.0
21	0x00000000	0.0
22	0x00000000	0.0
23	0x00000000	0.0
24	0x00000000	0.0
25	0x00000000	0.0
26	0x00000000	0.0
27	0x00000000	0.0
28	0x00000000	0.0
29	0x00000000	0.0
30	0x00000000	0.0
31	0x00000000	0.0
32	0x00000000	0.0
33	0x00000000	0.0
34	0x00000000	0.0
35	0x00000000	0.0
36	0x00000000	0.0
37	0x00000000	0.0
38	0x00000000	0.0
39	0x00000000	0.0
40	0x00000000	0.0
41	0x00000000	0.0
42	0x00000000	0.0
43	0x00000000	0.0
44	0x00000000	0.0
45	0x00000000	0.0
46	0x00000000	0.0
47	0x00000000	0.0
48	0x00000000	0.0
49	0x00000000	0.0
50	0x00000000	0.0
51	0x00000000	0.0
52	0x00000000	0.0
53	0x00000000	0.0
54	0x00000000	0.0
55	0x00000000	0.0
56	0x00000000	0.0
57	0x00000000	0.0
58	0x00000000	0.0
59	0x00000000	0.0
60	0x00000000	0.0
61	0x00000000	0.0
62	0x00000000	0.0
63	0x00000000	0.0

mlp_extractor.value_net.0.weight f4 [64, 3]
0	0xbca4ac80	-0.020101786
1	0x3eaa3f65	0.3325149
2	0x3e3340c7	0.1750518
3	0xbd19956f	-0.037496027
4	0x3de94891	0.11390794
5	0xbd94b852	-0.07261719
6	0xbc85002b	-0.016235432
7	0xbd4f9e2a	-0.050687946
8	0xbd553ac6	-0.052058004
9	0x3c564e1b	0.013080145
10	0x3e3c1cdc	0.18370384
11	0xbe1e9bd8	-0.15489137
12	0xbce3e4bc	-0.02781903
13	0x3d05dd48	0.032681733
14	0x3d730a46	0.05933597
15	0x3e3edeee	0.18639728
16	0xbe2bc96a	-0.16776052
17	0x3d0f10e4	0.034928218
18	0xbb952fc4	-0.0045528132
19	0xbdcc95ba	-0.099894956
20	0x3c988426	0.0186177
21	0xbd6dda07	-0.058069255
22	0x3e3a7c25	0.1821142
23	0x3e3620a4	0.17785889
24	0xbe16da13	-0.14731626
25	0x3cdf4aea	0.027257401
26	0x3e0c466b	0.13698737
27	0xbde6417a	-0.112429574
28	0x3d5b5e43	0.05355669
29	0xbe1a7942	-0.15085319
30	0xbe60ae47	-0.21941482
31	0xbe283441	-0.16426183
32	0x3dd4d08d	0.103913404
33	0xbe6eed6f	-0.23332761
34	0x3d134f24	0.035964146
35	0xbe871d8a	-0.26389724
36	0x3d6b0690	0.057379305
37	0xbd7abb3d	-0.06121372
38	0xbe0fdc31	-0.1404884
39	0xbdb2e342	-0.08734752
40	0x3def4c6e	0.116845
41	0x3c98fbb5	0.01867471
42	0x3e1fbef0	0.1560018
43	0xbdda6dec	-0.10665497
44	0xbea3e7a4	-0.32012665
45	0x3de8182b	0.11332735
46	0xbdc2b155	-0.0950648
47	0xbcd5fb40	-0.026120782
48	0x3df5ff4b	0.12011584
49	0x3b6e6065	0.0036373374
50	0xbceecc70	-0.029150218
51	0xbe5ef292	-0.2177222
52	0xbe18e734	-0.14931947
53	0xbda7aff6	-0.08187859
54	0x3e072110	0.13196206
55	0x3d449513	0.04799373
56	0x3e2888f6	0.16458496
57	0xbd8812dc	-0.06644222
58	0x3b37b41c	0.0028030938
59	0x3d0ff9af	0.035150226
60	0x3e3f9b80	0.18711662
61	0xbe2287d6	-0.1587213
62	0x3da181ef	0.07886111
63	0x3e499fab	0.19689815
64	0x3e4690f5	0.19391234
65	0xbe844066	-0.25830382
66	0xbce21761	-0.027599039
67	0xbde4baed	-0.11168466
68	0xbaa92957	-0.0012905997
69	0xbd21e195	-0.039521772
70	0xbd0c909a	-0.03431759
71	0xbdf4e51a	-0.1195776
72	0x3de7e3b1	0.113227256
73	0x3d47a79a	0.04874382
74	0x3dbc3472	0.09189691
75	0x3e5944d2	0.21217659
76	0x3e37faee	0.17966816
77	0x3dbf0f42	0.09329082
78	0xbc80d20f	-0.015725164
79	0xbe15f90d	-0.14645787
80	0xbd6b44ed	-0.05743878
81	0xbd1cc3e5	-0.038272757
82	0xbc121896	-0.008916995
83	0x3c8e314d	0.017357493
84	0xbd1999f1	-0.037500326
85	0xbca729c3	-0.020405656
86	0x3dd64bc4	0.1046367
87	0x3e1df014	0.15423614
88	0x3d6031e2	0.054735072
89	0xb92bbc52	-0.00016377986
90	0x3c3d7b73	0.011565077
91	0x3d3582cc	0.04431419
92	0x3ddf3bac	0.109000534
93	0x3d464b86	0.04841187
94	0xbd81897e	-0.06325053
95	0xbcf2e611	-0.02965072
96	0x3cdb8cf0	0.026800603
97	0x3d990465	0.07471541
98	0x3bfd47a9	0.00772949
99	0x3c1485f8	0.009065144
100	0xbd72c925	-0.059273858
101	0xbb2946c0	-0.0025829524
102	0x3d8f6010	0.07000744
103	0x3d91281f	0.070877306
104	0x3d8e1e86	0.06939416
105	0xbd9c18b3	-0.076218985
106	0x3dedda4c	0.116139024
107	0x3e1e0ef5	0.15435393
108	0xbe50385d	-0.20334001
109	0x3d376a3d	0.04477905
110	0xbe22ec8b	-0.15910546
111	0x3d3ea9d4	0.04654868
112	0x3cee41d8	0.029084131
113	0x3e0c25f7	0.13686357
114	0x3d54310d	0.05180459
115	0xbd45c25d	-0.048281062
116	0xbe34d904	-0.1766091
117	0x3aaf171e	0.001335833
118	0x3de05c41	0.10955096
119	0xbea420f6	-0.32056397
120	0xbe2647ee	-0.16238376
121	0xbcf8c659	-0.030368017
122	0xbd533696	-0.05156573
123	0xbea2e4e0	-0.31815243
124	0xbdb8de13	-0.09026732
125	0xbd17aa83	-0.037027847
126	0x3c4158d6	0.011800965
127	0x389efded	7.5813245e-05
128	0x3dec25ba	0.11530633
129	0x3d5e2092	0.05423028
130	0x3d1418bf	0.036156412
131	0xbd10a1b1	-0.03531045
132	0xbdc0e3e6	-0.09418468
133	0x3e905006	0.28186053
134	0x3db1b3ae	0.08676849
135	0xbd0e484e	-0.034736924
136	0xbe7ce075	-0.24694999
137	0x3e13f5cc	0.14449233
138	0x3e58ca6a	0.21170965
139	0xbce5bf75	-0.028045395
140	0xbe5fd79c	-0.21859592
141	0x3b540dab	0.003235678
142	0x3ea8937c	0.32925022
143	0xbd4684a4	-0.04846634
144	0x3ce60496	0.028078359
145	0xbcf0295a	-0.029316593
146	0x3b9a5a43	0.004710467
147	0x3d75a71d	0.059973825
148	0x3de655a9	0.11246807
149	0xbd2bea86	-0.041971706
150	0x3e135078	0.14386165
151	0x3c97679b	0.01848202
152	0xbdaa6263	-0.08319547
153	0x3e91da22	0.28486735
154	0x3dacac3e	0.0843129
155	0x3d8ca6e9	0.06867773
156	0x3d4c056b	0.049809854
157	0xbd9ebfa3	-0.077513956
158	0xbe9088e0	-0.28229427
159	0x3e9130eb	0.28357634
160	0xbde2ba26	-0.11070661
161	0xbd999155	-0.07498423
162	0x3cc7ccd7	0.024389667
163	0x39fc14ca	0.00048080675
164	0x3d25cf1b	0.040480714
165	0x3d8e7013	0.0695497
166	0xbe0e34c4	-0.13887316
167	0x3d7f87f5	0.062385518
168	0xbe02ea36	-0.12784657
169	0xbe0fc898	-0.14041364
170	0xbd548b56	-0.051890694
171	0xbe24b821	-0.16085865
172	0x3dd5933c	0.10428473
173	0x3c57d6b2	0.013173746
174	0xbe16b813	-0.14718656
175	0x3e168338	0.14698493
176	0xbe4f426e	-0.20240185
177	0x3d2fc8ba	0.042916037
178	0xbe3ea443	-0.18617348
179	0x3d845924	0.06462315
180	0xbdbb34ec	-0.091409534
181	0xbe69fd91	-0.22850634
182	0x3baeb73e	0.0053319028
183	0xbc15e004	-0.009147648
184	0x3d421dba	0.04739163
185	0xbe033fb9	-0.12817277
186	0xbdd9b961	-0.10631061
187	0x3e169585	0.14705475
188	0xbdf2f691	-0.11863435
189	0xbd72ba0f	-0.05925947
190	0xbd93e6f0	-0.07221782
191	0x3d10ed46	0.03538253

mlp_extractor.value_net.0.bias f4 [64]
0	0x00000000	0.0
1	0x00000000	0.0
2	0x00000000	0.0
3	0x00000000	0.0
4	0x00000000	0.0
5	0x00000000	0.0
6	0x00000000	0.0
7	0x00000000	0.0
8	0x00000000	0.0
9	0x00000000	0.0
10	0x00000000	0.0
11	0x00000000	0.0
12	0x00000000	0.0
13	0x00000000	0.0
14	0x00000000	0.0
15	0x00000000	0.0
16	0x00000000	0.0
17	0x00000000	0.0
18	0x00000000	0.0
19	0x00000000	0.0
20	0x00000000	0.0
21	0x00000000	0.0
22	0x00000000	0.0
23	0x00000000	0.0
24	0x00000000	0.0
25	0x00000000	0.0
26	0x00000000	0.0
27	0x00000000	0.0
28	0x00000000	0.0
29	0x00000000	0.0
30	0x00000000	0.0
31	0x00000000	0.0
32	0x00000000	0.0
33	0x00000000	0.0
34	0x00000000	0.0
35	0x00000000	0.0
36	0x00000000	0.0
37	0x00000000	0.0
38	0x00000000	0.0
39	0x00000000	0.0
40	0x00000000	0.0
41	0x00000000	0.0
42	0x00000000	0.0
43	0x00000000	0.0
44	0x00000000	0.0
45	0x00000000	0.0
46	0x00000000	0.0
47	0x00000000	0.0
48	0x00000000	0.0
49	0x00000000	0.0
50	0x00000000	0.0
51	0x00000000	0.0
52	0x00000000	0.0
53	0x00000000	0.0
54	0x00000000	0.0
55	0x00000000	0.0
56	0x00000000	0.0
57	0x00000000	0.0
58	0x00000000	0.0
59	0x00000000	0.0
60	0x00000000	0.0
61	0x00000000	0.0
62	0x00000000	0.0
63	0x00000000	0.0

mlp_extractor.value_net.2.weight f4 [64, 64]
0	0xbdb8f5a0	-0.09031224
1	0xbca68f6a	-0.020332057
2	0x3e51bf8e	0.20483229
3	0x3d387418	0.04503259
4	0x3da10aa0	0.07863355
5	0xbde379d8	-0.11107224
6	0xbc84e3f0	-0.01622197
7	0xbca2bd1e	-0.019865569
8	0x3d6bf7c4	0.057609335
9	0xbe41adb0	-0.18913913
10	0x3dad3b0e	0.084585294
11	0x3db808aa	0.089860275
12	0xbe1989b3	-0.14993934
13	0x3d7465d4	0.059667423
14	0x3c3764a3	0.011193427
15	0x3bb856b0	0.0056255683
16	0x3ec36cd7	0.38168976
17	0xbe66e2a8	-0.225474
18	0xbcdd5d87	-0.027022136
19	0x3cab5e69	0.020919042
20	0xbcfea190	-0.031082898
21	0x3b9b90ba	0.0047474774
22	0xbb036580	-0.0020049512
23	0x3dca1d84	0.09868911
24	0xbb4805c6	-0.003052102
25	0xbe2a581c	-0.16635174
26	0xbe0e3adf	-0.13889645
27	0x3dd4f7c1	0.10398818
28	0x3df81a60	0.12114406
29	0xbdc6acca	-0.09700926
30	0xbdc36b5b	-0.09541961
31	0x3e22d115	0.15900071
32	0x3e068a76	0.13138756
33	0x3a8c36ff	0.0010697542
34	0xbea77715	-0.3270804
35	0xbe0a586c	-0.13510293
36	0x3d6cf376	0.05784937
37	0x3b0c7585	0.0021432352
38	0x3d7afaa6	0.061274193
39	0x3cca23f0	0.02467534
40	0xbe29c004	-0.16577154
41	0xbdf993d2	-0.121863976
42	0xbdd4926c	-0.1037949
43	0x3e28b06c	0.1647355
44	0xbd1dabaf	-0.03849381
45	0xbe014864	-0.12625271
46	0xbd9877b6	-0.07444708
47	0xbd9c2516	-0.07624261
48	0xbd36de3b	-0.04464553
49	0xbe6f2815	-0.23355134
50	0xbdc60eb3	-0.096707724
51	0x3de975a3	0.113993905
52	0x3d5201c8	0.05127123
53	0xbe16845b	-0.14698927
54	0xbeb7244a	-0.35769874
55	0xbce50050	-0.02795425
56	0x3d8025ff	0.06257247
57	0xbdec4370	-0.115363
58	0xbd000055	-0.031250317
59	0xbd92ecac	-0.07174048
60	0x3cecc288	0.028901353
61	0x3cf8dc19	0.030378388
62	0x3c69149f	0.014226108
63	0x3da74276	0.08166973
64	0xbd0511dc	-0.032487735
65	0x3dd44da0	0.10366368
66	0x3e224b74	0.15849096
67	0xbbd47ac7	-0.0064843628
68	0xbcdd2502	-0.026995186
69	0x3dca54fc	0.09879491
70	0x3d9dd6d2	0.07706989
71	0xbe8820c5	-0.265875
72	0x3cd0f348	0.02550663
73	0xbe5f7fc3	-0.21826081
74	0xbe00d639	-0.1258172
75	0xbe7a1426	-0.24421749
76	0xbc3a6596	-0.011376759
77	0xbd2dbb9a	-0.04241524
78	0xbcc39933	-0.023876762
79	0xbd531ff9	-0.051544163
80	0xbd056e9c	-0.03257619
81	0x3d50bf21	0.050963525
82	0x3e031f7b	0.12804978
83	0xbc9563e5	-0.01823611
84	0xbdd91e11	-0.10601438
85	0x3e2695a0	0.16268015
86	0xbc85054f	-0.016237883
87	0xbdae756b	-0.085184895
88	0x3e64d12e	0.2234542
89	0xbda9b77f	-0.08286952
90	0xbcf8a5c0	-0.030352473
91	0xbcce4532	-0.02517948
92	0xbdf16539	-0.11786885
93	0xbe3fa93f	-0.18716906
94	0x3dce03e5	0.100593366
95	0xbd9130c3	-0.07089379
96	0xbd11b58c	-0.035573527
97	0xbe15a512	-0.1461375
98	0x3c7d3dd0	0.015456632
99	0x3da0b9e4	0.07847956
100	0xbe96b893	-0.29437694
101	0x3e20f078	0.15716732
102	0xbdacee10	-0.08443844
103	0x389a1520	7.347227e-05
104	0xbcf51023	-0.029914921
105	0x3e3a19dc	0.18173927
106	0x3d192477	0.03738829
107	0xbd80c72a	-0.062879875
108	0xbe152ada	-0.14567128
109	0xbec4296d	-0.38312855
110	0xbdcf0d3d	-0.10109947
111	0xbdcabf0c	-0.098997205
112	0xbdeeef31	-0.11666716
113	0x3e0c5780	0.13705254
114	0x3d03d1f3	0.032182645
115	0xbd1d4ff2	-0.03840632
116	0xbe1a2608	-0.1505357
117	0xbd551bce	-0.05202847
118	0xbdbb9b5c	-0.09160492
119	0xbe8799d9	-0.26484564
120	0xbde6867a	-0.11256118
121	0xbd33dbbb	-0.043910723
122	0xbd9beab4	-0.076131254
123	0xbd7e22f2	-0.062045045
124	0x3d97e58d	0.0741683
125	0xbdec207c	-0.115296334
126	0xbd1c47db	-0.038154464
127	0xbceef00e	-0.029167201
128	0xbe16b575	-0.14717658
129	0x3d86f2a7	0.06589251
130	0xbdae6940	-0.085161686
131	0xbd10f83d	-0.03539299
132	0x3d8f0b34	0.06984559
133	0x3d805389	0.06265933
134	0xbe8280b3	-0.25488815
135	0xbe8f5126	-0.279916
136	0x3d18375e	0.037162177
137	0x3de7db2b	0.113211
138	0xbd6e8370	-0.058230817
139	0x3d974c83	0.0738764
140	0x3da96ae3	0.0827234
141	0x3d6e8d28	0.058240086
142	0x3da13735	0.07871858
143	0xbe6c12da	-0.23054066
144	0x3cb74251	0.02237049
145	0xbdfada40	-0.12248659
146	0x3d3743a5	0.044742245
147	0xbec30c0f	-0.38095137
148	0x3d9e6f34	0.07736054
149	0xbe7eddf5	-0.24889357
150	0xbd888da1	-0.066676386
151	0xbc9c15ea	-0.019053418
152	0xbe0256ea	-0.12728468
153	0x3d892ada	0.066976264
154	0x3df3e4b6	0.119088575
155	0x3d1e6d94	0.03867872
156	0xbcf07f54	-0.02935759
157	0x3ccc17a5	0.024913618
158	0xbd0d11a3	-0.034440648
159	0x3b80d3d8	0.0039315037
160	0x3c2c83a9	0.010529437
161	0xbdaa23ab	-0.083075844
162	0xbdc1e738	-0.094679296
163	0xbdad3d38	-0.08458942
164	0xbe0ac51a	-0.13551751
165	0xbbac60e4	-0.0052605737
166	0xbd84a739	-0.06477208
167	0xbe858846	-0.2608053
168	0x3e63aeab	0.222346
169	0xbd462b8b	-0.04838137
170	0xbdc58150	-0.09643805
171	0xbb60a0e8	-0.0034275595
172	0xbe0e8945	-0.13919552
173	0x3c976dce	0.018484976
174	0xbe4d6c89	-0.20060934
175	0x3d62bc7c	0.055355534
176	0x3e34a4d9	0.1764101
177	0x3e7048fc	0.23465341
178	0x3d2541b5	0.040345866
179	0x3e5003bb	0.20313923
180	0x3ca9fe01	0.020751001
181	0x3d81b95e	0.06334184
182	0xbe350b8d	-0.17680188
183	0x3d392dda	0.045209743
184	0x3cb0ad2f	0.021566955
185	0x3d79e609	0.061010394
186	0xbcb6cca0	-0.02231437
187	0xbdb0d25a	-0.086338714
188	0xbcba391c	-0.02273231
189	0x3dccb848	0.09996086
190	0xbe0d1d76	-0.1378077
191	0xbad9a1e8	-0.0016604038
192	0xbe1eaf65	-0.15496595
193	0xbd995568	-0.07486993
194	0x3e32027b	0.17383759
195	0xbd4bb260	-0.04973066
196	0x3d703c99	0.05865154
197	0x3cb4c970	0.02206871
198	0xbe016a13	-0.1263812
199	0xbe15c37a	-0.1462535
200	0x3ae34b76	0.0017341215
201	0xbd5b0c2e	-0.053478412
202	0x3e031d76	0.12804207
203	0xbbd50264	-0.006500529
204	0x3b0262f0	0.0019895397
205	0x3d57db7c	0.05269955
206	0x3e53f055	0.20697148
207	0x3dcdaa35	0.1004223
208	0x3d17907c	0.037003025
209	0x3dcb3d0e	0.09923755
210	0xbe7b9815	-0.24569733
211	0x3e3884f0	0.18019462
212	0x3da8beb8	0.08239502
213	0xbd9b95bb	-0.07596918
214	0xbebdba36	-0.3705613
215	0x3d74f1f0	0.059801042
216	0xbda675e9	-0.08127958
217	0x3e3ca461	0.1842208
218	0x3d70c582	0.058782108
219	0x3e217089	0.15765585
220	0x3e0f3b90	0.13987565
221	0xbe12703f	-0.14300631
222	0xbd9d6e95	-0.076871075
223	0xbcc46dcc	-0.023978136
224	0x3daeeafe	0.08540915
225	0x3e6f0fe8	0.23345912
226	0x3e51cc16	0.20488009
227	0x3dbb27c8	0.09138447
228	0x3c41f938	0.011839204
229	0x3da478e7	0.08030873
230	0x3d0e6d44	0.034772173
231	0x3a95c840	0.0011427477
232	0x3d8a7552	0.06760658
233	0x3d88277e	0.066481575
234	0xbd57b021	-0.052658204
235	0xbe59fecf	-0.21288608
236	0xbd062d5e	-0.03275811
237	0xbc9b457e	-0.018954035
238	0xbe6014a5	-0.21882875
239	0xbd10f60e	-0.035390906
240	0xbd7e0e76	-0.06202551
241	0xbde39d3a	-0.11113973
242	0x3d2bb985	0.041924972
243	0xbdbd0dc9	-0.09231145
244	0x3e5b45fb	0.21413414
245	0xbdf5ee2e	-0.1200832
246	0x3e150eab	0.14556377
247	0xbd491d64	-0.049100295
248	0x3d4f040f	0.05054098
249	0x3e06352d	0.13106222
250	0xbd565bf6	-0.052333795
251	0xbe239200	-0.15973663
252	0x3e2ed216	0.17072329
253	0xbe212261	-0.15735771
254	0xbdbcdeda	-0.09222193
255	0xbc69c3ea	-0.014267901

mlp_extractor.value_net.2.bias f4 [64]
0	0x00000000	0.0
1	0x00000000	0.0
2	0x00000000	0.0
3	0x00000000	0.0
4	0x00000000	0.0
5	0x00000000	0.0
6	0x00000000	0.0
7	0x00000000	0.0
8	0x00000000	0.0
9	0x00000000	0.0
10	0x00000000	0.0
11	0x00000000	0.0
12	0x00000000	0.0
13	0x00000000	0.0
14	0x00000000	0.0
15	0x00000000	0.0
16	0x00000000	0.0
17	0x00000000	0.0
18	0x00000000	0.0
19	0x00000000	0.0
20	0x00000000	0.0
21	0x00000000	0.0
22	0x00000000	0.0
23	0x00000000	0.0
24	0x00000000	0.0
25	0x00000000	0.0
26	0x00000000	0.0
27	0x00000000	0.0
28	0x00000000	0.0
29	0x00000000	0.0
30	0x00000000	0.0
31	0x00000000	0.0
32	0x00000000	0.0
33	0x00000000	0.0
34	0x00000000	0.0
35	0x00000000	0.0
36	0x00000000	0.0
37	0x00000000	0.0
38	0x00000000	0.0
39	0x00000000	0.0
40	0x00000000	0.0
41	0x00000000	0.0
42	0x00000000	0.0
43	0x00000000	0.0
44	0x00000000	0.0
45	0x00000000	0.0
46	0x00000000	0.0
47	0x00000000	0.0
48	0x00000000	0.0
49	0x00000000	0.0
50	0x00000000	0.0
51	0x00000000	0.0
52	0x00000000	0.0
53	0x00000000	0.0
54	0x00000000	0.0
55	0x00000000	0.0
56	0x00000000	0.0
57	0x00000000	0.0
58	0x00000000	0.0
59	0x00000000	0.0
60	0x00000000	0.0
61	0x00000000	0.0
62	0x00000000	0.0
63	0x00000000	0.0

action_net.weight f4 [1, 64]
0	0xbc4b8e80	-0.012424111
1	0xbe9def70	-0.3084674
2	0x3c8c619a	0.017136384
3	0xbc8f37a6	-0.01748259
4	0x3db11474	0.08646479
5	0x3e3c09a7	0.18363057
6	0xbd4e11c2	-0.050309904
7	0xbe5dc5fb	-0.21657555
8	0x3d03056f	0.031987604
9	0xbe2812c9	-0.16413416
10	0xbd94cf4f	-0.072661035
11	0xbe5fcc55	-0.2185529
12	0xbdf723c4	-0.120673686
13	0x3e72e2cc	0.23719329
14	0xbe1c66ac	-0.15273541
15	0x3c18a32b	0.009316246
16	0xbd22231b	-0.03958426
17	0xbe321f62	-0.17394784
18	0xbe4c33f4	-0.19941694
19	0xbc0cd3c1	-0.008595408
20	0x3dd37e2c	0.103268
21	0x3e32c813	0.17459135
22	0xbd87bb00	-0.06627464
23	0xbc90230c	-0.017594837
24	0xbb16d940	-0.0023017675
25	0x3e0b7c3d	0.13621612
26	0x3c136d0a	0.008998165
27	0x3dcd8a9a	0.10036202
28	0xbd686c72	-0.056744047
29	0xbd70eb3b	-0.058818083
30	0x3e226817	0.1586002
31	0xbda71919	-0.08159084
32	0xbbc78ef9	-0.0060900417
33	0xbdcabdd5	-0.09899489
34	0xbe1c310e	-0.15253088
35	0x3dc67c34	0.096916586
36	0xbdd18552	-0.10230507
37	0xbe7249f3	-0.23661022
38	0x3dc8168d	0.09769926
39	0xbe31c3ad	-0.173598
40	0xbd8645d9	-0.06556291
41	0xbd834298	-0.06409186
42	0x3d5cd4a9	0.053913746
43	0xbdb06323	-0.08612659
44	0xbd4bd4e4	-0.049763575
45	0xbda5a83b	-0.08088728
46	0xbd0a5424	-0.03377165
47	0xbd8aa19c	-0.06769106
48	0x3cb33401	0.021875383
49	0xbe70ec56	-0.23527655
50	0xbd74c02a	-0.059753574
51	0xbe2ffbd3	-0.17185907
52	0x3dfe307e	0.12411593
53	0x3cc7bddc	0.024382524
54	0x3dff5774	0.12467852
55	0x3e24344f	0.16035579
56	0x3e02f55f	0.12788914
57	0x3da0f036	0.078583166
58	0x3e55969b	0.20858233
59	0x3d9c9cb4	0.07647076
60	0xbccdb369	-0.025109963
61	0xbd4733d1	-0.0486334
62	0x3e65b17e	0.22430989
63	0xbb054e5b	-0.0020340893

value_net.weight f4 [1, 64]
0	0x3d5c1b40	0.053736925
1	0xbe339a5e	-0.17539355
2	0xbdedaea9	-0.116055794
3	0x3df0de9b	0.117612086
4	0xbe08fffe	-0.13378903
5	0xbcb7ab4d	-0.02242055
6	0xbd915965	-0.07097129
7	0xbe3799d4	-0.17929775
8	0x3d6e65a2	0.058202393
9	0xbc4ee4bb	-0.012627776
10	0xbe30b2e2	-0.17255738
11	0x3e104f7f	0.14092825
12	0x3e3c137f	0.18366812
13	0x3c0bc291	0.008530275
14	0xbd33eb97	-0.043925848
15	0xbcf4895a	-0.02985065
16	0xbd95dec8	-0.07317883
17	0xbddade35	-0.10686914
18	0x3e88c1f5	0.26710477
19	0xbc566676	-0.013085952
20	0x3e2b2e83	0.16716962
21	0x3dba0576	0.09083073
22	0x3ea0262a	0.31279117
23	0x39fa23d7	0.0004771042
24	0xbe1455ec	-0.14485902
25	0xbcdcb40a	-0.026941318
26	0x3d5b253d	0.05350231
27	0x3d6e849a	0.058231927
28	0xbdbd2a0f	-0.09236538
29	0xbcb9d7ed	-0.02268597
30	0xbdd3f81e	-0.10350059
31	0x3d457a90	0.048212588
32	0xbc0ce858	-0.008600317
33	0xbe7d85e7	-0.24758111
34	0xbe0cd643	-0.1375361
35	0x3da39507	0.07987409
36	0xbcb49fff	-0.022048948
37	0xbd9b036f	-0.07569014
38	0xbd34ccc5	-0.044140596
39	0xbd675dd0	-0.05648595
40	0x3e4e65c7	0.20156012
41	0xbd92ab1a	-0.07161541
42	0xbcb1d11e	-0.02170616
43	0xbe3957a5	-0.1809984
44	0x3e40669f	0.18789147
45	0x3d8cc07a	0.068726495
46	0xbe88ca2f	-0.26716754
47	0xbd5b245c	-0.053501472
48	0xbd56202d	-0.05227678
49	0x3db6c970	0.0892514
50	0x3e6451eb	0.22296874
51	0xbd2c28fb	-0.04203127
52	0x3bfaba1e	0.0076515814
53	0x3d029349	0.031878743
54	0x3d9b3d5c	0.07580063
55	0x3e8b7722	0.2723933
56	0x3bf8fbd7	0.007598381
57	0xbdbfe0d6	-0.09369056
58	0xbcf8e672	-0.030383322
59	0xbd04421d	-0.032289613
60	0x3db871d5	0.09006087
61	0x3d15f204	0.036607757
62	0x3e837866	0.25677794
63	0x3ccb3d5a	0.024809528
