policies/MountainCar/pure_random_ppo.pt (torch, 40374 bytes, 10 tensors)

mlp_extractor.policy_net.0.weight f4 [64, 2]
00000000: e460 bcbf 99c6 f33f d6ce 8f3f ccf8 d7be
00000010: 16f2 bfbf 2a73 da3f ba24 52bf 6436 5f3f
00000020: 64b0 64bf f1c2 f43e ee06 a1bf 8039 543f
00000030: 59ab ccbe a863 233f f9c7 ee3f b889 10bf
00000040: 32c5 a2bf 3fd2 a03e 5525 bbbe 4b58 1b3f
00000050: 5b24 ad3f f4f1 79bf 8160 953f aa27 83bf
00000060: e8ff d0bf c076 d83e 7314 bfbf 6d19 dc3f
00000070: 28ab 38bf 8e55 653f 17f6 773f 3d32 50bf
00000080: b13c b0bf 83ef 563e 7766 71bf f9ab 213f
00000090: 27e3 8cbf 2090 733f b908 b2bf 3050 b13f
000000a0: 42eb b3bf 1dcc b83f ddcc 513f fe5e 79bf
000000b0: c94a ad3f d85c 9ebf 01ba bb3f 00bc f7bf
000000c0: 330f 39bf 8ed1 a43f 5a78 3d3f 1330 1cbf
000000d0: 1809 a53f 5311 8fbf 7c2f 96bf fabc 3a3f
000000e0: fc00 4cbf 5738 373e 59ca 543f 38b6 8cbf
000000f0: 53dd 883f 4e47 37bf 7699 86bf abc3 263f
00000100: d9e8 ad3f 8538 93bf 4d8b bbbf 38e6 ad3f
00000110: 4fe1 e4bf c010 c03f b678 923f 22e7 76bf
00000120: 7913 8cbf 3195 903f 83bf bc3f 24c8 aebf
00000130: 24ed 4d3e 406a d03c 55f1 193f 9c23 3bbf
00000140: 5265 9bbf 8617 993f b933 b5be c156 b23e
00000150: bfd5 5f3f 7a76 10bf 7b52 a5bf ec07 a83f
00000160: 129d 3cbf 988c 323f 9b7f a8bf 0f87 c73f
00000170: c14c 52bf 7b68 7b3f eaf4 82bf 0dc4 963f
00000180: deff 8a3f 2870 94bf 8e41 d6be 0d90 063f
00000190: f788 ab3f d38b a3bf d69e b33f 040e 93bf
000001a0: 9448 973f c8ab 87bf d3a9 c1bf 608a a83f
000001b0: 1408 c03f 603e a2bf f856 5ebf 2d77 8f3f
000001c0: 32c5 79bf 7526 2e3f 783d a83f a9c3 b2bf
000001d0: bbcf 5fbf d3ad 103f 93dd 6bbf c690 063f
000001e0: 0baf a13f a101 efbf 77ec a8bf 5b03 863f
000001f0: fbc5 953f 4225 4bbf e587 bbbf 247f b33f
-1.4717069 1.9044982 1.1234996 -0.42182004 -1.4995754 1.7066395 -0.8208729 0.8719237
-0.8933165 0.47804978 -1.258024 0.8290024 -0.39974478 0.6382394 1.8654777 -0.5646014
-1.2716429 0.31410405 -0.3655192 0.606816 1.352672 -0.97634816 1.1670076 -1.024648
-1.6328096 0.422781 -1.4928116 1.7195259 -0.72136164 0.8958367 0.9685988 -0.8132666
-1.3768522 0.20989804 -0.94296974 0.63153034 -1.1006821 0.9514179 -1.3908912 1.3852596
-1.405617 1.443729 0.8195322 -0.9741057 1.3538448 -1.2372084 1.4666139 -1.9354248
-0.7228882 1.2876451 0.74011767 -0.61010855 1.28934 -1.1177162 -1.1733241 0.72944605
-0.79689 0.17892586 0.8312126 -1.0993109 1.0692543 -0.7159318 -1.0515583 0.65142316
1.3586684 -1.1501623 -1.4651886 1.3585882 -1.7881259 1.5005112 1.1443088 -0.9644643
-1.0943443 1.129553 1.4745945 -1.3654828 0.20109993 0.025441289 0.6013387 -0.7310121
-1.2140296 1.1960304 -0.35391024 0.34831813 0.87435526 -0.5643078 -1.2915796 1.3127418
-0.7367717 0.6974578 -1.3163942 1.5588092 -0.8214837 0.982063 -1.0230992 1.177858
1.0859334 -1.1596727 -0.4184689 0.52563554 1.3401173 -1.2777046 1.4032848 -1.1488652
1.1819024 -1.0599298 -1.5129951 1.3167229 1.5002465 -1.2675285 -0.86851454 1.1208245
-0.9756652 0.6802743 1.3143759 -1.3965961 -0.87426347 0.56515235 -0.9213497 0.52564657
1.2631544 -1.8672372 -1.3197163 1.0469774 1.1701044 -0.79353726 -1.4650847 1.4023175

mlp_extractor.policy_net.0.bias f4 [64]
00000000: 4f86 bc3f 63e6 71bf bd1f bf3f 60c4 3e3f
00000010: a983 473f a85b 963f 9784 fa3e 8319 2ec0
00000020: c8f0 073f 3cfa ef3e 1683 abbf 90b1 a0bf
00000030: c161 b73f 885e c93f 3289 263f 0883 2fbf
00000040: d4ee bc3f 3405 623f 0581 853f fae9 b13f
00000050: 12a9 f03f 289c 7dbf f5d1 8dbf badd dfbf
00000060: ee88 473f 0fa1 23bf 3c1b aebf f4e3 853f
00000070: 21c9 2a3f eadf 6dbf 6fb7 75bf 68e5 5c3f
00000080: a9e8 b0bf f009 da3f 2a35 1540 c50d 83bf
00000090: bf4f 833f 28e1 d3bf 7fb0 00bf fbd0 f4be
000000a0: e24d 833f 6795 ab3e 24b2 8bbf 564a df3f
000000b0: bc69 e93e d50c 9d3f 281a 313f 61d9 813f
000000c0: 454e 8dbf 0ce4 ca3e 0d8b b7bf 599d adbf
000000d0: 1251 83bf 3775 e33f 1667 acbf 9383 693f
000000e0: ddb3 463f 0690 a4bf 13e6 4e3f 9251 593f
000000f0: 4ada bebf c8cc 8f3f c1db 76bf 19b2 b53f
1.4728488 -0.9449217 1.4931561 0.74518394 0.7793527 1.1746721 0.48929283 -2.720307
0.5310178 0.468706 -1.3399379 -1.2554188 1.4326707 1.5731974 0.65053093 -0.6855931
1.4760385 0.8828919 1.0429999 1.3899529 1.8801596 -0.990664 -1.1079699 -1.748954
0.77943313 -0.6391763 -1.3602061 1.0460191 0.6671315 -0.9291979 -0.9598302 0.86287546
-1.3821002 1.7034283 2.3313699 -1.0238577 1.0258712 -1.6553087 -0.5026931 -0.4781569
1.0258143 0.33512422 -1.0913739 1.744456 0.4558848 1.2269541 0.69180536 1.0144464
-1.1039511 0.3962711 -1.433931 -1.3563644 -1.0259116 1.7770146 -1.3468959 0.9121639
0.776182 -1.2856452 0.80819815 0.8489009 -1.4910367 1.1234369 -0.9642907 1.4194976

mlp_extractor.policy_net.2.weight f4 [64, 64]
00000000: 7ea7 d83f 4c19 82bf 89fb d93f 0ad8 8ebe
00000010: cfe5 8b3f fff3 223f b5f9 9e3f 4f20 a6bf
00000020: 0b5f 773f 519d 3bbf a610 03c0 131e c9bf
00000030: 2c9a a23f 05e3 cf3f d810 0340 87fc afbf
00000040: a4ad 933f 7516 14bf 93b1 23be 7646 df3f
00000050: febf 863f 8578 f03e 2a97 1ebf 3bef d0bf
00000060: d653 3dbf f3df 9e3d 9a9d d9bf 67a8 9fbd
00000070: 1954 30bf c448 f9bf 98dd 1a3f be76 a53f
00000080: 68ee c4bf 7438 ca3f 5396 823f 13da 0dc0
00000090: 2963 1bbf 12b4 d8bf b092 7e3f ec1c 97bf
000000a0: ce8e 843f 43b4 5bbf 3a42 743f c62f a93f
000000b0: 0429 913f 6def 5cbf d09b 35bf 3dff 9fbe
000000c0: 95eb 9cbd 3873 81bf 07a8 743f 1849 e9bf
000000d0: c9b9 533f 56ee 953f 3fa8 6bbf ce82 22bf
000000e0: 8d66 57bf cc85 f6bf 0a9e 913f 0dc0 bd3f
000000f0: c113 d0bf 0ea8 883f 81fa 0d3f 00b8 d43f
00000100: 8f3c 0740 3076 8d3e 2800 db3f d8ea 17bf
00000110: 029a e0bd e155 763f c399 2f3f 71e4 10bf
00000120: c89c 0e3f 88b6 3fbf 8290 cabf 1c0f a8bf
00000130: a221 bf3e 2828 dc3f 6dde f03f 2581 5dbf
00000140: bf6b 5a3d 535f 7abf e05f 43be 7d37 cf3f
00000150: b571 213f 1e05 b23e 3da8 93bf 2dac 88bf
00000160: 715c b9be 7a9d c3be 38a7 c2bf aa78 173f
00000170: 441f 2bbf c8c1 cdbf ba41 9cbe 26cf bd3e
00000180: 3a15 aabf 0df1 873f 529d 4f3f b7a1 cdbf
00000190: ca27 3bbd 62ef 09c0 0bab c83f 6250 69bf
000001a0: 0075 613f 7db9 70bf 2f7e 0240 a0fd 98bd
000001b0: 59c9 5e3f 01fb a7bf d0a7 17bf 3f8d 2dbf
000001c0: 9ec9 18bf 06d3 5abf c282 a23f 4990 c8bf
000001d0: 3d1e 053f 8421 f73f 5cca 32bf aec7 34bf
000001e0: 557a 45bf 85f2 debf ed01 5b3f 2d2d b43f
000001f0: 1ccc 6abf a9d1 b83f 875f de3f d5d1 f53f
00000200: f356 17bf 7903 b63f 205e 56bf 941f 133f
00000210: 6aaf 87bf b57f a33d f489 b2bf ee1f c73f
00000220: 0532 7bbf a8d0 2b3f c47c e53e 4a70 923e
00000230: 0e58 b7bf f0f3 32bf fcdd 0c3d c1a9 a63f
00000240: a4eb 92bf 8904 253f 1c38 e33e b5ac 80bf
00000250: a760 e9bf 7260 14bf 7741 b3be 14ce 0740
00000260: 0e4d 213f 492b d8be 999a 073f 3bda cd3d
00000270: 1705 433f c617 13be 7630 6fbe a811 c9bf
00000280: 14d9 b53f 1a0e ccbf ed32 d2bf 8247 3a3e
00000290: 5406 d43e adaf 8a3f b687 fd3e b4d5 883f
000002a0: 539a cfbf 31e3 793f 0ef7 0140 ab83 2ac0
000002b0: de09 9abf c78f 0cc0 1046 023f 83e4 8d3e
000002c0: cbaa ad3d c685 3f3f 9a7b c93f 334a f33e
000002d0: c2dc 9c3e bd40 b5bf ea1e 983f 53bd 973e
000002e0: 888a 183f c270 db3e cbbf d13e 2fd6 44bf
000002f0: ecb8 eb3f f1b7 25bd 3b46 783f e852 51bf
00000300: 0359 273d b384 b7bf b1cc 913e 2c25 cfbd
00000310: 7dd9 913f b066 02be 19b0 693f ca6a 45bf
00000320: e6de 003f 5ca3 bcbe d6be 153c 6165 32bd
00000330: e206 9b3f 8b46 6f3d 3862 1abf 09ab 20bf
00000340: bd33 963f 4e12 a4be 6d0e f6be ba0c f03e
00000350: 084a c53f 13ca 893d 0d60 c23e b13c b7bf
00000360: 7f5b a0be bf39 7f3e 990f 46be 6101 0cbe
00000370: c4c1 d7be cad3 b93e fb04 483f c6cf 4f3f
00000380: 7b22 91be 5f99 533f d25c 9a3f 760c 083f
00000390: 632e e4be 0d24 a0be ba2d 1abf 01af 53bf
000003a0: e04f 543f 873f d5bd f11d 0dc0 130a f73f
000003b0: f598 f73e f47d 0340 bad3 aebd b2bb f5bd
000003c0: d8a7 03be 8e5f a8be 7d5c dfbf bf35 683e
000003d0: 07e5 87be 4f5d 693e 42aa 5fbf 757b bc3d
000003e0: 0d68 4e3c 02e2 30be b61e fdbe a36e 443e
000003f0: 2ccc 54bf 758a 4cbe 033b 84bf 69f0 683e
1.6926115 -1.016397 1.7029887 -0.278992 1.0929507 0.6365356 1.2419955 -1.297861
0.966294 -0.7328692 -2.0478911 -1.5712303 1.27033 1.6241156 2.047903 -1.374894
1.1537366 -0.57846767 -0.15985708 1.7443378 1.0527341 0.4696695 -0.6194941 -1.6323007
-0.7395605 0.07757559 -1.7001221 -0.07795792 -0.6887832 -1.9475331 0.60494375 1.2926862
-1.5385256 1.5798478 1.0202125 -2.2164352 -0.6069818 -1.6929953 0.9944258 -1.1805701
1.035608 -0.8582193 0.95413554 1.3217704 1.1340642 -0.86302835 -0.70940876 -0.3124942
-0.07662121 -1.0113287 0.9556889 -1.8225431 0.8270536 1.1713359 -0.920536 -0.6348084
-0.84140855 -1.9259582 1.1376355 1.4824234 -1.6256028 1.0676286 0.55460364 1.6618652
2.1130712 0.27629232 1.7109423 -0.5934272 -0.10966875 0.9622479 0.68593997 -0.56598574
0.5570798 -0.74887896 -1.582535 -1.3129611 0.37330347 1.7199755 1.8817879 -0.86525184
0.05332541 -0.97801703 -0.19079542 1.6188809 0.6306413 0.3476953 -1.1535717 -1.0677544
-0.3620334 -0.38206083 -1.5207281 0.59168494 -0.6684458 -1.6074762 -0.30518895 0.37072104
-1.3287728 1.0620438 0.81099427 -1.6064976 -0.045692243 -2.1552358 1.5677198 -0.9113828
0.8806915 -0.9403303 2.0389516 -0.0747025 0.8702598 -1.3123475 -0.59240437 -0.6779365
-0.59682643 -0.85478246 1.2696154 -1.5669032 0.51999265 1.9307103 -0.69840026 -0.7061719
-0.7713979 -1.7417761 0.85549814 1.4076287 -0.91717696 1.4438983 1.7372903 1.9204661
-0.5911705 1.421981 -0.83737373 0.5747006 -1.0600407 0.079833426 -1.394835 1.5556619
-0.981232 0.6711526 0.4482175 0.28601295 -1.4323747 -0.6990347 0.03439139 1.3020555
-1.1478162 0.64460045 0.44378746 -1.0052706 -1.8232621 -0.57959664 -0.35010883 2.121953
0.630082 -0.42220524 0.5297027 0.1005139 0.7617964 -0.14364538 -0.2335833 -1.5708513
1.4206872 -1.5941803 -1.6421791 0.1819134 0.41411078 1.0834862 0.49517602 1.0690217
-1.6218971 0.9761229 2.030704 -2.6642864 -1.2034261 -2.1962755 0.50888157 0.27713403
0.08479842 0.748135 1.5740845 0.47517547 0.30637175 -1.4160382 1.1884434 0.2963663
0.5958638 0.42859465 0.4096664 -0.7688932 1.8415809 -0.040458623 0.96982163 -0.8176713
0.040856373 -1.4337372 0.2847648 -0.10114512 1.1394497 -0.12734485 0.9128433 -0.7711607
0.50340116 -0.36843383 0.009139737 -0.043553714 1.2111475 0.058416884 -0.6030612 -0.6276098
1.1734539 -0.32045215 -0.4805788 0.4688471 1.5413218 0.06727996 0.37963906 -1.4315397
-0.31319806 0.24924372 -0.19341888 -0.13672401 -0.4214002 0.36294395 0.781326 0.8117641
-0.2834662 0.826559 1.2059577 0.53144014 -0.4456664 -0.31277505 -0.60226023 -0.8268891
0.8293438 -0.104125075 -2.2049525 1.929995 0.48358884 2.0545626 -0.085364774 -0.11998691
-0.12856996 -0.32885402 -1.74501 0.22676753 -0.26541921 0.227895 -0.8736917 0.09203235
0.01259805 -0.17273715 -0.49437493 0.1918283 -0.8312404 -0.19974692 -1.0330509 0.22747959

mlp_extractor.policy_net.2.bias f4 [64]
00000000: 4b3d 943f 9146 f63e 3c29 b2bf 3eb7 6a3f
00000010: 1d28 93bf 20e3 4fbe 7601 913f 1b7f a3bf
00000020: 6c68 02bf 8e04 abbf 37c3 8ebf b42d 823f
00000030: cb44 9abf c520 cabf f621 9c3f 763f adbf
00000040: 92db c7bf 40c8 843f 739b a8bf c56f cd3f
00000050: c453 b73f 0ab1 983f 394b b7bf 56e2 afbf
00000060: 1900 75be 302e a83e 163e 2d3f 2afb 9dbf
00000070: bc69 bd3f 080a b83f f374 dd3f cc91 b03f
00000080: a002 9cbf 5dd9 c3bf 903e 943f eadd bb3f
00000090: 155b e13f 43fa 9abf 7dba 643f f385 9bbf
000000a0: c751 c43f 55f7 b33f e122 7b3f f48e 9b3f
000000b0: 6bdb bcbf 5f3b 9bbf 2fd1 b73f ef60 a63f
000000c0: 46e1 b8bf c833 b0bf 4ce8 c9be 4999 b1bf
000000d0: a3c6 ad3f 7c0e aebf 0ed5 a43e a904 4b3f
000000e0: cd82 b13f 5eb6 af3f c5a0 d73f d00e 85bf
000000f0: 6eb4 b8bf c2aa e6bf aa3b 353f 8d14 b03f
1.1581205 0.48100713 -1.3918834 0.91685855 -1.1496617 -0.20301485 1.1328571 -1.2773165
-0.50940585 -1.3360765 -1.1153325 1.0170197 -1.2052244 -1.579125 1.2197864 -1.3534992
-1.5613883 1.0373611 -1.3172439 1.6049734 1.4322438 1.1929028 -1.4319831 -1.3740947
-0.23925819 0.32847738 0.6767286 -1.2342274 1.4797893 1.4378061 1.7301315 1.3794494
-1.2188301 -1.5300709 1.1581593 1.4677098 1.7605921 -1.2107624 0.8934706 -1.2150253
1.5337456 1.4059855 0.98100096 1.2153001 -1.4754461 -1.2127494 1.4360713 1.2998332
-1.4443748 -1.3765802 -0.3943504 -1.3874904 1.3576244 -1.359817 0.32193798 0.79303986
1.3868042 1.3727529 1.6845938 -1.0395145 -1.4430063 -1.8020861 0.70794165 1.3756272

mlp_extractor.value_net.0.weight f4 [64, 2]
00000000: 8872 6bbe 0525 df3d 3e28 2cbe 5d40 013e
00000010: 6933 fb3d 1ddf d5be 07a6 b5bc 422e 3cbd
00000020: 5ed5 d9bd 95d7 d33d 4ef6 823e 8415 b73d
00000030: 2b42 1c3e 7563 fbbd e6e1 1cbe dd62 513d
00000040: 7724 edbb bd2e 8cbd b749 863c 2c46 92be
00000050: 827e 303e 2068 eebd aeef 0a3e 4548 ac3e
00000060: db0e 21bd 028e 18bd 40ce 6a3e 733a a83d
00000070: d1cd ccbd 1dee 83be 7fbf 783e 4cf2 82be
00000080: 8b53 b3be f76b 99bb c42f 333e 4b8b 2b3e
00000090: a41a b3bd b374 3a3e e954 5abc 7333 533e
000000a0: aea8 76bc dd44 023e c202 3cbe ab17 4fbe
000000b0: b41d 9e3e f70b 4f3d 9229 713e 9976 773e
000000c0: 72bc 0b3e 44e0 79bd 8d98 d7bd c594 833e
000000d0: 38b6 613e c249 c83d 4f7b cc3c 4f61 b038
000000e0: 4e6f 28be ffd3 e53c 29a2 983c f37c 623d
000000f0: b57f d03c 22ff 243e bfe4 88be 8177 83be
00000100: c0e2 283e d4a5 633e dbe5 51bc 0874 c63d
00000110: 26ba 313e caf7 eabd 7492 81bc 6cc1 723d
00000120: 727d 84be 13b8 50be 9331 5c3e cc8d 47bd
00000130: 7f5a bbbe 3924 05be f08c 573e 7198 c33d
00000140: 34d6 243e fe29 8dbe efa8 e0bd f6c3 233e
00000150: d146 23bd b59c 3e3e cca3 d8b9 0be9 aabd
00000160: ff76 59be 0458 a6bd 8791 7e3d b088 a83e
00000170: e0fd bd3e 5e5a e4bd dba8 b3bb 9f60 acbc
00000180: a090 ab3e 8dda a43d e942 9dbd a3c4 70be
00000190: 395d b73d 43f3 a9be cdf4 c03e a130 6cbe
000001a0: f147 843e 5f94 babd 77f5 2a3e 11e5 003e
000001b0: 1338 53bd e083 8b3e dc2f 7abd 8aea 9c3d
000001c0: a7c3 ed3c 8c50 233e 7b9b 58bc 7f74 c7bd
000001d0: f2c3 09bd 324e 61be 7d65 90bd fbac db3d
000001e0: d536 09be 6436 97bd 607c 563d 4a57 9ebe
000001f0: e5a1 aabe 7eed c83d 3ed5 a7bc 7e5a 76be
-0.22992909 0.10895733 -0.16812226 0.12622209 0.12265665 -0.41771784 -0.022173895 -0.045942552
-0.106364 0.103438534 0.2557854 0.08939651 0.15259616 -0.12274829 -0.15320548 0.051119674
-0.007237013 -0.06844852 0.016392572 -0.28569162 0.17235759 -0.11640954 0.13567993 0.33648887
-0.039320808 -0.037244804 0.2293024 0.08214273 -0.10000194 -0.25767604 0.242918 -0.25575483
-0.35024676 -0.00468206 0.1749869 0.16752355 -0.08745316 0.1820858 -0.013325908 0.20625095
-0.015054865 0.12721582 -0.18360427 -0.20223872 0.30882037 0.05054852 0.23551014 0.24166335
0.13646105 -0.061004892 -0.105271436 0.2569944 0.22042167 0.09779693 0.024961142 8.410459e-05
-0.1644871 0.02805519 0.018632011 0.055294942 0.02545152 0.1611295 -0.2673702 -0.25677112
0.16492748 0.22231227 -0.0128111495 0.096901 0.17356166 -0.11473043 -0.015816905 0.059266493
-0.25876957 -0.20382719 0.21503286 -0.048719212 -0.3659248 -0.13002099 0.21049857 0.0955056
0.16097337 -0.275711 -0.109697215 0.15992722 -0.039862458 0.18614466 -0.0004132077 -0.08345231
-0.212368 -0.081222564 0.062150504 0.32916784 0.37107754 -0.11150049 -0.0054827756 -0.021042166
0.33508778 0.08049498 -0.07678778 -0.23512511 0.08953328 -0.33193406 0.37686768 -0.23065425
0.25836137 -0.09110331 0.166952 0.12587382 -0.05156715 0.2724905 -0.0610808 0.07661922
0.029023958 0.15948695 -0.013220663 -0.09739017 -0.033634134 -0.22002485 -0.07050607 0.10726353
-0.13399823 -0.07383421 0.052364707 -0.3092597 -0.3332664 0.09810923 -0.020487424 -0.24057958

mlp_extractor.value_net.0.bias f4 [64]
00000000: 0000 0000 0000 0000 0000 0000 0000 0000
00000010: 0000 0000 0000 0000 0000 0000 0000 0000
00000020: 0000 0000 0000 0000 0000 0000 0000 0000
00000030: 0000 0000 0000 0000 0000 0000 0000 0000
00000040: 0000 0000 0000 0000 0000 0000 0000 0000
00000050: 0000 0000 0000 0000 0000 0000 0000 0000
00000060: 0000 0000 0000 0000 0000 0000 0000 0000
00000070: 0000 0000 0000 0000 0000 0000 0000 0000
00000080: 0000 0000 0000 0000 0000 0000 0000 0000
00000090: 0000 0000 0000 0000 0000 0000 0000 0000
000000a0: 0000 0000 0000 0000 0000 0000 0000 0000
000000b0: 0000 0000 0000 0000 0000 0000 0000 0000
000000c0: 0000 0000 0000 0000 0000 0000 0000 0000
000000d0: 0000 0000 0000 0000 0000 0000 0000 0000
000000e0: 0000 0000 0000 0000 0000 0000 0000 0000
000000f0: 0000 0000 0000 0000 0000 0000 0000 0000
0.0 0.0 0.0 0.0 0.0 0.0 0.0 0.0
0.0 0.0 0.0 0.0 0.0 0.0 0.0 0.0
0.0 0.0 0.0 0.0 0.0 0.0 0.0 0.0
0.0 0.0 0.0 0.0 0.0 0.0 0.0 0.0
0.0 0.0 0.0 0.0 0.0 0.0 0.0 0.0
0.0 0.0 0.0 0.0 0.0 0.0 0.0 0.0
0.0 0.0 0.0 0.0 0.0 0.0 0.0 0.0
0.0 0.0 0.0 0.0 0.0 0.0 0.0 0.0

mlp_extractor.value_net.2.weight f4 [64, 64]
00000000: 50f8 12be bc99 cb3d 18b6 823e eb6c f73d
00000010: 1d2c e4bd 976e 1a3e 7b6f 173d e84e 59be
00000020: 1e38 4f3e 9494 28be 4151 24be f788 30be
00000030: feef bebd 18dc 2d3e baaa c13e 94e4 f43e
00000040: 08ec 983e 58cd 8fbe 287e 063e 2dcb 553d
00000050: 856f 0dbd 578c 2bbd 06fb bc3d dadc b23d
00000060: ab29 abbe 7be5 793d 017b 7cbb 771c 863d
00000070: 4f83 793d 0dd9 af3e fd66 b5bd 4cab 773e
00000080: 09e1 a0bc 0fbe 4abc 409e 913d 25b5 1f3e
00000090: dbd8 53be 6024 693d 7ed0 233e 35a4 9f3c
000000a0: fde3 1e3d a1a2 4fbe 968d 403b 6c27 383e
000000b0: 59df f73c b087 84be b9a3 60be 58c7 08bd
000000c0: 1167 a6bd ebd9 68bd b8c6 183c 8c79 8f3e
000000d0: 6814 15be 8e79 373e 8adc b8bb 553d a4be
000000e0: c221 98bd 6953 a0be fc24 873d 2e8b 033e
000000f0: 239c 7dbe 876d 8f3d 9ba2 9c3d 262a 22be
00000100: d354 83be e90a cf3e d7da bd3e f566 03be
00000110: 08f7 ffbc d92e cebe f4d1 203d 5551 72bd
00000120: 659d e63d f360 96be 0152 4d3d 8c6c a13d
00000130: 2c82 aebd bfac ba3e 5865 96bb 36f2 1abe
00000140: 66dc aebd 3b1a 1c3e 350a 90bc 1487 c33b
00000150: db26 1dbc 1826 19be cb23 9dbe 3676 09be
00000160: c7b5 bbbe dba4 6e3d 9c5c e0bc 8071 f03d
00000170: 0a24 15be 65af b53e d260 3d3e 17e5 16be
00000180: ea91 b63c 7a6d a7be 41a9 b93c 5861 18bd
00000190: 25a8 25be 804b 00bc a451 81bd 1601 30bc
000001a0: 2094 033e d27a 393e 34a8 613d 2910 82bd
000001b0: 1354 ca3d 087b a93e a4b1 7c3c f82b b5bd
000001c0: a722 c8bd fc63 0dbe acdb 4fbd 1f2b 1cbe
000001d0: 3a71 353e 8587 9dbe 6cb2 0e3d 91dc 343d
000001e0: b944 23be dd65 3f3e 4a61 653e fa4d 803c
000001f0: 3239 09bd 3500 3abe a767 3c3d 69de 53bd
00000200: e8a7 853e c76e b73c a398 2a3e e881 c13c
00000210: fccd 18bc b673 afbd 398d b7bb 94c7 0f3d
00000220: d433 0e3e 0860 b4be c0f5 473d 207d 3dbe
00000230: 01ee c0bc d4dd 2d3b 5ddd d1bd 7e33 16be
00000240: fe8b 0e3c 93b8 bebe ddd5 c0bd 15db 72be
00000250: f219 7cbd 3dde 873e a725 c23d 014a ddbd
00000260: b05b 19be bdd8 4ebe 2675 cfbe 5a16 bb3e
00000270: e576 bcbb 136f 94be 9825 41be 4550 913c
00000280: c02c 843d e20a 943d 4fba 2fbe 4701 aa3e
00000290: ba21 213e 024b 5abc d81e babd 814e 29be
000002a0: 9fa5 45bd 36cf 19bd 6ab7 7a3e 09cd 26bd
000002b0: 6ac1 dabc 4898 eebc 7fb9 a6bb 76bf 09be
000002c0: 94a9 8cbd d757 973e e9ea 2cbe bf4e c8bc
000002d0: e2c7 0c3e c38b 2f3d 029c 3c3e 304c 2d3e
000002e0: eaf4 dfbe 3702 c3bd 1a92 a6be edc7 7abd
000002f0: b2aa 55bd 687f 94be 9299 793d f371 45bd
00000300: 3275 e93d c1fd d1bd 48af 793e 9dbf 4c3e
00000310: eb1d 15be a695 a8bc 7181 d53d 550f 1a3d
00000320: a12e 6f3e 0faa 043e 759b c0bd 4bcd 90bd
00000330: 0a12 aa3c 5b68 fa3d d325 b03d cf21 0cbe
00000340: 2aec 9e3e 65d9 863d eba7 f53d 7211 903e
00000350: 47b8 98be 275d 65be 921a 4a3e 1147 75be
00000360: ee5f 3f3e f34d 2e3e 472d 4abc a209 373e
00000370: 6159 c3bd 2583 d3bd 7b77 a7bd dd05 8dbd
00000380: d115 31bd e6df 243e f02e 833e 645b 5bbc
00000390: bd74 c73e 24e1 b73c 6a8d d53d ece2 afbc
000003a0: 9be9 71be 9aff 2f3e bf66 163e f04e d0bc
000003b0: 19f7 683e eff3 843d 5f41 f7bd f9ed d7bd
000003c0: 2a28 abbe f665 8d3e 8093 11be 9284 cebd
000003d0: b8c4 743d a092 9fbe fb00 7bbc 30e4 d53d
000003e0: 6187 693e 7115 79be 6dfb 943e 4f64 903e
000003f0: 518d 853e 5336 1a3e 8209 c03d 3b99 b63d
-0.14352536 0.09941432 0.25529552 0.12081321 -0.111412264 0.15081249 0.03697155 -0.21221507
0.20236251 -0.16462928 -0.16046621 -0.17239748 -0.093231186 0.1697849 0.37825567 0.4783064
0.29867578 -0.28086352 0.13134062 0.052195717 -0.03453018 -0.041881885 0.092275664 0.0873353
-0.33430228 0.061009865 -0.0038525464 0.06548398 0.06091624 0.34345284 -0.08857534 0.24186438
-0.019638555 -0.012374415 0.07110262 0.15596445 -0.20688193 0.056919456 0.15997502 0.01948748
0.038791645 -0.20276882 0.0029381267 0.17983788 0.030257868 -0.2588477 -0.21937455 -0.033393234
-0.08125127 -0.056848448 0.009324722 0.2802242 -0.14558566 0.17917463 -0.0056415247 -0.32078043
-0.07428314 -0.31313637 0.06598851 0.12846062 -0.24766593 0.070033126 0.07648202 -0.15836391
-0.25650653 0.4043801 0.37081024 -0.12832244 -0.031245723 -0.40270117 0.039262727 -0.059159596
0.112604894 -0.2937084 0.050127033 0.07882032 -0.08520922 0.3645992 -0.004589718 -0.15131459
-0.085381314 0.15244381 -0.017582992 0.0059670303 -0.009591783 -0.14955938 -0.3069137 -0.13424
-0.36662123 0.058262687 -0.02738791 0.117403984 -0.14564529 0.35485378 0.18493965 -0.14735828
0.022286374 -0.3270071 0.022663714 -0.03720221 -0.16177423 -0.007830501 -0.063144 -0.010742446
0.12849474 0.18113258 0.05509205 -0.063507386 0.09879317 0.33101678 0.015423212 -0.08846277
-0.097722344 -0.13807672 -0.050746605 -0.15250824 0.17718974 -0.30767456 0.034838125 0.04415566
-0.15944184 0.18691202 0.22400394 0.015662182 -0.03350181 -0.18164141 0.045997288 -0.05172578
0.26104665 0.02239169 0.16659789 0.023621514 -0.009326454 -0.08566992 -0.005601552 0.035102442
0.13886958 -0.35229516 0.04881835 -0.18504763 -0.02355099 0.0026529925 -0.102473 -0.1466808
0.008700369 -0.37250194 -0.09415791 -0.23716386 -0.06154818 0.26536742 0.09479838 -0.10805131
-0.14976382 -0.20199867 -0.40519065 0.3654049 -0.005751478 -0.28990993 -0.18861997 0.01773847
0.06453848 0.07228638 -0.17160915 0.332041 0.15735522 -0.013323547 -0.09087914 -0.16533853
-0.04825365 -0.037551127 0.2448403 -0.04072288 -0.026703555 -0.029125348 -0.005088031 -0.13451943
-0.06868282 0.29559204 -0.16886486 -0.024451612 0.13748124 0.042857897 0.18418887 0.16923594
-0.43741542 -0.09521907 -0.32533342 -0.06122582 -0.05216474 -0.29003453 0.06093747 -0.048204374
0.11399306 -0.10253478 0.2438327 0.1999497 -0.14562194 -0.02057917 0.104250796 0.037612278
0.23357631 0.12955497 -0.09404651 -0.070704065 0.020760555 0.122269355 0.086009644 -0.13684772
0.31039554 0.065844335 0.119949184 0.2813831 -0.29828092 -0.22398816 0.19736698 -0.23952891
0.18688938 0.17021923 -0.0123398965 0.17874768 -0.09538532 -0.10327748 -0.08177086 -0.06885884
-0.043233696 0.16101035 0.25621748 -0.013388488 0.38956252 0.022446223 0.10427363 -0.02147051
-0.2362427 0.17187348 0.14687632 -0.025428265 0.2275051 0.06491839 -0.120730154 -0.105434366
-0.3342908 0.27616853 -0.14216423 -0.100838795 0.059757918 -0.31166553 -0.015320058 0.10443914
0.22805549 -0.24324585 0.29098073 0.2820153 0.26084378 0.15059786 0.093768135 0.08915945

mlp_extractor.value_net.2.bias f4 [64]
00000000: 0000 0000 0000 0000 0000 0000 0000 0000
00000010: 0000 0000 0000 0000 0000 0000 0000 0000
00000020: 0000 0000 0000 0000 0000 0000 0000 0000
00000030: 0000 0000 0000 0000 0000 0000 0000 0000
00000040: 0000 0000 0000 0000 0000 0000 0000 0000
00000050: 0000 0000 0000 0000 0000 0000 0000 0000
00000060: 0000 0000 0000 0000 0000 0000 0000 0000
00000070: 0000 0000 0000 0000 0000 0000 0000 0000
00000080: 0000 0000 0000 0000 0000 0000 0000 0000
00000090: 0000 0000 0000 0000 0000 0000 0000 0000
000000a0: 0000 0000 0000 0000 0000 0000 0000 0000
000000b0: 0000 0000 0000 0000 0000 0000 0000 0000
000000c0: 0000 0000 0000 0000 0000 0000 0000 0000
000000d0: 0000 0000 0000 0000 0000 0000 0000 0000
000000e0: 0000 0000 0000 0000 0000 0000 0000 0000
000000f0: 0000 0000 0000 0000 0000 0000 0000 0000
0.0 0.0 0.0 0.0 0.0 0.0 0.0 0.0
0.0 0.0 0.0 0.0 0.0 0.0 0.0 0.0
0.0 0.0 0.0 0.0 0.0 0.0 0.0 0.0
0.0 0.0 0.0 0.0 0.0 0.0 0.0 0.0
0.0 0.0 0.0 0.0 0.0 0.0 0.0 0.0
0.0 0.0 0.0 0.0 0.0 0.0 0.0 0.0
0.0 0.0 0.0 0.0 0.0 0.0 0.0 0.0
0.0 0.0 0.0 0.0 0.0 0.0 0.0 0.0

action_net.weight f4 [1, 64]
00000000: ad56 5dbf c51d a63d 3620 cdbe 3c1e 093f
00000010: a7f3 693f 2311 0e3f 24c5 96bf fe40 37bf
00000020: 8e47 ffbe 81ea 90be dc23 36bf c66b 91bf
00000030: 4b16 5a3e 857a eebe 61e2 2c3f 0ee8 8a3c
00000040: 902a fe3e 06cf 773f b2ea 22bf f79d 9c3e
00000050: 9c22 4c3e 8e03 17bf ef9b 44bf 21ea 813f
00000060: 7c94 48bf 99af 7abf 1e63 9a3c c5b7 29bf
00000070: 8d30 1dbf f3e0 f43e 830c 83bf 97e7 313f
00000080: 4ffd 673f 9016 2dbf 4ed3 133f b6cb 183f
00000090: f832 373c 8f24 593f 2dae b93e 785c 403f
000000a0: c331 0c3e d614 233f 40a8 3f3f c1da 2f3f
000000b0: d7a6 4c3f 32f3 303f 6bd2 c03e 8804 d4be
000000c0: a86d 25bf 6ae7 c9be e87a 733f 6297 443f
000000d0: 6e54 183f 496d 5ebf 86e3 7abf 9e17 2a3f
000000e0: f7c3 a93e 4139 093f c355 a33e f12b 28bf
000000f0: 961e 95be 4b70 56be bcce 83bf 56db 02bf
-0.8646038 0.08111147 -0.40063637 0.5356176 0.9138741 0.554949 -1.1778913 -0.71583545
-0.4985928 -0.28303912 -0.7114847 -1.1361015 0.21297567 -0.4657785 0.67532927 0.016956355
0.49641848 0.9680027 -0.63639367 0.30589268 0.19935077 -0.589898 -0.76800436 1.0149575
-0.7835157 -0.9792419 0.01884609 -0.66296035 -0.6140221 0.47827873 -1.0238193 0.69494003
0.90620893 -0.6761255 0.577443 0.5968584 0.0111815855 0.8482141 0.36265698 0.75141096
0.13690858 0.6370367 0.74866104 0.68693167 0.7994208 0.69121087 0.37660536 -0.41409707
-0.6462045 -0.39434367 0.95109415 0.7679349 0.5950383 -0.86885506 -0.98003423 0.66442287
0.33157322 0.5360299 0.31901368 -0.6569205 -0.29124898 -0.20941274 -1.0297465 -0.5111593

value_net.weight f4 [1, 64]
00000000: 80b1 40bc 6929 15bd 2456 8b3e 7e53 a43d
00000010: 869c 70bd ce3a 063e a2df 06be 101b 3bbe
00000020: e285 b23d 7546 1f3e 8940 123e 9073 49bd
00000030: e5b5 6e3e 9830 d9bd fdcb 6abd 7d80 183d
00000040: 201c 7e3e 779e 2dbe 0594 d6bd fdb4 893d
00000050: 0bc7 3bbe 1639 12bc 9d0b 3fbc dc9c 813d
00000060: 8414 143e ff54 e13d c6d9 39be 9cb3 e0bd
00000070: f644 56bd c087 b83c a94c 0f3e 65c6 023e
00000080: 54e6 273d 2273 9e3d e24f 5e3d 3b9d 263e
00000090: e23f 17bb 85f5 003e 068a 693e 64a4 42bd
000000a0: 2e8b c6bd c352 583d 53a4 e83c a463 9cbc
000000b0: 2099 9b3d aca0 7fbd 1b36 9cbd 7877 65bd
000000c0: 4538 13bd 37d7 b3bd 6f7d 113e 3348 23be
000000d0: 9b61 26bd ed4b 8fbd d26d 04be b276 1d3e
000000e0: 8fdf ad3d a830 163e 8d9b acbd c015 313d
000000f0: 3e3b 1abe 5e02 bc3e 42df b7bd f267 053e
-0.011761069 -0.036416445 0.27214158 0.08023737 -0.058743022 0.1310837 -0.13171247 -0.18272042
0.08716942 0.15554221 0.1428243 -0.049182475 0.23311575 -0.10604972 -0.057323445 0.03723191
0.24815416 -0.16954981 -0.10477451 0.06723974 -0.18337648 -0.008924743 -0.011660484 0.06328747
0.14460951 0.1100254 -0.1814948 -0.10971758 -0.05231186 0.022525668 0.13994087 0.12770994
0.040991142 0.077368036 0.0542754 0.16270916 -0.0023078849 0.12593658 0.22806558 -0.047520056
-0.09694515 0.052813303 0.028398668 -0.019090481 0.07597566 -0.062409088 -0.07627507 -0.056022137
-0.035942335 -0.08781283 0.14208005 -0.1594551 -0.040620428 -0.069969036 -0.12932518 0.1537731
0.08489906 0.14666998 -0.084281065 0.043233633 -0.15061662 0.36720556 -0.0897813 0.13027933
