policies/MountainCar/xavier_ppo_initialization.pt (torch, 40972 bytes, 10 tensors)

mlp_extractor.policy_net.0.weight f4 [64, 3]
0	0xbe06eda1	-0.13176586
1	0xbe3bfbc5	-0.18357761
2	0xbe1cd682	-0.15316203
3	0x3de27794	0.11057964
4	0x3e079440	0.13240147
5	0xbcd61380	-0.026132345
6	0x3cdbb4a0	0.026819527
7	0x3e823ec0	0.254385
8	0x3e9002f8	0.28127265
9	0xbd8b34fc	-0.06797215
10	0x3dca2da8	0.098719895
11	0x3d9d792c	0.07689127
12	0xbd676270	-0.05649036
13	0x3d27efd8	0.041000217
14	0xbd84d644	-0.064861804
15	0x3e3984c2	0.1811705
16	0x3e607c78	0.21922481
17	0xbd1226e8	-0.035681635
18	0x3e46ab30	0.1940124
19	0x3e65ac40	0.2242899
20	0xbe0e5084	-0.13897902
21	0xbe4af211	-0.19818904
22	0xbe1926f6	-0.14956269
23	0xbe5fcbf8	-0.21855152
24	0xbe3b816c	-0.1831109
25	0x3da0e184	0.07855514
26	0x3e2bec76	0.16789421
27	0xbe468fcb	-0.1939079
28	0xbe89ded3	-0.26927814
29	0x3d6aefe0	0.05735767
30	0xbe133bf3	-0.14378338
31	0xbcbabf50	-0.022796303
32	0x3e7871cc	0.2426216
33	0x3cb73ea0	0.02236873
34	0x3e92b284	0.28651822
35	0x3cb35520	0.021891177
36	0xbe0c42fd	-0.13697429
37	0x3df26abc	0.11836764
38	0xbe22c551	-0.15895583
39	0xbe2cb171	-0.16864564
40	0xbd975efe	-0.07391165
41	0x3d7bd908	0.061486274
42	0xbe24e5df	-0.16103314
43	0x3c0ff8e0	0.008787364
44	0xbe011340	-0.12605
45	0xbe801d29	-0.25022247
46	0xbe8fdf7b	-0.2810019
47	0xbe9907b2	-0.29888684
48	0xbe5b2020	-0.21398973
49	0x3dda5ee8	0.10662633
50	0x3d8ab534	0.06772843
51	0xbe0c8100	-0.13721085
52	0xbe21197f	-0.15732382
53	0xbdf58522	-0.11988284
54	0x3e839de6	0.25706404
55	0xbdf58ffc	-0.119903535
56	0xbd7546e0	-0.059882045
57	0x3da36004	0.07977298
58	0x3e4053ce	0.18781969
59	0x3dd8b858	0.10582036
60	0xbe800d88	-0.25010324
61	0x3e484eba	0.19561282
62	0xbe4858a4	-0.19565064
63	0xbe8c5349	-0.27407292
64	0xbe84aa6d	-0.25911275
65	0xbce96a60	-0.028493106
66	0xbe8f07e8	-0.2793572
67	0xbdea3536	-0.114359304
68	0xbe7a81bc	-0.24463552
69	0x3e73bb58	0.23801935
70	0x3e33336e	0.17500088
71	0x3dcffc6c	0.101555675
72	0xbd8588bc	-0.06520221
73	0xbd559f4c	-0.05215387
74	0x3e26276a	0.16225973
75	0x3df3ccf0	0.11904323
76	0xbd96aa4e	-0.07356702
77	0x3e1b119c	0.15143436
78	0xbd00bde8	-0.03143111
79	0x3dd59a08	0.1042977
80	0xbe5dea38	-0.21671379
81	0x3e94b166	0.29041594
82	0x3e62d9c0	0.22153378
83	0x3e15a320	0.14613008
84	0xbe51dc04	-0.20494086
85	0xbe933853	-0.2875391
86	0xbe00300b	-0.12518327
87	0x3e72fb40	0.23728657
88	0xbdc445ea	-0.095836475
89	0x3e0064fc	0.12538522
90	0xbe95bb58	-0.29244494
91	0xbdd90458	-0.10596532
92	0xbd65778c	-0.056022212
93	0xbe4ac800	-0.19802856
94	0xbe89b73f	-0.26897618
95	0xbdf12e36	-0.11776392
96	0x3e58ed60	0.21184301
97	0x3e945c4c	0.28976667
98	0xbdc05e64	-0.093930036
99	0x3e93f300	0.28896332
100	0x3d86d6e8	0.06583959
101	0xbe87c9ca	-0.2652114
102	0x3c1ddec0	0.009635627
103	0x3c0e9d80	0.008704543
104	0x3e0d74e8	0.13814127
105	0xbe904c6e	-0.2818331
106	0x3cd2c740	0.025729775
107	0xbe221173	-0.15826969
108	0x3e2f297c	0.17105669
109	0x3e117f34	0.1420868
110	0x3e8674c0	0.26260948
111	0x3e035932	0.12826994
112	0x3db77ac8	0.089589655
113	0x3e9050be	0.281866
114	0x3e93b8b0	0.28851843
115	0xbe0e55f7	-0.1389998
116	0x3d3fb330	0.046801746
117	0xbe944fea	-0.2896722
118	0xbe244cc7	-0.16044913
119	0xbd300870	-0.042976797
120	0x3e2eb6ba	0.17061892
121	0x3e2aa476	0.166643
122	0x3dce3c0c	0.10070047
123	0x3d68e258	0.056856483
124	0x3def3900	0.11680794
125	0x3e8b8218	0.2724769
126	0xbd5792e4	-0.05263032
127	0x3e7e3da8	0.24828207
128	0x3e3b2bb4	0.1827839
129	0xbe4606ff	-0.19338606
130	0xbe8bc166	-0.2729599
131	0xbcc067d0	-0.023487002
132	0xbd05a468	-0.032627493
133	0xbd093700	-0.033499718
134	0x3e6c9d28	0.23106825
135	0x3e0b7228	0.13617766
136	0x3e8f4112	0.27979332
137	0xbbfeb900	-0.0077735186
138	0xbd8d9da8	-0.06914836
139	0x3c5f4a80	0.013628602
140	0x3d10fe18	0.035398573
141	0xbe076617	-0.13222538
142	0x3e6583e8	0.224136
143	0x3e8c24c2	0.27371794
144	0x3e59593c	0.21225446
145	0x3e038028	0.12841856
146	0xbe16a9fe	-0.14713284
147	0x3e24278c	0.16030711
148	0xbe77c2ea	-0.24195448
149	0xbe8f8fb8	-0.28039336
150	0xbe09c1f1	-0.13452889
151	0xbe70e442	-0.23524573
152	0x3e898478	0.26858878
153	0x3e839380	0.2569847
154	0xbe970d34	-0.2950226
155	0xbd42f1a8	-0.047593743
156	0x3d7bdce0	0.06148994
157	0x3e5e412c	0.21704549
158	0xbe02ab2c	-0.1276061
159	0xbe00a625	-0.12563379
160	0x3d30eb88	0.04319337
161	0xbe077fb6	-0.13232312
162	0xbe8742d0	-0.2641816
163	0xbe922421	-0.2854319
164	0xbdb03524	-0.08603886
165	0x3e568c44	0.20951945
166	0xbd630260	-0.055422187
167	0xbe849fab	-0.25903067
168	0xbb3c5000	-0.0028734207
169	0xbd6a965c	-0.0572723
170	0x3e967686	0.293873
171	0xbcd94420	-0.026521742
172	0x3caf1da0	0.021376431
173	0xbcebbde0	-0.028777063
174	0x3d1bd1e0	0.03804195
175	0xbe7da3f8	-0.2476958
176	0xbdbf5084	-0.09341529
177	0xbe162f4f	-0.14666484
178	0x3dc032bc	0.09384677
179	0x3d90dd74	0.07073489
180	0x3e45a812	0.19302395
181	0xbe8fd509	-0.2809222
182	0xbe97099b	-0.29499516
183	0x3cda1370	0.026620597
184	0x3e400106	0.1875039
185	0x3e448048	0.1918956
186	0xbd96b996	-0.073596165
187	0xbe72baca	-0.23704067
188	0xbc53c260	-0.012924761
189	0xbe641f7a	-0.22277632
190	0x3d7a9468	0.061176687
191	0x3da9b32c	0.082861274

mlp_extractor.policy_net.0.bias f4 [64]
0	0x00000000	0.0
1	0x00000000	0.0
2	0x00000000	0.0
3	0x00000000	0.0
4	0x00000000	0.0
5	0x00000000	0.0
6	0x00000000	0.0
7	0x00000000	0.0
8	0x00000000	0.0
9	0x00000000	0.0
10	0x00000000	0.0
11	0x00000000	0.0
12	0x00000000	0.0
13	0x00000000	0.0
14	0x00000000	0.0
15	0x00000000	0.0
16	0x00000000	0.0
17	0x00000000	0.0
18	0x00000000	0.0
19	0x00000000	0.0
20	0x00000000	0.0
21	0x00000000	0.0
22	0x00000000	0.0
23	0x00000000	0.0
24	0x00000000	0.0
25	0x00000000	0.0
26	0x00000000	0.0
27	0x00000000	0.0
28	0x00000000	0.0
29	0x00000000	0.0
30	0x00000000	0.0
31	0x00000000	0.0
32	0x00000000	0.0
33	0x00000000	0.0
34	0x00000000	0.0
35	0x00000000	0.0
36	0x00000000	0.0
37	0x00000000	0.0
38	0x00000000	0.0
39	0x00000000	0.0
40	0x00000000	0.0
41	0x00000000	0.0
42	0x00000000	0.0
43	0x00000000	0.0
44	0x00000000	0.0
45	0x00000000	0.0
46	0x00000000	0.0
47	0x00000000	0.0
48	0x00000000	0.0
49	0x00000000	0.0
50	0x00000000	0.0
51	0x00000000	0.0
52	0x00000000	0.0
53	0x00000000	0.0
54	0x00000000	0.0
55	0x00000000	0.0
56	0x00000000	0.0
57	0x00000000	0.0
58	0x00000000	0.0
59	0x00000000	0.0
60	0x00000000	0.0
61	0x00000000	0.0
62	0x00000000	0.0
63	0x00000000	0.0

mlp_extractor.policy_net.2.weight f4 [64, 64]
0	0x3d30da9c	0.043177232
1	0x3e2d3ec3	0.16918473
2	0x3c900858	0.017582104
3	0x3e402fef	0.18768285
4	0xbe14191c	-0.14462703
5	0xbde3e00a	-0.111267164
6	0xbbb8f400	-0.0056443214
7	0xbe1c1efa	-0.15246192
8	0x3d48fccc	0.04906921
9	0x3e33a8e5	0.17544897
10	0x3e0e2623	0.13881736
11	0xbb8883a0	-0.0041660815
12	0x3e52fdad	0.20604582
13	0xbdf632ef	-0.120214336
14	0x3df338ae	0.11876045
15	0x3ce948a0	0.028477013
16	0xbe2aa954	-0.16666156
17	0x3d04d3dc	0.032428607
18	0x3e443dad	0.19164152
19	0xbda265ee	-0.07929598
20	0xbe5cff54	-0.21581775
21	0xbd531b3c	-0.051539645
22	0x3e0eca13	0.13944273
23	0x3e419a45	0.18906505
24	0x3ddea9da	0.1087224
25	0xbce0b120	-0.02742821
26	0xbb2f9400	-0.0026791096
27	0x3d7851ec	0.060625
28	0x3e2cd329	0.16877426
29	0xbbf54420	-0.007484928
30	0xbe02c18c	-0.12769145
31	0xbe1bf4a0	-0.15230036
32	0xbe528dfa	-0.20561972
33	0x3dc5527a	0.09634872
34	0x3e4f603b	0.20251553
35	0xbe15f070	-0.14642501
36	0x3cf627e8	0.030048326
37	0xbcaec9a0	-0.021336377
38	0x3e2b5b0b	0.16733949
39	0x3e1a65b5	0.1507786
40	0x3ce4c618	0.02792649
41	0x3cf8b658	0.030360386
42	0x3d88dc7a	0.066826776
43	0x3ce3f3d0	0.02782622
44	0x3e1f1fdb	0.15539496
45	0x3ca0f3a8	0.019647434
46	0xbd94b9dc	-0.07262012
47	0xbd8352e0	-0.064122915
48	0x3e039e4b	0.12853353
49	0x3e4fa879	0.20279111
50	0x3e16fb67	0.1474434
51	0x3d2fc6dc	0.042914256
52	0x3d6f0ddc	0.058362827
53	0x3db48d72	0.08816041
54	0xbe508786	-0.20364198
55	0xbe4ef5d8	-0.2021097
56	0x3e4a5ccf	0.19761966
57	0xbc61da00	-0.013784885
58	0x3cf70f68	0.030158713
59	0xbe34e1ce	-0.17664263
60	0x3d2ccc74	0.04218717
61	0xbd400540	-0.046880007
62	0xbd9e97e4	-0.077438146
63	0x3e077ec5	0.13231952
64	0xbe0eb6c2	-0.13936904
65	0x3dabfed2	0.083982125
66	0xbc4ac590	-0.012376204
67	0x3c4e2f10	0.012584463
68	0xbe0f20ea	-0.139774
69	0x3d7027a4	0.058631554
70	0x3e12aab5	0.14322932
71	0x3d39ebdc	0.04539095
72	0xbd9cf91e	-0.07664703
73	0xbe12e6fe	-0.14345929
74	0x3d336494	0.04379709
75	0xbe5d9f3d	-0.21642776
76	0x3d5a2494	0.05325754
77	0x3e3115bb	0.17293446
78	0xbd50bba8	-0.050960213
79	0x3d8a0fe6	0.06741314
80	0xbd9f9b86	-0.077933356
81	0x3bcddfe0	0.0062827915
82	0xbdf168fe	-0.11787604
83	0x3cd94b88	0.026525274
84	0x3be3a420	0.0069470555
85	0xbd839c8e	-0.06426345
86	0x3e2de26b	0.16980903
87	0xbc7f5d20	-0.015586168
88	0x3e27ec41	0.16398717
89	0x3c5fb510	0.0136540085
90	0x3e0f5037	0.13995443
91	0x3e4f85ab	0.20265834
92	0x3e3ba9fb	0.18326561
93	0x3d34924c	0.044084832
94	0x3e0d7daf	0.13817476
95	0xbc2a31a0	-0.010387808
96	0xbd84c8d6	-0.06483619
97	0x3cae6b08	0.02129127
98	0xbd4d7d84	-0.05016853
99	0x3e30e577	0.17275034
100	0xbe3d1128	-0.18463576
101	0xbcca99b8	-0.024731502
102	0xbe4e6956	-0.2015737
103	0x3d264b04	0.040598884
104	0x3e58f131	0.21185757
105	0xbc77e430	-0.015130088
106	0xbdd8652e	-0.105661735
107	0xbe36b4bd	-0.17842384
108	0xbe068670	-0.13137221
109	0x3e5721fd	0.21009059
110	0xbd4fe4c0	-0.050755262
111	0x3dcc8636	0.09986536
112	0xbe01af4c	-0.12664527
113	0xba9d6a00	-0.001200974
114	0xbe3f03c7	-0.18653785
115	0x3e4a1405	0.197342
116	0x3e30cdeb	0.17266051
117	0xbda9397c	-0.082629174
118	0xbdb485e6	-0.088146016
119	0x3cf57338	0.029962167
120	0x3e3932e3	0.18085818
121	0xbce4c4d0	-0.027925879
122	0x3e2fbd27	0.17162
123	0x3e1e2c35	0.15446551
124	0xbc1e2560	-0.009652466
125	0xbddae00c	-0.10687265
126	0xbe27f006	-0.16400155
127	0x3dda0592	0.10645594
128	0xbcc75e70	-0.024337023
129	0xbde828d2	-0.11335911
130	0x3e0e2909	0.13882841
131	0xbe310cd8	-0.17290056
132	0xbe0fc024	-0.1403814
133	0xbc8ded30	-0.017325014
134	0x3dc293c6	0.09500842
135	0xbddda823	-0.10823085
136	0x3dccf906	0.10008435
137	0xbe2e60b6	-0.1702908
138	0xbe5496d2	-0.20760658
139	0xbd99cf98	-0.075102985
140	0x3ad6bf80	0.0016383976
141	0x3e470cc5	0.19438465
142	0x3e11c827	0.14236508
143	0x3e2de04b	0.16980092
144	0xbe4e1fac	-0.2012927
145	0xbe5664d2	-0.20936897
146	0x3def90f2	0.11697568
147	0xbd49c17c	-0.049256787
148	0x3da77156	0.08175914
149	0xbda45970	-0.08024871
150	0x3de1e05a	0.1102912
151	0x3d302ef4	0.043013528
152	0xbda80200	-0.082035065
153	0xbb7b25c0	-0.0038322061
154	0xbd5e5878	-0.05428359
155	0xbd01b318	-0.031664938
156	0x3e1e26f5	0.15444548
157	0x3e38ee15	0.18059571
158	0xbd8b5d7c	-0.0680494
159	0xbd6bd9f8	-0.057580918
160	0x3df34eae	0.11880241
161	0x3e417a29	0.18894257
162	0x3df6aaae	0.12044273
163	0x3e15c5d9	0.14626254
164	0xbdc6c110	-0.097047925
165	0xbdc6b93a	-0.09703298
166	0xbe00f2a4	-0.1259256
167	0x3bf12440	0.0073590577
168	0x3cac2068	0.021011546
169	0x3dad427e	0.08459948
170	0x3dbd1a96	0.092335865
171	0x3da97f16	0.08276193
172	0xbdd1e5b9	-0.10248894
173	0xbd951838	-0.0728001
174	0xbe423e90	-0.18969178
175	0xbd6b5594	-0.05745466
176	0xbe44277d	-0.19155689
177	0xbd5c3ce0	-0.053768992
178	0x3de55656	0.11198108
179	0xbd2e1cbc	-0.042507872
180	0x3e39409d	0.18091054
181	0x3e466a6d	0.19376536
182	0xbe358841	-0.17727758
183	0x3cdbdef0	0.026839703
184	0x3e15d1e3	0.14630847
185	0xbcacd818	-0.021099135
186	0xbe3a5527	-0.18196546
187	0xbb2b9c40	-0.0026185662
188	0x3d7a8e94	0.06117113
189	0x3e5d4ea9	0.21612038
190	0xbd6b44bc	-0.057438597
191	0x3e59c0f1	0.21265008
192	0x3e1edf65	0.15514906
193	0x3e4bbfbb	0.19897358
194	0x3e2bfdab	0.16795985
195	0xbd50ff14	-0.05102451
196	0xbda2b33c	-0.079443425
197	0x3ce6c7e0	0.02817148
198	0xbe22f215	-0.1591266
199	0x3df9980e	0.12187205
200	0x3e2d4685	0.16921432
201	0x3dd80292	0.10547365
202	0xbe14e68c	-0.14541072
203	0xbe0d4e4d	-0.137994
204	0x3e22f0a3	0.15912108
205	0x3e14d199	0.1453308
206	0xbd8061b0	-0.062686324
207	0xbd232ac4	-0.039835706
208	0x3e3e9b9b	0.18614046
209	0xbd664b94	-0.05622442
210	0x3c5a70c0	0.013332546
211	0xbe1863a8	-0.14881766
212	0xbca193d0	-0.019723803
213	0x3b8e9c60	0.0043521374
214	0xbe5c5add	-0.21519037
215	0x3d96d32a	0.07364495
216	0xbd962dd8	-0.07332963
217	0xbe5c5fa6	-0.21520862
218	0xbdeae7d4	-0.11469999
219	0x3ddd4bae	0.108054504
220	0xbdcebc84	-0.1009455
221	0xbe0321f2	-0.12805918
222	0x3c8e2010	0.017349273
223	0xbe44b3a8	-0.19209158
224	0xbe053e70	-0.130121
225	0x3d97706e	0.07394491
226	0xbda5c246	-0.08093695
227	0xbd3d3988	-0.046197444
228	0x3cae5c50	0.021284252
229	0x3ddc2022	0.10748316
230	0xbd1d7bbc	-0.03844808
231	0xbd37f0c8	-0.04490736
232	0x3e2880c9	0.16455378
233	0xbb624dc0	-0.0034531206
234	0xbe3397e0	-0.17538404
235	0x3e33ce97	0.17559277
236	0x3dcb2a5a	0.09920187
237	0xbd919f18	-0.07110423
238	0x3d263014	0.040573195
239	0x3e4de9a5	0.2010866
240	0xbe2780f6	-0.16357788
241	0xbaadf900	-0.001327306
242	0x3b428040	0.0029678494
243	0xbe062eac	-0.13103741
244	0x3e1085ef	0.14113592
245	0x3dbbd2a6	0.091710374
246	0xbe5ce116	-0.21570238
247	0x3d6b1b84	0.057399288
248	0x3d7d458c	0.061833903
249	0x3de902da	0.11377497
250	0x3dbd04f6	0.09229462
251	0x3dfd0a9a	0.12355538
252	0xbe1404be	-0.14454934
253	0x3e4ebbf7	0.2018889
254	0xbd953136	-0.07284777
255	0x3d749024	0.059707776

mlp_extractor.policy_net.2.bias f4 [64]
0	0x00000000	0.0
1	0x00000000	0.0
2	0x00000000	0.0
3	0x00000000	0.0
4	0x00000000	0.0
5	0x00000000	0.0
6	0x00000000	0.0
7	0x00000000	0.0
8	0x00000000	0.0
9	0x00000000	0.0
10	0x00000000	0.0
11	0x00000000	0.0
12	0x00000000	0.0
13	0x00000000	0.0
14	0x00000000	0.0
15	0x00000000	0.0
16	0x00000000	0.0
17	0x00000000	0.0
18	0x00000000	0.0
19	0x00000000	0.0
20	0x00000000	0.0
21	0x00000000	0.0
22	0x00000000	0.0
23	0x00000000	0.0
24	0x00000000	0.0
25	0x00000000	0.0
26	0x00000000	0.0
27	0x00000000	0.0
28	0x00000000	0.0
29	0x00000000	0.0
30	0x00000000	0.0
31	0x00000000	0.0
32	0x00000000	0.0
33	0x00000000	0.0
34	0x00000000	0.0
35	0x00000000	0.0
36	0x00000000	0.0
37	0x00000000	0.0
38	0x00000000	0.0
39	0x00000000	0.0
40	0x00000000	0.0
41	0x00000000	0.0
42	0x00000000	0.0
43	0x00000000	0.0
44	0x00000000	0.0
45	0x00000000	0.0
46	0x00000000	0.0
47	0x00000000	0.0
48	0x00000000	0.0
49	0x00000000	0.0
50	0x00000000	0.0
51	0x00000000	0.0
52	0x00000000	0.0
53	0x00000000	0.0
54	0x00000000	0.0
55	0x00000000	0.0
56	0x00000000	0.0
57	0x00000000	0.0
58	0x00000000	0.0
59	0x00000000	0.0
60	0x00000000	0.0
61	0x00000000	0.0
62	0x00000000	0.0
63	0x00000000	0.0

mlp_extractor.value_net.0.weight f4 [64, 3]
0	0x3dca88ac	0.09889349
1	0x3c64f520	0.013974458
2	0xbdfe3890	-0.12413132
3	0x3e53e4a4	0.20692688
4	0x3d2e2988	0.042520076
5	0xbe8b7481	-0.27237323
6	0xbe555b8a	-0.208357
7	0xbcaac490	-0.020845681
8	0x3d9c3284	0.076268226
9	0x3dd6cde8	0.10488492
10	0x3e11baca	0.1423141
11	0x3e26d768	0.16293108
12	0x3d381040	0.044937372
13	0xbe590fce	-0.21197435
14	0xbdd1d996	-0.10246579
15	0xbdb20642	-0.086926
16	0x3d8973b8	0.06711525
17	0xbe7f99bb	-0.24960987
18	0x3bb3bf00	0.0054854155
19	0xbd851e76	-0.064999506
20	0xbe5d8af4	-0.21635038
21	0xbc8740b0	-0.016510338
22	0x3e65cac0	0.22440624
23	0xbe36312e	-0.17792198
24	0xbd730074	-0.059326604
25	0x3e3740b6	0.17895779
26	0x3cb27d30	0.02178821
27	0x3e0ea2ee	0.1392934
28	0xbe3c9a58	-0.18418252
29	0x3e8e0628	0.27739072
30	0x3d8a3ad0	0.06749499
31	0xbe319e85	-0.17345627
32	0xbe666234	-0.22498399
33	0x3dff1118	0.12454432
34	0x3e755b48	0.23960602
35	0xbe8f839d	-0.280301
36	0x3baa5140	0.005197674
37	0x3e653818	0.2238468
38	0xbe3a0656	-0.1816648
39	0x3df40328	0.119146645
40	0x3d8080a0	0.06274533
41	0xbe2c2461	-0.16810752
42	0xbe6834ac	-0.22676343
43	0x3e07843a	0.13234034
44	0xbe1a1c52	-0.15049866
45	0x3dbef72c	0.09324488
46	0x3e93d0a2	0.28870112
47	0x3e379ca8	0.17930853
48	0x3d00d2a8	0.031450897
49	0xbd5d1264	-0.053972617
50	0xbe889e8a	-0.26683456
51	0x3da7b624	0.081890374
52	0x3e917e24	0.2841655
53	0x3e32d6fe	0.17464826
54	0x3e91b4c6	0.28458232
55	0xbe6a3cd4	-0.22874767
56	0x3e83aa18	0.2571571
57	0x3e75b760	0.23995733
58	0xbdf84124	-0.121217996
59	0xbdf52b44	-0.11971143
60	0x3dd141c8	0.10217625
61	0x3d89e570	0.06733215
62	0xbdf542ca	-0.1197563
63	0x3d23c608	0.03998378
64	0x3e6aac80	0.22917366
65	0xbdd7eb66	-0.105429456
66	0xbdb91cf6	-0.09038727
67	0x3a81ec00	0.0009912252
68	0xbe62667b	-0.22109406
69	0xbe1b1d93	-0.15148
70	0xbe3c47ae	-0.18386719
71	0x3e68df10	0.22741342
72	0x3e5dfb80	0.21677971
73	0x3e2fe62e	0.1717765
74	0xbd9caa42	-0.076496616
75	0x3e68aafc	0.22721475
76	0x3e7e89f0	0.24857306
77	0x3d117718	0.035513967
78	0xbe6927d8	-0.22769105
79	0xbd9e8898	-0.07740897
80	0x3e28c30e	0.16480657
81	0xbe180cef	-0.14848684
82	0x3e7537ac	0.23947018
83	0xbe8a4f7c	-0.27013767
84	0xbd93c25c	-0.072148055
85	0x3deb461c	0.11487982
86	0xbccedc80	-0.025251627
87	0x3e3343b0	0.1750629
88	0x3e10a53a	0.14125529
89	0xbd899938	-0.06718677
90	0xbd825e48	-0.06365639
91	0x3e0ac0a8	0.13550055
92	0x3e0582d6	0.13038191
93	0xbd828c7a	-0.0637445
94	0x3e628d20	0.22124147
95	0x3e589930	0.21152186
96	0xbe2ea779	-0.17056073
97	0x3e8f87b0	0.2803321
98	0x3e17d9a4	0.14829117
99	0xbe002228	-0.1251303
100	0xbe75a3e6	-0.23988304
101	0xbd109950	-0.03530246
102	0xbe431f9e	-0.1905503
103	0xbe35d244	-0.17755991
104	0xbe2e7048	-0.1703502
105	0xbe111f43	-0.14172082
106	0x3e62fe10	0.2216723
107	0xbe88edd3	-0.26743945
108	0x3ddce3e0	0.10785651
109	0x3e4d7576	0.20064339
110	0x3e811946	0.25214595
111	0xbc923c50	-0.017851025
112	0xbdda8848	-0.10670525
113	0x3cdb9d40	0.026808381
114	0x3d048e28	0.032362133
115	0xbb58a700	-0.0033058524
116	0xbb29d980	-0.0025916994
117	0xbe5522ae	-0.2081401
118	0xbd6d69e0	-0.0579623
119	0x3dd29cf0	0.1028384
120	0xbe0abfa0	-0.13549662
121	0x3e7ff274	0.24994832
122	0xbdcdf918	-0.100572765
123	0xbe7d2ed0	-0.24724889
124	0x3e840492	0.25784737
125	0x3e3b3afc	0.1828422
126	0xbe37a824	-0.17935234
127	0x3d954998	0.072894275
128	0x3e0c6bf8	0.13713062
129	0xbe3a4f5c	-0.18194336
130	0x3da6aac4	0.0813804
131	0xbe3b1490	-0.18269563
132	0x3e0f97ba	0.14022723
133	0xbe7c2c2c	-0.24626225
134	0x3bc83f80	0.0061110854
135	0xbe8c2acb	-0.27376398
136	0x3dc732b0	0.09726465
137	0x3e2944ca	0.16530147
138	0xbe27953d	-0.16365524
139	0xbcfb4bd0	-0.030675799
140	0xbe3aa4b4	-0.18226892
141	0x3d7d6af8	0.06186959
142	0xbe649994	-0.2232421
143	0xbe04f174	-0.12982732
144	0xbe57c7fe	-0.21072385
145	0xbc843000	-0.01613617
146	0xbe46071c	-0.1933865
147	0xbe3616fe	-0.17782208
148	0x3e3cc454	0.18434268
149	0xbe592606	-0.21205911
150	0x3db98094	0.090577275
151	0xbe8f5e47	-0.28001615
152	0x3daaa0c0	0.08331442
153	0x3e27b074	0.16375905
154	0x3dc612b8	0.09671539
155	0xbe21921b	-0.15778391
156	0x3e81cec6	0.25353068
157	0xbe717d50	-0.23582959
158	0xbdf2a080	-0.11847019
159	0xbe904f34	-0.28185427
160	0xbd8feb2e	-0.07027279
161	0xbe706aa4	-0.2347818
162	0x3e4ec460	0.20192099
163	0xbe862756	-0.26201886
164	0x3e7e4864	0.24832302
165	0x3dd4dcb8	0.10393661
166	0x3e4f3c64	0.20237881
167	0x3db31560	0.08744311
168	0xbe2005ac	-0.15627164
169	0xbe533e82	-0.20629314
170	0x3dd5bb74	0.104361445
171	0x3e0d9736	0.13827214
172	0xbe2738e6	-0.16330299
173	0xbe741a7a	-0.23838225
174	0xbcde4d30	-0.027136415
175	0xbd8ec594	-0.06971279
176	0xbda1b28e	-0.07895385
177	0xbc0ce0e0	-0.008598536
178	0x3e66f1b0	0.22553134
179	0x3e841386	0.25796145
180	0x3e6b354c	0.2296955
181	0xbbb29a40	-0.005450517
182	0x3e808846	0.25103968
183	0x3e64cb10	0.22343087
184	0x3e92482e	0.28570694
185	0x3e61400c	0.21997088
186	0xbddd4790	-0.10804665
187	0x3e581934	0.21103364
188	0x3e83252e	0.25614303
189	0xbd870a0e	-0.06593715
190	0x3e863e44	0.2621938
191	0x3e00d0fe	0.12579724

mlp_extractor.value_net.0.bias f4 [64]
0	0x00000000	0.0
1	0x00000000	0.0
2	0x00000000	0.0
3	0x00000000	0.0
4	0x00000000	0.0
5	0x00000000	0.0
6	0x00000000	0.0
7	0x00000000	0.0
8	0x00000000	0.0
9	0x00000000	0.0
10	0x00000000	0.0
11	0x00000000	0.0
12	0x00000000	0.0
13	0x00000000	0.0
14	0x00000000	0.0
15	0x00000000	0.0
16	0x00000000	0.0
17	0x00000000	0.0
18	0x00000000	0.0
19	0x00000000	0.0
20	0x00000000	0.0
21	0x00000000	0.0
22	0x00000000	0.0
23	0x00000000	0.0
24	0x00000000	0.0
25	0x00000000	0.0
26	0x00000000	0.0
27	0x00000000	0.0
28	0x00000000	0.0
29	0x00000000	0.0
30	0x00000000	0.0
31	0x00000000	0.0
32	0x00000000	0.0
33	0x00000000	0.0
34	0x00000000	0.0
35	0x00000000	0.0
36	0x00000000	0.0
37	0x00000000	0.0
38	0x00000000	0.0
39	0x00000000	0.0
40	0x00000000	0.0
41	0x00000000	0.0
42	0x00000000	0.0
43	0x00000000	0.0
44	0x00000000	0.0
45	0x00000000	0.0
46	0x00000000	0.0
47	0x00000000	0.0
48	0x00000000	0.0
49	0x00000000	0.0
50	0x00000000	0.0
51	0x00000000	0.0
52	0x00000000	0.0
53	0x00000000	0.0
54	0x00000000	0.0
55	0x00000000	0.0
56	0x00000000	0.0
57	0x00000000	0.0
58	0x00000000	0.0
59	0x00000000	0.0
60	0x00000000	0.0
61	0x00000000	0.0
62	0x00000000	0.0
63	0x00000000	0.0

mlp_extractor.value_net.2.weight f4 [64, 64]
0	0xbc8e3688	-0.017359987
1	0x3e2b022d	0.16700049
2	0xbe507034	-0.20355302
3	0x3e4808c5	0.19534595
4	0x3e3ab8f1	0.18234612
5	0x3b976a00	0.0046207905
6	0x3cc7a288	0.024369493
7	0x3cfbda58	0.030743763
8	0x3d4c95c4	0.049947515
9	0x3bda54a0	0.00666292
10	0xbdde99ef	-0.10869204
11	0x3e398ea9	0.18120827
12	0x3c889f30	0.016677469
13	0xbe4e3518	-0.20137441
14	0xbe060b9e	-0.13090369
15	0x3dc4700e	0.09591685
16	0x3d60862c	0.054815456
17	0xbcb3e850	-0.021961361
18	0xbe513da9	-0.20433678
19	0x3db04e4e	0.086086854
20	0xbdce3f25	-0.100706376
21	0xbe2903c2	-0.1650534
22	0x3e456edb	0.1928057
23	0x3e2f0d87	0.17095004
24	0xbe2dba06	-0.16965494
25	0xbd377108	-0.04478553
26	0x3e4bcaf3	0.19901638
27	0x3e59984f	0.21249507
28	0xbdde9663	-0.10868528
29	0xbe29fae0	-0.16599607
30	0xbcbd4308	-0.023103252
31	0x3e07e8df	0.13272427
32	0x3e4b7ce1	0.19871856
33	0x3d82f89e	0.06395076
34	0xbc5668d0	-0.013086513
35	0x3e1ce2fd	0.15320964
36	0xbd811fba	-0.063048795
37	0x3e590b31	0.21195675
38	0x3da7eac2	0.081990734
39	0xbdcb9de1	-0.099422224
40	0xbd973f22	-0.073850885
41	0xbe4a23c7	-0.1974021
42	0xbdde9bd4	-0.108695656
43	0x3e4dd2ef	0.20099996
44	0xbdba9be2	-0.091117635
45	0x3e4ef439	0.20210351
46	0x3d1cac54	0.038250282
47	0xbd3fc114	-0.046814993
48	0xbdd30411	-0.1030351
49	0x3e205177	0.15656076
50	0xbe4dd85c	-0.20102066
51	0x3b1bcfc0	0.0023774952
52	0x3dae2dce	0.0850483
53	0xbd923b1c	-0.071401805
54	0xbd4d7c2c	-0.050167248
55	0xbd8f0698	-0.069836795
56	0x3d0f8be4	0.03504552
57	0x3cbdaf10	0.023154765
58	0xbe0e32d4	-0.13886577
59	0xbd966190	-0.07342827
60	0xbe1d836f	-0.15382169
61	0x3dfae29a	0.12250252
62	0xbded2608	-0.115795195
63	0x3dd97b2a	0.10619195
64	0x3e46a931	0.19400479
65	0x3e3b8009	0.1831056
66	0x3d997cc2	0.07494499
67	0xbe1f6b55	-0.15568288
68	0x3c77cfa0	0.015125185
69	0x3d1cf7ac	0.038322136
70	0xbd98cdc6	-0.07461123
71	0x3e02d991	0.12778307
72	0xbe0065ab	-0.12538783
73	0x3d43cfa4	0.047805443
74	0x3d51afb4	0.051192954
75	0x3d7d674c	0.06186609
76	0xbdd7990b	-0.105272375
77	0x3ccc3d28	0.024931505
78	0x3e2e90f9	0.1704749
79	0xbd9c1298	-0.07620734
80	0xbd63e5dc	-0.055639133
81	0x3e455505	0.19270714
82	0x3e102e8d	0.14080258
83	0xbdb027e4	-0.086013585
84	0x3d07c8dc	0.03315054
85	0xbd91e992	-0.07124628
86	0x3e00c127	0.12573682
87	0x3ce40b98	0.02783756
88	0xbdb06e34	-0.086147696
89	0xbc227b50	-0.009917095
90	0xbe59c359	-0.21265925
91	0xbda13a34	-0.078724295
92	0xbe2a571e	-0.16634795
93	0x3d92d6fe	0.07169913
94	0xbe5a3e32	-0.21312788
95	0xbe58488e	-0.21121427
96	0xbe444b8e	-0.19169447
97	0x3d9a3d7a	0.07531257
98	0x3deac662	0.1146362
99	0xbb34a1c0	-0.002756223
100	0x3e2dd6df	0.16976498
101	0xbe023b4c	-0.12717932
102	0x3d0040a0	0.03131163
103	0x3c627d40	0.013823807
104	0x3d58d0ec	0.05293362
105	0xbe4929c1	-0.19644834
106	0x3e247e7f	0.1606388
107	0xbe58ca91	-0.21171023
108	0x3e449d1f	0.19200562
109	0x3e4f255b	0.20229094
110	0xbe0f58f9	-0.13998784
111	0xbdd1a6e2	-0.102369085
112	0x3d1b5724	0.0379249
113	0x3d48f54c	0.04906206
114	0xbd12346c	-0.035694525
115	0x3db0c812	0.086319104
116	0xbb8475e0	-0.004042372
117	0x3d2e2b6c	0.04252188
118	0xbd82452a	-0.06360848
119	0x3db1caf6	0.0868129
120	0x3e32dd83	0.17467313
121	0x3e331b97	0.17490993
122	0x3d9057ce	0.070479974
123	0xbd74703c	-0.059677348
124	0x3ce54180	0.027985334
125	0x3d97444e	0.07386075
126	0x3dd70f96	0.1050102
127	0xbe022e8d	-0.1271307
128	0xbe526905	-0.20547874
129	0x3e0a1995	0.13486321
130	0x3e372685	0.17885788
131	0x3d984552	0.07435097
132	0x3c0f80e0	0.008758754
133	0xbe58c896	-0.21170267
134	0xbd82e688	-0.063916266
135	0x3d84d5da	0.064861014
136	0xbe06570a	-0.1311914
137	0xbe1b8aa0	-0.151896
138	0x3dca0ff6	0.098663256
139	0xbca61fa0	-0.020278752
140	0xbd8f3358	-0.06992215
141	0xbe0e1fa0	-0.13879251
142	0x3e09d8c3	0.13461594
143	0x3d99fd1a	0.075189784
144	0x3e0cf91f	0.13766907
145	0xbe37105c	-0.17877334
146	0xbe3fd116	-0.18732104
147	0x3cacbca0	0.021086037
148	0x3e1365b5	0.14394267
149	0x3db4275e	0.08796571
150	0xbdf9d0b3	-0.12198009
151	0x3db22516	0.0869848
152	0x3cff2340	0.031144738
153	0x3ca7e0e0	0.020492971
154	0xbde83290	-0.11337769
155	0x3ddf546e	0.109047756
156	0x3de8451a	0.11341305
157	0xbe3b9098	-0.18316877
158	0x3ab28d80	0.0013622493
159	0xbd45bb98	-0.048274606
160	0x3dd405f6	0.103526995
161	0xbe428cbe	-0.18999001
162	0xbe5d029f	-0.21583031
163	0x3df308b6	0.11866896
164	0x3e1fde17	0.15612064
165	0x3e36b04d	0.17840691
166	0x3db850fe	0.08999823
167	0xbe4bbca5	-0.19896181
168	0xbd1895c8	-0.037252218
169	0xbde5c31e	-0.11218856
170	0xbe1c4694	-0.15261298
171	0x3d4d2e5c	0.05009304
172	0x3e17a7c7	0.14810096
173	0xbcc84410	-0.024446517
174	0xbd54d89c	-0.051964387
175	0xbc8f6318	-0.017503306
176	0xbde41c6b	-0.11138233
177	0x3ddcff12	0.10790838
178	0x3e1cab1f	0.15299653
179	0x3cd196e0	0.025584638
180	0xbdcce59a	-0.100047305
181	0x3d88fd86	0.06688981
182	0xbda3bb1e	-0.07994674
183	0xbe06b2ed	-0.13154192
184	0xbe53b4be	-0.20674416
185	0xbe443320	-0.19160128
186	0x3db0ede2	0.086391225
187	0xbe307cc4	-0.17235094
188	0xbd8ca62c	-0.06867632
189	0xbda7f076	-0.08200161
190	0xbcfce130	-0.030869097
191	0xbde5b8e7	-0.11216908
192	0x3cddcbb8	0.02707468
193	0x3e592935	0.21207125
194	0xbd5a73b4	-0.053333
195	0xbde065f8	-0.10956949
196	0x3e46085d	0.19339128
197	0xbdf7577d	-0.12077234
198	0xbc93a7f0	-0.018024415
199	0x3d1bf224	0.03807272
200	0xbe38f35e	-0.18061587
201	0xbe057dc0	-0.13036251
202	0x3dbd065e	0.0922973
203	0x3dc78c46	0.09743552
204	0xbd485cfc	-0.0489168
205	0xbd6b9a64	-0.057520285
206	0xbde60797	-0.112319164
207	0xbbcd3280	-0.0062621236
208	0x3e4982d1	0.19678809
209	0xbda8ce5c	-0.08242485
210	0xbd8d3f64	-0.068968564
211	0xbc553d10	-0.013015047
212	0xbe02cafe	-0.12772748
213	0x3e3ceefd	0.18450542
214	0xbe0955d4	-0.13411647
215	0x3d2d7bbc	0.04235433
216	0x3e0f089b	0.13968126
217	0xbd9c1010	-0.07620251
218	0xbe0994b2	-0.13435629
219	0x3ca7d358	0.020486519
220	0xbd9d0e3e	-0.07668732
221	0xbe079290	-0.13239503
222	0x3e31ec6b	0.17375343
223	0xbdcd32e8	-0.10019475
224	0x3dbeb7d2	0.09312405
225	0x3c218d60	0.009860367
226	0x3dfbde52	0.122982636
227	0xbded8aa3	-0.115987085
228	0x3e26436b	0.16236655
229	0x3db7c646	0.089733645
230	0x3e57ab1d	0.21061368
231	0xbc9347e0	-0.017978609
232	0x3dd335ea	0.10313018
233	0x3e18a46d	0.14906473
234	0x3c1ff5e0	0.009763211
235	0x3e10edcd	0.14153214
236	0xbd59e7e4	-0.053199664
237	0x3dedb15a	0.11606093
238	0xbd22bdd4	-0.039731815
239	0xbe2b18f0	-0.16708732
240	0xbc2605f0	-0.010133252
241	0xbd131ff0	-0.03591913
242	0xbe58f76d	-0.21188135
243	0x3e418f13	0.18902235
244	0xbe0749e6	-0.13211784
245	0xbb5ed580	-0.0034001768
246	0x3d8196aa	0.06327565
247	0xbd587310	-0.052844107
248	0xbe2c00e6	-0.16797218
249	0x3d0f0ab4	0.034922317
250	0x3e4c6fef	0.19964574
251	0xbe25a3d3	-0.16175775
252	0x3e1398af	0.14413713
253	0x3e019869	0.12655796
254	0x3dc6bf92	0.09704508
255	0xbe0cd342	-0.13752463

mlp_extractor.value_net.2.bias f4 [64]
0	0x00000000	0.0
1	0x00000000	0.0
2	0x00000000	0.0
3	0x00000000	0.0
4	0x00000000	0.0
5	0x00000000	0.0
6	0x00000000	0.0
7	0x00000000	0.0
8	0x00000000	0.0
9	0x00000000	0.0
10	0x00000000	0.0
11	0x00000000	0.0
12	0x00000000	0.0
13	0x00000000	0.0
14	0x00000000	0.0
15	0x00000000	0.0
16	0x00000000	0.0
17	0x00000000	0.0
18	0x00000000	0.0
19	0x00000000	0.0
20	0x00000000	0.0
21	0x00000000	0.0
22	0x00000000	0.0
23	0x00000000	0.0
24	0x00000000	0.0
25	0x00000000	0.0
26	0x00000000	0.0
27	0x00000000	0.0
28	0x00000000	0.0
29	0x00000000	0.0
30	0x00000000	0.0
31	0x00000000	0.0
32	0x00000000	0.0
33	0x00000000	0.0
34	0x00000000	0.0
35	0x00000000	0.0
36	0x00000000	0.0
37	0x00000000	0.0
38	0x00000000	0.0
39	0x00000000	0.0
40	0x00000000	0.0
41	0x00000000	0.0
42	0x00000000	0.0
43	0x00000000	0.0
44	0x00000000	0.0
45	0x00000000	0.0
46	0x00000000	0.0
47	0x00000000	0.0
48	0x00000000	0.0
49	0x00000000	0.0
50	0x00000000	0.0
51	0x00000000	0.0
52	0x00000000	0.0
53	0x00000000	0.0
54	0x00000000	0.0
55	0x00000000	0.0
56	0x00000000	0.0
57	0x00000000	0.0
58	0x00000000	0.0
59	0x00000000	0.0
60	0x00000000	0.0
61	0x00000000	0.0
62	0x00000000	0.0
63	0x00000000	0.0

action_net.weight f4 [1, 64]
0	0xbd7d232c	-0.06180112
1	0x3e2fd622	0.17171529
2	0xbe59bb59	-0.21262874
3	0x3e98a35a	0.29812127
4	0xbe48d246	-0.19611463
5	0xbcf141f0	-0.029450387
6	0x3e85f1f8	0.2616117
7	0x3e86e134	0.2634369
8	0x3d2519b0	0.0403077
9	0xbe76bcc3	-0.24095444
10	0xbe0750c6	-0.13214406
11	0x3e1692a2	0.14704373
12	0xbe113a64	-0.1418243
13	0xbc885250	-0.016640812
14	0xbd830666	-0.06397705
15	0xbd7ee4b8	-0.062229842
16	0x3e84fa34	0.2597214
17	0xbe822dbd	-0.2542552
18	0x3d44d1c8	0.048051625
19	0x3dd859c8	0.105639994
20	0x3e0e003e	0.1386728
21	0x3e529dc8	0.20568001
22	0x3d94ba48	0.07262093
23	0x3e3ab09a	0.1823143
24	0xbe7bbf5d	-0.24584718
25	0x3e70da90	0.23520875
26	0xbd36dc28	-0.04464355
27	0xbd8514e4	-0.06498125
28	0xbe922b63	-0.28548726
29	0x3e2c8a84	0.16849715
30	0xbe8bfbd8	-0.2734058
31	0x3ddacc28	0.10683471
32	0x3d9620d8	0.07330483
33	0xbe39e82a	-0.1815497
34	0xbe24890a	-0.16067901
35	0x3e5aeb30	0.2137878
36	0xbdcced0c	-0.100061506
37	0xbe64227d	-0.22278781
38	0xbdc87b3c	-0.0978913
39	0x3e46aa96	0.19401011
40	0x3d668ec0	0.05628848
41	0xbe017113	-0.1264079
42	0xbe2b673c	-0.167386
43	0xbd5f287c	-0.05448197
44	0xbe185827	-0.14877377
45	0x3e44fe48	0.19237626
46	0x3b8c5500	0.0042825937
47	0x3e469d72	0.19395998
48	0x3e73fba4	0.23826462
49	0x3decc688	0.11561304
50	0xbe1189be	-0.142127
51	0xbd7ecd04	-0.062207237
52	0xbe353661	-0.17696525
53	0xbcf69c40	-0.030103803
54	0xbe382fa7	-0.17986928
55	0x3e8cfdd6	0.2753741
56	0xbe827211	-0.2547765
57	0xbe98948d	-0.29800835
58	0x3e2002b6	0.15626034
59	0x3de2aacc	0.11067733
60	0x3ca0f6b0	0.01964888
61	0x3e13047a	0.14357176
62	0x3e2fcd3a	0.17168131
63	0xbd91cabe	-0.07118748

value_net.weight f4 [1, 64]
0	0xbe04da69	-0.12973942
1	0x3e77cff4	0.24200422
2	0x3d10c4b8	0.035343856
3	0x3d73af78	0.059493512
4	0x3b8ae2c0	0.0042384565
5	0x3d12a728	0.035803944
6	0x3e88f29a	0.2674759
7	0xbe937a3e	-0.288042
8	0x3da4e800	0.08052063
9	0xbe834ee1	-0.25646117
10	0x3dabdd88	0.08391863
11	0xbdef0930	-0.11671674
12	0xbd144818	-0.036201566
13	0x3ce69fb0	0.028152317
14	0x3e3bbf4a	0.1833469
15	0xbe1116f7	-0.14168917
16	0x3e81b39e	0.2533235
17	0x3e906a18	0.28205943
18	0x3e631658	0.22176492
19	0x3dd8de74	0.105893046
20	0xbe8e6fd2	-0.27819687
21	0xbdc91ea2	-0.09820296
22	0xbdc2d2b8	-0.09512848
23	0x3dd2d864	0.102951795
24	0x3e53a9fc	0.20670313
25	0xbe355f5c	-0.17712158
26	0xbe3b2f12	-0.18279675
27	0xbe42a4b6	-0.19008145
28	0x3e34c342	0.1765261
29	0x3e4e1c30	0.2012794
30	0xbdca6480	-0.0988245
31	0xbe32a44b	-0.17445485
32	0xbe04e78d	-0.12978955
33	0x3e93dcf2	0.28879505
34	0x3e874c00	0.2642517
35	0xbe623113	-0.22089033
36	0xbdc5e90a	-0.09663589
37	0xbe8ab886	-0.27093905
38	0x3e837cdc	0.25681198
39	0x3dc1e658	0.09467763
40	0x3dd7f9c8	0.10545689
41	0xbe8d027c	-0.27540958
42	0xbe5a4901	-0.21316911
43	0xbe8fedfe	-0.2811126
44	0x3df94948	0.121721804
45	0xbe6a1397	-0.22859035
46	0xbbfacc00	-0.007653713
47	0x3e924418	0.28567576
48	0x3d034850	0.032051384
49	0x3e1cf1ce	0.15326616
50	0xbe96f148	-0.29480958
51	0xbe8e24a2	-0.27762324
52	0xbe0fb038	-0.14032066
53	0xbc9611c0	-0.01831901
54	0x3e44d3f4	0.19221479
55	0x3e3c1c50	0.18370175
56	0xbb354980	-0.0027662218
57	0x3e8c8616	0.2744605
58	0x3e3205bc	0.17385
59	0x3e42a7b6	0.19009289
60	0xbe34ba2d	-0.17649145
61	0xbe5ef89c	-0.21774524
62	0x3d3a8658	0.045538276
63	0x3e8c9e98	0.27464747
