policies/Humanoid/good_ppo.pt (torch, 236416 bytes, 12 tensors)

log_std f4 [17]
00000000: 9ab3 93bf ddda 93bf 07a3 94bf 3ec6 93bf
00000010: 27ee 93bf e15e 93bf 3adb 93bf a2d9 94bf
00000020: 9fb7 92bf 9903 95bf 1403 93bf 72cb 93bf
00000030: d22f 94bf 37cd 93bf 9407 93bf d3db 94bf
00000040: 6b58 93bf
-1.1539185 -1.1551167 -1.1612252 -1.1544874 -1.1557053 -1.151333 -1.1551278 -1.1628916
-1.1462287 -1.1641723 -1.1485314 -1.1546462 -1.1577094 -1.1547002 -1.1486688 -1.1629585
-1.1511358

mlp_extractor.policy_net.0.weight f4 [64, 376]
00000000: f150 6dbb 0a59 08bb e284 92bb 3514 e5bb
00000010: d9b3 89b9 16a4 c636 7a8e d0ba f55f 013c
00000020: a3ae 9aba 4a6a 2dbe e04e 01bb 6400 513d
00000030: 1cf7 8a3b db8e fbba 3d1e 8aba 5a3b 863c
00000040: f624 bebb a771 f7ba 1a4c 43bc f528 2139
00000050: e28d 3abd ac2d 7f3b 4c8a 88bb 8570 cf3a
00000060: fedb 8abb cd33 db3a 31db dfba 94ea f3bb
00000070: cf79 9dbb a5de b13b 7370 babb 111f 663b
00000080: aa33 c8bb 53eb 8a3b 7e86 56ba 0c58 21bc
00000090: 92e6 463c 36e7 58bb 91d1 913a e108 863a
000000a0: c614 9bbb acdb 77ba 79e8 ef39 6862 ffba
000000b0: fc37 77bb 9cfb d83a 0686 c4bb 8699 633a
000000c0: 2d18 e139 963e c93a 2e80 e6bb 91d6 0fbb
000000d0: 157d 2abb 9093 a7ba 933a e83a 4648 90bb
000000e0: bfb9 be3b 0b45 64bb a4a1 843b 80b8 ff3a
000000f0: e2ec ccb9 30a5 213a 761f 16bb da50 053c
00000100: 1cc0 f53a ee8b e73a bfbe 67ba 82d7 3bbb
00000110: 2bd0 de38 7389 bb3b 62d8 003b 57d6 a039
00000120: d296 c93b 7055 003a 1a0a b33b e8f6 a13b
00000130: 5977 29b9 0375 cfbb 6b88 b639 a150 1abb
00000140: a0c4 64bb 770d 0e3b b1a9 c9bb a47f 43bb
00000150: 598f 63bb 44b8 6bba a5d3 0b3b 66f3 c0bb
00000160: fb1e 7ebb 2e92 3b3b 0bd3 8c39 0cbd f43a
00000170: 492c 4b3b 5d2c 9f3a e7dc 8fba 2485 48bb
00000180: f157 21bb 1993 803b 3998 a0ba 3ef6 c73a
00000190: b05b 23ba 0189 1f3a bb82 f539 d69b 9e3b
000001a0: 7bf1 a4ba df76 183b 7ce4 8e3b 5dc0 6ebb
000001b0: 50fd 3abb 2f36 38bb 40fb 61bb aa9c c13b
000001c0: fe7a c03a f061 ad3b e0e7 0c3a 6ad2 a4bb
000001d0: 824c f13a d52b 3fbb e675 023b 58e4 7b3b
000001e0: 6082 d13b 08d6 e23b e8d5 30ba 9456 9e3b
000001f0: ffb5 43ba b45d 79bb 3e67 bcbb cfb3 5cbb
00000200: 15c0 d2bb 22f5 d8bb 8716 173b a90e 5cba
00000210: 2a90 2eba ccfd 22bb c339 36ba 3bef 93ba
00000220: 0d11 193b 0dc1 ceba 3e99 783b bdb3 eb3b
00000230: eafb a5b9 b99b 39ba 4a67 743b 0eee f83b
00000240: 3f48 34bb dd01 0a3b 158a 87b9 5295 88ba
00000250: ae52 9fba 43e4 2d3b d044 1cba 87db 413b
00000260: 0c19 553b 850b 8c3a 0476 1abb 8bdc 293b
00000270: c038 ca39 9014 903b 8d26 adbb 8709 a83b
00000280: 6096 8e3b 9c5d d43b 2362 2dbb 6ea3 edba
00000290: e967 89bb 3c03 f839 3a68 9ebb 1f93 8a39
000002a0: 8768 863a c1ba 0b3b 2704 3cbb 4c56 c23b
000002b0: 6727 853b 3f86 de3b e91a 4c3b 50c8 b43a
000002c0: eba8 79bb 583e 483b fc0b 8abb 15c6 36bb
000002d0: b837 083b 876d 72bb 452a 6f3c 24f8 04bc
000002e0: bee7 d83a 9b7f d23a 917c 4e3b 4377 ccba
000002f0: d8c5 323b 03df 16ba 5bda ab3b 5f04 853a
00000300: a90b 483b 8312 ce3b e110 11bb 7558 ac3b
00000310: 9880 1f3a c835 5dba dc23 aebb b405 b33b
00000320: 8f82 87b9 2a19 afbb a988 b239 2381 a9bb
00000330: 5605 68bb f979 88ba 7417 883b ea35 c0bb
00000340: 5762 613b ff59 853a 42dd 46bb 2808 e03b
00000350: d27d e33a 79bc b9bb 0750 fe3a e26c 13bb
00000360: 6314 fa3a baf1 31bb c771 abba bd3e 8039
00000370: 09f4 c4bb aa77 93bb d16e 3f3b 1f5e fdbb
00000380: 647a ceba b6eb 983b 40ce 6dbb 9176 03bb
00000390: 8544 a8ba c6af d13a 0772 20bb 6064 ee3b
000003a0: dc80 e53a e155 223b 5b5c 9fba ff89 893b
000003b0: b6cd 763b 95fe 0ebb 0f07 1c3b 3701 cb3a
000003c0: dd60 ff39 8966 eb3a 2d46 44bb 9bdc 593b
000003d0: 9a43 b03b 6f78 9dba d7d7 053b a2ab ddba
000003e0: 0568 d5ba 46ba 4a3b 02f0 89b7 744d fcbb
000003f0: 3ff7 86bb 9d19 2a3b 0f32 8abb 9167 f4ba
-0.0036211575 -0.0020805025 -0.0044714073 -0.0069909343 -0.00026264673 5.919962e-06 -0.0015911602 0.007896413
-0.0011801313 -0.16935077 -0.001973085 0.051025763 0.0042408835 -0.0019192355 -0.0010537576 0.016385723
-0.005802746 -0.0018878476 -0.0119199995 0.00015369414 -0.045545466 0.0038937135 -0.004166877 0.001582638
-0.004237651 0.0016723812 -0.0017078874 -0.0074437354 -0.0048057805 0.0054281526 -0.0056896745 0.0035113732
-0.0061096745 0.0042394786 -0.0008183493 -0.009847652 0.012139933 -0.0033096797 0.0011125078 0.0010226035
-0.004732701 -0.0009455036 0.00045758838 -0.0019484283 -0.0037722578 0.0016554478 -0.005997422 0.00086822396
0.00042933357 0.0015353735 -0.007034323 -0.002194796 -0.0026014496 -0.0012785066 0.0017717652 -0.004403147
0.0058204825 -0.0034831192 0.0040475894 0.0019509941 -0.00039086404 0.00061662775 -0.0022906936 0.008136952
0.001874927 0.0017665604 -0.0008840374 -0.0028662388 0.00010624559 0.0057231723 0.0019660224 0.00030677274
0.0061520124 0.00048955437 0.0054638507 0.0049427636 -0.00016161556 -0.0063310876 0.00034815384 -0.0023546594
-0.0034907237 0.0021675506 -0.006154262 -0.0029830718 -0.0034722893 -0.00089919963 0.0021335867 -0.0058883904
-0.003877579 0.0028621065 0.0002686012 0.0018672063 0.0031001738 0.0012143959 -0.0010975868 -0.0030596936
-0.0024619068 0.0039237854 -0.0012252397 0.0015255881 -0.0006231619 0.0006085784 0.00046827443 0.0048403544
-0.0012584174 0.0023264212 0.0043607336 -0.0036430575 -0.0028532334 -0.0028108468 -0.0034482032 0.0059085684
0.0014685092 0.005291216 0.0005375128 -0.005029966 0.0018409642 -0.0029170413 0.0019906699 0.0038435664
0.0063937157 0.006922487 -0.00067457417 0.0048320983 -0.0007465779 -0.0038050236 -0.005749612 -0.003367651
-0.0064315894 -0.006621019 0.0023054199 -0.00083945185 -0.00066590554 -0.0024870513 -0.0006951356 -0.0011286506
0.002335611 -0.0015774086 0.0037933136 0.0071930573 -0.00031658943 -0.00070803944 0.003729301 0.0075967377
-0.0027508882 0.002105824 -0.00025852086 -0.0010420477 -0.0012155378 0.002653376 -0.00059611816 0.0029580311
0.003251615 0.0010684585 -0.0023568878 0.0025918807 0.00038570724 0.0043969825 -0.0052841366 0.005128089
0.004351422 0.0064808857 -0.00264562 -0.0018130371 -0.0041932953 0.00047304656 -0.004834202 0.00026431025
0.001025454 0.002132103 -0.0028688998 0.0059306975 0.004063535 0.0067909057 0.003114397 0.0013792608
-0.0038095068 0.0030554738 -0.0042128544 -0.0027889062 0.0020785164 -0.0036991553 0.01459748 -0.008115802
0.0016548557 0.0016059758 0.0031507353 -0.0015599508 0.0027278569 -0.0005755277 0.005244536 0.0010148397
0.0030524528 0.006288828 -0.0022135305 0.0052595683 0.00060845306 -0.0008438495 -0.0053143334 0.0054633263
-0.0002584648 -0.005343576 0.00034052625 -0.005172865 -0.003540357 -0.0010412327 0.0041531865 -0.005865802
0.003439089 0.0010173916 -0.0030344282 0.00683691 0.0017356223 -0.0056682196 0.0019402512 -0.002249532
0.0019079562 -0.0027152137 -0.0013080173 0.00024460806 -0.0060105366 -0.004500349 0.0029210339 -0.0077321674
-0.0015753028 0.004666771 -0.0036286265 -0.0020059685 -0.0012837803 0.0015997819 -0.0024482028 0.007275149
0.0017509717 0.0024770426 -0.0012158261 0.0041973586 0.0037659234 -0.0021819223 0.0023807918 0.0015488033
0.0004870956 0.0017959635 -0.0029949055 0.0033243063 0.0053791525 -0.0012014041 0.002042284 -0.0016912112
-0.0016281611 0.0030933782 -1.6443435e-05 -0.007699663 -0.0041188295 0.0025955208 -0.004217393 -0.0018646588

mlp_extractor.policy_net.0.bias f4 [64]
00000000: 4318 783b bad7 1dba d3b2 ccba f8e4 8fba
00000010: f434 4838 4118 78bb cfb2 cc3a f855 d1ba
00000020: b036 48b8 ece4 8f3a 4a18 78bb 1729 a438
00000030: 277e dbb9 4518 783b 4518 783b 5d5a 12bb
00000040: 980c 833a 07a0 f6bb d612 0abb 1236 48b8
00000050: 605a 12bb ebe4 8f3a 9a34 4838 5e5a 123b
00000060: 4318 78bb 06a0 f6bb d4b2 cc3a 9834 4838
00000070: 7833 8a3a 9983 5fb8 07a0 f6bb f3e4 8fba
00000080: d8b2 ccba 525e 22bb 9e0c 83ba 07a0 f6bb
00000090: 625a 12bb dc33 48b8 07a0 f6bb 07a0 f6bb
000000a0: a40d 7d3a 9e0c 833a 9b0c 83ba 07a0 f63b
000000b0: d7b2 ccba ed7f 353b efe4 8fba d8b2 cc3a
000000c0: 605a 123b efe4 8f3a 918c 833b f6e4 8f3a
000000d0: a20c 83ba 5c5a 12bb fde4 8f3a 4318 783b
000000e0: b15e 9cb9 07a0 f63b 225b 9d39 be07 4d3a
000000f0: 9f0c 833a 970c 833a 8635 48b8 4118 78bb
0.0037856258 -0.00060212205 -0.0015617259 -0.0010978272 4.7733032e-05 -0.0037856253 0.0015617254 -0.0015971055
-4.7734648e-05 0.0010978258 -0.0037856274 7.827783e-05 -0.00041864926 0.0037856263 0.0037856263 -0.0022331693
0.000999826 -0.007526401 -0.0021068356 -4.7734073e-05 -0.00223317 0.0010978257 4.7732705e-05 0.0022331695
-0.0037856258 -0.0075264005 0.001561726 4.7732698e-05 0.0010543903 -5.3289903e-05 -0.007526401 -0.0010978266
-0.0015617264 -0.0024775458 -0.0009998267 -0.007526401 -0.0022331704 -4.7732014e-05 -0.007526401 -0.007526401
0.00096532167 0.0009998267 -0.0009998264 0.007526401 -0.0015617263 0.0027694658 -0.0010978262 0.0015617264
0.00223317 0.0010978262 0.0040145596 0.001097827 -0.0009998272 -0.002233169 0.0010978278 0.0037856258
-0.0002982519 0.007526401 0.00030013273 0.0007821283 0.0009998268 0.0009998259 -4.7733563e-05 -0.0037856253

mlp_extractor.policy_net.2.weight f4 [64, 64]
00000000: 5e55 adbb 1796 c2bb 8b86 083b 60d9 7e3d
00000010: 1a5c 633b 5d55 ad3b 9586 08bb f234 0cbb
00000020: 225c 63bb 5ed9 7ebd 5f55 ad3b a24d cfba
00000030: 999f 50bb 6055 adbb 6055 adbb b60a 51bb
00000040: fd38 393b 4c8c deb9 c079 0cbb 1e5c 63bb
00000050: be0a 51bb 64d9 7ebd 295c 633b b90a 513b
00000060: 6055 ad3b a88c deb9 8d86 08bb 165c 633b
00000070: 47ea 443a c17e 15bb 908c deb9 66d9 7e3d
00000080: 9286 083b f562 4cbb f538 39bb ac8c deb9
00000090: b30a 51bb 1c5c 63bb 3a8c deb9 cf8c deb9
000000a0: 1115 293a ed38 393b e938 39bb 848c de39
000000b0: 9186 083b 7034 463b 62d9 7e3d 9a86 08bb
000000c0: bb0a 513b 64d9 7ebd b8f8 923b 66d9 7ebd
000000d0: ee38 39bb c20a 51bb 60d9 7ebd 6355 adbb
000000e0: ef1a f239 928c de39 fd3c 923a 8b47 f63a
000000f0: f138 393b 0039 393b 255c 63bb 6155 ad3b
00000100: cb00 e03a 6868 d1bb 2dd3 603a b5e3 023b
00000110: ec75 9c3b ce00 e0ba 12d3 60ba 32a6 d4ba
00000120: ea75 9cbb b3e3 02bb b400 e0ba 33a9 06ba
00000130: 5922 3ebb c900 e03a cc00 e03a 980a b73b
00000140: 321f 3fba 3c4c 813d 4569 3cbb ea75 9cbb
00000150: 960a b73b afe3 02bb ea75 9c3b 920a b7bb
00000160: db00 e0ba 3d4c 813d 18d3 60ba eb75 9c3b
00000170: 370c 403b 3838 9cba 3b4c 813d b0e3 023b
00000180: 0bd3 603a 4410 d5bb 581f 3f3a 3a4c 813d
00000190: 930a b73b ee75 9cbb 3c4c 813d 3c4c 813d
000001a0: 0cab 7d3a 1b1f 3fba 201f 3f3a 3b4c 81bd
000001b0: 08d3 603a b372 dc3b bde3 023b f2d2 60ba
000001c0: 960a b7bb afe3 02bb a911 a93b b7e3 02bb
000001d0: 531f 3f3a 970a b73b c7e3 02bb c400 e03a
000001e0: 98bf 5eb8 3b4c 81bd 7142 673a 3fb0 3139
000001f0: 591f 3fba 451f 3fba f675 9cbb bd00 e0ba
00000200: da65 123b 26d0 493b 58af 1eba bd44 993b
00000210: d417 1939 c865 12bb 52af 1e3a 8dcd b93a
00000220: fd17 19b9 ba44 99bb d765 12bb bd59 87b8
00000230: 4f67 db3a cc65 123b d165 123b 4c0e a0bd
00000240: a296 82bb 4ba4 8cbb a42c 1a3b e817 19b9
00000250: 4c0e a0bd c144 99bb 5717 1939 4b0e a03d
00000260: bf65 12bb 53a4 8cbb 85af 1e3a 1117 1939
00000270: 6955 26bb 1db3 033a 55a4 8cbb c044 993b
00000280: 77af 1eba ec99 9a3b aa96 823b 4da4 8cbb
00000290: 4c0e a0bd 2318 19b9 55a4 8cbb 4ea4 8cbb
000002a0: a555 8cba a796 82bb aa96 823b 50a4 8c3b
000002b0: 6eaf 1eba 1548 9fbb bd44 993b 70af 1e3a
000002c0: 4c0e a03d c244 99bb 07ec 83bb c944 99bb
000002d0: a596 823b 4c0e a0bd be44 99bb cb65 123b
000002e0: 84a5 f639 51a4 8c3b 0aaa 3ab9 05a7 a1b9
000002f0: a696 82bb aa96 82bb 1e18 19b9 c665 12bb
00000300: 2c56 b9ba 8039 e4bb 754d fd39 01bb cb3a
00000310: db98 e3b9 3856 b93a d54d fdb9 f766 19bb
00000320: b998 e339 d8ba cbba 1b56 b93a fda4 6cba
00000330: 5971 57bb 2256 b9ba 0e56 b9ba 8daa 1c3b
00000340: 6ddc 8a3d 3051 1dbb a44b 4fbb c898 e339
00000350: 8eaa 1c3b 12bb cbba af98 e3b9 90aa 1cbb
00000360: 3856 b93a 3451 1dbb e54d fdb9 9e98 e3b9
00000370: 5cfc 163b 35f8 daba 2e51 1dbb 24bb cb3a
00000380: 7e4d fd39 c5a2 c7bb 6ddc 8abd 2451 1dbb
00000390: 89aa 1c3b 8498 e339 3651 1dbb 3c51 1dbb
000003a0: bb29 a93a 6fdc 8a3d 6edc 8abd 2651 1d3b
000003b0: 8c4d fd39 c6de cc3b f4ba cb3a c14d fdb9
000003c0: 89aa 1cbb 0dbb cbba d6cd c63b feba cbba
000003d0: 6edc 8abd 8faa 1c3b f1ba cbba 2656 b9ba
000003e0: d7ce ad36 2751 1d3b 69d7 8e3a da5c 903a
000003f0: 6fdc 8a3d 6fdc 8a3d be98 e339 3656 b93a
-0.0052897176 -0.0059383023 0.0020832147 0.062219024 0.0034692348 0.005289717 -0.002083217 -0.0021393863
-0.0034692367 -0.062219016 0.005289718 -0.0015815983 -0.003183341 -0.0052897185 -0.0052897185 -0.0031897253
0.0028262727 -0.0004244767 -0.0021434873 -0.0034692357 -0.0031897272 -0.06221904 0.0034692383 0.003189726
0.0052897185 -0.00042447937 -0.0020832152 0.0034692339 0.00075117167 -0.0022811147 -0.00042447867 0.062219046
0.0020832163 -0.0031186913 -0.0028262709 -0.00042447948 -0.0031897246 -0.0034692353 -0.00042447617 -0.0004244805
0.00064499775 0.002826269 -0.002826268 0.00042447832 0.002083216 0.0030243658 0.06221903 -0.0020832182
0.0031897265 -0.06221904 0.004485216 -0.062219046 -0.0028262693 -0.0031897281 -0.062219024 -0.00528972
0.00046177904 0.00042447873 0.0011157092 0.0018789632 0.00282627 0.0028262734 -0.0034692374 0.005289719
0.001709008 -0.00639062 0.00085763895 0.001997215 0.0047747996 -0.0017090084 -0.0008576374 -0.0016223846
-0.0047747986 -0.0019972145 -0.0017090053 -0.0005136907 -0.0029012172 0.0017090078 0.0017090081 0.0055859797
-0.000729072 0.06313369 -0.002874927 -0.0047747986 0.0055859787 -0.0019972136 0.0047747986 -0.005585977
-0.0017090099 0.063133694 -0.00085763773 0.004774799 0.0029304156 -0.001191861 0.06313368 0.0019972138
0.000857637 -0.006502183 0.00072907424 0.06313367 0.0055859773 -0.0047748005 0.06313369 0.06313369
0.0009676672 -0.0007290707 0.000729071 -0.06313368 0.0008576368 0.0067275404 0.0019972168 -0.0008576355
-0.0055859787 -0.0019972136 0.005159576 -0.0019972154 0.00072907394 0.005585979 -0.0019972192 0.0017090072
-5.310736e-05 -0.06313368 0.0008821851 0.00016945692 -0.0007290743 -0.00072907313 -0.004774804 -0.0017090064
0.002233854 0.0030794232 -0.000605335 0.0046773837 0.00014600094 -0.0022338498 0.00060533464 0.0014175639
-0.00014600153 -0.0046773823 -0.0022338533 -6.454017e-05 0.0016739162 0.0022338508 0.002233852 -0.07815227
-0.003985242 -0.004292046 0.0023525143 -0.00014600123 -0.07815227 -0.0046773856 0.00014599912 0.07815226
-0.0022338477 -0.00429205 0.0006053376 0.0001459981 -0.0025380498 0.00050239434 -0.004292051 0.004677385
-0.0006053368 0.004718056 0.0039852457 -0.004292047 -0.07815227 -0.00014600209 -0.004292051 -0.0042920476
-0.0010706676 -0.0039852443 0.0039852457 0.0042920485 -0.0006053363 -0.004860888 0.0046773837 0.0006053364
0.07815227 -0.004677386 -0.0040259394 -0.0046773893 0.0039852434 -0.07815227 -0.004677384 0.0022338505
0.00047044095 0.004292049 -0.00017801687 -0.00030832752 -0.003985244 -0.0039852457 -0.00014600201 -0.0022338494
-0.0014140061 -0.0069648623 0.0004831363 0.0015543402 -0.000434107 0.0014140075 -0.0004831391 -0.002340732
0.000434106 -0.0015543355 0.0014140041 -0.0009027271 -0.0032873957 -0.001414005 -0.0014140026 0.0023905367
0.06780324 -0.002400469 -0.0031630779 0.00043410645 0.002390537 -0.0015543422 -0.00043410572 -0.0023905374
0.0014140075 -0.00240047 -0.00048313956 -0.00043410523 0.0023038602 -0.0016706052 -0.0024004686 0.0015543443
0.00048313657 -0.0060924017 -0.06780324 -0.0024004662 0.0023905358 0.00043410447 -0.0024004704 -0.0024004718
0.0012906113 0.067803256 -0.06780325 0.0024004667 0.00048313697 0.0062521426 0.0015543387 -0.00048313852
-0.0023905358 -0.0015543416 0.006067018 -0.0015543399 -0.06780325 0.0023905372 -0.0015543384 -0.0014140054
5.179881e-06 0.002400467 0.0010897937 0.0011014 0.067803256 0.067803256 0.00043410616 0.0014140073

mlp_extractor.policy_net.2.bias f4 [64]
00000000: 2527 0abb 3362 15bc 581d 2e3b 421b b23a
00000010: 7453 75bb 6a53 75bb 420d acba 541b b2ba
00000020: 3562 153c 361b b23a 54ba 3837 460d ac3a
00000030: 79c4 c438 3d1b b23a 4f1b b2ba 411b b23a
00000040: 7653 75bb 561d 2e3b 3427 0abb 5bda 7e3a
00000050: 3462 15bc 3117 003b 7753 753b 01c6 c4b8
00000060: 490d acba 7a53 753b 4a0d acba 561d 2ebb
00000070: 05c4 c438 3327 0a3b f2c3 c4b8 bd17 13bb
00000080: 3127 0a3b 7d53 75bb 3462 153c 7053 753b
00000090: 3462 15bc 48c4 c4b8 5e1b b23a 601d 2ebb
000000a0: 6453 753b 2f27 0abb 540d acba 3262 15bc
000000b0: 3027 0a3b 590d ac3a ca70 383a 6c53 75bb
000000c0: cdc3 c438 5c1d 2e3b 79c4 c438 3027 0a3b
000000d0: 411b b23a 6753 753b 5a1d 2e3b 470d acba
000000e0: a300 2f3b 3462 15bc 581d 2e3b 420d ac3a
000000f0: 3462 153c 73c4 c4b8 a94d b4b8 3727 0a3b
-0.002108046 -0.009117651 0.0026567783 0.0013588446 -0.0037433775 -0.0037433752 -0.001312651 -0.0013588467
0.009117653 0.0013588432 1.10106375e-05 0.0013126514 9.382604e-05 0.001358844 -0.0013588461 0.0013588445
-0.003743378 0.0026567779 -0.0021080496 0.00097218686 -0.009117652 0.0019545073 0.0037433782 -9.3828894e-05
-0.0013126518 0.003743379 -0.0013126519 -0.0026567779 9.38252e-05 0.0021080493 -9.382506e-05 -0.002244457
0.0021080489 -0.0037433796 0.009117652 0.0037433766 -0.009117652 -9.3825685e-05 0.0013588478 -0.0026567802
0.0037433738 -0.0021080484 -0.0013126531 -0.00911765 0.0021080486 0.0013126537 0.000703585 -0.0037433757
9.382479e-05 0.0026567793 9.382604e-05 0.0021080486 0.0013588445 0.0037433745 0.0026567788 -0.0013126516
0.002670326 -0.009117652 0.0026567783 0.001312651 0.009117652 -9.3826e-05 -8.597534e-05 0.0021080503

mlp_extractor.value_net.0.weight f4 [64, 376]
00000000: c958 a0bd b835 dd3d 08bf cd3d ffb5 b2b9
00000010: be72 c63d 5f81 c33d 1c9c 01bc 1188 afbd
00000020: 7921 71bd ad3a afbc 26df e73b 3e4b 2c3d
00000030: 1fdd bc3d 853a 7ebd e319 c7bd 2544 423d
00000040: 1869 3d3c 3944 96bd 4def 953c 06ef 2f3e
00000050: 38be a23d bf8e 133d 36d9 b0bc 9fd3 273d
00000060: e90a aa3d 2b36 4fbd 1cfe 7fbb cf1d 13be
00000070: 94d2 6cbd 2848 0cbd ecc2 0dbe 3894 333e
00000080: 5bf9 8e3d e9b4 cfbd 517c d8bd 203c 26bd
00000090: 1960 5b3d 893b 94bd 0394 9b3c ab9c 3cbd
000000a0: 0d47 1bbe bdab 0ebd b232 8b3d f514 be3d
000000b0: 43d7 1e3e 3c63 28bd 7db0 debd 9cfc 0abc
000000c0: bd97 ebbd 9222 48bd 944f 21bd dede e6bd
000000d0: 6410 62bd ad5e 9abd 1d9d 13bd bc84 113d
000000e0: d290 51bd ecff 293d e037 41bc 2e80 b2bd
000000f0: 7253 173d d909 8d3c 3f00 31bd 9ac6 a23d
00000100: 5bd8 2a3d 826c 4f3d d01a 14be 96f6 843d
00000110: 2353 aebc 1f42 adbc ddef c73d 9b7e c6bd
00000120: 2e12 01bd 35b7 593d c802 a8bc 43ce 87bb
00000130: 0f71 59bc a16b e03d 9454 ecbd 03ee 13be
00000140: 5d35 ad3d 4563 a33d 7468 a4bd 5228 9e3d
00000150: 4c21 7e3d efd1 1fbd a57d 73bd e5d8 243d
00000160: e9e7 ad3d 8333 99bd 2277 863c df0b b5bc
00000170: 561b 753d 4f73 3d3c d30b 393d eb80 813d
00000180: 8df1 c3bc f135 32ba 0a64 db3d 843f 20bd
00000190: 38e1 64bd 857a 3cbc cbf5 283d 34ee d83d
000001a0: fb6c 0fbe a869 61bd d9e2 a73d 8f83 553d
000001b0: b957 293d 0d02 b13b d05a babd 6f08 3fbb
000001c0: a837 333c 7217 a23d 12ee 233d bed0 7d3d
000001d0: a96e bd3c e65e b0bd 2f7b e5bd 016c 363d
000001e0: f4a1 9fbd ae86 323d eae6 ec3d 79f6 04bd
000001f0: c5ed 9dbc c6b3 ef3d 1e93 b13d 4025 b23d
00000200: 4b0d 1abc f86a 99bd 1d3a 0f3d 136b c8bc
00000210: b2e3 813a 4389 ddbd a21d 49bd 4ca0 0abd
00000220: 20f3 bd3c 1599 c8bb 9245 833d b94f 28bd
00000230: 6b8a 643b c661 91bc 078b 07be bb21 ebbc
00000240: 6dcf bcbd f0b9 cebc 408a cf3d 7948 8a3d
00000250: 206a 973c d6c8 873d 6933 82bd f510 c23d
00000260: c80d 7b3d 9d3f d2bd 4dc3 7fbd bc10 743d
00000270: 8383 153c 9146 ebbd 2f39 a13d 5901 08bc
00000280: 0015 1d3d bc0b a1bd 0c9e 943d f124 953d
00000290: 96d2 f03d 9057 acbd 76b4 5f3d 0c55 f73b
000002a0: 47e2 fabb 8aa7 a53a 46c3 a73d 7f7c 043d
000002b0: 991c 403d 9565 8d3d 2616 233c 159c 24be
000002c0: 380d adbc 1123 0dbc cb0f c8bc 8042 a3bd
000002d0: 5d25 d3bc 5bd7 bb3c 3d4a 883d 703e 85bd
000002e0: 5cb9 953b 8906 a03c 350a c7bd 88e4 143d
000002f0: d777 393e 9859 cd3d 222a 0f3e 6eb1 bc3d
00000300: 7119 ad3d 0bc9 b63d 9661 f23c f093 a8bc
00000310: 11ac 0c3d d9f2 e3bd 39c1 4a3d 68d5 033c
00000320: e6c7 583c f3f0 923d 8478 563d b457 593d
00000330: 9114 00bd 7bf4 423d d88a cfbc e18d 00be
00000340: 699e d7bd 6692 b5bd 70d2 86bd ca88 b23c
00000350: c47d a4bd 3839 18be b157 f6bc bf87 5d3d
00000360: 4125 f33d f2ac 123e 8ae6 e6bc 0fb0 a4bd
00000370: fdec d7bc 4cf1 63bd 1df0 673d 82a0 263d
00000380: ca9f 483d a7b5 14be a5d1 afbd c604 21bd
00000390: a789 d73b 986b 90bc 1d82 e0bc f7ad 263d
000003a0: e898 6dbd fb1a 883d da1f 06be af14 633d
000003b0: b444 aebd 4824 7b3c 72b8 8b3d 803b 47bd
000003c0: 7c94 893d b777 6c3d 4c53 39bd 27a9 84bc
000003d0: 42c7 233d 9bd4 74bd 3c13 393d 0a4b 003d
000003e0: 8c6a 253d 8755 89bb f501 8dbc bf5b f0bd
000003f0: 6dc0 36bd 84ff 8fbc cc06 1e3e 6d62 21bb
-0.078294344 0.10801262 0.10046202 -0.00034086403 0.09689854 0.0954616 -0.0079107545 -0.085708745
-0.058869813 -0.021390283 0.007076162 0.042063944 0.09221863 -0.062067527 -0.097217344 0.04742827
0.011560701 -0.07337231 0.018302584 0.17181024 0.079464376 0.036024805 -0.02158795 0.040973302
0.08302862 -0.050588768 -0.0039061373 -0.1436684 -0.05781801 -0.0342485 -0.13843888 0.1753701
0.069811545 -0.10141928 -0.105705865 -0.040584683 0.053558443 -0.07237918 0.018991476 -0.046047848
-0.15163822 -0.03483175 0.06796779 0.09281341 0.15511803 -0.041110262 -0.10873506 -0.008483078
-0.11503551 -0.048861094 -0.039382532 -0.11272977 -0.055191413 -0.07537589 -0.036038507 0.035526976
-0.051163502 0.04150383 -0.011793107 -0.087158546 0.036944814 0.01721661 -0.043213125 0.079480365
0.04171024 0.05064059 -0.14463353 0.06492345 -0.021279877 -0.021149693 0.09762547 -0.09692117
-0.031511478 0.053153235 -0.020509139 -0.0041444614 -0.013271584 0.109580286 -0.115395695 -0.14446263
0.08457444 0.079779185 -0.08027735 0.07722534 0.062043473 -0.039018568 -0.059445996 0.04024591
0.08491499 -0.07480528 0.016414229 -0.022100387 0.059840523 0.011563136 0.045177292 0.06323417
-0.023918891 -0.0006798199 0.1071244 -0.039123073 -0.055878848 -0.01150382 0.04125003 0.10592309
-0.14006416 -0.055032402 0.08197565 0.052127417 0.041343424 0.005401856 -0.09099352 -0.0029149314
0.010938562 0.07914628 0.040021963 0.06196665 0.023124056 -0.086118504 -0.11205136 0.044536594
-0.07794562 0.04358547 0.11567481 -0.032461617 -0.019278416 0.11704211 0.086706385 0.08698511
-0.009402583 -0.07491106 0.03496753 -0.02446512 0.0009909777 -0.10817196 -0.049100526 -0.033844277
0.02318722 -0.0061217644 0.06409754 -0.041091654 0.0034872543 -0.017746817 -0.13236628 -0.028702607
-0.09219251 -0.025235146 0.10133791 0.06752104 0.018483222 0.06630103 -0.06357462 0.094758905
0.06129244 -0.102660395 -0.062442113 0.05958627 0.009125593 -0.11488069 0.07872235 -0.008301103
0.038350105 -0.07863566 0.072567075 0.07282437 0.11758916 -0.08415139 0.05461546 0.00754798
-0.007656369 0.0012638432 0.08191542 0.03234529 0.046902273 0.06904141 0.009954011 -0.16075166
-0.021124467 -0.0086143175 -0.024421593 -0.07971668 -0.025774652 0.022929838 0.06654785 -0.0650605
0.0045692157 0.019534366 -0.09718744 0.036350757 0.18112122 0.10026854 0.13980916 0.092135295
0.08452118 0.08925065 0.029587548 -0.020578355 0.034343783 -0.11130304 0.049500678 0.0080464855
0.013231253 0.07174864 0.052361026 0.053062156 -0.031269614 0.047596436 -0.02533476 -0.12554123
-0.10528261 -0.08865814 -0.065831065 0.021793742 -0.080318004 -0.14865577 -0.030071111 0.054084536
0.1187234 0.14323786 -0.028186101 -0.08041393 -0.026358122 -0.05565004 0.056625474 0.040680416
0.04898051 -0.1452242 -0.085849084 -0.039311193 0.0065776887 -0.01762943 -0.027405793 0.04069325
-0.05800715 0.06645771 -0.13098088 0.055439647 -0.08509198 0.015328474 0.068222895 -0.048640728
0.06717774 0.057731356 -0.045245454 -0.01619394 0.03998495 -0.05977307 0.04518436 0.031321563
0.040384814 -0.004191104 -0.017212847 -0.11736249 -0.044617105 -0.017577894 0.1543228 -0.0024625317

mlp_extractor.value_net.0.bias f4 [64]
00000000: 0000 0000 0000 0000 0000 0000 0000 0000
00000010: 0000 0000 0000 0000 0000 0000 0000 0000
00000020: 0000 0000 0000 0000 0000 0000 0000 0000
00000030: 0000 0000 0000 0000 0000 0000 0000 0000
00000040: 0000 0000 0000 0000 0000 0000 0000 0000
00000050: 0000 0000 0000 0000 0000 0000 0000 0000
00000060: 0000 0000 0000 0000 0000 0000 0000 0000
00000070: 0000 0000 0000 0000 0000 0000 0000 0000
00000080: 0000 0000 0000 0000 0000 0000 0000 0000
00000090: 0000 0000 0000 0000 0000 0000 0000 0000
000000a0: 0000 0000 0000 0000 0000 0000 0000 0000
000000b0: 0000 0000 0000 0000 0000 0000 0000 0000
000000c0: 0000 0000 0000 0000 0000 0000 0000 0000
000000d0: 0000 0000 0000 0000 0000 0000 0000 0000
000000e0: 0000 0000 0000 0000 0000 0000 0000 0000
000000f0: 0000 0000 0000 0000 0000 0000 0000 0000
0.0 0.0 0.0 0.0 0.0 0.0 0.0 0.0
0.0 0.0 0.0 0.0 0.0 0.0 0.0 0.0
0.0 0.0 0.0 0.0 0.0 0.0 0.0 0.0
0.0 0.0 0.0 0.0 0.0 0.0 0.0 0.0
0.0 0.0 0.0 0.0 0.0 0.0 0.0 0.0
0.0 0.0 0.0 0.0 0.0 0.0 0.0 0.0
0.0 0.0 0.0 0.0 0.0 0.0 0.0 0.0
0.0 0.0 0.0 0.0 0.0 0.0 0.0 0.0

mlp_extractor.value_net.2.weight f4 [64, 64]
00000000: 03c8 dd3e ab29 5a3e edee 913d c5f4 503e
00000010: bd83 7d3d cc52 a1bd 7a5d dbbd a362 713e
00000020: 1c0e c63d d068 a1bd 73f6 153e 4713 723e
00000030: 1085 71bb 17e5 403d d5fe 1eba 45a9 08bf
00000040: 62de aa3d 445f 903e f4fc e93d 32e8 a43e
00000050: f6ae d3bc 5050 9c3e e0ba e6bd cea5 973e
00000060: 7be5 3c3e bf6d 04be 9406 29be 9955 63bd
00000070: 4962 15bd e592 6b3d a35c 393c 8b4b 33be
00000080: 9303 a93d e3e8 fabd 32bb b43e cff7 393d
00000090: 7b77 853e 8364 c1bc 6f0c 9e3c 26b1 073e
000000a0: 504f 1b3e 7ee3 0bbe cfeb ab3d d3da 26bd
000000b0: acb8 cdbd 3144 a7be 883a ae3e bc97 903d
000000c0: 95a9 00bd e052 f0bd 7c7b d1bd 5e5e 9e3d
000000d0: 0695 c83c 067e 60be adfc baba 4bdd 073e
000000e0: 75f0 523e 5cbc a9bd 0a99 db3c f0ad 603d
000000f0: c78b 153d 23f4 11be d112 4ebe fcb4 edbd
00000100: c2ce 613d bd0b 12bd 4f40 f93d 0b00 1f3d
00000110: cff1 bebd 1749 a4bd 3103 313e a2ff 5abb
00000120: edec 503e eade 36bd d2b2 25be 0dcc 093e
00000130: 924b a73c 890a cd3d a440 7dbd 848c 25bd
00000140: 9ef0 91bd 4c64 6a3d 02ec e33e 81c4 1f3e
00000150: 6e3f aa3e a756 55be a600 2dbe bb1e a9bd
00000160: 7991 653e 9ad2 593e 6527 803e fda7 a0be
00000170: 39db 443e 49fd c53d 416e 60be 4001 2f3d
00000180: 55e6 a8bd 2204 9b3d 9edf e7bc 074b 223d
00000190: 05ff 6fbe f854 07be e481 a13e 244e a83d
000001a0: fdf8 b63d 949e 833e 90e2 253d a93d 5a3e
000001b0: 1df0 983d 9df4 223d c4f2 8abe 5b21 283e
000001c0: 707f a1be af99 47bd f4d8 873e a8d1 e13d
000001d0: a9e3 60be dc98 50bd 7bd4 ef3d df2c 3f3e
000001e0: ef29 c43e f652 bf3d 482d e03d 2a04 4c3e
000001f0: ae4a c4bc 4461 5cbe b3c2 853e af3b 2ebe
00000200: 151c 103b 32d6 683e 78c3 833c 5aed 8d3d
00000210: 441d c03c 9b82 8dbe 298b ff3d cf2c 26be
00000220: 3f3c ea3c 5767 183e fdac 8c3e e64f 013e
00000230: 7e30 15be 3644 013e 3019 0b3e 7795 1cbd
00000240: 7a0f 133e ca5a da3d e522 203e 5dd1 193c
00000250: b27e d0bd b809 cdbc b117 9b3d 1b46 c13d
00000260: 52d9 0e3e b117 b5bd 2ea8 6c3e 56c3 48be
00000270: 1eca b5bd 3f94 173e affb 15be ca55 13be
00000280: bab3 073e df28 f8bd ed93 1fbd fbe8 0a3d
00000290: 3115 4b3d c06b 81bd 3458 933e 17a5 8f3e
000002a0: 5b5d a9bd 628b 6d3e 6b11 5b3e 8944 35bd
000002b0: 2aa2 31bd 7974 113f 9ad3 483e f3c2 a83d
000002c0: 0e09 803d 43eb 9c3e b1f4 7fbe 6c4b 05bf
000002d0: b701 243c 2bc0 e13d 4522 30be 1538 35be
000002e0: c001 6dbe f8b4 803e aaff 39be b086 0d3e
000002f0: 96ac d83d 9df5 ad3d 92e3 ae3b 53b0 a53d
00000300: d7aa b73d 7741 e73d f3cf d93c 52bb 5e3d
00000310: ff77 f3bd 40ed 43be 9402 963d 1af2 4a3e
00000320: d876 c53d 8259 45be 273e 48bd 8aee 4d3e
00000330: 06c3 cc3c 116f 4d3e 6e2e c9bd 52cb 3c3b
00000340: 2cdb fc3d d50b acbd 843a 253d ccc3 e5be
00000350: bf98 003d e793 403d c3e7 ec3e f185 d13d
00000360: b41d 5abe bdad 653e cd40 bebd cec7 94be
00000370: 61e9 0abe 003f 4cbe c393 6cbc 99fa aabe
00000380: b100 1e3e 91cb 16bc ad78 0b3e d955 94be
00000390: 741f 073e b0db 683d 90c6 953d b3b6 a1be
000003a0: f1eb 2d3e abd9 353e 3e4e 3abe 822d 25bd
000003b0: 0301 debe aed0 1d3e e713 82be efc9 37be
000003c0: a201 fd3d 432e 0ebd 46aa ac3d 5e82 3c3e
000003d0: 11aa 383e 2e60 24be 61d2 ecbd 6af3 6f3d
000003e0: cec7 b2bd fcec d93d b8c4 853e 55f0 473e
000003f0: c587 c4bb 1c9e 1fbd cf23 3b3d bcf6 d93d
0.4331666 0.21304958 0.071256496 0.20405872 0.061893214 -0.078771204 -0.107111886 0.23572783
0.0967066 -0.078813195 0.14644794 0.23640166 -0.0036852993 0.047093477 -0.00060651946 -0.53383285
0.083431974 0.28197682 0.114252 0.322084 -0.025840264 0.30530024 -0.11266112 0.29618686
0.18446915 -0.1293249 -0.16506416 -0.055501554 -0.036470685 0.057513136 0.01131359 -0.17509286
0.08252635 -0.12251451 0.3529907 0.045402344 0.2606772 -0.023607498 0.019293038 0.1325117
0.15166974 -0.13661 0.08394586 -0.04073603 -0.10044989 -0.32669213 0.3402903 0.07060191
-0.031411726 -0.11734557 -0.10228631 0.07732843 0.024485122 -0.21923074 -0.0014265977 0.1326801
0.2059954 -0.0828788 0.026806373 0.05485338 0.036510255 -0.14253287 -0.20124365 -0.11606786
0.05512882 -0.035655726 0.12170469 0.0388184 -0.09323465 -0.08021753 0.17286374 -0.003341653
0.2040288 -0.04464618 -0.16181496 0.13456745 0.020421777 0.10011775 -0.061829224 -0.04041721
-0.07125972 0.057224557 0.44515997 0.15602304 0.33251518 -0.20833836 -0.16894779 -0.082578145
0.22418775 0.21271744 0.25030056 -0.31378165 0.19224252 0.09667451 -0.21917059 0.0427258
-0.08247057 0.07569148 -0.028304871 0.039622333 -0.23437126 -0.13216007 0.3154441 0.08218029
0.089342095 0.25706923 0.04049927 0.21312584 0.07467673 0.039784063 -0.2713834 0.16418974
-0.3154254 -0.04873055 0.2653271 0.11026317 -0.21961845 -0.050927028 0.11710449 0.1866946
0.38313243 0.093419954 0.10946137 0.19923463 -0.023961391 -0.21521479 0.26125106 -0.17014955
0.0021989394 0.22737959 0.016084418 0.06930037 0.023451455 -0.27638707 0.124777146 -0.1622803
0.02859318 0.14883171 0.2747573 0.12628135 -0.1456928 0.12623677 0.13583827 -0.03822848
0.14361373 0.10661848 0.15638311 0.009388295 -0.10180415 -0.025029048 0.07572878 0.094372
0.13950089 -0.088424094 0.2311103 -0.19605765 -0.088764414 0.14802645 -0.14646791 -0.14388195
0.13252154 -0.121171705 -0.038959432 0.033913594 0.049580757 -0.0631938 0.2877823 0.2805564
-0.08269759 0.23197702 0.21393363 -0.044254813 -0.043367542 0.5681835 0.1961197 0.082403086
0.06251727 0.3064824 -0.24995686 -0.5206821 0.0100101745 0.11022981 -0.17200573 -0.17697175
-0.23145199 0.25138068 -0.18163934 0.1382091 0.10579793 0.08494113 0.005337187 0.08090272
0.08968132 0.11291783 0.026588416 0.05437786 -0.11888122 -0.19133472 0.073247105 0.19818917
0.09641808 -0.19272426 -0.048887398 0.20110527 0.024995338 0.200619 -0.09823309 0.0028807712
0.12346491 -0.08400694 0.040339008 -0.44875944 0.03139567 0.04701605 0.4627057 0.102306254
-0.21300393 0.22429557 -0.092897035 -0.2905869 -0.1356559 -0.19945908 -0.014439526 -0.33394316
0.15429951 -0.009203807 0.13620253 -0.28971747 0.13195592 0.056850135 0.073132634 -0.315847
0.16984536 0.17758815 -0.1819391 -0.040326603 -0.43360147 0.15411636 -0.2540581 -0.17948125
0.12353827 -0.034712087 0.084309146 0.18409106 0.18033625 -0.16052315 -0.11563564 0.058581747
-0.08729516 0.10640904 0.26126647 0.19525273 -0.0059976303 -0.038969144 0.045688447 0.10642764

mlp_extractor.value_net.2.bias f4 [64]
00000000: 0000 0000 0000 0000 0000 0000 0000 0000
00000010: 0000 0000 0000 0000 0000 0000 0000 0000
00000020: 0000 0000 0000 0000 0000 0000 0000 0000
00000030: 0000 0000 0000 0000 0000 0000 0000 0000
00000040: 0000 0000 0000 0000 0000 0000 0000 0000
00000050: 0000 0000 0000 0000 0000 0000 0000 0000
00000060: 0000 0000 0000 0000 0000 0000 0000 0000
00000070: 0000 0000 0000 0000 0000 0000 0000 0000
00000080: 0000 0000 0000 0000 0000 0000 0000 0000
00000090: 0000 0000 0000 0000 0000 0000 0000 0000
000000a0: 0000 0000 0000 0000 0000 0000 0000 0000
000000b0: 0000 0000 0000 0000 0000 0000 0000 0000
000000c0: 0000 0000 0000 0000 0000 0000 0000 0000
000000d0: 0000 0000 0000 0000 0000 0000 0000 0000
000000e0: 0000 0000 0000 0000 0000 0000 0000 0000
000000f0: 0000 0000 0000 0000 0000 0000 0000 0000
0.0 0.0 0.0 0.0 0.0 0.0 0.0 0.0
0.0 0.0 0.0 0.0 0.0 0.0 0.0 0.0
0.0 0.0 0.0 0.0 0.0 0.0 0.0 0.0
0.0 0.0 0.0 0.0 0.0 0.0 0.0 0.0
0.0 0.0 0.0 0.0 0.0 0.0 0.0 0.0
0.0 0.0 0.0 0.0 0.0 0.0 0.0 0.0
0.0 0.0 0.0 0.0 0.0 0.0 0.0 0.0
0.0 0.0 0.0 0.0 0.0 0.0 0.0 0.0

action_net.weight f4 [17, 64]
00000000: 5d40 393c 532d 823b ec10 da3b 8284 2ebe
00000010: ccf6 e83a 27f7 e83a 7373 09bc 8384 2e3e
00000020: 602d 82bb 8184 2ebe a5dc 87b7 6173 093c
00000030: 1b0d 6d3b 8284 2ebe 8184 2e3e 8184 2ebe
00000040: aaf6 e83a ec10 da3b 6140 393c bf58 9bb9
00000050: 472d 823b 16c8 b1bb 06f7 e8ba f60c 6dbb
00000060: 7773 09bc 04f7 e8ba 5d73 09bc d110 dabb
00000070: 040d 6d3b 5f40 39bc 3e0d 6dbb 75c0 d73b
00000080: 6240 39bc 30f7 e83a 4f2d 82bb eaf6 e8ba
00000090: 372d 823b 340d 6dbb 8284 2ebe eb10 dabb
000000a0: 07f7 e8ba 5f40 393c 6a73 09bc 4b2d 823b
000000b0: 6940 39bc 7973 093c ba7c 21bb 27f7 e83a
000000c0: 080d 6d3b e010 da3b 0b0d 6d3b 5c40 39bc
000000d0: 8184 2ebe dbf6 e8ba df10 da3b 7073 09bc
000000e0: 6bc4 32bc 512d 823b d310 da3b 6d73 093c
000000f0: 4f2d 82bb 0c0d 6dbb 89dd 3639 6640 39bc
00000100: 66ac b9bc 3c6d 873c 4b1a 44bc b5a9 be3c
00000110: 5419 1ebb 5819 1ebb 2687 a53c b6a9 bebc
00000120: 3b6d 87bc b4a9 be3c 724e 6737 2587 a5bc
00000130: 9cd5 b6bb b7a9 be3c b2a9 bebc b3a9 be3c
00000140: 4219 1ebb 491a 44bc 62ac b9bc ba38 ea3a
00000150: 406d 873c a404 663a 3c19 1e3b 97d5 b63b
00000160: 2587 a53c 4119 1e3b 2387 a53c 491a 443c
00000170: 93d5 b6bb 61ac b93c 9ad5 b63b 15a3 d3ba
00000180: 63ac b93c 4719 1ebb 3f6d 87bc 4119 1e3b
00000190: 3d6d 873c a0d5 b63b b6a9 be3c 4a1a 443c
000001a0: 5519 1e3b 60ac b9bc 2587 a53c 3c6d 873c
000001b0: 62ac b93c 2887 a5bc de4f 0dba 4d19 1ebb
000001c0: 8ed5 b6bb 481a 44bc 95d5 b6bb 63ac b93c
000001d0: b5a9 be3c 4419 1e3b 481a 44bc 2787 a53c
000001e0: cad1 083a 3b6d 873c 471a 44bc 2587 a5bc
000001f0: 3f6d 87bc 9ad5 b63b 68c9 a837 63ac b93c
00000200: 39f8 3abb c905 853b 3336 3ebe c05e 013b
00000210: 9c64 403b 9e64 403b 7e41 8a3a b95e 01bb
00000220: eb05 85bb e75e 013b 0ac0 c9b8 7641 8aba
00000230: b918 97bb ab5e 013b cd5e 01bb d75e 013b
00000240: dc64 403b 3736 3ebe 0bf8 3abb d30f b5ba
00000250: d505 853b b3f3 4dbb 8864 40bb db18 973b
00000260: a141 8a3a b764 40bb fa41 8a3a 3736 3e3e
00000270: cc18 97bb 25f8 3a3b d418 973b a4a4 1a3b
00000280: 34f8 3a3b d464 403b dd05 85bb ca64 40bb
00000290: ee05 853b d218 973b ae5e 013b 3436 3e3e
000002a0: 6264 40bb 55f8 3abb 9e41 8a3a b705 853b
000002b0: 1ff8 3a3b bc41 8aba b8d5 4cbb da64 403b
000002c0: bd18 97bb 3436 3ebe ba18 97bb 59f8 3a3b
000002d0: bc5e 013b b264 40bb 3636 3ebe a841 8a3a
000002e0: 1c57 6b3b d305 853b 3636 3ebe b441 8aba
000002f0: eb05 85bb b318 973b 1e90 0e3a 20f8 3a3b
00000300: 8cc4 2ebe 6554 f03b c4e9 02bc a15c 69bc
00000310: eeee 3f3b 36ef 3f3b fdb9 d13b 9d5c 693c
00000320: 5854 f0bb ab5c 69bc a12a c9b7 0fba d1bb
00000330: 547f d9ba ad5c 69bc a65c 693c a75c 69bc
00000340: 3cef 3f3b c1e9 02bc 8ac4 2ebe ac01 6b3b
00000350: 7a54 f03b 81b4 5abb 91ef 3fbb 577f d93a
00000360: f4b9 d13b 54ef 3fbb f9b9 d13b c1e9 023c
00000370: 2b7f d9ba 86c4 2e3e 587f d93a 1484 373b
00000380: 8ac4 2e3e 4cef 3f3b 6754 f0bb 79ef 3fbb
00000390: 5c54 f03b 2a7f d93a 9e5c 69bc c9e9 023c
000003a0: 28ef 3fbb 84c4 2ebe 06ba d13b 5454 f03b
000003b0: 89c4 2e3e 0dba d1bb 405d 58bb 52ef 3f3b
000003c0: c77e d9ba c2e9 02bc 107f d9ba 8ac4 2e3e
000003d0: aa5c 69bc 75ef 3fbb c3e9 02bc 0dba d13b
000003e0: 210a 88bb 7554 f03b c0e9 02bc 03ba d1bb
000003f0: 7454 f0bb 207f d93a 15ed 053a 8ac4 2e3e
0.011306849 0.003972688 0.0066548493 -0.17042735 0.0017773747 0.0017773852 -0.008389342 0.17042737
-0.0039726943 -0.17042734 -1.6196e-05 0.008389325 0.0036171142 -0.17042735 0.17042734 -0.17042734
0.0017773707 0.0066548493 0.011306853 -0.00029630025 0.0039726826 -0.0054254634 -0.0017773814 -0.0036171055
-0.008389345 -0.0017773812 -0.008389321 -0.0066548367 0.0036171088 -0.011306851 -0.0036171223 0.006584222
-0.011306854 0.0017773863 -0.0039726864 -0.0017773781 0.003972675 -0.00361712 -0.17042735 -0.006654849
-0.0017773815 0.011306851 -0.008389333 0.0039726845 -0.0113068605 0.008389347 -0.0024640993 0.0017773852
0.0036171097 0.0066548437 0.0036171104 -0.011306848 -0.17042734 -0.0017773764 0.006654843 -0.008389339
-0.0109110875 0.0039726873 0.0066548376 0.008389336 -0.0039726864 -0.0036171107 0.00017439401 -0.011306858
-0.022665214 0.01653158 -0.011969159 0.023274282 -0.0024123983 -0.0024123993 0.020206045 -0.023274284
-0.016531577 0.02327428 1.3786937e-05 -0.020206043 -0.0055796634 0.023274286 -0.023274276 0.023274278
-0.0024123942 -0.0119691575 -0.022665206 0.0017869689 0.016531587 0.0008774495 0.0024123928 0.005579661
0.020206043 0.002412394 0.02020604 0.0119691575 -0.0055796592 0.022665204 0.0055796625 -0.0016146625
0.022665208 -0.0024123953 -0.016531585 0.002412394 0.016531581 0.0055796653 0.023274284 0.011969158
0.0024123986 -0.022665203 0.020206043 0.01653158 0.022665206 -0.02020605 -0.0005390624 -0.0024123967
-0.005579657 -0.011969157 -0.00557966 0.022665208 0.023274282 0.0024123946 -0.011969157 0.020206047
0.0005219249 0.016531577 -0.011969156 -0.020206043 -0.016531585 0.0055796625 2.0120948e-05 0.022665208
-0.00285293 0.0040595275 -0.18575363 0.0019740313 0.0029356843 0.0029356848 0.0010548083 -0.0019740297
-0.0040595434 0.0019740404 -9.620197e-05 -0.0010548073 -0.0046111015 0.0019740264 -0.0019740344 0.0019740367
0.0029356992 -0.18575369 -0.0028529193 -0.001381392 0.004059533 -0.0031425774 -0.0029356796 0.0046111173
0.0010548123 -0.0029356906 0.0010548227 0.18575369 -0.0046111103 0.0028529253 0.004611114 0.0023596669
0.0028529288 0.0029356973 -0.004059537 -0.002935695 0.0040595448 0.004611113 0.0019740271 0.18575364
-0.0029356708 -0.0028529365 0.001054812 0.004059519 0.002852924 -0.0010548155 -0.0031255316 0.0029356987
-0.0046111033 -0.18575364 -0.004611102 0.0028529374 0.0019740304 -0.0029356894 -0.18575367 0.0010548132
0.0035910076 0.004059532 -0.18575367 -0.0010548146 -0.0040595434 0.0046110987 0.0005438345 0.0028529242
-0.17067164 0.0073342794 -0.007990304 -0.014243276 0.00292867 0.0029286868 0.0064003454 0.014243272
-0.0073342733 -0.014243285 -2.3980918e-05 -0.0064003537 -0.0016593733 -0.014243287 0.0142432805 -0.014243281
0.0029286882 -0.007990302 -0.17067161 0.003585915 0.007334289 -0.003337175 -0.002928708 0.0016593736
0.006400341 -0.0029286938 0.0064003435 0.007990302 -0.0016593685 0.17067155 0.0016593738 0.0028002309
0.17067161 0.002928692 -0.0073342803 -0.0029287024 0.007334275 0.0016593684 -0.014243273 0.007990309
-0.0029286835 -0.17067152 0.0064003495 0.0073342714 0.1706716 -0.006400353 -0.0033014566 0.0029286933
-0.0016593569 -0.0079903025 -0.0016593654 0.17067161 -0.014243284 -0.0029287015 -0.007990303 0.006400353
-0.004151598 0.007334287 -0.007990301 -0.006400348 -0.0073342863 0.0016593672 0.00051088753 0.17067161

action_net.bias f4 [17]
00000000: 98cf 9abb 65c4 65bd 1a06 433b 22ca 3fbb
00000010: 791b de3a c00a 023d 81de c13c 84bb feba
00000020: 750d 98ba acbc 0f3d 69db 003d b8de 263e
00000030: 5095 283e d6f9 11be 07f8 97ba bd11 be3a
00000040: a267 09be
-0.004724454 -0.0560955 0.0029758275 -0.0029264768 0.0016945443 0.031748533 0.023665668 -0.0019434546
-0.001160069 0.03509204 0.031459246 0.16295898 0.16463208 -0.14255461 -0.0011594304 0.0014501136
-0.13418439

value_net.weight f4 [1, 64]
00000000: e836 29be d818 14bd af77 cb3d 75f0 9fbc
00000010: 17d4 24be 889a 93bd 9420 9e3d 42bb 813d
00000020: 41b0 5eba 6461 41be 35be 123e 15d8 773d
00000030: 684c 2ebd 5b5b 933d 31b9 363d 9a3e 073d
00000040: f7e5 1b3e 878b a5bd 4e68 9abd b2c3 9a3c
00000050: d987 583b b2c0 b43d ebce 0fbe 2e27 483e
00000060: e81e 17be b550 ac3d 10a3 203e ce05 31be
00000070: 6931 743e ab21 e73d ea94 233d 98f9 ff3d
00000080: 4703 f03d a3b9 7cbc 48b2 08be eddb 3c3e
00000090: 80bc 223e 8953 27be 8b32 4bbe b63c 34bd
000000a0: 6077 55be 07be 063c 485e 163c 5b9c 3d3e
000000b0: 2b0a c2bd ae9c d6bd 7af4 eabd c920 31bd
000000c0: 3ca0 143e 9c1f c3bd 529d 0d3e 25a9 1c3e
000000d0: 655a e93c 0745 86bd fe0f f03d a618 c9bb
000000e0: 8592 1fbe fd51 d03c 15fd 6ebe 034d b23d
000000f0: 94c9 973e ef51 74bd 43f4 3b3e f0d2 59bd
-0.16524851 -0.036156505 0.09934937 -0.019523839 -0.16096531 -0.07207209 0.077210575 0.06334545
-0.0008494892 -0.18884808 0.1433037 0.060508806 -0.042553335 0.07195159 0.044610206 0.033018686
0.15224443 -0.08083253 -0.07539426 0.018892143 0.0033039956 0.08825816 -0.14043777 0.19546196
-0.14757884 0.08413831 0.15687203 -0.1728737 0.23846973 0.112857185 0.039936937 0.12498778
0.11719375 -0.015425119 -0.13349259 0.1844327 0.1589222 -0.1634046 -0.198435 -0.04400321
-0.20846319 0.008224017 0.009177752 0.18516676 -0.09474596 -0.10479103 -0.114724115 -0.043244157
0.1451425 -0.095275134 0.13829544 0.15298899 0.028485486 -0.06556135 0.117218 -0.0061369715
-0.15583237 0.02542972 -0.2333873 0.08706095 0.2964598 -0.05964845 0.18354897 -0.05317968
