policies/Humanoid/he_a2c_initialization.pt (torch, 40848 bytes, 10 tensors)

mlp_extractor.policy_net.0.weight f4 [64, 3]
000000 ee 68 04 3f d9 10 9a 3f d2 27 53 3f 00 bc 9a bb
       0.5172261 1.2036391 0.82482636 -0.0047221184
000010 3f 88 4b bf 0f ea 10 bf 4c 69 a0 be 92 3d 63 3f
       -0.7950477 -0.56607145 -0.31330335 0.88765824
000020 c0 34 ac 3e 00 80 9e b9 41 0e 37 bf 98 6a 1a 3e
       0.33633995 -0.00030231476 -0.71506125 0.15079725
000030 f8 8d c1 3e 89 26 68 bf 88 2f 32 be 1c 35 22 bf
       0.37803626 -0.906838 -0.17400944 -0.6336229
000040 55 a8 86 bf c0 0b bc bd 59 92 82 3f 67 6b b0 bf
       -1.0520121 -0.09181929 1.0200912 -1.3782777
000050 3c 4a 91 bf 0f ce 94 3f dc 74 a6 be 93 d1 a2 bf
       -1.135078 1.1625384 -0.32511032 -1.2720207
000060 90 d3 af be 9f d3 a2 3f 58 8f 12 be 14 36 aa bf
       -0.34341097 1.2720832 -0.14312494 -1.3297753
000070 aa 42 19 3f bd 83 9b 3f 86 5c 7e 3f de a5 94 bf
       0.59867346 1.2149578 0.9935993 -1.1613119
000080 11 2a 58 bf 9c 28 8b 3e 46 40 20 3f 8c b0 2e bf
       -0.8443919 0.2717942 0.62598073 -0.6823814
000090 ad 64 ac bf 55 87 ae 3f f2 2b f5 be bc f6 d2 be
       -1.3468224 1.363505 -0.4788509 -0.41203868
0000a0 c7 88 8f 3f bc 52 d7 3e ce d3 d6 be c6 60 8d bf
       1.1213616 0.4205531 -0.4195847 -1.1045158
0000b0 ec 5b 86 be 9a 24 75 3f 94 d4 58 bf 9c 24 84 be
       -0.26242006 0.95758975 -0.8469937 -0.2580918
0000c0 1c ee 9a 3e 9d cf b0 3f 30 99 60 be b3 0a 81 3f
       0.30259788 1.3813359 -0.21933436 1.008139
0000d0 45 3a aa 3f fc 90 ac be f0 f8 f7 bd 54 cf 4e bf
       1.3299032 -0.33704364 -0.12108028 -0.8078511
0000e0 04 9a a4 3e 7b 5a a4 3f 1b 50 a9 3f b9 bd a9 3f
       0.32148755 1.2840112 1.3227571 1.3261024
0000f0 50 ef c2 be c8 90 f3 3e ca 0f 3b bf 8f 1d ab bf
       -0.38073206 0.47571397 -0.7307097 -1.3368396
000100 1f b8 90 3f 09 ad 97 bf 6f 17 a6 3f 4c f4 e4 3e
       1.1306189 -1.1849681 1.2975901 0.44717634
000110 6c 53 5e bf 21 b9 88 bf 94 93 1f bf 6a 3e 7f 3f
       -0.8684604 -1.0681497 -0.6233456 0.9970461
000120 ff da 9b bf b4 94 c8 3e 7b 84 6c bf 9f 7a b0 bf
       -1.2176207 0.3917595 -0.9238965 -1.3787421
000130 f9 63 0e bf 22 5b 2d 3f 00 60 25 bc 82 15 98 bf
       -0.55621296 0.6771718 -0.010093689 -1.1881564
000140 0b 8d 83 bf 38 3a a1 3e d7 0f a7 3f 9e 42 66 3f
       -1.0277418 0.3148973 1.3051709 0.899454
000150 d3 f8 ae 3f 47 c3 99 3f 98 e5 b7 be 90 10 da 3d
       1.3669685 1.2012719 -0.35917354 0.1064769
000160 57 21 4b bf 78 01 88 bf c0 f8 7e bf 2f b7 a8 3f
       -0.7934775 -1.0625448 -0.9959831 1.3180903
000170 c8 f1 7f bf 4a 0a 06 3f 29 7f 08 bf 80 15 b8 bd
       -0.99978304 0.5235945 -0.5331903 -0.08988476
000180 e9 18 2b bf 95 d0 2b bf 10 ef f4 bd 46 36 82 bf
       -0.66834885 -0.67115146 -0.1195966 -1.0172813
000190 00 b5 83 3d f0 a7 9e bd 80 5b 5f bc b6 07 ec be
       0.064310074 -0.07746875 -0.013632655 -0.46099633
0001a0 2b ef 98 3f ff ef 20 bf 00 36 5f 3d c0 c0 d7 bd
       1.1947988 -0.62866205 0.054494858 -0.10534811
0001b0 50 d5 aa 3d 0d d5 87 3f 24 16 a7 bf e0 bd 91 bf
       0.083414674 1.0611893 -1.3053632 -1.138607
0001c0 58 9f 15 3f bf 9e 99 3f e5 83 8e 3f c3 6e 84 3f
       0.58446264 1.200157 1.1134001 1.0346302
0001d0 af 96 aa bf fb 00 96 3f 58 fe 97 be 61 0a b1 3f
       -1.3327235 1.1719049 -0.29686236 1.3831292
0001e0 bd b6 99 3f 32 d9 33 3f 08 89 3e be 18 81 0b 3e
       1.2008892 0.7025329 -0.18606961 0.13623464
0001f0 69 a6 a8 3f 60 7d a4 3e 69 e0 a9 3f af 1b b2 3f
       1.3175784 0.32126904 1.327161 1.3914698
000200 2c 30 e0 3e 32 6d 5e 3f 02 56 60 bf 00 12 1b 3e
       0.43786752 0.8688537 -0.8763124 0.15143585
000210 c0 93 9f bc a0 96 d9 bd c0 11 2e 3e d6 56 80 bf
       -0.019479632 -0.106244326 0.16998959 -1.00265
000220 e4 71 6d bf b8 d3 9b 3e 6f 6e 49 bf 00 c8 9f 3c
       -0.9275191 0.30434966 -0.78684133 0.019504547
000230 b0 67 92 3e 2e 47 88 bf 12 c8 37 3f ca fa 2c 3f
       0.28594732 -1.0646722 0.7178966 0.67570174
000240 12 da 8c bf 06 86 49 bf d8 25 5e 3e ed 41 31 bf
       -1.100405 -0.7872013 0.21694124 -0.6924122
000250 e0 c5 92 bd d0 ad fe 3d 61 7c 8f bf 80 a9 26 3e
       -0.07166648 0.12435496 -1.1209832 0.16275597
000260 91 b5 9c 3f 81 e8 9c bf 80 bd a0 be b2 74 65 bf
       1.224291 -1.2258455 -0.31394577 -0.8963119
000270 74 84 92 be 9a a1 53 3f 4d 94 07 bf 22 de 40 3f
       -0.2861668 0.8266846 -0.52960664 0.7533895
000280 12 41 5b 3f 49 54 8a 3f b0 94 f8 3d 1e 81 7e bf
       0.85646164 1.0806972 0.12137735 -0.9941577
000290 39 f8 a5 bf 76 8e 69 3f e0 28 e4 bd 8e f7 2b 3f
       -1.2966377 0.91233003 -0.11140609 0.67174613
0002a0 7b cf 8b bf e8 51 30 bf a5 60 ac 3f 7e 6a 44 3f
       -1.0922693 -0.6887498 1.3466994 0.76724994
0002b0 30 fb c1 3e 49 74 6e bf df 59 8a 3f a4 84 f9 3e
       0.37886953 -0.9314619 1.0808676 0.4873401
0002c0 19 92 82 3f 6c 7f 96 3e 00 21 a1 3e 63 da a8 bf
       1.0200835 0.2939409 0.3147049 -1.3191646
0002d0 4d 08 a0 3f f7 fb 8c 3f a0 b8 8f bf 6c 70 db 3e
       1.2502533 1.1014394 -1.1228218 0.4285921
0002e0 ef a8 b4 3f 20 9b 0b bd 78 a4 46 bf d4 f8 41 bf
       1.4114054 -0.034083486 -0.7759471 -0.75770307
0002f0 58 a7 97 bf 91 8c b1 3f 90 41 93 3e bb 86 96 3f
       -1.1847944 1.3871022 0.28760958 1.1759866

mlp_extractor.policy_net.0.bias f4 [64]
000000 00 00 00 00 00 00 00 00 00 00 00 00 00 00 00 00
       0.0 0.0 0.0 0.0
000010 00 00 00 00 00 00 00 00 00 00 00 00 00 00 00 00
       0.0 0.0 0.0 0.0
000020 00 00 00 00 00 00 00 00 00 00 00 00 00 00 00 00
       0.0 0.0 0.0 0.0
000030 00 00 00 00 00 00 00 00 00 00 00 00 00 00 00 00
       0.0 0.0 0.0 0.0
000040 00 00 00 00 00 00 00 00 00 00 00 00 00 00 00 00
       0.0 0.0 0.0 0.0
000050 00 00 00 00 00 00 00 00 00 00 00 00 00 00 00 00
       0.0 0.0 0.0 0.0
000060 00 00 00 00 00 00 00 00 00 00 00 00 00 00 00 00
       0.0 0.0 0.0 0.0
000070 00 00 00 00 00 00 00 00 00 00 00 00 00 00 00 00
       0.0 0.0 0.0 0.0
000080 00 00 00 00 00 00 00 00 00 00 00 00 00 00 00 00
       0.0 0.0 0.0 0.0
000090 00 00 00 00 00 00 00 00 00 00 00 00 00 00 00 00
       0.0 0.0 0.0 0.0
0000a0 00 00 00 00 00 00 00 00 00 00 00 00 00 00 00 00
       0.0 0.0 0.0 0.0
0000b0 00 00 00 00 00 00 00 00 00 00 00 00 00 00 00 00
       0.0 0.0 0.0 0.0
0000c0 00 00 00 00 00 00 00 00 00 00 00 00 00 00 00 00
       0.0 0.0 0.0 0.0
0000d0 00 00 00 00 00 00 00 00 00 00 00 00 00 00 00 00
       0.0 0.0 0.0 0.0
0000e0 00 00 00 00 00 00 00 00 00 00 00 00 00 00 00 00
       0.0 0.0 0.0 0.0
0000f0 00 00 00 00 00 00 00 00 00 00 00 00 00 00 00 00
       0.0 0.0 0.0 0.0

mlp_extractor.policy_net.2.weight f4 [64, 64]
000000 d4 a4 ca 3d 60 66 66 be ca c1 40 3e c0 2a ee 3d
       0.0989472 -0.2249999 0.18823925 0.11629248
000010 c0 15 95 bc 81 65 85 be 60 2d 68 be 94 75 21 3e
       -0.018198848 -0.26054004 -0.22673559 0.15767509
000020 ff ff 21 be f8 2b 2f 3e 62 e6 34 3e 00 80 04 bb
       -0.15820311 0.17106616 0.17666009 -0.0020217896
000030 68 00 c3 3d e2 73 12 be 88 5e 3b 3e 08 76 76 3d
       0.09521562 -0.14302018 0.1829778 0.060171157
000040 07 01 8c be f0 0a 03 bd ef 85 9b 3e 9e 0a 38 be
       -0.27344534 -0.031992853 0.3037562 -0.179728
000050 6c 30 bb bd 2b a9 11 be 70 09 ae 3d d0 fe 10 be
       -0.09140095 -0.14224689 0.08497894 -0.14159703
000060 40 be 91 bd e8 26 60 be 96 cd be bd 69 bd 80 3e
       -0.071163654 -0.21889842 -0.09316556 0.25144508
000070 00 65 cc bc 8a 27 01 be 0c 39 c6 bd 02 60 ee bd
       -0.024950504 -0.12612739 -0.096788496 -0.11639406
000080 90 95 3d be 1b e3 89 be e1 46 8a 3e 00 d2 bc bd
       -0.18514085 -0.2693108 0.270072 -0.09219742
000090 b6 6d d9 bd 42 e3 14 3e 48 7e 8b be 1e 69 27 3e
       -0.10616629 0.14539817 -0.27244782 0.16348693
0000a0 8a 66 1f 3e 4a 5d 4e 3e c8 c2 80 bd ec 7a 93 3d
       0.1556646 0.20152774 -0.062871516 0.0720118
0000b0 e2 02 2b 3e e4 60 45 be 2b a9 95 3e fe d6 86 be
       0.16700318 -0.19275242 0.29230627 -0.263359
0000c0 0a 95 31 3e 40 16 58 bd c0 62 86 3c 1e 6a 02 be
       0.1734201 -0.052755594 0.01640451 -0.12735793
0000d0 d0 96 c5 bc 80 9e 70 bb af 9f 85 be 60 8f 44 3c
       -0.024119765 -0.0036715567 -0.2609839 0.011997074
0000e0 a8 96 80 be a8 26 85 be 25 53 85 be ec 44 61 be
       -0.25114942 -0.26006055 -0.26039997 -0.21998948
0000f0 f0 60 91 be 06 dc 6b 3e 78 ee 38 3d 4e 18 9a be
       -0.2839427 0.23033151 0.045149297 -0.30096668
000100 f8 43 91 3d 80 81 74 be f0 5c c8 3c 9b 1a 93 3e
       0.07093042 -0.23877525 0.024458379 0.28731236
000110 18 a8 f4 bd b4 0b 18 be b0 ad 40 3d ba f5 7d be
       -0.11946124 -0.14848214 0.04704064 -0.24800768
000120 82 4e 1a 3e f1 ed 93 3e ac 85 8f be 96 40 57 be
       0.15069011 0.28892472 -0.2803167 -0.21020731
000130 80 f8 04 3c 00 42 63 3a 64 b8 e5 3d c5 64 83 3e
       0.008115888 0.00086691976 0.1121681 0.2566282
000140 18 7e 03 3e ae 7e 5c 3e b3 e2 56 be 42 66 18 3e
       0.1284107 0.215327 -0.20984916 0.14882758
000150 10 7a bd 3d 18 8d 0d bd c0 96 ca bc 26 f7 1e 3e
       0.09251797 -0.034558386 -0.024730086 0.15523967
000160 90 75 52 3d cc 02 67 be 8c 72 a4 3d f1 4d 9b 3e
       0.051381648 -0.2255966 0.080296606 0.30332902
000170 bc d1 b0 3d 8a eb 53 be 7a 19 79 3e f2 1d 57 be
       0.08633754 -0.2069532 0.24326125 -0.21007517
000180 ce f3 19 3e ee 28 7f 3e 6a bf 40 be 45 a6 16 be
       0.1503441 0.24917957 -0.18823019 -0.14711864
000190 2d ba 04 be 34 32 c6 3d 09 5c 08 be f3 20 37 be
       -0.12961645 0.09677544 -0.13316359 -0.17883663
0001a0 db ee 8b be a2 90 6f 3e 4a 9c e3 bd 20 f0 71 3d
       -0.2733067 0.23395017 -0.11113794 0.05906689
0001b0 e8 bf 77 3d a8 b0 87 be fc 72 43 be de a1 2d 3e
       0.06048575 -0.26501966 -0.19086832 0.16956279
0001c0 76 f9 6e 3e e0 a0 d4 bc aa 38 e5 bd cb fa 83 3e
       0.2333735 -0.025955617 -0.111924484 0.25777277
0001d0 b7 d2 87 3e 07 9e 97 3e 64 03 a7 3d c1 9f 97 be
       0.2652795 0.29612753 0.081549436 -0.2961407
0001e0 69 04 0d be a8 34 57 bd 80 62 43 3d 50 19 93 3c
       -0.13771214 -0.05254045 0.04770136 0.017956406
0001f0 b4 c7 da bd 52 f3 4e 3e 40 c5 58 bc a6 d0 7c be
       -0.106826216 0.20210007 -0.013230622 -0.24688968
000200 d4 8d d0 3d ec 6f 93 be 2c 6c ae 3d 8e af 1e be
       0.101833016 -0.28796327 0.08516726 -0.15496656
000210 4c 96 b6 bd 96 bd 52 3e c0 4d b5 3b 4c 1a ed 3d
       -0.089153856 0.20580134 0.00553295 0.11577281
000220 68 60 4f 3d 1c a3 dd 3d 34 ea a2 3d 7c fb 34 3e
       0.05062905 0.10822126 0.07954827 0.17674059
000230 e2 e8 62 3e b3 ca 81 be ec 36 0c 3e 62 47 24 3e
       0.2215915 -0.2534996 0.13692826 0.16042855
000240 8a 05 26 3e 00 a7 8e 3a a8 29 e2 3d 30 c8 35 bd
       0.1621305 0.001088351 0.110431015 -0.044380367
000250 b4 4c a0 bd 62 a0 9f bd 80 0a 2d bd b0 8e 5b 3d
       -0.0782713 -0.077942625 -0.04224634 0.053602874
000260 8c 2b ff bd 72 d5 59 3e 4d f7 89 be b5 06 9a 3e
       -0.12459478 0.21272829 -0.26946488 0.30083242
000270 a2 ec 7d 3e 78 22 63 be bd 02 31 be 14 16 4e be
       0.247973 -0.22181118 -0.17286201 -0.2012561
000280 20 18 57 bc 88 ab 07 bd 71 36 3f be d0 84 57 3d
       -0.01312831 -0.03312257 -0.18673111 0.052616894
000290 c7 91 83 be 94 f3 d4 3d b0 da 88 bd 86 b4 7f 3e
       -0.25697157 0.10398021 -0.06682336 0.24971208
0002a0 a0 6a 05 bd a4 ce 45 3e 38 2e 34 be 34 37 17 be
       -0.03257239 0.19317108 -0.17595756 -0.14767152
0002b0 ab d7 40 be 4a 2b 7c be 40 a2 3f bc f5 4d 80 be
       -0.18832271 -0.24625888 -0.011696398 -0.25059476
0002c0 00 d9 61 3c cc 0d cc 3d 6b d0 29 be 38 40 fc 3d
       0.013784647 0.09963569 -0.16583411 0.12316936
0002d0 88 67 11 3d 11 3d 86 3e 54 65 a3 bd 9b c3 84 3e
       0.035499126 0.26218465 -0.07978311 0.25930485
0002e0 7e 28 f2 bd 58 2b 60 be d0 02 99 3d c4 5c f9 3d
       -0.118241295 -0.21891534 0.074712396 0.12175897
0002f0 07 55 1b be 58 71 fe 3d 40 72 ec bb 33 51 8d be
       -0.15169154 0.12423962 -0.007215768 -0.27601013
000300 d0 d2 7b be 84 c2 c3 bd 92 49 b9 bd 80 4f bd 3b
       -0.24592137 -0.09558585 -0.090472355 0.0057772994
000310 fe 84 07 3e c0 19 ad 3c ce 68 68 3e c6 3d 34 3e
       0.13234326 0.021130443 0.2269623 0.1760169
000320 f8 4e e0 3d e6 dd c1 bd b8 d9 36 3e ad da 30 be
       0.10952562 -0.09466152 0.1785649 -0.17270918
000330 82 da 51 be 50 8a be bc 98 f5 de 3d bf a3 85 3e
       -0.2049351 -0.023259312 0.10886687 0.2610149
000340 33 0b 32 be a8 f3 8b be 30 26 8c 3d 10 48 08 3e
       -0.17387085 -0.27334332 0.06843221 0.1330874
000350 d7 b6 89 3e 37 47 80 3e 60 31 e0 bc ca 9c 5e 3e
       0.26897308 0.25054333 -0.027367294 0.21739498
000360 f3 74 9b 3e bf 47 7c be c8 b1 94 3d 60 ce 3b 3c
       0.30362663 -0.24636744 0.072604716 0.011462778
000370 da 5b 26 3e fb 61 44 be d9 5a 0b be 3e 96 34 3e
       0.16245976 -0.19178002 -0.13608874 0.17635438
000380 90 72 68 3d c1 0a 94 3e 06 af d9 bd a6 7e 4d be
       0.05674988 0.28914455 -0.10629086 -0.20067844
000390 0b 21 96 3e ac c6 82 be 28 29 3c 3e e6 0f 9f bd
       0.29322085 -0.255422 0.18375075 -0.07766704
0003a0 3c b2 1b be 3a 6a 7a 3e 44 0d 13 3e b0 6d ae bc
       -0.1520471 0.24454585 0.14360529 -0.021292537
0003b0 78 f4 50 be e2 4f 8b bd 99 d5 91 be d8 b3 09 be
       -0.20405757 -0.06802346 -0.28483275 -0.13447511
0003c0 d7 8d 84 be 26 de 30 be e4 23 aa bd 28 6e c8 bd
       -0.25889465 -0.17272243 -0.08307627 -0.09786636
0003d0 48 3d 62 3d fe 41 13 be 63 a0 91 3e 8e 51 80 be
       0.055234224 -0.14380643 0.28442678 -0.2506222
0003e0 75 09 36 be 68 a6 54 bd f0 07 ce 3c 28 e1 6b be
       -0.17777045 -0.05191651 0.02515027 -0.23035109
0003f0 5e ef d4 bd 18 68 1c 3e 00 1e a2 bc df 4e 98 3e
       -0.10397218 0.15274084 -0.019789696 0.29747674

mlp_extractor.policy_net.2.bias f4 [64]
000000 00 00 00 00 00 00 00 00 00 00 00 00 00 00 00 00
       0.0 0.0 0.0 0.0
000010 00 00 00 00 00 00 00 00 00 00 00 00 00 00 00 00
       0.0 0.0 0.0 0.0
000020 00 00 00 00 00 00 00 00 00 00 00 00 00 00 00 00
       0.0 0.0 0.0 0.0
000030 00 00 00 00 00 00 00 00 00 00 00 00 00 00 00 00
       0.0 0.0 0.0 0.0
000040 00 00 00 00 00 00 00 00 00 00 00 00 00 00 00 00
       0.0 0.0 0.0 0.0
000050 00 00 00 00 00 00 00 00 00 00 00 00 00 00 00 00
       0.0 0.0 0.0 0.0
000060 00 00 00 00 00 00 00 00 00 00 00 00 00 00 00 00
       0.0 0.0 0.0 0.0
000070 00 00 00 00 00 00 00 00 00 00 00 00 00 00 00 00
       0.0 0.0 0.0 0.0
000080 00 00 00 00 00 00 00 00 00 00 00 00 00 00 00 00
       0.0 0.0 0.0 0.0
000090 00 00 00 00 00 00 00 00 00 00 00 00 00 00 00 00
       0.0 0.0 0.0 0.0
0000a0 00 00 00 00 00 00 00 00 00 00 00 00 00 00 00 00
       0.0 0.0 0.0 0.0
0000b0 00 00 00 00 00 00 00 00 00 00 00 00 00 00 00 00
       0.0 0.0 0.0 0.0
0000c0 00 00 00 00 00 00 00 00 00 00 00 00 00 00 00 00
       0.0 0.0 0.0 0.0
0000d0 00 00 00 00 00 00 00 00 00 00 00 00 00 00 00 00
       0.0 0.0 0.0 0.0
0000e0 00 00 00 00 00 00 00 00 00 00 00 00 00 00 00 00
       0.0 0.0 0.0 0.0
0000f0 00 00 00 00 00 00 00 00 00 00 00 00 00 00 00 00
       0.0 0.0 0.0 0.0

mlp_extractor.value_net.0.weight f4 [64, 3]
000000 d0 ce 5e be f0 8c 52 bf 73 3c 06 bf 5b 62 87 3f
       -0.2175858 -0.82246304 -0.5243599 1.0576891
000010 c0 ff a5 3e 32 26 1d 3f 76 14 93 bf d5 99 8a 3f
       0.32421684 0.61386406 -1.1490619 1.0828196
000020 14 4d 88 bf 9d 23 b1 bf fa 93 0c 3f 1b 62 93 3f
       -1.0648522 -1.3838993 0.54913294 1.1514314
000030 f7 1f 96 bf 37 77 93 bf 58 48 6c bf 3e b7 27 3f
       -1.1728505 -1.1520756 -0.9229789 0.6551398
000040 c4 0d ac be 1c 8f a1 be 7a a4 65 3f b0 91 4b 3e
       -0.33604252 -0.31554496 0.89704096 0.19879794
000050 c6 4b 77 3f 9b ee ae 3f 08 10 0d be 86 ea 28 3f
       0.96599996 1.3666567 -0.13775647 0.65982854
000060 a5 b9 8e bf 80 ed 33 be 0a 29 64 3f e6 d7 5a 3f
       -1.1150404 -0.17571068 0.8912512 0.85485685
000070 68 be 1f 3e 00 58 d6 3d 98 14 e9 3e cd 29 8e bf
       0.15599978 0.104660034 0.45523524 -1.1106507
000080 12 73 5d 3f e9 b5 53 bf 60 7b ce be c9 4e 81 3f
       0.8650371 -0.8269945 -0.40328503 1.0102168
000090 80 b1 60 3c a9 55 b1 3f 82 85 0b 3f 30 3a 7d bf
       0.013714194 1.3854266 0.5450059 -0.9891691
0000a0 85 e1 4d bf a2 a7 75 bf 78 28 80 bf 80 b7 72 bc
       -0.8042224 -0.9595891 -1.001235 -0.014814258
0000b0 e4 33 10 3f c6 d4 84 bf 8a df 49 bf d8 24 96 3e
       0.5632918 -1.0377433 -0.7885672 0.29324985
0000c0 fa 68 58 3f da 6d a8 bf b4 1f cb 3e 00 a1 8a 3d
       0.8453518 -1.3158524 0.39672625 0.067689896
0000d0 dc ee c8 be 8e 06 6b 3f 19 eb a3 3f 67 e9 02 bf
       -0.39244735 0.91806877 1.2806121 -0.51137394
0000e0 ba c6 da be e5 08 80 bf 40 ed b8 3d 00 8f c9 3b
       -0.4272974 -1.0002714 0.09029627 0.00615108
0000f0 90 24 df 3d 10 d6 ee be 69 49 9b 3f 9c 40 c5 3e
       0.108956456 -0.46647692 1.2131778 0.38525856
000100 ec bf 8a bf e5 12 89 3f d0 33 6e 3e e6 1a 95 bf
       -1.083982 1.0708891 0.23261952 -1.1648834
000110 24 2e b4 3e 1d d5 80 3f 00 29 08 3d 12 de 37 3f
       0.35191453 1.0065037 0.033242226 0.7182323
000120 2d 91 ab 3f b8 ff 2c 3e 3f 6b 85 bf 41 8c 88 bf
       1.3403679 0.16894424 -1.0423354 -1.0667802
000130 d6 f2 25 3f 74 e6 dd 3e 4b 55 83 bf 00 5d f5 3c
       0.64823663 0.43339884 -1.0260404 0.029951572
000140 82 7a 32 3f 00 97 9b bd d0 0e 71 3e 54 fd 0a 3f
       0.6971818 -0.0759716 0.23540807 0.542928
000150 44 4b 76 bf e4 15 ea 3e 4b 19 43 bf b6 d7 43 3f
       -0.96208596 0.45719826 -0.7621047 0.76501024
000160 11 b0 ad bf c0 93 97 bf 33 74 9b 3f d4 8c f3 be
       -1.3569356 -1.1841965 1.2144836 -0.4756838
000170 00 66 c6 3e 12 bf 1c bf 61 b9 87 3f 57 83 8d bf
       0.38749695 -0.6122905 1.0603448 -1.1055707
000180 20 33 aa be e1 80 8e 3f 7f 0c 78 bf e4 53 89 be
       -0.3324213 1.1133081 -0.9689407 -0.26821816
000190 20 bd c7 3e a5 3d 45 bf 3f d9 a4 3f 13 95 b3 3f
       0.39011478 -0.7704719 1.2878798 1.4029869
0001a0 92 c7 79 3f 66 6d 6a 3f c0 d8 17 be 26 fa 68 bf
       0.97570145 0.9157318 -0.14828777 -0.91006696
0001b0 2c 67 8f be 2c 2e 26 bf c4 fc 85 bf b0 69 40 bf
       -0.280084 -0.649142 -1.0467763 -0.75161266
0001c0 72 bb 78 3f 16 8c 90 bf 80 0c 6c 3d 68 57 3f 3e
       0.9716102 -1.1292751 0.05762911 0.18685687
0001d0 81 d9 04 bf 54 21 29 bf 20 2f aa 3e 2c 91 fa be
       -0.51894385 -0.6606648 0.3323908 -0.48938882
0001e0 0a ba de be 32 50 75 3f de 3f 6f bf 62 b6 78 3f
       -0.43501312 0.95825493 -0.9345683 0.97153294
0001f0 5e 1a 4a 3f 3c 44 8e bf 34 09 cc be 6c f4 a3 be
       0.78946483 -1.1114573 -0.3985077 -0.32022417
000200 d3 ec a3 bf 70 07 36 be 17 53 32 bf e4 87 23 bf
       -1.2806648 -0.17776275 -0.69658035 -0.6387923
000210 1a 85 0f bf bb 6f 9c 3f 10 04 d3 3d e2 e7 a7 bf
       -0.5606247 1.2221597 0.10303509 -1.311764
000220 b1 48 a2 3f 61 9b b0 3f 66 f5 27 3f 2e 21 39 3f
       1.2678434 1.3797418 0.65608823 0.72316253
000230 c0 4c 07 3e 60 62 47 3e e8 28 85 be 14 c4 07 bf
       0.13212872 0.19471121 -0.26007771 -0.53033566
000240 9b 32 b1 bf 58 aa fa 3e 90 0d 95 3e 38 95 c3 3e
       -1.3843569 0.48958087 0.2911191 0.38199782
000250 1e fe 5f bf 74 fc d8 be c0 df c5 bc 62 85 5e bf
       -0.8749713 -0.42380106 -0.024154544 -0.86922276
000260 7a 94 01 3f eb ca 2a bf fc 46 b3 bf 74 25 b6 3e
       0.5061718 -0.6671588 -1.4006038 0.3557545
000270 b0 6b 39 be a0 c3 c5 3d 57 39 81 3f 55 3e 88 3f
       -0.18107486 0.09656453 1.0095624 1.0644022
000280 18 84 66 be 19 69 92 3f 0d f0 a9 3f 90 f1 bf 3d
       -0.22511327 1.1438323 1.3276383 0.09372246
000290 88 ba ae bf 80 eb f5 bc 24 a9 cc be 00 e0 74 bc
       -1.3650675 -0.030019522 -0.39972794 -0.014945984
0002a0 1d 0d 81 3f ef fc 97 3f 60 2e 3d 3e d7 e9 31 bf
       1.0082127 1.1874064 0.18474722 -0.69497436
0002b0 f3 11 9b 3f 40 dd e0 bc 17 81 83 3f 3e b5 50 bf
       1.2114853 -0.02744925 1.027377 -0.81526554
0002c0 ab 14 9e 3f 52 6b 63 3f a3 41 1a bf 58 74 64 3e
       1.2350057 0.8883563 -0.60256404 0.22310007
0002d0 ea e7 5d 3f 6a 13 44 3f c7 a0 42 bf 6b c7 a5 3f
       0.86682 0.76592124 -0.76026577 1.2951483
0002e0 e4 b9 90 3e a6 45 41 3f b3 a3 93 3f 63 5e ab 3f
       0.28266823 0.754969 1.1534332 1.338818
0002f0 f4 8d f3 3e 42 40 fc be f0 4a a5 3d 43 1a 96 3f
       0.4756924 -0.49267775 0.08070934 1.1726764

mlp_extractor.value_net.0.bias f4 [64]
000000 00 00 00 00 00 00 00 00 00 00 00 00 00 00 00 00
       0.0 0.0 0.0 0.0
000010 00 00 00 00 00 00 00 00 00 00 00 00 00 00 00 00
       0.0 0.0 0.0 0.0
000020 00 00 00 00 00 00 00 00 00 00 00 00 00 00 00 00
       0.0 0.0 0.0 0.0
000030 00 00 00 00 00 00 00 00 00 00 00 00 00 00 00 00
       0.0 0.0 0.0 0.0
000040 00 00 00 00 00 00 00 00 00 00 00 00 00 00 00 00
       0.0 0.0 0.0 0.0
000050 00 00 00 00 00 00 00 00 00 00 00 00 00 00 00 00
       0.0 0.0 0.0 0.0
000060 00 00 00 00 00 00 00 00 00 00 00 00 00 00 00 00
       0.0 0.0 0.0 0.0
000070 00 00 00 00 00 00 00 00 00 00 00 00 00 00 00 00
       0.0 0.0 0.0 0.0
000080 00 00 00 00 00 00 00 00 00 00 00 00 00 00 00 00
       0.0 0.0 0.0 0.0
000090 00 00 00 00 00 00 00 00 00 00 00 00 00 00 00 00
       0.0 0.0 0.0 0.0
0000a0 00 00 00 00 00 00 00 00 00 00 00 00 00 00 00 00
       0.0 0.0 0.0 0.0
0000b0 00 00 00 00 00 00 00 00 00 00 00 00 00 00 00 00
       0.0 0.0 0.0 0.0
0000c0 00 00 00 00 00 00 00 00 00 00 00 00 00 00 00 00
       0.0 0.0 0.0 0.0
0000d0 00 00 00 00 00 00 00 00 00 00 00 00 00 00 00 00
       0.0 0.0 0.0 0.0
0000e0 00 00 00 00 00 00 00 00 00 00 00 00 00 00 00 00
       0.0 0.0 0.0 0.0
0000f0 00 00 00 00 00 00 00 00 00 00 00 00 00 00 00 00
       0.0 0.0 0.0 0.0

mlp_extractor.value_net.2.weight f4 [64, 64]
000000 68 ce 07 bd 80 64 72 3d b2 a9 5f be 8a 66 a4 bd
       -0.03315583 0.059177876 -0.21842077 -0.0802737
000010 30 e3 da bc 34 01 05 3e b0 d0 62 be 9b de 57 be
       -0.02671966 0.1298874 -0.2214992 -0.21081011
000020 0e 99 66 3e 54 52 81 be 3e 43 25 3e cc eb 1e 3e
       0.22519323 -0.25258124 0.16138932 0.15519637
000030 4c 4d 78 bd e5 a0 96 3e 12 05 e1 bd fd ff 0c be
       -0.06062059 0.29419628 -0.10987295 -0.13769527
000040 f2 56 4f 3e f6 5b 7e 3e aa c3 2d be 3d 38 9a 3e
       0.20248011 0.24839768 -0.16969171 0.3012103
000050 aa b5 41 be 00 ed af 3c 40 2a f6 bc b6 a1 b5 bd
       -0.18916956 0.021475315 -0.030049443 -0.088687345
000060 10 85 15 3d 80 72 44 bc 40 ea 43 3e e1 e4 83 be
       0.03650385 -0.01199019 0.19132328 -0.25760558
000070 10 64 65 bd 3e 05 78 3e e7 89 93 be e0 39 75 3d
       -0.05600363 0.2422075 -0.2881615 0.059869647
000080 82 cc 7c be 66 dc 71 be 22 e2 07 be 68 34 18 3d
       -0.24687389 -0.23619232 -0.13269857 0.037159353
000090 36 ea 0f 3e 1e 67 6b be 26 d9 4a 3e 88 05 3f bd
       0.14054188 -0.22988555 0.19809398 -0.046636134
0000a0 1e bb 60 3e 80 04 be 3c 0c d7 6d bd 20 2d 6a bc
       0.2194638 0.023195505 -0.058066413 -0.014292985
0000b0 23 13 13 be 58 9c 1d 3d 90 53 25 3d dc 55 d1 bd
       -0.14362769 0.03847918 0.040362895 -0.102214545
0000c0 78 47 e2 3d 7c f9 ea bd 20 2a 9a 3c 5c ab 41 be
       0.11048788 -0.114733666 0.018818915 -0.18913025
0000d0 ae 87 58 be 90 64 88 3d f0 91 1a bd ea 63 67 3e
       -0.21145508 0.06659806 -0.037736833 0.22596708
0000e0 d7 5c 84 be 0c 8a 90 3d 8e d9 4d 3e e6 38 1b be
       -0.2585208 0.0705758 0.20102522 -0.15158424
0000f0 d0 0d 06 be 0a 66 cc bd f2 7e 10 3e f8 94 12 3d
       -0.13091207 -0.099804 0.14110926 0.0357866
000100 5e 49 ad bd 3f 56 0a be b3 fa 8a 3e 5e 82 29 be
       -0.08461259 -0.13509463 0.27144393 -0.16553637
000110 6e 13 59 3e d6 51 5d be ad f0 35 be 97 b1 7a be
       0.21198818 -0.21613249 -0.17767592 -0.24481808
000120 c6 c4 73 be 30 3c b3 3d a0 1b af bc d5 76 87 3e
       -0.23805532 0.08751714 -0.021375477 0.2645785
000130 40 b6 66 3d 6b 64 87 3e 4e 03 1f 3e 5a 76 5e be
       0.05632615 0.264438 0.15528604 -0.21724835
000140 c0 a1 ce 3b 92 a0 95 be f4 e8 5e be 08 95 1c 3d
       0.006305903 -0.29224068 -0.21768552 0.038228065
000150 e8 3b f3 3d e0 6c 52 be d0 f4 1c 3d d2 be 26 be
       0.118766606 -0.20549345 0.03831941 -0.1628373
000160 c0 0f 9c 3d 6a be 79 3e de 1c ed bd 0e 1c 92 be
       0.076201916 0.24389043 -0.115777716 -0.2853703
000170 82 1f 58 be d8 b5 26 3d 78 91 0f 3e 88 7e c6 3d
       -0.2110577 0.040700763 0.14020336 0.09692103
000180 10 1f 98 bc b5 37 88 3e 56 5b 88 bd c8 b1 85 bd
       -0.0185695 0.26605 -0.06658046 -0.0652805
000190 b7 2e 61 be c2 4f 20 3e 76 87 91 be bc f0 26 3e
       -0.21990477 0.15655425 -0.2842366 0.1630277
0001a0 be 1a 7e 3e e0 88 33 bd 00 69 f2 bb 06 12 3f 3e
       0.24814889 -0.043831706 -0.007397771 0.18659219
0001b0 48 94 4e 3d de 15 7f be 52 97 98 be e2 5e 6f 3e
       0.05043438 -0.24910685 -0.29802948 0.23376039
0001c0 b8 c7 a3 3d 00 20 31 b8 c2 ce 4c 3e 10 5a 83 bc
       0.07997078 -4.222989e-05 0.20000747 -0.016034156
0001d0 69 e8 98 3e 03 f8 88 3e c0 f2 51 bd ee 59 5b 3e
       0.29864815 0.26751718 -0.051256895 0.21421024
0001e0 22 eb 96 bd e6 ca 20 3e a2 ce 6e 3e 20 19 56 bd
       -0.07369067 0.157024 0.23321012 -0.052270055
0001f0 c6 6a 71 3e c4 d5 47 be 7c e4 91 3d a8 e5 31 3d
       0.23575887 -0.19515139 0.07123658 0.043431908
000200 76 50 2a be 98 23 93 be 47 80 81 3e 9e bb c2 bd
       -0.16632256 -0.28738093 0.2529318 -0.095084414
000210 37 9a 35 be 2e a6 0c be a0 51 5e 3d 4b b7 81 3e
       -0.1773461 -0.13735268 0.054277062 0.25335154
000220 76 87 76 be ab be 43 be 12 8f 7c be 2c e9 45 3e
       -0.24075112 -0.19115703 -0.24663952 0.1932723
000230 70 d6 ed 3c 7d be 30 be d3 db 86 3e d1 4c 91 3e
       0.029032916 -0.17260166 0.26339588 0.2837892
000240 14 aa 45 3e d0 94 43 bd 18 1a 8b bd 28 b9 98 3d
       0.19303161 -0.04774934 -0.06792086 0.07457191
000250 03 6d 8e be f3 d3 82 3e 03 83 14 be 8a 0c 08 3e
       -0.27817544 0.2555233 -0.14503102 0.13286033
000260 52 c7 f5 bd 3e 82 76 3e 65 90 81 be 88 98 42 bd
       -0.12000908 0.24073121 -0.25305477 -0.047508746
000270 be 93 78 3e 8c 97 d6 3d 40 d8 71 be 00 a6 e9 3a
       0.24275109 0.10478124 -0.23617649 0.0017825961
000280 b5 94 80 3e 34 80 44 3e 08 61 3c bd ae 0f 0c 3e
       0.25113454 0.1918953 -0.045990974 0.13677856
000290 1c ab c3 bd db 26 56 be b6 ef 69 be 5c 99 ae 3d
       -0.09554121 -0.2091326 -0.22845349 0.08525345
0002a0 ba 02 49 be 1b 22 8b 3e 88 1e 39 3e 5a f6 22 3e
       -0.19629946 0.27174458 0.18078053 0.15914288
0002b0 dd 8e 8c 3e c0 6e 86 bb 20 d8 8f bc 66 c6 6b be
       0.27452746 -0.004102558 -0.017559111 -0.23024902
0002c0 be 00 0c be 80 f3 8f bc a2 b3 41 3e 95 94 20 be
       -0.13672158 -0.017572165 0.1891618 -0.1568168
0002d0 8a 88 24 3e d0 1a b7 bd ba fd 6b be 8c fc b1 3d
       0.1606771 -0.08940661 -0.23046008 0.086907476
0002e0 df c0 98 be c8 e9 a8 3d 41 ab 12 be 88 11 67 bd
       -0.2983465 0.08247715 -0.1432314 -0.056413203
0002f0 a4 ee 08 3e db 25 65 be 6a 2a 0e be 62 7b 79 3e
       0.13372284 -0.22377722 -0.13883367 0.24363473
000300 90 29 26 3d a8 c9 4c bd f8 a8 4c bd c0 f1 26 3e
       0.04056698 -0.049997002 -0.04996583 0.16303158
000310 6a e5 5a 3e c0 f0 ad 3c 5c fb c6 bd 8c 7e 18 3e
       0.21376577 0.021232963 -0.09715912 0.14892024
000320 f4 70 f1 3d d1 a0 88 be 4c 70 06 3e e7 a8 8c be
       0.11789122 -0.26685193 0.13128775 -0.27472612
000330 fc 0a 09 3e 66 52 24 be 88 96 b3 bd 40 9d 79 3c
       0.13383096 -0.16047058 -0.08768946 0.015235245
000340 20 ff 5d bd 59 2e 85 be ee 71 63 3e fe 86 8d be
       -0.054198384 -0.26011923 0.2221143 -0.27642053
000350 8c 23 ed bd e6 6e 9b be c5 c8 97 3e 78 8f 30 bd
       -0.11579046 -0.30358046 0.29645362 -0.043105572
000360 f3 6c 9b 3e 12 f3 23 be 7d a5 06 be d2 5a 0d 3e
       0.3035656 -0.16010693 -0.13149066 0.13804176
000370 8e 37 67 3e ea 91 94 be 68 ae 4f bd 4a 53 72 3e
       0.22579786 -0.29017574 -0.050703436 0.23664585
000380 66 b0 68 be 78 50 b4 3d bd f4 97 3e e0 51 04 bc
       -0.2272354 0.08804411 0.29678908 -0.008076161
000390 65 db 90 be 5a 59 4c 3e ee b5 4d 3e 8d fb 41 be
       -0.28292385 0.1995596 0.20088932 -0.18943615
0003a0 16 d9 76 be 9a 63 59 3e 09 01 32 be af 09 94 3e
       -0.24106249 0.21229401 -0.17383207 0.28913638
0003b0 3e d2 49 3e fc 64 80 3d 5d 78 33 be 86 1d 5e 3e
       0.19709107 0.06269261 -0.17526384 0.2169095
0003c0 6e e2 5a 3e 70 7a b0 bc 98 45 65 be 88 e4 16 be
       0.21375439 -0.021542758 -0.22389829 -0.14735615
0003d0 f4 f8 8b be 7c df b3 bd c1 6b 0b be cc b9 48 be
       -0.27338374 -0.08782861 -0.13615324 -0.19602126
0003e0 bb 15 85 be 7e ce 85 bd 88 74 0e bd a6 8b 7f 3e
       -0.25993142 -0.06533526 -0.0347791 0.24955615
0003f0 b0 47 e1 3d 20 17 41 be f6 11 4b 3e de 73 fd bd
       0.110000014 -0.18856478 0.1983107 -0.123756155

mlp_extractor.value_net.2.bias f4 [64]
000000 00 00 00 00 00 00 00 00 00 00 00 00 00 00 00 00
       0.0 0.0 0.0 0.0
000010 00 00 00 00 00 00 00 00 00 00 00 00 00 00 00 00
       0.0 0.0 0.0 0.0
000020 00 00 00 00 00 00 00 00 00 00 00 00 00 00 00 00
       0.0 0.0 0.0 0.0
000030 00 00 00 00 00 00 00 00 00 00 00 00 00 00 00 00
       0.0 0.0 0.0 0.0
000040 00 00 00 00 00 00 00 00 00 00 00 00 00 00 00 00
       0.0 0.0 0.0 0.0
000050 00 00 00 00 00 00 00 00 00 00 00 00 00 00 00 00
       0.0 0.0 0.0 0.0
000060 00 00 00 00 00 00 00 00 00 00 00 00 00 00 00 00
       0.0 0.0 0.0 0.0
000070 00 00 00 00 00 00 00 00 00 00 00 00 00 00 00 00
       0.0 0.0 0.0 0.0
000080 00 00 00 00 00 00 00 00 00 00 00 00 00 00 00 00
       0.0 0.0 0.0 0.0
000090 00 00 00 00 00 00 00 00 00 00 00 00 00 00 00 00
       0.0 0.0 0.0 0.0
0000a0 00 00 00 00 00 00 00 00 00 00 00 00 00 00 00 00
       0.0 0.0 0.0 0.0
0000b0 00 00 00 00 00 00 00 00 00 00 00 00 00 00 00 00
       0.0 0.0 0.0 0.0
0000c0 00 00 00 00 00 00 00 00 00 00 00 00 00 00 00 00
       0.0 0.0 0.0 0.0
0000d0 00 00 00 00 00 00 00 00 00 00 00 00 00 00 00 00
       0.0 0.0 0.0 0.0
0000e0 00 00 00 00 00 00 00 00 00 00 00 00 00 00 00 00
       0.0 0.0 0.0 0.0
0000f0 00 00 00 00 00 00 00 00 00 00 00 00 00 00 00 00
       0.0 0.0 0.0 0.0

action_net.weight f4 [1, 64]
000000 40 31 b6 bd 00 cb 0d bb 00 27 d8 bc 01 d5 8d be
       -0.088961124 -0.002163589 -0.026385784 -0.27701572
000010 90 b6 47 bd 09 ea 2f be 6c db c8 3d 50 85 c0 3c
       -0.04875809 -0.17179121 0.098074764 0.023501068
000020 f0 5a 22 bd 0a f2 6b 3e 8e f1 86 bd 6f 51 8e be
       -0.039637506 0.2304155 -0.06589042 -0.27796504
000030 fe 62 e1 bd 96 81 1d 3e 3c 5c a7 3d 80 8b e4 bd
       -0.110052094 0.15381464 0.08171889 -0.1115942
000040 40 e8 3f bc 2d 27 7a be 62 22 62 3e d2 fd 5e be
       -0.011713088 -0.24429007 0.22083429 -0.21776512
000050 a8 3e 17 3d 40 1b 57 bc 3a 9e 06 be 20 e8 62 3d
       0.036924988 -0.0131290555 -0.13146296 0.055397153
000060 88 89 ab bd 18 5b b8 3d 8b a0 8d be b2 1b 87 bd
       -0.083758414 0.0900175 -0.27661547 -0.06597079
000070 33 50 8a 3e f1 f1 86 3e f0 70 2d be 90 5b 4e 3d
       0.27014312 0.26356462 -0.16937613 0.05038029
000080 c0 14 91 3d c2 35 1b 3e d8 15 0c be b2 99 62 3e
       0.07084036 0.15157226 -0.13680208 0.22128943
000090 bc 5d 2f 3e b6 7e 41 be bf 34 8b be e2 33 32 be
       0.171256 -0.18895993 -0.2718868 -0.17402604
0000a0 19 09 91 3e 32 79 67 be 22 7d 14 3e b8 d8 47 bd
       0.28327253 -0.22604826 0.1450086 -0.048790663
0000b0 c5 a2 8f be 2c ca 01 be c2 3c 49 3e ae 86 b2 bd
       -0.2805387 -0.12674779 0.19652084 -0.08717094
0000c0 9c ee 39 be 27 83 94 3e 51 43 7e be cc f6 b2 3d
       -0.18157429 0.2900631 -0.24830367 0.08738479
0000d0 40 48 4f 3c bf 8c 69 be ea 07 4a 3e d8 8b d4 3d
       0.012651503 -0.22807597 0.19729581 0.103782356
0000e0 9a 1a 5a 3e 37 b8 6b be 50 08 8f 3d 98 21 c3 bd
       0.2129921 -0.23019491 0.06984007 -0.09527892
0000f0 45 12 7b be 80 50 27 3b 30 23 95 3d fc 7a 7c be
       -0.24518688 0.002553016 0.07282102 -0.2465629

value_net.weight f4 [1, 64]
000000 c7 25 8d 3e db 43 20 be e0 31 05 3c e0 8c 3e bc
       0.27567884 -0.15650885 0.008129567 -0.011630267
000010 8e 56 28 3e 00 ab a5 3d bb 05 14 be d0 5d 40 3d
       0.16439268 0.08089256 -0.14455311 0.046964467
000020 f2 87 80 be 3e ee 7a 3e 01 c7 49 be 20 46 6a 3d
       -0.25103718 0.24504945 -0.1970482 0.057195783
000030 20 f6 7f bc 65 45 95 3e e7 f4 2e be b7 ea 80 3e
       -0.015622646 0.29154506 -0.1708561 0.25179073
000040 0e 66 49 3e 80 e6 d1 bb b1 4e 98 3e c6 1e 50 3e
       0.19667837 -0.0064056516 0.29747537 0.20324239
000050 d9 5d 8a 3e a8 fc 10 3d 2f 4d 1d be 36 c3 05 3e
       0.27024725 0.0353972 -0.15361474 0.13062748
000060 f8 f9 27 3d a8 3d 45 3e c9 b6 96 3e b5 e8 86 3e
       0.041009873 0.19261801 0.2943633 0.26349416
000070 b3 f9 31 be 3c a9 94 be d5 ac 44 be 5e 72 04 3e
       -0.17380409 -0.29035366 -0.19206555 0.12934253
000080 20 3c 53 bd 18 47 92 bd ec ba 88 bd fa 1f 1a 3e
       -0.05157101 -0.07142466 -0.066762775 0.1505126
000090 be cf 63 be 86 ef 51 3e 70 26 2f bd b0 58 76 3d
       -0.22247216 0.20501527 -0.042761266 0.060143173
0000a0 64 9d bd 3d 4a 03 6c 3e 4d 24 86 3e 3c 2b 68 be
       0.092585355 0.2304813 0.2619957 -0.22672743
0000b0 f0 aa d3 bc 2f 5a 47 be dc 14 85 3d 88 80 1a bd
       -0.025838345 -0.19467996 0.06498119 -0.037720233
0000c0 f0 ef 70 3d c4 03 08 3e b0 0f 8c be 6a 2b 81 be
       0.058822572 0.13282686 -0.2735572 -0.25228435
0000d0 c1 6e 86 3e 98 86 0a be 58 52 21 3e 34 aa 29 3e
       0.26256374 -0.13527906 0.15754068 0.16568834
0000e0 64 67 25 3e 77 fb 44 be f0 e9 a8 bc 4d f6 85 3e
       0.16152722 -0.19236551 -0.020619363 0.26164475
0000f0 69 8d 8a 3e e8 06 73 be 0e 38 5d be 1e 2e 7f 3e
       0.27061012 -0.23733103 -0.21603414 0.24919936
