policies/Humanoid/orthogonal_a2c_initialization.pt (torch, 236773 bytes, 12 tensors)

log_std f4 [17]
00000000: 0000 0000 0000 0000 0000 0000 0000 0000
00000010: 0000 0000 0000 0000 0000 0000 0000 0000
00000020: 0000 0000 0000 0000 0000 0000 0000 0000
00000030: 0000 0000 0000 0000 0000 0000 0000 0000
00000040: 0000 0000
0.0 0.0 0.0 0.0 0.0 0.0 0.0 0.0
0.0 0.0 0.0 0.0 0.0 0.0 0.0 0.0
0.0

mlp_extractor.policy_net.0.weight f4 [64, 376]
00000000: 2003 6d3d f330 78bd fc5c 25bd 4c13 56bd
00000010: a464 cd3d 5dce f6bc e420 093d 03eb 91bd
00000020: 2886 253d 8bfc 573d 0033 a73d cde5 c9bd
00000030: 821c a3bc 8346 c03c 0853 903d 648b 073d
00000040: acef 09bd 51c2 d93c 1a3b 3bbd 0696 80bd
00000050: ee30 f4bc e466 58bc 2c1f 8d3d 2ffb 69bd
00000060: a09a 31bd 3a30 81bb 7787 e2bc 4864 7e3d
00000070: c6f6 393d 749c d33c 26d1 8cbc e983 b53a
00000080: 053e 86bd bae5 35bd 9e51 ed3b 0539 05bc
00000090: 231d 46bd ca8b b6bb b5e2 b1bc 7023 0ebd
000000a0: 85be 103d e7c8 913d e97e 8abc 8c2b b43d
000000b0: f33c 0bbc c96a f6bd 9b57 f13c 4eda 34bc
000000c0: c814 7a3d ccbc 20bd 9990 503d abef 13bc
000000d0: 14e6 88bc af5b 5bbd b5d6 1ebc a884 89bd
000000e0: e70d 373d 5d38 35bd 0e8f b9bc efc5 163c
000000f0: 3435 b93c d736 2c3c 0919 8c3c 9a53 66bd
00000100: f88f 5bbc 5682 593d fb02 d5bc da67 c2bb
00000110: b570 333d db97 44bd bbfd 91bd 1f13 eebc
00000120: 058a 1abd 1dff 94bd e334 30bc 9cb5 37ba
00000130: 6636 72bc 4cc6 903a 6a12 f3bc 11ff 983c
00000140: 288d 16bd 5402 6d3d c342 54bd 2bd3 d7ba
00000150: df08 c4bc 0c07 a1bd a7a8 983d a80c cb3d
00000160: b3d2 4dbd b8a6 c23c 618d b93c 48e6 0fbd
00000170: 115e 62ba f9fc a63d 349d e6bd f0fd 88bc
00000180: e9fa ae3c 1c04 1c3e db28 95bc be06 80bc
00000190: 5ded 693d f707 9fbc 1725 a83d 9588 0cbd
000001a0: 08c9 9e3c 4e51 123c bb22 1f3d aa52 e63c
000001b0: fb06 29bd aa6e d3bc a695 42bc b34b a3bd
000001c0: a044 c23d 9979 4cbc 1dfa 8b3c 50fe 83bd
000001d0: 1542 db3b 402a dfbd fdf1 bcbc bc0f a43a
000001e0: 2a3b 133d 58a1 2a3c a5b7 823d 084c d0bd
000001f0: d787 89bd 1166 8c3d b6fc cebd 0b46 5a3d
00000200: d26d ac3d cbb2 fb3b 0955 3c3d 05d0 94bd
00000210: 04ac 063e fe25 56bd 4b0f e33b bb02 493d
00000220: 8ea7 9ebb cf95 50bc 4e4b 46bd 81c7 753d
00000230: a787 b4bc 8b22 063d a4c6 0bbd 04c5 61bc
00000240: 2359 e73c c70a a53b 4d6a 82bc b7a1 743c
00000250: 75c6 113b ae9b 3dbd 2e8f dc3d 8e0c 35bd
00000260: b5d6 ddbd 9c43 f53c 65d7 e4bc a268 dfbd
00000270: 255b 1c3d 2057 613d cecb 353d c974 3a3d
00000280: fe12 9a3c 3ce7 8f3d b5cb fcbc 369a 0d3e
00000290: ec99 94bd 70f4 443c 07a0 be3c e2ac 7fbd
000002a0: 8360 0c3e c450 d3bc 7e4d 253d 69e6 e4bd
000002b0: 3acf 833d f950 8fbc 2b4c 54bd 1c15 71bb
000002c0: 80ea c3bc 6d54 39bd d5d3 00bb 4d51 d63d
000002d0: c523 0e3d 745c 89bd d9e0 13bc 5322 773c
000002e0: 3eee cd3d 50f2 bcbc 9536 f1bb 750e 933c
000002f0: 0c53 febb 1491 3bbb 3a9a 56bd 3e00 853a
00000300: 14b7 e2bc 2052 f7bd 85c3 2d3d 430b 8bbc
00000310: 4653 7abd 1d6b ba3b 4456 c1bc f583 ec3c
00000320: 797f 193d 7b68 c03d ebea bebc 0f84 66bd
00000330: 0828 8abc 1814 c7bc 8fb5 94bc 06ae 633d
00000340: e705 023d ca58 333c 2c49 5abc 26d4 6abd
00000350: c246 bbbb 34dc 8c3d c27a 01bb b308 d9bd
00000360: 75ad 383b 6d53 b5bb a3f8 373d 5a78 283d
00000370: 1d08 353d 759a c13d 1503 e3bc 7306 c63d
00000380: 4b94 16bc 0ae3 4dbd 7bb0 0f3d d9f9 45bd
00000390: 200d 083d ff44 bb3b bd68 253e da57 3f3d
000003a0: eec4 893d 9072 5abd 248d 803d 03dd 283d
000003b0: 769d 98bc 30fb 4b3c 5919 043c 14ab 7a3d
000003c0: 082b 693d 9e64 0a3c 766c 543d f4e3 093c
000003d0: 644a cb3c 766d 473c 4ab9 06bc c09a 9bbc
000003e0: ce85 a23d 7456 77bd da0e 003c 47b2 f0bb
000003f0: 377d 0abd c650 073e e97b 05bd f98b 973d
0.05786431 -0.060593557 -0.04037188 -0.052264497 0.10028961 -0.030127699 0.033478633 -0.07124903
0.040411144 0.052731078 0.08164024 -0.09858284 -0.019911055 0.023471123 0.07047087 0.033091918
-0.033675835 0.026581915 -0.04571066 -0.06278615 -0.029808488 -0.013208125 0.06890711 -0.057124313
-0.043360353 -0.0039425166 -0.027652485 0.062107354 0.045401357 0.025831439 -0.017189573 0.0013848516
-0.06554798 -0.044408537 0.0072423955 -0.00813127 -0.04836763 -0.0055708634 -0.021714548 -0.034701765
0.035337944 0.07118397 -0.016906219 0.087973684 -0.008498418 -0.120320864 0.029460719 -0.011038376
0.061054975 -0.03924255 0.05091915 -0.009029309 -0.016711272 -0.053554233 -0.009694745 -0.06714755
0.044690993 -0.044243205 -0.022651222 0.0092024645 0.022608377 0.010511122 0.017101781 -0.056232072
-0.013401024 0.053102814 -0.026002398 -0.00593279 0.043808658 -0.047996383 -0.07128473 -0.029061852
-0.037729282 -0.072752215 -0.010754797 -0.0007007958 -0.014783477 0.0011045425 -0.029671866 0.018676313
-0.03675571 0.05786355 -0.05182148 -0.0016466131 -0.023930011 -0.07862672 0.07454043 0.09914523
-0.050249767 0.023761138 0.022650423 -0.035131723 -0.0008635233 0.081537195 -0.11260453 -0.01672265
0.021359878 0.15235943 -0.018207958 -0.015628215 0.057111133 -0.019412978 0.08210199 -0.034309942
0.019382969 0.008930517 0.03885148 0.02811559 -0.041266423 -0.025809605 -0.011876499 -0.07973423
0.094857454 -0.012480163 0.017087037 -0.06444991 0.006691227 -0.108967304 -0.023064608 0.0012516896
0.035945095 0.010414444 0.06382684 -0.10170752 -0.067153625 0.06855405 -0.101067945 0.053289454
0.08419384 0.007681226 0.045979533 -0.07266239 0.13151556 -0.052282326 0.0069293133 0.04907487
-0.0048417514 -0.01273103 -0.04841166 0.060004715 -0.02203734 0.032747786 -0.034124985 -0.013779882
0.028240746 0.005036685 -0.015919829 0.014931134 0.0022243534 -0.046291046 0.10769497 -0.044201426
-0.10831968 0.029939465 -0.02793474 -0.10908629 0.03817286 0.05501473 0.044383816 0.04552153
0.018807884 0.07026526 -0.030858854 0.13828358 -0.07255921 0.012021169 0.023269666 -0.062420733
0.13708691 -0.025795348 0.040357105 -0.1117676 0.0643601 -0.017494665 -0.051830452 -0.0036786264
-0.02391553 -0.04524653 -0.0019657512 0.10464726 0.03470208 -0.06707087 -0.009025776 0.015083867
0.10055207 -0.023064762 -0.007361243 0.01795123 -0.007761365 -0.002862041 -0.052393176 0.0010147167
-0.02767519 -0.12076211 0.04242279 -0.016973143 -0.061114572 0.0056890384 -0.023600705 0.028871516
0.037475083 0.09394928 -0.023305377 -0.056278285 -0.016864792 -0.024301574 -0.01815298 0.055585884
0.03174391 0.010946462 -0.01332311 -0.057331227 -0.005715222 0.06877938 -0.0019757007 -0.10597362
0.002817956 -0.005533627 0.044914853 0.0411304 0.04419719 0.094532885 -0.02771143 0.09669199
-0.009190629 -0.05026535 0.035080414 -0.048333976 0.033215642 0.005715012 0.16153236 0.04671464
0.067270145 -0.05333191 0.062769204 0.0412264 -0.01862977 0.0124500245 0.008062684 0.06119831
0.056925803 0.008446841 0.05186125 0.008416165 0.024815746 0.012172094 -0.008222887 -0.018994689
0.079356775 -0.060385182 0.007816041 -0.007345471 -0.03381082 0.13214406 -0.032588873 0.073997445

mlp_extractor.policy_net.0.bias f4 [64]
00000000: 0000 0000 0000 0000 0000 0000 0000 0000
00000010: 0000 0000 0000 0000 0000 0000 0000 0000
00000020: 0000 0000 0000 0000 0000 0000 0000 0000
00000030: 0000 0000 0000 0000 0000 0000 0000 0000
00000040: 0000 0000 0000 0000 0000 0000 0000 0000
00000050: 0000 0000 0000 0000 0000 0000 0000 0000
00000060: 0000 0000 0000 0000 0000 0000 0000 0000
00000070: 0000 0000 0000 0000 0000 0000 0000 0000
00000080: 0000 0000 0000 0000 0000 0000 0000 0000
00000090: 0000 0000 0000 0000 0000 0000 0000 0000
000000a0: 0000 0000 0000 0000 0000 0000 0000 0000
000000b0: 0000 0000 0000 0000 0000 0000 0000 0000
000000c0: 0000 0000 0000 0000 0000 0000 0000 0000
000000d0: 0000 0000 0000 0000 0000 0000 0000 0000
000000e0: 0000 0000 0000 0000 0000 0000 0000 0000
000000f0: 0000 0000 0000 0000 0000 0000 0000 0000
0.0 0.0 0.0 0.0 0.0 0.0 0.0 0.0
0.0 0.0 0.0 0.0 0.0 0.0 0.0 0.0
0.0 0.0 0.0 0.0 0.0 0.0 0.0 0.0
0.0 0.0 0.0 0.0 0.0 0.0 0.0 0.0
0.0 0.0 0.0 0.0 0.0 0.0 0.0 0.0
0.0 0.0 0.0 0.0 0.0 0.0 0.0 0.0
0.0 0.0 0.0 0.0 0.0 0.0 0.0 0.0
0.0 0.0 0.0 0.0 0.0 0.0 0.0 0.0

mlp_extractor.policy_net.2.weight f4 [64, 64]
00000000: 400b 6b3e d09f 9bbc 8015 b03c 8fb9 013e
00000010: cae5 f0bd 002d f7bc 4c76 26bd a06a e1ba
00000020: 0bbe 7e3d a9d5 8ebe 66ed ad3d 5e0b 1e3e
00000030: f37e 5abd b5f8 143d 0a05 953d 70e7 ed3c
00000040: 43f7 94bd a28d 11be f41d 31be 2fc3 b73e
00000050: 93f4 b53b 4e87 233c 136c 1abe a7ea bebb
00000060: d572 da3c 5cc1 8bbc 068f 6d3c 1938 cb3d
00000070: 7b7f a33d 6c56 8b3d 9dd5 fc3c 69a1 333e
00000080: c027 56be dcb6 0abe 5711 77bd 2c9c e03d
00000090: 4e29 e33d 752d 003e 5413 223c 949d 44bd
000000a0: dd63 283e 526c c2bc 9b6f 513e 2dbc bcbc
000000b0: cd1a 87bd d0eb 0b3e f62e 5fbd 94d2 c0bb
000000c0: c898 2fbe 190c 14be 52e5 0d3d c3f5 4e3d
000000d0: b96e 33bd 7a33 8e3d fd21 26bd dca7 1d3d
000000e0: deb3 183e 549e 07be fb64 dcbb f274 9abd
000000f0: 4955 9fbe b3da e43d cf6c 943e fcd2 1bbe
00000100: e740 23be 80a2 8a3c 855e 1ebb 7eb1 a6bc
00000110: a6eb 3abd 5d7e d2bc 1a2a 6dbd 6161 3bbe
00000120: b706 d33d c032 5abc 3a4b 783e 96ed 44bd
00000130: 25c9 02be 7ec3 013e 96c3 1f3d dedc 2cbd
00000140: da12 62bd 71ad 26bd 0b73 abbd b2a9 05be
00000150: fa93 5cbd a8cc af3d 4081 fdbb d672 96be
00000160: d88f 83bd 0b06 43bd 72dd 613b 6bb2 80bd
00000170: ffb2 fc3d 68a6 4c3d cd17 3e3e d6b2 393c
00000180: 8499 98bb e6d7 e9bd 1020 abbd e932 71be
00000190: 0f5f 6cbd e597 afbc b772 2c3e d8dc fcbd
000001a0: 762b b33d 82c1 c6be 507c 5fbc 5796 bbbd
000001b0: eb5d 0dbe 12e8 2ebd 607f 9f3c a270 60be
000001c0: 6da4 89bc b7df 1b3d 5435 85bd 6c08 abbd
000001d0: 9c01 383e 1f4a bdbd 01ea 123e 7712 063e
000001e0: cffc d33d 29de e2bd e76d 06be 684b 39bb
000001f0: 6e40 9a3e 2da9 303e fdcb 283e bedc 083c
00000200: 041e 77be 6d2d 513c 8037 293c 4c10 1cbe
00000210: 8473 5c3e 40d0 f4bd 48c8 9bbc 77f0 12be
00000220: a0b5 89bd 9219 4a3d fbc3 1c3d 1ea5 38bd
00000230: 20f5 c23c fd4b 49be eac1 02bd 567f e7bd
00000240: 9d85 823d 4226 32bd 4f28 8cbe 50ff fdbb
00000250: d7ea 8a3e 968c 593c b048 76be 36ba 94bd
00000260: 0434 58bc beca 8a3d 9f3a 033e 1612 4b3e
00000270: 08f3 e53a 3a62 b4bc 9691 773e a28f 953d
00000280: 60fb ad3d d163 cebd feff 003e 2022 a03d
00000290: db20 72be 2c60 a43b c6a8 753c bc30 423d
000002a0: bcf0 99bb 12d4 703d 053a 123d 33ec a03d
000002b0: cd3a fc3d 587f 793d a80f ebbd daaf 10be
000002c0: e480 3a3e d80a 5dbb f24e 89bd 94ee 53be
000002d0: 2138 9fbd bfc5 66be 6139 0cbe 3b96 09be
000002e0: f5f5 04bd f53c 21be dcd3 7f3d f767 18be
000002f0: babb 37be 2697 98bd 94c7 1abc 3244 9ebd
00000300: a63d 3ebe 1716 9abd b74f 66be a048 adbd
00000310: d87b 2fbe cccb a3bd a9c5 52bd 43aa 89bd
00000320: 68bd 1e3e 5af1 edbc c572 443e eea9 273e
00000330: 3b66 753c 8329 9dbd 1655 aebc 28c3 08bd
00000340: 5d76 81be b662 c93d 9e2b c1bd 6421 ec3c
00000350: adaf 053e 98a3 c5bd 3e64 0abd ee67 703e
00000360: 7225 89bd 6040 ee3d 4acc 69bd c80a a53b
00000370: 7ccb f5bd d7c4 fc3d 5096 92be e24b 943d
00000380: 88d8 91bd 9cdf 28be f2d2 8abd e5bd 8e3d
00000390: 6fe4 2e3d 5048 5cbe cdd0 74bd 3474 2fbe
000003a0: e013 84bd f609 c3bd 6e8d 243e 891e e03d
000003b0: b2ec cbbd 8b68 04be f12f 1fbd 3e11 26bd
000003c0: 08e9 b2bd e0fc f9bd da10 e2bd 1851 efbb
000003d0: 0ff8 443e bfaf 43be f012 8c3d 8479 e4bd
000003e0: a9fe 733d c286 2a3e d874 023e d2e2 e43d
000003f0: 98d9 443c 4fc0 53be 54d1 22be 7778 293d
0.2295351 -0.018997103 0.021494627 0.12668441 -0.11762579 -0.030172825 -0.04064016 -0.0017197914
0.062192958 -0.27897385 0.08492546 0.15434024 -0.053343724 0.036369998 0.07276352 0.029041022
-0.07273724 -0.14214185 -0.17296582 0.358911 0.005552837 0.00998099 -0.1508029 -0.0058263126
0.026666084 -0.017059974 0.0144994315 0.09922809 0.07983299 0.06803593 0.030863577 0.17542042
-0.20913601 -0.13546318 -0.06031927 0.109672874 0.110918626 0.1251734 0.0098923035 -0.04800184
0.16444345 -0.023733292 0.2045273 -0.023038948 -0.06596909 0.13664174 -0.054488145 -0.005884478
-0.17148125 -0.1445774 0.034642525 0.050527345 -0.043806765 0.06943412 -0.040559758 0.03849016
0.14912364 -0.13243991 -0.006725905 -0.07541837 -0.31119755 0.11174526 0.28989264 -0.15217203
-0.15942727 0.01692319 -0.0024165225 -0.020348307 -0.045634888 -0.02569502 -0.05790148 -0.18298866
0.10304015 -0.013317764 0.24247447 -0.048078142 -0.12772043 0.1267223 0.039004885 -0.042202823
-0.05519376 -0.04069275 -0.08371552 -0.13053015 -0.05385206 0.08583957 -0.007736355 -0.29384488
-0.064239204 -0.047613185 0.0034464267 -0.062840305 0.12338828 0.049963385 0.18563767 0.011334142
-0.0046569724 -0.114181325 -0.08355725 -0.23554577 -0.057707842 -0.021434734 0.16840635 -0.1234681
0.08748524 -0.3881951 -0.013640478 -0.091595344 -0.13805358 -0.04270179 0.019469917 -0.21917966
-0.016802037 0.038055148 -0.06504312 -0.08351216 0.17969364 -0.09242653 0.14347078 0.13092981
0.10350954 -0.1107753 -0.13127862 -0.0028273705 0.3012728 0.17252035 0.16484065 0.00835341
-0.24132544 0.012767178 0.010328174 -0.15240592 0.2152844 -0.11953783 -0.0190164 -0.14349543
-0.06724095 0.049340792 0.03827284 -0.045079343 0.023798525 -0.19657893 -0.031923212 -0.11303584
0.06373141 -0.043493517 -0.27374503 -0.007751383 0.27132294 0.013278147 -0.24051166 -0.072620794
-0.013195995 0.06776951 0.12815331 0.19831118 0.0017543742 -0.022019494 0.2417663 0.073027864
0.084952116 -0.10077632 0.12597653 0.07819009 -0.23645346 0.0050163474 0.014993852 0.047409758
-0.004697887 0.058795996 0.035699863 0.078575514 0.12315903 0.06091246 -0.114775956 -0.14129582
0.1821323 -0.0033728387 -0.06704511 -0.20696479 -0.077743776 -0.22536372 -0.13693763 -0.13436215
-0.032461125 -0.1574591 0.062457904 -0.1488341 -0.17942706 -0.07450704 -0.009446997 -0.07727851
-0.18578205 -0.075237446 -0.22491346 -0.08461118 -0.17137086 -0.079978555 -0.051458035 -0.06721928
0.1550194 -0.02904575 0.19184406 0.16373417 0.014977987 -0.07673933 -0.021280807 -0.03338924
-0.25285617 0.09833281 -0.094321474 0.028824516 0.13055296 -0.09650344 -0.033787005 0.23477146
-0.06696595 0.11633372 -0.05707959 0.0050366856 -0.12001702 0.12342232 -0.28630304 0.07241036
-0.07121378 -0.1649155 -0.06778516 0.06969813 0.04269832 -0.2151196 -0.05976944 -0.17134172
-0.06449103 -0.09523384 0.16069576 0.10943324 -0.099572554 -0.12930505 -0.03886408 -0.040543787
-0.087358534 -0.12206435 -0.110383704 -0.0073033683 0.19235252 -0.1911001 0.068395495 -0.1115599
0.059569035 0.16652969 0.12739885 0.11176075 0.012014769 -0.20678829 -0.15900165 0.04137465

mlp_extractor.policy_net.2.bias f4 [64]
00000000: 0000 0000 0000 0000 0000 0000 0000 0000
00000010: 0000 0000 0000 0000 0000 0000 0000 0000
00000020: 0000 0000 0000 0000 0000 0000 0000 0000
00000030: 0000 0000 0000 0000 0000 0000 0000 0000
00000040: 0000 0000 0000 0000 0000 0000 0000 0000
00000050: 0000 0000 0000 0000 0000 0000 0000 0000
00000060: 0000 0000 0000 0000 0000 0000 0000 0000
00000070: 0000 0000 0000 0000 0000 0000 0000 0000
00000080: 0000 0000 0000 0000 0000 0000 0000 0000
00000090: 0000 0000 0000 0000 0000 0000 0000 0000
000000a0: 0000 0000 0000 0000 0000 0000 0000 0000
000000b0: 0000 0000 0000 0000 0000 0000 0000 0000
000000c0: 0000 0000 0000 0000 0000 0000 0000 0000
000000d0: 0000 0000 0000 0000 0000 0000 0000 0000
000000e0: 0000 0000 0000 0000 0000 0000 0000 0000
000000f0: 0000 0000 0000 0000 0000 0000 0000 0000
0.0 0.0 0.0 0.0 0.0 0.0 0.0 0.0
0.0 0.0 0.0 0.0 0.0 0.0 0.0 0.0
0.0 0.0 0.0 0.0 0.0 0.0 0.0 0.0
0.0 0.0 0.0 0.0 0.0 0.0 0.0 0.0
0.0 0.0 0.0 0.0 0.0 0.0 0.0 0.0
0.0 0.0 0.0 0.0 0.0 0.0 0.0 0.0
0.0 0.0 0.0 0.0 0.0 0.0 0.0 0.0
0.0 0.0 0.0 0.0 0.0 0.0 0.0 0.0

mlp_extractor.value_net.0.weight f4 [64, 376]
00000000: c00a 1dbe 72f5 22bd 9752 26b8 30d3 023d
00000010: 6fd5 8fbc 4016 ca3c 28aa ab3b a278 823d
00000020: 0095 19bd 688d f2bc db71 4ebd 331d 823c
00000030: b6b5 68bc 0b7b e53c 0f38 bb3c e417 1a3d
00000040: b3a9 ff3b 7f64 6f3c 2cb1 a2bc b816 36bb
00000050: 87a4 9a3d bfa6 0a3e 1b96 98bc 4452 54bd
00000060: 5ba0 213c dcc9 b0bd dd03 f0bc c027 25bc
00000070: c1d0 5c3c c4d9 033c f5ad 76bd ed3d 4b3d
00000080: 1fb4 39bb 4a42 85bd bbf5 b33d 267a 193d
00000090: 351b 3abd cbe6 efba 28c4 293c ca19 dabb
000000a0: 1894 97bc e20c 903b a580 423d e7c2 ef3c
000000b0: e956 383d ad1f 5e3d 9d75 8d3d 1858 53bd
000000c0: ba44 d8bd f65c 86bd 50b9 893c f024 17bc
000000d0: efb6 96ba 12be abbc 9333 4cbd a34a b53d
000000e0: a4f0 07bc 38ff 3c3c 5515 3dbd 148c 50bd
000000f0: fac1 20bc b5d3 4d3b 6084 c3bb 0df5 f23c
00000100: 31d4 bf3c 616d 983c ff6a 56bd 347d 993d
00000110: 7cab ae3d 72ab 7abc c4ee 113c e040 77bd
00000120: 6f8a 0cbd a1c8 5ebc 82c7 a5bb ed75 1dbd
00000130: 20b0 093d 558b bcbc f0ee 8f3c d9eb b8bd
00000140: 1a56 b63c d1d0 923b a9f1 26bd f9a9 853b
00000150: d91c 193d 8139 4dba f126 6bbd 5f5b 733d
00000160: ed78 0fbe edf2 df3c 0ff8 033d 43c6 32bd
00000170: 1dd7 a4bd db4e c23d 0d54 bbbc cb09 783d
00000180: f0b2 41bc 6ce7 a13d 0fe6 1f3d 3230 a8bc
00000190: 7050 2ebd 5526 83bc e860 45bd 4e0d b3bd
000001a0: 3a70 62bd e904 b73c d8e6 113d 26fb 9ebb
000001b0: 3ff1 363d 62bd 21bd 1f69 403d df56 3dbd
000001c0: 557d bebd d834 3c3d c560 4b3d c2cc 8bbd
000001d0: ab89 95bb 3f38 56bd 378c 863d d510 1f3c
000001e0: 184a 20bd 98c1 1ebd 9c6a 43bc a9b0 eabc
000001f0: fc54 a33d 6127 9abd 4a21 263d e9ab 0f3d
00000200: 3e58 0ebe eafd bf3d 2380 92bc 6a2d 53bd
00000210: b02b dc3c e780 fcbd d92f b9bb 60ec e5bc
00000220: 63c4 c13b f410 8e3b 23bd 463b 6bf1 013e
00000230: 3f56 9cbc 952e c7bb 6b18 aa3d 50f7 953d
00000240: 9375 4dbd 002d e23d 98ae d6bd 2fa0 e23c
00000250: f4eb f83d 0bf8 663c d62c 9a3d 5000 81bc
00000260: 8a79 013d 2021 983d b9ab 8c3c caaa 0cbd
00000270: af67 0dbd 0538 563d 8f20 9d3b 8d60 49bb
00000280: 8502 a9bd 2cbe e3bd 8c7f 14bd e0d4 9abc
00000290: eee6 1dbd c52c 2ebd 06ab 0a3d d9d7 f6bc
000002a0: 2134 993c b8eb 44bc 9e17 ffbc a786 37bd
000002b0: 65bf 033e 01c3 783c d728 03bc c3ae 5e3a
000002c0: a5d7 443b c90e 04bc dd37 d0bc 6676 983d
000002d0: 98c2 2ebd da96 c23b 620f 80bb 6072 92bc
000002e0: 0604 0b3b 750e 303d f593 40bd f388 b0ba
000002f0: 5e64 503d 8680 f0bc 33f9 133b 6bfe 443d
00000300: dee8 06bd 373b 9f3d cff3 a3bd 4002 a8bd
00000310: 04d0 cfbc a16a c33c 6358 86ba ff35 69bd
00000320: d49b 35bd c30b fb3c f9e9 67bb b211 103d
00000330: 0a68 763d 3073 37bc 13f1 99bb 6432 d63d
00000340: d533 34bd 66aa 1dbd ca8c 1b3d 3447 02bd
00000350: 1a44 2d3d 6ea9 3cbc b006 4bbd 878e 2b3d
00000360: 41ad 143d 5194 b43c 2122 f63c 1e95 603d
00000370: e61b 5ebd a237 123d 9fcd e5bc 4f8b f5bc
00000380: 42a0 193d 4c3d b8bc 0df0 33bd 8382 3dbc
00000390: abb5 32bd fa6c 29bd 5e7a 993d 71f7 1ebd
000003a0: e0b2 323c 852d 623d 02e9 34bd dcb3 7a3d
000003b0: 35a3 963d 5ac7 febc 19c5 db3c 9576 4dbd
000003c0: 5a87 763d 956b 81bc 42d3 463c 0365 6bbd
000003d0: ea3e b2bd 439c c2bd 104e 15bd e3e2 c8bc
000003e0: 0cc8 0dbc 38d6 72bc d1a6 cfbd 0a88 59bd
000003f0: e8b9 563d b2da ecbc fc0f d5bd d9c5 5abd
-0.15336132 -0.039784856 -3.9654402e-05 0.031939685 -0.017557828 0.024668813 0.00523879 0.06370665
-0.037495613 -0.029608443 -0.05040155 0.015883064 -0.0142034795 0.028012773 0.02285388 0.03762044
0.007802212 0.0146113625 -0.019859873 -0.0027784538 0.07550912 0.13540171 -0.018626263 -0.051836267
0.009864892 -0.086322516 -0.029298717 -0.010080278 0.013477505 0.008047525 -0.060224492 0.049619604
-0.002833612 -0.06506784 0.08787104 0.037470005 -0.045436103 -0.0018303035 0.010361709 -0.0066559063
-0.018503234 0.004396067 0.047485966 0.029267741 0.04500476 0.054229427 0.069071986 -0.051597685
-0.105599836 -0.065607 0.016811997 -0.009225115 -0.001149861 -0.020964656 -0.049853873 0.088521264
-0.008297119 0.011535458 -0.046162922 -0.05091484 -0.009811873 0.0031406705 -0.005966708 0.029657865
0.02341661 0.018606843 -0.052348133 0.07494584 0.08528802 -0.015299665 0.008907024 -0.060364604
-0.034311708 -0.013597638 -0.0050591836 -0.03844254 0.03361523 -0.023015657 0.017569989 -0.09029359
0.022257853 0.0044804593 -0.04075781 0.0040791 0.037381027 -0.0007828698 -0.057410184 0.05941331
-0.14010973 0.027337516 0.03221899 -0.04364611 -0.08048842 0.09487697 -0.022867227 0.060556214
-0.011822447 0.07905468 0.03903776 -0.020530794 -0.04255718 -0.01600949 -0.04818812 -0.08742772
-0.05528281 0.022341209 0.03562054 -0.0048517166 0.044663664 -0.03948725 0.04697525 -0.046225425
-0.09301249 0.045948833 0.049652833 -0.06826164 -0.0045635304 -0.052299734 0.065697126 0.009708603
-0.03913316 -0.038758844 -0.011927273 -0.028648691 0.07975194 -0.07527042 0.04055909 0.035076056
-0.13900849 0.09374602 -0.017883366 -0.051556982 0.0268763 -0.12329274 -0.005651456 -0.028066814
0.0059133037 0.004335517 0.0030325137 0.1268975 -0.019084094 -0.006078551 0.083054386 0.07322562
-0.050160956 0.11043739 -0.1048252 0.027664272 0.121543795 0.014097224 0.07528083 -0.01574722
0.03161005 0.07428193 0.017171727 -0.034342565 -0.03452271 0.05229952 0.004795141 -0.0030727715
-0.08252434 -0.11120257 -0.03625445 -0.018900335 -0.03855031 -0.042523164 0.033854507 -0.030132221
0.018701615 -0.01201909 -0.031139191 -0.04480615 0.1286598 0.015183211 -0.008005342 0.00084946695
0.003003576 -0.008060166 -0.025417263 0.07444458 -0.042666048 0.005938393 -0.003908084 -0.017876804
0.0021212115 0.042982537 -0.047016103 -0.0013468548 0.050876968 -0.02935816 0.0022578954 0.048094194
-0.032936923 0.07774966 -0.08005487 -0.08203554 -0.025367744 0.023854556 -0.001024973 -0.05693626
-0.044338062 0.030645257 -0.0035387261 0.035173126 0.060157813 -0.011196896 -0.0046979277 0.1045883
-0.043994743 -0.038492583 0.037976064 -0.031806186 0.042301275 -0.011515005 -0.049566925 0.04188397
0.03629804 0.022043379 0.03004557 0.05482971 -0.054225825 0.035697587 -0.02805215 -0.029973654
0.03750635 -0.022490166 -0.043930102 -0.011566761 -0.043630283 -0.041363694 0.07494043 -0.038810197
0.010906905 0.055219192 -0.044167526 0.061206684 0.07355348 -0.031100918 0.026827382 -0.050161917
0.060187675 -0.01579837 0.012135329 -0.05746938 -0.08703406 -0.09502461 -0.0364514 -0.02452225
-0.008653652 -0.014821582 -0.101392396 -0.053108253 0.052423388 -0.028912876 -0.104034394 -0.05341134

mlp_extractor.value_net.0.bias f4 [64]
00000000: 0000 0000 0000 0000 0000 0000 0000 0000
00000010: 0000 0000 0000 0000 0000 0000 0000 0000
00000020: 0000 0000 0000 0000 0000 0000 0000 0000
00000030: 0000 0000 0000 0000 0000 0000 0000 0000
00000040: 0000 0000 0000 0000 0000 0000 0000 0000
00000050: 0000 0000 0000 0000 0000 0000 0000 0000
00000060: 0000 0000 0000 0000 0000 0000 0000 0000
00000070: 0000 0000 0000 0000 0000 0000 0000 0000
00000080: 0000 0000 0000 0000 0000 0000 0000 0000
00000090: 0000 0000 0000 0000 0000 0000 0000 0000
000000a0: 0000 0000 0000 0000 0000 0000 0000 0000
000000b0: 0000 0000 0000 0000 0000 0000 0000 0000
000000c0: 0000 0000 0000 0000 0000 0000 0000 0000
000000d0: 0000 0000 0000 0000 0000 0000 0000 0000
000000e0: 0000 0000 0000 0000 0000 0000 0000 0000
000000f0: 0000 0000 0000 0000 0000 0000 0000 0000
0.0 0.0 0.0 0.0 0.0 0.0 0.0 0.0
0.0 0.0 0.0 0.0 0.0 0.0 0.0 0.0
0.0 0.0 0.0 0.0 0.0 0.0 0.0 0.0
0.0 0.0 0.0 0.0 0.0 0.0 0.0 0.0
0.0 0.0 0.0 0.0 0.0 0.0 0.0 0.0
0.0 0.0 0.0 0.0 0.0 0.0 0.0 0.0
0.0 0.0 0.0 0.0 0.0 0.0 0.0 0.0
0.0 0.0 0.0 0.0 0.0 0.0 0.0 0.0

mlp_extractor.value_net.2.weight f4 [64, 64]
00000000: 80f9 163c 5e6f d6bd 8c15 af3d edee f63d
00000010: f4a6 733e 48e5 6fbe d84e 6ebe 2cf3 ccbc
00000020: 4cd5 603d 498a c63d fbd5 563e 52f5 dc3d
00000030: 8884 08be a89e f83c 5861 d2bc e058 30bc
00000040: 93c8 86bd 50c4 4d3e 2ef0 a9be 51e4 e5bd
00000050: 8fa1 1f3d 6d42 dfbd 0689 91bc f564 4dbc
00000060: 0853 3abe 53f0 8e3d d2b2 f13d 97c7 d63d
00000070: 5eed 1c3e b27c 19bd 90e9 493e 7bfe 3d3d
00000080: f340 5d3d cb58 aebc 565f 03be 7283 d5ba
00000090: c1b2 febb ae8f 143d dc68 06be 8fdf f1bc
000000a0: 0d03 a63d cb49 893d 2e89 2b3e fd63 143e
000000b0: 0f87 aa3d dde1 013d 6842 87bd e371 133e
000000c0: 2175 973e 5789 863d ed7c cfbd c8a9 21be
000000d0: f22d be3b 3d99 adbd ab60 b5bd eb2c f73b
000000e0: 2fe4 32be a4ae 5f3c 2eb6 ff3c b5e0 9bbc
000000f0: ba2c a73d 071b 82bc 65b2 90be c67d c93d
00000100: 1857 20bd fcdd 82be 2f54 f8bd 4a63 e0bd
00000110: e65f 2fbd 575d ba3d dc73 d5bc fb2d 09be
00000120: 748b f73d f65b 113d 2d50 a93e 7a4f 99bd
00000130: c79a 04be 76b4 c8bd f4ac a2bd 3128 c2bd
00000140: 6202 a6be 414b 673e d819 78bd b277 063d
00000150: 1c7a 26be ff3a 993e 1d8b e83c 32e0 38be
00000160: a64c ac3b 6d64 1f3e 880f a5bc fea6 063d
00000170: c290 34be dd0a a13d 8d55 4ebe 64bf 863d
00000180: 3da9 5f3c 71e3 e73d ac44 aebd a438 6f3e
00000190: 4a16 413d 9c0e 36bd e4b5 3d3e 9d5a 8a3d
000001a0: 2e35 babd 71ac 6b3c 58c7 47bc 97f4 7e3d
000001b0: e0de 883a 25d1 893d 98a2 bfbd c1e8 43be
000001c0: 21d4 f7bb 8e52 8e3d 1eec c5bd d3ce b13d
000001d0: e4ae bfbd 5836 9c3d d4eb a93d 3716 1fbe
000001e0: 829b ddbd 3a71 64bd 1c8b ddbc d566 8bbd
000001f0: 0be1 c9bd 707a a3bd c453 513d dc65 a5bc
00000200: 8218 583e a1dd 0ebe 008e 4b3e 5952 263c
00000210: b891 cdbd c2a4 81bd 4084 203e fad1 05be
00000220: 0a81 883c a71f 10be 11be d4bd 028f 60bd
00000230: 3030 8b3c aad8 40bd 2afc 0fbe 0c8b 6f3d
00000240: e1b4 b2be b416 23be 942b ba3c c317 b03d
00000250: 0ef3 1ebe 3925 02be bd9f e7bc ca4c 003e
00000260: 8477 253c 9e77 0e3e f434 1ebe cf79 2dbe
00000270: 5643 eebc 24c1 cfbd 6886 8c3d 391b 16be
00000280: b13e 033e 36df 233c 645f 8ebd 10d1 bdbc
00000290: 9217 c2bd 105b 2e3d 5149 c33d 2204 303e
000002a0: 2772 d83d db10 75be b00a 0dbe dc42 46bc
000002b0: 3036 9a3b f64f b3bd ba8d 163e 6562 1c3e
000002c0: 29a3 763d a6cc 803e 70fc 4bbe a209 193e
000002d0: 6aae 283c cef0 4ebd 7d31 0dbe f024 ef3d
000002e0: c16d ddbd f403 823d cea8 3b3d a98a 943d
000002f0: 564c fc3c de01 66bd 06cf 82bd c867 6b3e
00000300: 37cd 1b3d ff45 1cbe ac55 f03d 2047 993d
00000310: 0620 383d 82e6 63bc c8fa 073e 4937 b0bc
00000320: 19ef 35be 3a8b f9bb 4d0b cc3d 8069 92bd
00000330: d435 1ebe 6e61 fabd bc8c ce3b 9f49 fa3d
00000340: 059b 963d b463 003c 6c57 dc3d 82e6 203e
00000350: a867 443e 7993 4bbe e091 873d 4c0e 0e3e
00000360: cb3b 823d 6061 6e3e a58b ea3d 1e69 7f3c
00000370: 2850 22bd 60fb 5d3d 5813 223b 1012 993e
00000380: 3144 633e 3ebc 053d 467e 4d3e 380c 443e
00000390: b061 0b3e 842a 403d d036 86bb 0d6f 89be
000003a0: 3338 f43c d8bf 1dbe 5778 703c 9452 d43c
000003b0: 0da8 183d d6ed 723e d4f7 643c 584f babd
000003c0: 5a61 b3bc e009 ccbb e432 cb3d 795a 443e
000003d0: 0026 fa3d ebb9 663d d838 d53d 6ee3 aabd
000003e0: b6f7 64bd 0530 09bd de10 aa3d f819 cd3d
000003f0: 8ba8 733e cd29 6a3e 0560 fbbc e8f6 403d
0.009214759 -0.1047046 0.085490316 0.1205729 0.23794156 -0.23427308 -0.23272264 -0.025018297
0.054890916 0.096943446 0.20980065 0.10788979 -0.13331807 0.03034909 -0.025681183 -0.010763377
-0.06581225 0.20094419 -0.33191055 -0.112251885 0.038972434 -0.109013416 -0.017765533 -0.012536277
-0.18195736 0.06979432 0.118016854 0.104872875 0.15324923 -0.037472434 0.19718003 0.04638527
0.05401702 -0.021282574 -0.12829337 -0.0016289784 -0.007772774 0.036269836 -0.13125938 -0.029525546
0.08106051 0.06703528 0.16751549 0.14491268 0.08326542 0.03170954 -0.06604463 0.14398913
0.2958155 0.06569164 -0.101312496 -0.15787423 0.005803817 -0.084764935 -0.088563286 0.0075431964
-0.17469858 0.013652477 0.0312148 -0.019028047 0.08162828 -0.015882028 -0.28261104 0.098384425
-0.03914556 -0.25559986 -0.12125432 -0.10956438 -0.042816065 0.090998344 -0.026056223 -0.13396446
0.120871454 0.03548809 0.33068982 -0.07485862 -0.12949668 -0.09800045 -0.079431444 -0.09480322
-0.32423693 0.22587301 -0.06057152 0.032828994 -0.16257519 0.29927823 0.028386647 -0.18054274
0.0052581606 0.15565653 -0.020149007 0.0328741 -0.17633346 0.078634 -0.20149823 0.065794736
0.013651189 0.11322678 -0.08509192 0.2336145 0.047140397 -0.044447526 0.18526417 0.06755564
-0.090921745 0.014384375 -0.012193523 0.062244978 0.0010442398 0.06729344 -0.09357184 -0.19131757
-0.0075631295 0.0694934 -0.096641764 0.08682027 -0.093595296 0.07627553 0.08296934 -0.15535818
-0.108206764 -0.055772044 -0.027043872 -0.06806723 -0.09857377 -0.079823375 0.051105276 -0.020190172
0.21103099 -0.13951732 0.19878387 0.010151469 -0.10037559 -0.06330253 0.1567545 -0.13068381
0.016663093 -0.14074574 -0.10387815 -0.054823883 0.016990751 -0.047081627 -0.14061037 0.058482215
-0.34903625 -0.1592663 0.022725858 0.08598282 -0.15522406 -0.12709512 -0.028274411 0.12529293
0.0100992955 0.13912818 -0.15449888 -0.16940998 -0.029084843 -0.101442605 0.068615735 -0.14658822
0.12816884 0.010001948 -0.06951788 -0.023170978 -0.09477152 0.042567313 0.09535468 0.17189077
0.10568648 -0.23932211 -0.13773608 -0.012100901 0.0047061667 -0.08755486 0.14702502 0.1527191
0.060214195 0.25156134 -0.19920516 0.14945081 0.01029549 -0.050522618 -0.1378841 0.11676967
-0.108119495 0.0634841 0.04581528 0.0725301 0.030798119 -0.056154124 -0.06387143 0.22988808
0.038037505 -0.15261076 0.117350906 0.07484269 0.044952415 -0.013909938 0.13279259 -0.021510737
-0.1776699 -0.007615474 0.09963093 -0.07149029 -0.15450221 -0.122256145 0.006303398 0.12221073
0.073537864 0.007836271 0.10758862 0.15712932 0.19180167 -0.19880475 0.0661962 0.13872641
0.06359061 0.23279333 0.11452416 0.015589027 -0.039627224 0.054194808 0.0024730768 0.29896593
0.22193982 0.032650225 0.200677 0.19145286 0.13611484 0.046915546 -0.0040958896 -0.26842538
0.029811954 -0.15405214 0.014677129 0.025918283 0.03726964 0.2372354 0.013975102 -0.09097165
-0.021897007 -0.006226763 0.09921816 0.19175138 0.12214279 0.05632965 0.10411233 -0.0834416
-0.055900298 -0.03349306 0.083039984 0.10014719 0.23794763 0.22867508 -0.030685434 0.04711047

mlp_extractor.value_net.2.bias f4 [64]
00000000: 0000 0000 0000 0000 0000 0000 0000 0000
00000010: 0000 0000 0000 0000 0000 0000 0000 0000
00000020: 0000 0000 0000 0000 0000 0000 0000 0000
00000030: 0000 0000 0000 0000 0000 0000 0000 0000
00000040: 0000 0000 0000 0000 0000 0000 0000 0000
00000050: 0000 0000 0000 0000 0000 0000 0000 0000
00000060: 0000 0000 0000 0000 0000 0000 0000 0000
00000070: 0000 0000 0000 0000 0000 0000 0000 0000
00000080: 0000 0000 0000 0000 0000 0000 0000 0000
00000090: 0000 0000 0000 0000 0000 0000 0000 0000
000000a0: 0000 0000 0000 0000 0000 0000 0000 0000
000000b0: 0000 0000 0000 0000 0000 0000 0000 0000
000000c0: 0000 0000 0000 0000 0000 0000 0000 0000
000000d0: 0000 0000 0000 0000 0000 0000 0000 0000
000000e0: 0000 0000 0000 0000 0000 0000 0000 0000
000000f0: 0000 0000 0000 0000 0000 0000 0000 0000
0.0 0.0 0.0 0.0 0.0 0.0 0.0 0.0
0.0 0.0 0.0 0.0 0.0 0.0 0.0 0.0
0.0 0.0 0.0 0.0 0.0 0.0 0.0 0.0
0.0 0.0 0.0 0.0 0.0 0.0 0.0 0.0
0.0 0.0 0.0 0.0 0.0 0.0 0.0 0.0
0.0 0.0 0.0 0.0 0.0 0.0 0.0 0.0
0.0 0.0 0.0 0.0 0.0 0.0 0.0 0.0
0.0 0.0 0.0 0.0 0.0 0.0 0.0 0.0

action_net.weight f4 [17, 64]
00000000: 808f 2c3c da7c 103d 8648 483d 354e 7a3e
00000010: 3a6d cdbc 99e6 00bd b3e0 6abc 3cea 3d3e
00000020: 41b3 cbbc 76af 43be 4d08 1bbd 519c 9dbd
00000030: e35f 6b3e b437 afbd d2a2 863d f545 153e
00000040: 93de 223c d0db 69be bc12 56be 0a1d 063e
00000050: 6b25 253d 7195 de3d bbc2 4bbb df86 3ebe
00000060: c6dc 6dbd d4dc 13bd 0776 ca3d 369c b23d
00000070: 0a93 11be 4f00 6bba 9d38 d6bb 1636 193c
00000080: 2c6e ac3d 7657 19bd 9b7c d03d 5bb8 fcbc
00000090: e2bc 20be 38e1 103d 7dc5 66bc 1c61 a13c
000000a0: d17f 5a3e f109 f1bd f85f 9fbe d17c 323d
000000b0: f7ca 1bbd 6f7b 55be ef0a 4bbd edf4 e93d
000000c0: 010d 0e3e aed8 d03c 198c 0cbe c22e 86bd
000000d0: ae00 113e 8597 5c3e 9854 0ebe 8925 95ba
000000e0: d7fd 1d3e dc79 3cbd c9b3 70bd e278 813e
000000f0: 643d 36bb 8eb0 053e 7aeb f03d a8bc 61be
00000100: 8deb 38be b78d d9bd 8c71 a83d a13a 96bd
00000110: 7fd7 d33d b6de adbe 4a61 a63d e0b4 093e
00000120: 9fe7 06bb 88df c13b 75fa 55ba b4c1 b73d
00000130: b335 b73d 8a01 873c a22b 3b3d dbe9 3a3e
00000140: 4735 06bd e09c 9a3a b46f b03d 255f bebd
00000150: 3c41 a4be 8ce2 c0bd 14d0 233e ac33 3ebe
00000160: 659b ad3d 9cec 84be d6dc 1a3d 3317 933c
00000170: 4f18 b9bd 8904 5e3d 1c52 f73d e1f4 34be
00000180: 2e67 acbd f167 dbbd 3e0b 1fbe 78ed a93d
00000190: 259a 82bd e6bd 54be f600 22be cb6e 253c
000001a0: 8c98 8939 203d ecbd 50cf 2fbc 1dce 273e
000001b0: 18dd 8c3c 9d17 e1bd f426 da3d 0246 b83c
000001c0: 0bc8 23be a761 f13c 05db cfbd b9ae c03d
000001d0: 4746 f83c 04ba 69be 1577 a53e eb82 6b3d
000001e0: a0b8 5c3c f27d f83c da47 0dbe 50b3 603c
000001f0: 57ca 1f3d 71b0 6f3d 8e96 b2bc a94b d2bc
00000200: e893 23be 6e10 81be 9e30 6e3d e6c5 943d
00000210: b3a1 83bd 1a4c 453e d615 22bc e9eb ce3d
00000220: a808 1a3d 5e0d a1bc 8fc0 fabd b887 153d
00000230: e9e6 63bd 4abf 363d d169 263e 3232 08be
00000240: 7b89 283e 8e7e 6d3e c835 603e c081 2abe
00000250: 7d22 4e3e 1f37 1ebe 46aa aa3d 2ecd ab3a
00000260: 1496 7fbd 5778 013d 43e1 d93d ccfd 953d
00000270: 1c39 abbd 36e9 58bb e4a6 7c3e 7a6c 0d3e
00000280: e394 dcbd 9d37 a23d c8d3 203d fae4 023e
00000290: 84e8 8e3e 41c8 a2bc 7f0b 903d 9645 d8bd
000002a0: 3afe 9c3c ae5d 0fbe f686 ad3d 50ab 90bd
000002b0: ac1d 7cbe daa3 81be 9b2b bbbc 4410 3a3e
000002c0: 8255 7dbd d5bb 253b 759d 9dbc 77b9 b53c
000002d0: 55a6 243d d1a5 623b bc86 0e3b 2f7d 2bbc
000002e0: 36ad 5f3e 1ddb aebb 113f 133d 03b9 2f3e
000002f0: 4c69 d93c 58a5 a9bd abb2 01be ed06 09be
00000300: b386 ac3d 30e2 cb3d 939b 19be f783 c13d
00000310: e43b 5cbe 5c34 333e 0c84 863d 91de 76bd
00000320: 8a6c 97bc d40d eabc 5531 a2bd 4e9e e13d
00000330: 1001 4ebe 7ea4 8bbc bdda 683c 8e2c eb3d
00000340: 3380 0f3e 5208 843d a5e2 2abe e94f 56bc
00000350: c788 edbc 96c3 b5bd dda5 dc3d abbe 5ebd
00000360: e2c7 813d fe3b 61bd dab1 1abe 7816 fa3d
00000370: 2197 923e 10e1 f93d 0199 3c3d d150 00be
00000380: b35f 8a3e f775 21be d399 a63d 1268 b3bd
00000390: afcb af3d de17 18bd 142e 36be 359c a8bd
000003a0: 8525 ecbb 6926 783d e462 4d3e 8824 043e
000003b0: 0b39 0fbc 37d8 53be 30ea 5b3e af99 f4bd
000003c0: b6aa 26be eaca 50bd a952 83be 6454 93bc
000003d0: e118 4abe 175a 393e 9ceb 2d3d 6b06 2f3a
000003e0: 565f 233c 3213 70bc f6ff fa3d f380 023e
000003f0: 07e0 ca3d 7af6 b93d 5f53 043e 6ac6 573c
0.01053226 0.035275318 0.04889729 0.24443896 -0.025076497 -0.031469915 -0.014335799 0.18546385
-0.024865748 -0.19109902 -0.037849713 -0.076958306 0.22985797 -0.085555464 0.06574024 0.14577468
0.009940761 -0.22837758 -0.20905584 0.13097015 0.040318888 0.108683474 -0.003109141 -0.18606137
-0.058071874 -0.03609927 0.09885793 0.08721201 -0.14216247 -0.00089645846 -0.0065375105 0.009351274
0.08419451 -0.037436925 0.101800166 -0.030849626 -0.15697053 0.035371035 -0.014085171 0.019699626
0.2133782 -0.11769474 -0.31127906 0.043576065 -0.03803536 -0.20847867 -0.049570974 0.11423669
0.13872148 0.025493946 -0.13725318 -0.06551887 0.14160416 0.21542175 -0.13899457 -0.0011378984
0.15428863 -0.04601465 -0.058765206 0.2528754 -0.0027807588 0.13055632 0.117636636 -0.22044623
-0.18058605 -0.10622733 0.08224782 -0.07335401 0.10343837 -0.33958977 0.08124025 0.13447905
-0.0020584834 0.0059165396 -0.0008162626 0.08972493 0.08945789 0.016480226 0.04569591 0.18253271
-0.032765653 0.001179602 0.08615056 -0.09295491 -0.3208102 -0.094182104 0.15997344 -0.18574399
0.08476905 -0.2596177 0.03780826 0.017955398 -0.090378396 0.054203544 0.12076208 -0.17671539
-0.084181175 -0.107131846 -0.15531632 0.08297247 -0.06377057 -0.20775566 -0.15820679 0.010097216
0.00026244333 -0.11535096 -0.0107305795 0.1638722 0.01719527 -0.10990832 0.10651961 0.02249432
-0.15994279 0.02946551 -0.101491965 0.09408326 0.030306948 -0.22824866 0.32317415 0.0574979
0.013471752 0.030333493 -0.1379694 0.013714626 0.039011326 0.058517877 -0.021800306 -0.025670843
-0.1597439 -0.25207847 0.058151834 0.07264309 -0.06427326 0.19267312 -0.009892901 0.1010359
0.03760591 -0.019659694 -0.12243759 0.036506385 -0.055640135 0.04461602 0.16251303 -0.13300398
0.16458695 0.23192808 0.21895516 -0.16651058 0.20130344 -0.15450715 0.08333258 0.0013107413
-0.062398985 0.031608906 0.106386684 0.073237985 -0.08360502 -0.003309799 0.24673039 0.13810912
-0.107705854 0.07920764 0.03926447 0.1278266 0.2791177 -0.01987088 0.07033443 -0.105601475
0.019164193 -0.1400058 0.084730074 -0.07063925 -0.24620694 -0.2532032 -0.022847941 0.18170267
-0.061849125 0.0025288959 -0.01924012 0.022183163 0.04019769 0.0034583698 0.0021747788 -0.010466858
0.21843418 -0.005336179 0.035948817 0.1716042 0.026539467 -0.0828349 -0.12665813 -0.13381548
0.08424129 0.09955251 -0.15000753 0.094489984 -0.21507221 0.17500442 0.06568155 -0.06027085
-0.018484373 -0.028571047 -0.079195656 0.11016522 -0.20117593 -0.01704621 0.0142123075 0.114831075
0.14013748 0.064468995 -0.1668802 -0.0130805755 -0.028995885 -0.08875196 0.107738234 -0.054381054
0.06336953 -0.054988854 -0.15106907 0.12211317 0.28630927 0.122011304 0.046044353 -0.12530829
0.27026138 -0.15767656 0.081348084 -0.08760084 0.085837714 -0.037132137 -0.17791015 -0.08232919
-0.007206621 0.060583506 0.20057255 0.1290456 -0.008741627 -0.20687948 0.21476054 -0.11943375
-0.16276059 -0.050974764 -0.25649002 -0.017984577 -0.19736053 0.18100773 0.042461023 0.00066766766
0.00997146 -0.014653014 0.12255852 0.12744503 0.09906011 0.09080215 0.12922429 0.013169864

action_net.bias f4 [17]
00000000: 0000 0000 0000 0000 0000 0000 0000 0000
00000010: 0000 0000 0000 0000 0000 0000 0000 0000
00000020: 0000 0000 0000 0000 0000 0000 0000 0000
00000030: 0000 0000 0000 0000 0000 0000 0000 0000
00000040: 0000 0000
0.0 0.0 0.0 0.0 0.0 0.0 0.0 0.0
0.0 0.0 0.0 0.0 0.0 0.0 0.0 0.0
0.0

value_net.weight f4 [1, 64]
00000000: 6072 933d 1c6f 823e 812d 29bd e82a c53d
00000010: f600 293d 78d2 64be d34c 67bd 48c9 c0bd
00000020: d3e8 3fbd 1477 533e edca 04be c29b 733e
00000030: adb4 96bc 118b ce3d 3490 0bbe 8199 6abb
00000040: 2b46 703d 8d93 1bbd ad14 44bc 5fba 14be
00000050: 70fe aabd db2f 083e 41d5 21bd fd26 443e
00000060: 1c95 173c 90e5 103e b29a 713e c74b 19be
00000070: 7b75 803d 8967 4bbd bf0b 1d3d 44e9 69bc
00000080: 5500 033e 924e 923d d087 593e e905 6d3d
00000090: ebfc 65bd e5e5 03be b791 63bc 36eb b8bc
000000a0: d741 9a39 681f 55be 280c 803d a84c 44be
000000b0: 9bde 623e 1336 af3d 6982 903d 4567 4abd
000000c0: df45 98bc 3f6a a83d e8d0 6f3e 58dc 353d
000000d0: 71dc 4c3e 3a2c cb3d 4669 3b3d 7aa7 793e
000000e0: 0950 a83d fe6f fabc 468a 343d cca0 41bb
000000f0: 80b3 fcbd b917 2e3e 8d0b 3b3e feeb df3d
0.0719955 0.25475395 -0.04130316 0.09627324 0.041260682 -0.22345912 -0.05646975 -0.09413391
-0.046852898 0.20650893 -0.12968035 0.23789886 -0.0183967 0.100851186 -0.13629228 -0.0035797062
0.058660667 -0.037982512 -0.01196782 -0.1452422 -0.08349311 0.13299505 -0.039510015 0.19155498
0.009251859 0.14150071 0.23594168 -0.14970313 0.062724076 -0.049659286 0.03834128 -0.014276806
0.12793095 0.07143892 0.21243215 0.057866964 -0.056149404 -0.12880667 -0.013889722 -0.022573095
0.00029422223 -0.20812762 0.062523186 -0.19169867 0.2215523 0.08555236 0.07056124 -0.04941489
-0.018588005 0.0822339 0.23419535 0.04439959 0.20005967 0.09920545 0.045754693 0.24380293
0.082183905 -0.03057098 0.04407718 -0.0029545305 -0.123389244 0.17001237 0.18266125 0.10933684
