policies/Humanoid/xavier_a2c_initialization.pt (torch, 236641 bytes, 12 tensors)

log_std f4 [17]
00000000: 0000 0000 0000 0000 0000 0000 0000 0000
00000010: 0000 0000 0000 0000 0000 0000 0000 0000
00000020: 0000 0000 0000 0000 0000 0000 0000 0000
00000030: 0000 0000 0000 0000 0000 0000 0000 0000
00000040: 0000 0000
0.0 0.0 0.0 0.0 0.0 0.0 0.0 0.0
0.0 0.0 0.0 0.0 0.0 0.0 0.0 0.0
0.0

mlp_extractor.policy_net.0.weight f4 [64, 376]
00000000: 42e5 eabd be51 fd3a 49bc 51bd 1604 243d
00000010: 9f7a de3d deed 98bd ad7c c3bd d0e4 94bd
00000020: e1d3 823d 565a c33d d009 193d df64 b9bd
00000030: 68fc c2bd 2bef d0bc 3f79 6e3d 41a3 f5bb
00000040: 0991 a1bc d451 263d 7654 adbd e894 b33d
00000050: 5623 8abd 3ed9 eebd ddbd 4fbd cdf5 ec3d
00000060: 0126 35bd 1128 843d d08d 9dbd 2250 03bd
00000070: 9ff7 a83d f05f 10bc c465 57bd e879 8cbd
00000080: 7044 d3bd a307 1f3d a08a 4f3c 86ea 343d
00000090: 87aa 673d bad3 553c 3ab6 a5bd 9d63 3e3d
000000a0: 18da 4bbc a71c 90bd e34e 9bbc 4da8 d13d
000000b0: fbb4 db3c 1a14 c53c bbb9 8f3d 0853 943c
000000c0: a634 55bd 1471 02bd 7f77 683d 3c48 5abd
000000d0: c0b3 9e3d a3ba c6bd 641d a73d 4590 e23d
000000e0: 3ece dabd 006d ad3d e016 48bc 229f 59bd
000000f0: b899 d0bd 42a4 833c f02d b9bd 72be ca3b
00000100: 5721 f43c 6c30 3f3c d720 33bc 1629 5e3d
00000110: 7979 b0bc 073d 813c 2eb9 c73d 3770 883d
00000120: 551f b8bd c8fb cabd 0eff ab3d 9eea 89bd
00000130: 5cc8 213d 39ab b9bd 49f4 16bd 79cd 8fbd
00000140: b6c6 163d 6318 09bc af78 adbc 9f21 ebbd
00000150: f853 cbbd 8252 6cbd 5129 39bd 3987 ae3b
00000160: 5833 b93d 0caa e0bd b462 d23d 0cc7 70bd
00000170: 1d52 99bd 7a6c a8bd 415e 6e3d 3841 ce3d
00000180: 5970 cabd 964a 0bbd fd11 e8bc 9809 9ebd
00000190: cb66 b73d 0b44 a13d 1969 22bc e983 d33d
000001a0: 0b84 74bd 70b4 e3bd ece9 65bd b938 2737
000001b0: 3537 dcbd 5fff abbd 413e 50bd e7b2 f43c
000001c0: 6664 b93d 310e b63d 43bb 57bb af8b 963d
000001d0: b0b4 b63d 90a9 423d c981 c33c d7ab ad3d
000001e0: 121b 123d b3c7 4d3c 42c4 de3d d4b9 ee3d
000001f0: dfe9 4bbd 803b d7bd a554 86bd d5d9 223d
00000200: c301 0e3c 7b89 e6bc 2842 70bd e37f 1e3d
00000210: 5e39 4fbd 9e18 bebd bc37 44bd aa7d e8bd
00000220: 43e3 c8bd 90de aabd fd22 d5bd 5ac3 b1bd
00000230: 41ab 413d ac5a 873d 5d3a 933c 63a4 edbd
00000240: c6ac 82bd 7ce9 bc3b 4115 b83d 7c28 bd3d
00000250: f743 e1bd 712b 793d 7bb5 9cbd af48 d5bd
00000260: e40e debd e190 3f3d 0494 18bb d7d6 ea3c
00000270: 1332 3ebd cb44 5abd 88ab dd3d cb05 d93d
00000280: b95c 70bd 595f a6bd 6875 1dbd 1808 3a3d
00000290: ee0e 94bd febd 4e3d 024a 1fbc 3db4 abbd
000002a0: 4f10 c3bb 4be1 42bd 43be e5bc 550a d5bd
000002b0: dce8 b53d 8408 423c 3002 aa3c 6b85 1c3b
000002c0: de9f 9f3d 1c1d 19bd 490c 313d 4fb1 94bd
000002d0: 8d1d e63c ad47 c0bd 4ffb e1bb ff78 22bd
000002e0: b446 033d c9ed 9c3c 5a14 ec3b 8f37 ccbd
000002f0: 2660 51bd d0f4 64bd ddcd c33c 0272 e53d
00000300: 4a21 393d bb0d e13c 032f 08bd 520a 793d
00000310: e8be debb 7485 cb3d 8b42 5e3d fff9 9abd
00000320: 2296 dabd ca14 debd 5eaa 36bc c7c3 6dbd
00000330: e531 75bd d8cf d7bd 19a1 abbd 484d d8bd
00000340: e38b 42bc 3c2e 83bd 8271 a23d 68d0 a8bd
00000350: d5dc df3d 021f 6fbc 4a66 5c3d 981a e9bd
00000360: 29de ffbb 0f18 753d 9ae4 213d 23ef 813d
00000370: 0b34 e83d f85d 8abd 8f63 0abc bf02 89bd
00000380: 9057 5bbd 3ae0 71bd 11a4 583d 7add ba3d
00000390: f8f2 6dbd 852e 7ebd 7c74 92bd efd8 b73c
000003a0: b8ae 8d3d 9188 ac3c 1a9c b4bd 945b e63d
000003b0: 63fc 3f3d 4160 df3d b0c0 8c3c 8087 dcbc
000003c0: d457 02bd e2d3 0e3d b86e bbbd b729 803d
000003d0: 00a1 013d c51a 03bd 1da1 123d 7b07 b9bd
000003e0: 4599 453d b794 9cbb 7428 c13d ccb9 b53d
000003f0: 6c31 5bbd 9291 8b3d 30fe 063d 05ee 9f3c
-0.11469509 0.0019326729 -0.051204953 0.04004296 0.10863232 -0.074672446 -0.095452644 -0.07270205
0.06388069 0.095387146 0.037362874 -0.09052443 -0.09520799 -0.02550467 0.058221098 -0.007496268
-0.019722478 0.04060538 -0.08463375 0.08768636 -0.06745021 -0.116625294 -0.050718177 0.1157032
-0.044225696 0.064529546 -0.07693064 -0.032058842 0.08250355 -0.008811936 -0.052587286 -0.06859189
-0.10315788 0.038825642 0.012667328 0.04416897 0.056559112 0.013050968 -0.080913976 0.046481717
-0.012442134 -0.07036715 -0.018958515 0.10237179 0.026819697 0.024057437 0.07017847 0.018105999
-0.052052163 -0.03184612 0.056754585 -0.053291544 0.07749128 -0.09703567 0.08159903 0.110626735
-0.10683869 0.08468056 -0.012212485 -0.053130277 -0.101855695 0.016069535 -0.09041965 0.0061872536
0.029801054 0.0116692595 -0.010933123 0.0542384 -0.021542298 0.01577617 0.09752117 0.06662028
-0.08990351 -0.09911305 0.08398257 -0.06734203 0.03949772 -0.09065861 -0.036854062 -0.07021613
0.0368106 -0.008367631 -0.02117571 -0.11481022 -0.09928125 -0.057695873 -0.045205418 0.0053261784
0.09042996 -0.10969934 0.102727324 -0.058783576 -0.07486365 -0.08223815 0.058195356 0.10071033
-0.0988471 -0.034006678 -0.02832889 -0.077166736 0.08955153 0.07874306 -0.009912753 0.10327894
-0.05969624 -0.111184 -0.05613129 9.967182e-06 -0.107527174 -0.083983175 -0.05084062 0.029870464
0.090523526 0.088894255 -0.0032918013 0.07350861 0.08921182 0.04752499 0.023865597 0.084800415
0.035670348 0.012559819 0.10877277 0.11656538 -0.049783584 -0.105093956 -0.065591134 0.039758522
0.008667412 -0.028141728 -0.05865684 0.03869618 -0.05059182 -0.09282039 -0.047904715 -0.113520935
-0.09808972 -0.08343232 -0.10407064 -0.086798385 0.04728246 0.06609091 0.017972166 -0.1160362
-0.0638061 0.005765138 0.08988429 0.092362374 -0.109992914 0.060832445 -0.07651802 -0.10414254
-0.10842684 0.046769027 -0.0023281584 0.028666897 -0.046434473 -0.053288262 0.108237326 0.10596808
-0.058682177 -0.08123655 -0.038442045 0.045417875 -0.0722941 0.05047416 -0.009722235 -0.08383987
-0.005952872 -0.047578137 -0.028044825 -0.10402361 0.08882305 0.011842851 0.020752996 0.0023883234
0.07794164 -0.037381276 0.043224607 -0.072603814 0.028090263 -0.09388671 -0.0068964134 -0.039666172
0.03204985 0.019156354 0.0072045745 -0.099715345 -0.051117085 -0.055897534 0.023901874 0.11203386
0.045197763 0.027472368 -0.03324796 0.060800858 -0.00679766 0.099375635 0.05426268 -0.07567214
-0.10673167 -0.10843809 -0.011149017 -0.058048036 -0.059862036 -0.1053769 -0.08380336 -0.10561615
-0.011874172 -0.06405303 0.07931806 -0.08242875 0.10930792 -0.014594795 0.053808488 -0.113820255
-0.007808466 0.059837397 0.039524652 0.0634444 0.113380514 -0.06756204 -0.008446588 -0.06689977
-0.053550303 -0.05905173 0.05289084 0.091242746 -0.05809304 -0.062056083 -0.07151124 0.02244231
0.069180906 0.021061214 -0.088188365 0.11247936 0.046871554 0.10907031 0.017181724 -0.02692008
-0.03182204 0.034870036 -0.09151977 0.062579565 0.031647682 -0.03200795 0.03579818 -0.0903463
0.048241872 -0.0047784704 0.09431544 0.088733286 -0.05351393 0.06814875 0.032957256 0.019522676

mlp_extractor.policy_net.0.bias f4 [64]
00000000: 0000 0000 0000 0000 0000 0000 0000 0000
00000010: 0000 0000 0000 0000 0000 0000 0000 0000
00000020: 0000 0000 0000 0000 0000 0000 0000 0000
00000030: 0000 0000 0000 0000 0000 0000 0000 0000
00000040: 0000 0000 0000 0000 0000 0000 0000 0000
00000050: 0000 0000 0000 0000 0000 0000 0000 0000
00000060: 0000 0000 0000 0000 0000 0000 0000 0000
00000070: 0000 0000 0000 0000 0000 0000 0000 0000
00000080: 0000 0000 0000 0000 0000 0000 0000 0000
00000090: 0000 0000 0000 0000 0000 0000 0000 0000
000000a0: 0000 0000 0000 0000 0000 0000 0000 0000
000000b0: 0000 0000 0000 0000 0000 0000 0000 0000
000000c0: 0000 0000 0000 0000 0000 0000 0000 0000
000000d0: 0000 0000 0000 0000 0000 0000 0000 0000
000000e0: 0000 0000 0000 0000 0000 0000 0000 0000
000000f0: 0000 0000 0000 0000 0000 0000 0000 0000
0.0 0.0 0.0 0.0 0.0 0.0 0.0 0.0
0.0 0.0 0.0 0.0 0.0 0.0 0.0 0.0
0.0 0.0 0.0 0.0 0.0 0.0 0.0 0.0
0.0 0.0 0.0 0.0 0.0 0.0 0.0 0.0
0.0 0.0 0.0 0.0 0.0 0.0 0.0 0.0
0.0 0.0 0.0 0.0 0.0 0.0 0.0 0.0
0.0 0.0 0.0 0.0 0.0 0.0 0.0 0.0
0.0 0.0 0.0 0.0 0.0 0.0 0.0 0.0

mlp_extractor.policy_net.2.weight f4 [64, 64]
00000000: 7f5f 56be ac9d 21be 8ab5 ba3d 7c4e 023e
00000010: 2c46 b53d ca26 26be 75af c1bd 0bcc 1b3c
00000020: efef 8dbc 437d 523d 009e 543e a6fb 453e
00000030: 7223 0d3e 1790 24be ef28 b3bd c5fc 15be
00000040: 40e5 293e 3761 b63d 1e70 9dbc b1c2 b0bb
00000050: 7c6a 54be 90e1 bebd 16f5 dabd 8a92 1cbe
00000060: 2734 32be 2795 c1bd 0a50 e9ba 06b5 1c3e
00000070: f139 0d3e b735 1dbc 9657 49be 1dfa 5b3d
00000080: bac3 363e 45e2 2a3e 6bdb 213e 1d86 073d
00000090: 2b8d 05be 7762 a2bd b1b0 363e 7622 2abe
000000a0: abb5 fabd ced5 ff3d ee3d 023e f1c6 f13c
000000b0: 8a82 123e adb6 54bd e6d6 5a3e 03be a63d
000000c0: d0af d6bc 3f16 cf3d 66ac eabc 5754 f8bd
000000d0: 717d 94bd ae49 e13d 747e 4bbe 6770 ccbc
000000e0: 7426 babd dd74 4b3e 1119 42be 84b9 5abe
000000f0: 96d3 233e 92a2 64bd 051c 0bbe 162d 7b3b
00000100: 807e 7abd 6355 263e 3644 73bd 61a8 b1bd
00000110: 705c 49be c510 24bd 63f1 4dbe 5880 49be
00000120: 436a 3dbe 881b 98bd 7574 21be a001 e73c
00000130: c8cb 063d d140 15be 9be5 07be 038f 013d
00000140: 2c37 aebc c1e5 d7bd eee9 eb3d ce68 45bd
00000150: 407e 333d c2f3 3d3b c7d7 15be 6f8e 3d3b
00000160: 0f69 6ebd 2c6d cc3d cba3 573e fdfc 193e
00000170: 2489 e9bc a848 3a3e e03e 3cbe d066 153e
00000180: 4c7d 98bd daad 05be 6276 08be 6a57 0cbe
00000190: 7f02 e5bd 01be 283e 2a7f c13d 0865 f73d
000001a0: 5ba3 9c3c ee98 8b3d c9ec 443e bf93 a23d
000001b0: 8aea 8b3c 69b4 1b3e a5dc 2d3d cb90 31be
000001c0: f8b2 e13d e107 8a3d 1890 3cbe e0d5 683d
000001d0: ebf0 a3bd 6936 dfbd 17ca bcbd ca3b fa3c
000001e0: c836 1f3e 462c 2dbb 4c50 4a3e 7933 1a3e
000001f0: 44ad 3cbd 10ab 0f3e d1b8 0f3e d9d8 0e3e
00000200: 3bc1 e93d 05f1 db3d a346 0cbe b763 b33d
00000210: 2c3f bcbd 813b cebb 0ca1 9a3c d02f 72bd
00000220: 019b 3d3e 9cb2 013e 175f 01be 40df 27be
00000230: 0209 293e 684e 1f3e 0053 373c a574 0bbe
00000240: 181f 86bb 8014 5c3d abe8 4c3e 4b63 a0bc
00000250: 0ed6 593d be07 efbd d0de 1abe 4364 0cbe
00000260: 566d 1fbe 4279 79bd 1707 47bc bf1c b63a
00000270: dcc1 203e b566 b83d 4bdd 133d 84db 43bc
00000280: 7d8e 123e f5aa 29be 9a25 283e 36d8 01be
00000290: c922 63bd 34b1 463e aac1 e1bc a389 003e
000002a0: 4008 01be 68d8 2b3e 01a6 86bd 42c0 33be
000002b0: da85 0f3e 59bf 2abe ac4d 09be 9706 14be
000002c0: 6876 2cbb c0ed 3a3d c20c 0fbe 3c02 aebd
000002d0: a049 a63d 010e 42bd b63a 42bd 6c7f e03d
000002e0: 3cf3 dfbd 0168 1a3e e114 fb3d ed0c fcbd
000002f0: 7148 ce3d b379 203e 5818 dcbd f986 49be
00000300: 4d75 95bd 954e 423e 2e41 dcbc 560c 863d
00000310: f505 50bc 13f3 a43d 78e0 4b3e 8bed 56be
00000320: bb30 073d 9869 f2bd bd62 9b3d cd71 e93d
00000330: 9fad 433e 7ea5 2bbe d393 85bc f220 733d
00000340: a166 ef3d a8c3 7cbd a0c3 42be 108d 57be
00000350: d451 873d 31a0 24be ff81 bd3d a780 21be
00000360: 746e 3c3d 1056 19be 30c4 2c3e 77d1 d63d
00000370: 127e 103e ad70 96bd 44e9 093e adee 163e
00000380: 7937 83bd dd30 49be b581 4b3c 59a1 3abd
00000390: 380b 213d 88fe f43d d6ab 09be a1d4 4f3e
000003a0: 9b7c 463d cf51 103d 3bd3 a6bc caf1 4fbe
000003b0: f9d4 e6bd 9ff0 483e b3da 0b3e 994f 293e
000003c0: 3718 ffbc f429 063e 9b1d 61bd 8513 9a3d
000003d0: 84b5 4d3d fdde 163e f41d 373c 8dfc cc3d
000003e0: 50d1 b6bb 6c4d 15be 4a6c e33b b17a e9bd
000003f0: b9b8 523c 6774 2e3e 8022 683d e3cb 383e
-0.20934866 -0.15782803 0.09116657 0.12725252 0.08851275 -0.16225734 -0.09457294 0.009509097
-0.017326323 0.05138899 0.20763397 0.19334278 0.13783053 -0.16070591 -0.08748042 -0.14647205
0.16591358 0.08905261 -0.0192185 -0.005394303 -0.20743746 -0.093203664 -0.10691278 -0.15290275
-0.17402707 -0.09452277 -0.0017800343 0.1530343 0.13791634 -0.009595326 -0.19662318 0.053705323
0.17848101 0.16687877 0.15806358 0.033086885 -0.13042133 -0.07928937 0.1784084 -0.16614708
-0.12241682 0.12491952 0.12718937 0.029513808 0.14307609 -0.051932026 0.2137104 0.081417106
-0.02620688 0.10111665 -0.02864666 -0.121254615 -0.072504885 0.110003814 -0.19872457 -0.024955941
-0.090893656 0.19868799 -0.18954875 -0.21359831 0.15998682 -0.0558191 -0.13584907 0.0038326434
-0.061155796 0.1624351 -0.059391223 -0.08674694 -0.19664168 -0.040055055 -0.20111613 -0.19677866
-0.18497567 -0.07427126 -0.15767081 0.028199017 0.032909185 -0.14575507 -0.13271181 0.031630527
-0.021266542 -0.10541869 0.11519228 -0.048195653 0.043821573 0.0028984402 -0.14633094 0.0028924008
-0.05820566 0.099817604 0.21058576 0.15037914 -0.028507777 0.18191779 -0.1838336 0.14590001
-0.074457735 -0.130546 -0.1332641 -0.13705221 -0.11182117 0.1647873 0.09448083 0.12079817
0.019120863 0.068162784 0.19230951 0.079383366 0.01707961 0.1520554 0.04244675 -0.1734039
0.11020464 0.06739784 -0.18414342 0.056844592 -0.08004936 -0.1089905 -0.09218233 0.030546088
0.15548241 -0.0026424094 0.19757193 0.15058698 -0.046063676 0.14030099 0.14035346 0.13949908
0.11413809 0.1073933 -0.13698821 0.087592535 -0.091917366 -0.0062937145 0.018875621 -0.05912763
0.1851616 0.1266579 -0.1263393 -0.16393757 0.16507342 0.15557253 0.011189222 -0.13618715
-0.004093062 0.053730488 0.20010631 -0.019578597 0.053182654 -0.116713986 -0.15124059 -0.13710122
-0.15569052 -0.060906656 -0.012147686 0.0013894065 0.15698951 0.09003965 0.036099713 -0.011954192
0.14312167 -0.16569121 0.16420594 -0.12680134 -0.055453096 0.19403535 -0.027558167 0.12552504
-0.12600803 0.16781771 -0.065746315 -0.1755381 0.14015904 -0.16674556 -0.13408536 -0.14455639
-0.0026315693 0.045636892 -0.1396971 -0.0849652 0.081195116 -0.047376636 -0.047419272 0.10961804
-0.10935065 0.15078737 0.12259842 -0.12307153 0.10072411 0.15671425 -0.10746831 -0.19680394
-0.07297764 0.18975289 -0.026886549 0.06545322 -0.012696733 0.08054175 0.19909847 -0.20989053
0.033005457 -0.11836547 0.07587192 0.11398659 0.191092 -0.16762349 -0.01630584 0.05935759
0.11689497 -0.06171003 -0.19019938 -0.21049905 0.06607404 -0.16076733 0.092533104 -0.15771733
0.046003774 -0.14974236 0.16871715 0.10489171 0.14110592 -0.0734571 0.1346789 0.14739485
-0.06407065 -0.19647546 0.012421061 -0.04556403 0.03931734 0.119626105 -0.13444456 0.20295955
0.048458677 0.03523427 -0.020364394 -0.20307079 -0.1127109 0.1962304 0.13657646 0.1653427
-0.031139476 0.13101941 -0.054959875 0.07523254 0.050221935 0.14733501 0.011176575 0.10009108
-0.005579151 -0.14580315 0.0069403993 -0.11400355 0.012861424 0.17036591 0.056673527 0.18046527

mlp_extractor.policy_net.2.bias f4 [64]
00000000: 0000 0000 0000 0000 0000 0000 0000 0000
00000010: 0000 0000 0000 0000 0000 0000 0000 0000
00000020: 0000 0000 0000 0000 0000 0000 0000 0000
00000030: 0000 0000 0000 0000 0000 0000 0000 0000
00000040: 0000 0000 0000 0000 0000 0000 0000 0000
00000050: 0000 0000 0000 0000 0000 0000 0000 0000
00000060: 0000 0000 0000 0000 0000 0000 0000 0000
00000070: 0000 0000 0000 0000 0000 0000 0000 0000
00000080: 0000 0000 0000 0000 0000 0000 0000 0000
00000090: 0000 0000 0000 0000 0000 0000 0000 0000
000000a0: 0000 0000 0000 0000 0000 0000 0000 0000
000000b0: 0000 0000 0000 0000 0000 0000 0000 0000
000000c0: 0000 0000 0000 0000 0000 0000 0000 0000
000000d0: 0000 0000 0000 0000 0000 0000 0000 0000
000000e0: 0000 0000 0000 0000 0000 0000 0000 0000
000000f0: 0000 0000 0000 0000 0000 0000 0000 0000
0.0 0.0 0.0 0.0 0.0 0.0 0.0 0.0
0.0 0.0 0.0 0.0 0.0 0.0 0.0 0.0
0.0 0.0 0.0 0.0 0.0 0.0 0.0 0.0
0.0 0.0 0.0 0.0 0.0 0.0 0.0 0.0
0.0 0.0 0.0 0.0 0.0 0.0 0.0 0.0
0.0 0.0 0.0 0.0 0.0 0.0 0.0 0.0
0.0 0.0 0.0 0.0 0.0 0.0 0.0 0.0
0.0 0.0 0.0 0.0 0.0 0.0 0.0 0.0

mlp_extractor.value_net.0.weight f4 [64, 376]
00000000: 5db7 db3d 33e8 a8bd ab6f f3bc a0cb ae3c
00000010: 6720 d9bd 1da5 b9bd c848 9dbd 8756 db3d
00000020: 8305 64bd e618 aebd bacb 84bc 3ddd 65bc
00000030: 25a3 04bc 58f9 76bd 9435 e8bc d525 9dbd
00000040: 3100 dabd b075 353d 58a3 46bd fd78 ce3d
00000050: df95 bdbc ec00 c9bd 396e b5bd bf7d bbbd
00000060: d639 edbc d313 1c3d ba2b 08bd 41ff 2d3d
00000070: 483d ef3c 2c84 eebd 238a e43d 4e84 54bd
00000080: 4ebd bdbd 3f64 c7bd dbb0 263c f751 6cbd
00000090: 91e9 203d 9dd1 4bbd f1f2 1a3d ab2e e03d
000000a0: 1293 383b 625c d53d 7c00 b4bd 1d0e 87bc
000000b0: 0f7e a63c c83c 8dbd 926e d3bd 2593 e23d
000000c0: ba05 a9bd 35c2 b53d d6e0 29bd 922f 4f3d
000000d0: 33e3 8ebd ed78 87bd dfe0 c2bd fcc9 93bd
000000e0: dc1a 76bd 4e7d d63d 4ae8 a23d eb78 acbd
000000f0: e08c a7bd 4add 8c3d acd5 f5bc 6846 80bd
00000100: d900 e03d 611b af3c 8553 99bd 2a55 cebd
00000110: ab8a ae3d 3c5f 9cbc 3dac af3d 58a4 d13c
00000120: 8951 e93d 01cb d0bd df8d c6bd 44d5 3fbd
00000130: 54e0 44bd 6e4c 773d 9ad0 94bd b71d b43a
00000140: 7c0a 97bc d9cc 86bd ca28 153d e17b e13d
00000150: 1228 c5bb 9236 0ebd 294e 9e3d 429f a5bd
00000160: f198 37bb bcb2 cb3d b47b 333d e74b 84bd
00000170: 30d7 a6bd d48f 453d 7478 243c dd28 833d
00000180: 21dc 8d3d f2df 7c3c df69 d3b9 3d6f 9bbd
00000190: a7a0 a6bc d9e4 d43d 5aba 37bd 6e02 a53d
000001a0: 189a b3bd d66f b7bd cb8e a9bd 0843 213d
000001b0: f3a5 d6bc 95cf 4bbc d24c 07bd 4440 56bd
000001c0: 1bcd 3ebd 8102 383c bd4c c63d 0342 6b3d
000001d0: 86fd adbd 0257 eb3d ad31 48bd 2ce7 4e3d
000001e0: 269c c1bc 4e10 e3bd 47f2 e83d 4c2e 9c3d
000001f0: f0ea 89bd 637a 10bc 836b 3ebd c585 713c
00000200: cc35 a43d c775 303d 43e7 4abc 2ed3 b7bc
00000210: 7f95 e13d 2145 b03c b794 21bd 9006 a0bd
00000220: 13c9 c4bc 2e05 543b 9574 ea3d fb2c 393d
00000230: 36fd 01bc 76d9 31bd f5a1 da3d ac73 a53d
00000240: 02b3 82bd 8814 923c 9b59 debd 2a07 833d
00000250: 8d35 5a3d 3c16 c4bb 38de 03bd 778f bf3d
00000260: 0145 e73d c76b 393d d644 94bd aece 9bbd
00000270: 1cb2 7c3c 48cb e7bd 9d2b 53bd e51a 16bd
00000280: 1aa5 99bd 7657 33bd acfa cd3c 0baf aabc
00000290: 9f33 d23d ba0a 9c3d 0cdc 7c3d 2650 c33d
000002a0: 3cae abbd 58ad ad3d 05b2 853d a3b3 e4bc
000002b0: c1f6 ddbb f32d 99bd db94 083d b143 c43c
000002c0: e79a a83c 9970 583d 0a35 8c3d 6de0 793d
000002d0: 866d b0bd 50cc 003b 69ce c43d 36b6 adbd
000002e0: 0817 aa3d 282b bd3d d09f 40bd c545 7dbc
000002f0: d1ad b3bd f2f6 afbd 8dbc c73d 8995 97bc
00000300: 38a2 c63c cf6c 9b3d be32 aebd c971 89bd
00000310: 2b08 c7bd d1cb 503d 3622 b43c 28fb ecbd
00000320: 3c3b a13b ee38 cfbd 82cf 283d de47 cebd
00000330: eb0f a43d 9dc3 7bbd abf6 843d 9752 b53d
00000340: 8b06 6ebd cd3c bc3d 2055 573d e9bf 163d
00000350: 98f8 5f3d 8868 c23d 9d81 cc3d 96bf 8bbd
00000360: 8e32 a6bd ef7f 64bd 7ede 963c 530b 593d
00000370: 9dfa 91bd e127 24bd 31c3 f73c fb19 d33d
00000380: 8d59 98bd 45af 3c3c 25a3 8ebc 19a5 e9bc
00000390: fa5c b1bc 6062 3e3d e041 7c3d e893 c3bd
000003a0: 45bc d0bd 5b90 cc3d 869d 9dbd bf4a 843d
000003b0: 3cd9 6cb9 3a47 9e3d b841 c0bd 485a 80bc
000003c0: c82f ac3d 8c93 f4bc edd3 5cbd bd69 2e3c
000003d0: bbc5 f1bc 23ba 5abd 9717 f1bc e792 2abd
000003e0: 8408 3ebd bc78 99bd 5e67 12bd e744 c5bd
000003f0: d8ae 9bbd dabd 45bd 23f6 9b3d 01cc a63c
0.10728333 -0.082474135 -0.029716333 0.02133733 -0.106018834 -0.09064696 -0.076798975 0.10709863
-0.05566932 -0.08500843 -0.016210426 -0.014029798 -0.008095537 -0.060296386 -0.02834586 -0.076732315
-0.10644568 0.04430169 -0.04849562 0.100816704 -0.023142753 -0.09814629 -0.08858914 -0.091548435
-0.028958242 0.038104843 -0.033244826 0.042479757 0.029204026 -0.116463035 0.1115916 -0.051883988
-0.09264623 -0.09735917 0.010174002 -0.057695355 0.039285246 -0.04976045 0.037829343 0.10946401
0.0028163833 0.10418011 -0.08789155 -0.016486222 0.020323781 -0.06896359 -0.10323824 0.11063222
-0.082530454 0.08874933 -0.041474186 0.050582476 -0.069769286 -0.06614862 -0.09515547 -0.0721626
-0.06008421 0.10473119 0.07954462 -0.08421501 -0.08181167 0.06878145 -0.030009113 -0.06263429
0.10937662 0.02137536 -0.07486633 -0.100748375 0.085225426 -0.01908838 0.08577774 0.02559106
0.11392505 -0.1019497 -0.096950285 -0.046834245 -0.0480655 0.060375623 -0.0726635 0.0013741766
-0.018437617 -0.0658204 0.036415853 0.11009956 -0.0060167396 -0.03472001 0.077297516 -0.08087017
-0.0028014744 0.099462 0.043819144 -0.0645979 -0.081465125 0.04823287 0.010038484 0.064042784
0.06926752 0.015434252 -0.00040323936 -0.075895764 -0.020340277 0.10395212 -0.044855453 0.08057104
-0.087696254 -0.08956878 -0.08279189 0.039370567 -0.026202178 -0.012439628 -0.033032246 -0.052307382
-0.046582323 0.011231066 0.096826054 0.057436 -0.084956214 0.11491205 -0.0488755 0.05051343
-0.023634028 -0.11087094 0.11374336 0.07626018 -0.06734264 -0.008818242 -0.04648925 0.014741366
0.080180734 0.04308107 -0.012384239 -0.022439566 0.11014842 0.021517338 -0.039448466 -0.07813752
-0.02402166 0.003235172 0.114480175 0.045208912 -0.007933905 -0.043420278 0.10675422 0.08078703
-0.06381799 0.017832056 -0.10856935 0.06397851 0.053273726 -0.005984096 -0.032194346 0.093535356
0.11292458 0.0452688 -0.07239692 -0.076077804 0.015423324 -0.1131807 -0.051555265 -0.036646742
-0.07502194 -0.04378458 0.025143944 -0.02083542 0.10263752 0.076192334 0.06173329 0.095367715
-0.08382842 0.08480328 0.06528095 -0.027917689 -0.0067738 -0.07479467 0.033345085 0.023958059
0.020581676 0.052841756 0.06846054 0.061005045 -0.0861464 0.001965303 0.09609682 -0.084820196
0.08305174 0.09236747 -0.04702741 -0.015458529 -0.08773387 -0.08592023 0.0975276 -0.018503921
0.024247274 0.07589113 -0.08505772 -0.06711156 -0.09718355 0.050975624 0.02198897 -0.11571342
0.0049203914 -0.1011828 0.04121352 -0.10072301 0.080108486 -0.06146585 0.06492361 0.088536434
-0.05811171 0.09191284 0.052571416 0.036804114 0.054680437 0.09492594 0.09985659 -0.068236515
-0.08115111 -0.05578607 0.01841664 0.052989315 -0.07127879 -0.040077094 0.030244442 0.1030769
-0.074389555 0.011516397 -0.017411778 -0.028521108 -0.02165078 0.046480536 0.06158626 -0.09549695
-0.101921596 0.09988471 -0.07696061 0.06459569 -0.0002258764 0.07728429 -0.09387535 -0.01566805
0.08407551 -0.029855512 -0.053913046 0.010645327 -0.02951323 -0.05340017 -0.029430194 -0.041644003
-0.04639484 -0.074937314 -0.03574311 -0.09632283 -0.07601708 -0.04827676 0.07615306 0.020360949

mlp_extractor.value_net.0.bias f4 [64]
00000000: 0000 0000 0000 0000 0000 0000 0000 0000
00000010: 0000 0000 0000 0000 0000 0000 0000 0000
00000020: 0000 0000 0000 0000 0000 0000 0000 0000
00000030: 0000 0000 0000 0000 0000 0000 0000 0000
00000040: 0000 0000 0000 0000 0000 0000 0000 0000
00000050: 0000 0000 0000 0000 0000 0000 0000 0000
00000060: 0000 0000 0000 0000 0000 0000 0000 0000
00000070: 0000 0000 0000 0000 0000 0000 0000 0000
00000080: 0000 0000 0000 0000 0000 0000 0000 0000
00000090: 0000 0000 0000 0000 0000 0000 0000 0000
000000a0: 0000 0000 0000 0000 0000 0000 0000 0000
000000b0: 0000 0000 0000 0000 0000 0000 0000 0000
000000c0: 0000 0000 0000 0000 0000 0000 0000 0000
000000d0: 0000 0000 0000 0000 0000 0000 0000 0000
000000e0: 0000 0000 0000 0000 0000 0000 0000 0000
000000f0: 0000 0000 0000 0000 0000 0000 0000 0000
0.0 0.0 0.0 0.0 0.0 0.0 0.0 0.0
0.0 0.0 0.0 0.0 0.0 0.0 0.0 0.0
0.0 0.0 0.0 0.0 0.0 0.0 0.0 0.0
0.0 0.0 0.0 0.0 0.0 0.0 0.0 0.0
0.0 0.0 0.0 0.0 0.0 0.0 0.0 0.0
0.0 0.0 0.0 0.0 0.0 0.0 0.0 0.0
0.0 0.0 0.0 0.0 0.0 0.0 0.0 0.0
0.0 0.0 0.0 0.0 0.0 0.0 0.0 0.0

mlp_extractor.value_net.2.weight f4 [64, 64]
00000000: f0cc 11bd 5af0 c8bd be2c fabc 671e 2abe
00000010: 7e55 5cbe 5b16 ecbd fd7a 1abe 29b4 1fbe
00000020: 8c39 aabd 94eb 22be f94e 99bc 39ec 1abe
00000030: d937 3bbd 67d8 b63d 45aa 2abe c167 273e
00000040: a93d 0bbd 185c c43d 82ab e3bb 9ff5 afbd
00000050: 150b ee3d 51f5 abbc 41de 373e bb32 2bbc
00000060: d8e7 103e 22a2 4bbe f3e5 34bd b9bd 3fbe
00000070: f0ae 143e 7a42 bf3d 3401 11bd 4aa6 693d
00000080: b3a1 24be 1511 6abd f8c6 b8bd bf6d ffbd
00000090: 4708 8e3d 0154 16bc 03fe d6bd 5f85 f93d
000000a0: 5ba9 14be 0ad9 8d3d 7d11 6dbd 1595 58bd
000000b0: 3646 3cbc 5b2b e43d 0f95 90ba 6233 3b3e
000000c0: afb6 5c3e 97f5 d53d 7747 9c3d 924c 9dbd
000000d0: 3e6c b13d 6b8f bfbd 9151 893d 02f6 7e3d
000000e0: e315 bebd 771a 16be dd77 5bbe 14bc 2e3d
000000f0: 6b2f 853d bfe1 01be 21bc a03d 13dd f53d
00000100: a111 c23d 7fca 383e 47ad 8d3d 32c7 633d
00000110: 2ef9 7d3d 399f fdbc 8325 e4bc 3105 f83c
00000120: 5497 8ab9 96ca 623d 8823 43be 04e7 85ba
00000130: dc75 c2bd bc81 3cbe 0baa 9f3d 077e 233e
00000140: 0dbc f9bc 37d3 423e bb7a c2bd 69b5 80bd
00000150: 2835 39be ae07 c1bd 7381 c6bc d146 4abe
00000160: e93f 4e3e 21c8 8bbd 1614 053d f30f afbb
00000170: 2d46 ab3d def5 473d af8e 1bbe cedb 8bbd
00000180: df53 e7bd f232 b8bd ae66 fe3c 96bd 533e
00000190: 8271 39be 6bc1 b23d 2737 55be 4f59 b53d
000001a0: 7185 ffbd 96ab b6bc 8438 11be 58d7 26bd
000001b0: 7c14 e93d eebd 2bbe ec0b ab3d 36f8 4d3e
000001c0: 6377 4fbd 0688 1b3e ecc8 423e a899 013e
000001d0: f213 0dbe 0fa8 2abe 98a7 1c3e cff8 d53c
000001e0: b3eb e03d 065d 45be f144 293e d943 08be
000001f0: f040 193e 1de7 273c 7ca4 903d 8532 b43c
00000200: ddd7 053e 71d5 afbd ad9b 5b3e cba4 29bc
00000210: 5cf8 eebc ffe1 ffbd 34d1 023b 8247 533d
00000220: ae5b 2abe b094 153e 5990 1a3e 852d 463e
00000230: 00e2 1c3e c306 2e3e 5e3e e43d 4eb7 603d
00000240: 8ef6 9dbd 4b10 0f3e 28cb 38be dd18 34bd
00000250: 0d87 b13d 21fd 3c3e 86e4 41be 60e7 183c
00000260: 90ee 7ebd 2b5c 473e cb87 ecbd 7572 acbd
00000270: 69cf 5e3d f2e1 4fbe 4237 debc c157 14bd
00000280: d272 ffbd 442d 50be b51f 5abe dcaf ef3d
00000290: 5fbf 10be d947 4ebd 3907 a5bd 1b81 8cbd
000002a0: ae05 4cbe 6eb0 f4bd 4a47 24be 6999 523d
000002b0: 8f59 463d 3770 003e 713a bd3d 4db4 973d
000002c0: 036b 4c3e b2e9 c3bb c6e9 233d 4882 e43d
000002d0: f218 b93d f2ee 5d3c 2b9f 953d 04fd a33c
000002e0: 3449 3ebe b6f3 5c3e d3a7 533e 03de 1b3c
000002f0: 927c 423e a6c2 18bd 7d65 823c abaf df3d
00000300: 7f90 42be 80a6 b93c c0c8 5a3e da07 cdbd
00000310: 0f78 acbd 60bc 5abe ac1a 9ebc a7f0 53bd
00000320: 0bef 05be 14c9 b0bc 439c f3bd b958 a53c
00000330: b72b a23d c60b 04be 62df 373e fc79 66bd
00000340: bca1 243e 297e 16be 0fda a8bd 0a05 2c3e
00000350: ec65 333e df7a 823d 9087 24be 99af 50be
00000360: 6f72 98bd 2811 863d f537 553d 7aca b13d
00000370: bb3b 203e 003e 133e 5af7 903c b267 50be
00000380: b3f5 343d 98bf a3bd 8f19 fd3d 1db0 893d
00000390: cf07 0d3e 3a12 4b3e 2bae 263e 3783 84bd
000003a0: c1ea 033e 168a 17be ec35 013d 32d3 a73c
000003b0: 3ffb 3b3e 3bfb c03c d84c 0fbe 7212 253e
000003c0: 422e f7bc fe6f 43be 43ec 083e 6ca6 01bd
000003d0: 4574 00be cc59 573d e02b 08be 386a 253e
000003e0: 7917 0b3e 5ab0 3cbe 0104 a03d 0bc4 a5bd
000003f0: 8e95 333e 81b0 c23d 7253 b2bb 2193 163e
-0.035595834 -0.098114684 -0.030538913 -0.1661316 -0.21516988 -0.115277015 -0.15085979 -0.1559607
-0.083117574 -0.15910178 -0.018714415 -0.15129174 -0.045707557 0.08927994 -0.16666515 0.16348173
-0.03399435 0.09587878 -0.0069479356 -0.085917704 0.116232075 -0.020991 0.17955877 -0.010449107
0.14150941 -0.19886068 -0.04416461 -0.18724717 0.14519858 0.09338851 -0.035401538 0.05704335
-0.16077308 -0.057145197 -0.09022325 -0.12472104 0.069351725 -0.0091753015 -0.10497668 0.12183642
-0.14517729 0.069261625 -0.057878006 -0.05287655 -0.011491349 0.11141082 -0.0011030751 0.1828132
0.21554063 0.10447233 0.07630818 -0.0768062 0.08663224 -0.09353527 0.06705011 0.06224633
-0.09281518 -0.14658533 -0.21432443 0.042659834 0.06503185 -0.12683772 0.07848383 0.12005057
0.09476019 0.18045996 0.06917816 0.05560989 0.062005214 -0.030959712 -0.027849918 0.030275913
-0.0002643416 0.055368982 -0.19056523 -0.0010215943 -0.09495136 -0.18408865 0.07796105 0.15966044
-0.030485177 0.19025885 -0.09496065 -0.06284601 -0.18086684 -0.09425293 -0.024231648 -0.19753577
0.20141567 -0.06825281 0.03248986 -0.0053424775 0.08362994 0.04881846 -0.15191148 -0.06829034
-0.11295294 -0.08994092 0.03105482 0.2067779 -0.18109706 0.08728298 -0.2082182 0.08854925
-0.12476624 -0.022298615 -0.14181715 -0.04073271 0.1138086 -0.16771671 0.08351883 0.20114216
-0.050650965 0.15188608 0.19021958 0.12656271 -0.1377714 -0.16665672 0.15298307 0.026119618
0.10982456 -0.19273767 0.16530205 -0.13307132 0.14966178 0.010247973 0.07062623 0.021996746
0.13070627 -0.085856326 0.21446104 -0.010354231 -0.029171161 -0.12494277 0.001996112 0.051581867
-0.16636536 0.14607501 0.15094127 0.19353302 0.15320587 0.16994767 0.11144708 0.054862313
-0.07713042 0.13971059 -0.18046248 -0.043969024 0.08668337 0.18455936 -0.18934831 0.009332508
-0.06223923 0.19468753 -0.11549338 -0.084202684 0.05439702 -0.20301035 -0.027125958 -0.0362165
-0.12473072 -0.20329767 -0.21301158 0.117034644 -0.14135502 -0.050361488 -0.08058018 -0.068605624
-0.19924042 -0.11947714 -0.1604282 0.051415835 0.048425253 0.12542807 0.092396624 0.074074365
0.19962697 -0.0059787864 0.040017866 0.11157662 0.09037961 0.0135457385 0.073057495 0.020018108
-0.18582612 0.21577343 0.20669489 0.009513381 0.18992832 -0.037295006 0.015917534 0.10922178
-0.19000433 0.022662401 0.21365643 -0.10011263 -0.08421337 -0.21360922 -0.019299828 -0.051743176
-0.13079469 -0.021580257 -0.11895039 0.020183908 0.07918494 -0.12895116 0.17956308 -0.056268677
0.16077322 -0.14696564 -0.082447164 0.16798797 0.17519349 0.06371092 -0.16067338 -0.20379485
-0.074437015 0.06546241 0.052055318 0.086811975 0.15647785 0.1437912 0.017696071 -0.20352057
0.04417963 -0.07995528 0.123583905 0.06723044 0.1377251 0.19831172 0.16277377 -0.0647034
0.1288252 -0.1479877 0.031545565 0.020486448 0.18357562 0.023557296 -0.13994157 0.16120318
-0.030173425 -0.1908569 0.13371377 -0.031652853 -0.12544353 0.05257587 -0.13297987 0.161538
0.13583173 -0.18426648 0.07813264 -0.08094033 0.1753752 0.09506322 -0.0054420764 0.14704563

mlp_extractor.value_net.2.bias f4 [64]
00000000: 0000 0000 0000 0000 0000 0000 0000 0000
00000010: 0000 0000 0000 0000 0000 0000 0000 0000
00000020: 0000 0000 0000 0000 0000 0000 0000 0000
00000030: 0000 0000 0000 0000 0000 0000 0000 0000
00000040: 0000 0000 0000 0000 0000 0000 0000 0000
00000050: 0000 0000 0000 0000 0000 0000 0000 0000
00000060: 0000 0000 0000 0000 0000 0000 0000 0000
00000070: 0000 0000 0000 0000 0000 0000 0000 0000
00000080: 0000 0000 0000 0000 0000 0000 0000 0000
00000090: 0000 0000 0000 0000 0000 0000 0000 0000
000000a0: 0000 0000 0000 0000 0000 0000 0000 0000
000000b0: 0000 0000 0000 0000 0000 0000 0000 0000
000000c0: 0000 0000 0000 0000 0000 0000 0000 0000
000000d0: 0000 0000 0000 0000 0000 0000 0000 0000
000000e0: 0000 0000 0000 0000 0000 0000 0000 0000
000000f0: 0000 0000 0000 0000 0000 0000 0000 0000
0.0 0.0 0.0 0.0 0.0 0.0 0.0 0.0
0.0 0.0 0.0 0.0 0.0 0.0 0.0 0.0
0.0 0.0 0.0 0.0 0.0 0.0 0.0 0.0
0.0 0.0 0.0 0.0 0.0 0.0 0.0 0.0
0.0 0.0 0.0 0.0 0.0 0.0 0.0 0.0
0.0 0.0 0.0 0.0 0.0 0.0 0.0 0.0
0.0 0.0 0.0 0.0 0.0 0.0 0.0 0.0
0.0 0.0 0.0 0.0 0.0 0.0 0.0 0.0

action_net.weight f4 [17, 64]
00000000: 74fa 1dbe 9127 61be 0827 cf3d 2633 d9bb
00000010: fef6 263e c893 80be 5f77 48be 4667 0dbe
00000020: 8461 8ebd b467 ff3d 5cf6 d9bc f9a3 3cbe
00000030: e535 3ebe 3896 00be e66a bd3d e58c 3dbe
00000040: 0f7e 4d3c d28c 64be b718 553e bf80 afbc
00000050: fc37 473e 7e94 123e de6d 223e 6ce2 77bd
00000060: bae2 083e ec46 7bbe 85d2 883e 3321 7b3e
00000070: 7543 a0bc 4376 743e 3e56 24be 01b5 4dbe
00000080: 7153 5fbe e7c6 40be 5224 4dbe 3285 efbd
00000090: 93c1 563c 3deb 84be 69ec b3bd 605b 133e
000000a0: c54f f9bd 13ea 233d 7347 8abe 92e6 53bd
000000b0: a7bd 993c a4c5 193e ec12 6e3e 4a68 89bd
000000c0: 69da 6b3e 3dfd a23d 5974 25be aed7 10be
000000d0: f794 443e a8da 31be 6d05 39be 6c19 cc3d
000000e0: 238a 88bd 2c49 7f3e 265c feba 21da 90bd
000000f0: 9a53 69be 4bee 833e 0a3e d4bb 3d9a 8abd
00000100: 1292 d13d 7da7 e3bc 6dd3 323e 26f2 553d
00000110: 86e5 0bbe a8bb 5e3e 706c 29bc 2392 243d
00000120: a054 103e fe24 0bbe 3d9b 85be e2d7 293e
00000130: 5d32 5f3e 1df8 5bbe ace7 82be 04c0 dabd
00000140: 6d52 ffbd df0a 5a3d b143 77be e652 123e
00000150: 4581 1b3e b729 99bd aedd a1bd a28b 51be
00000160: 81e8 8a3d 2ccf f83d c849 37bd 5f88 863d
00000170: 353a 10be 79b0 3a3d a636 8abe b419 8fbd
00000180: 0b32 833e 4597 84be 42d1 dfbd 0522 e8bd
00000190: 18b3 24be 0c2e 363e ee39 4f3e 3d60 143e
000001a0: 6736 453d dc46 8bbe c17f 00be ad46 ebbd
000001b0: 3638 643e 1b54 523d 7633 99bc 416a 5f3e
000001c0: 9ee0 bb3c cf68 493c f3cd 26be aeef 963c
000001d0: f529 f9bd 1322 3fbe 3478 6a3e b51d d2bc
000001e0: 53bc 083e 24eb c03d 7883 1cbe 2eeb 143e
000001f0: 796d 2cbd a436 51bc 964f 3e3e 0b78 52be
00000200: a075 f13c 523e 7f3e fabf 713e f055 a13d
00000210: 2b9d ff3c 07d2 a4bd 7a53 813e c76a c83d
00000220: 2b36 89be 4a39 103e 68b5 b4bc e413 133e
00000230: d93f 5bbe 85f1 debc bbca a13d ea0a 1abd
00000240: eb4b 823e f738 bbbd 8cd8 6fbd 329b 113e
00000250: 2be3 893e 3db0 48be d448 833e 4edd bcbd
00000260: 3edd 1c3d b19c 823e 2d49 f4bd 834a 013e
00000270: aa79 13be 50e1 1dbe 9e26 353e 8297 7dbe
00000280: b49e 503e 7a11 593e b5d7 e2bd bcf2 6ebd
00000290: 3141 cc3c 2462 1e3e 1dcc 7dbe 1b17 a5bd
000002a0: 62f5 313c 7ce5 80be d058 82be 58e4 2b3e
000002b0: d299 9abd 6464 d0bd eeb9 a8bd d2aa 4e3e
000002c0: 93b3 28be 4c81 0cbe 0b08 713e d2cc 653e
000002d0: 19ea e63d 406c 14be d71d 073e f9b5 3b3e
000002e0: c842 64be 3572 333d f596 ae3c dfea 43bd
000002f0: c193 d73c d513 7dbe ad55 113d d9ef 5d3d
00000300: 230c 86be 1178 15be b832 053e 1da4 62bc
00000310: fc04 a13d a7e5 9dbd b70d 0e3e 5baa dfbd
00000320: 0595 d5bd 0307 da3d 1118 c1bc a2a4 5e3d
00000330: 82ce 1e3e 0a8c 82be 2bfc 713e 4f9f 8d3c
00000340: 31c8 0a3e 62a1 5f3e eea7 c5bc 594e 8abe
00000350: ee5f f3bc aebf ab3d 8f47 913c e6a3 f83c
00000360: b2fe 77be 11d4 65bc 3cd5 673d 350b e23d
00000370: b9a3 8f3d ebee 4f3d c8c1 7abc 16b8 1bbb
00000380: 9577 643e 73db 80bd b9c2 41be 29dc 143e
00000390: fc2b 103e 124e 843e f576 2f3e 3392 0e3e
000003a0: b73e 71bc bae4 4d3e fbe4 293e 3627 1e3d
000003b0: 34a3 813d 2434 203e b081 153e f4d0 5c3d
000003c0: 45dc 30be e333 35be 7e4a e03d 712d 833e
000003d0: be17 b23c c4fe 023e b549 dabd 5081 273d
000003e0: 7e0e 153d 78bb 0c3d 0532 7c39 51ea dc3d
000003f0: fe8b dfbd 7f3a 7d3d 75ff 203e e361 40bd
-0.15427572 -0.2198775 0.101148665 -0.006628412 0.16305158 -0.25112748 -0.19576786 -0.13808927
-0.069521934 0.12470952 -0.026606731 -0.18421926 -0.18575247 -0.12557304 0.09248905 -0.18510778
0.012542262 -0.22319344 0.20810209 -0.021423696 0.1945495 0.14314458 0.15862224 -0.060518667
0.1336774 -0.24538773 0.26723114 0.24524383 -0.019563416 0.23873238 -0.16048524 -0.20088579
-0.21809174 -0.18825875 -0.20033386 -0.11695327 0.013107675 -0.25960723 -0.08785326 0.14390326
-0.12173418 0.040018152 -0.27007636 -0.05173356 0.018767191 0.150168 0.23249406 -0.06709345
0.23032536 0.079584576 -0.16157664 -0.14144775 0.1919745 -0.17368567 -0.18068476 0.09965786
-0.066669725 0.24930257 -0.0019406124 -0.07072855 -0.22785798 0.2576774 -0.006477122 -0.067677
0.10232939 -0.027789826 0.17463465 0.052232884 -0.13661775 0.21751273 -0.010340795 0.04017843
0.14094782 -0.1358833 -0.26095 0.16586259 0.21796556 -0.21481366 -0.25567377 -0.10681155
-0.12466893 0.053233024 -0.24146916 0.14289436 0.15186031 -0.074786596 -0.0790361 -0.20463422
0.06782628 0.1214889 -0.044748098 0.065689795 -0.14084704 0.045578454 -0.26994818 -0.06987324
0.25624117 -0.2589666 -0.10928585 -0.11334614 -0.16083944 0.17791003 0.20236942 0.14489837
0.048147585 -0.272025 -0.12548734 -0.1148809 0.22287068 0.05134974 -0.018701296 0.21817876
0.022934254 0.012293055 -0.16289501 0.018424835 -0.12166206 -0.18665342 0.22897416 -0.025648931
0.1335309 0.094198495 -0.15284526 0.14542839 -0.04209659 -0.012769375 0.18585047 -0.20553605
0.029475033 0.24926117 0.2360839 0.078777194 0.031202873 -0.08047872 0.25259 0.09785991
-0.2679914 0.14084354 -0.022059157 0.14363056 -0.21411075 -0.027214775 0.07899996 -0.037608065
0.25448546 -0.091417246 -0.058556125 0.14219359 0.26931128 -0.1959848 0.256415 -0.09221898
0.03829693 0.2551017 -0.1192802 0.1262608 -0.1440188 -0.15417981 0.17690513 -0.24764827
0.2037304 0.21198073 -0.11076299 -0.05833696 0.02493343 0.15467125 -0.24784894 -0.08061048
0.0108617265 -0.25175083 -0.25458384 0.16786325 -0.0754887 -0.10175398 -0.08238588 0.2018235
-0.16474752 -0.13721198 0.23538224 0.22441414 0.11275119 -0.14494419 0.13194977 0.18331136
-0.222911 0.04381009 0.021312216 -0.047831412 0.026315572 -0.24714597 0.035482097 0.054183815
-0.26181135 -0.14596583 0.13007629 -0.013833073 0.07862279 -0.07709818 0.1387242 -0.109211646
-0.10428814 0.10645869 -0.023571046 0.054356225 0.15508464 -0.25497466 0.2363135 0.017287878
0.1355293 0.21838906 -0.024127927 -0.270129 -0.029708829 0.083861694 0.017734317 0.03035159
-0.24218252 -0.014027611 0.05659984 0.11037294 0.070136495 0.05076496 -0.01530499 -0.0023760847
0.22311242 -0.062918566 -0.18921937 0.1453711 0.14079279 0.25840813 0.17135222 0.13922958
-0.014724425 0.20106784 0.16591255 0.038611613 0.06329957 0.1564489 0.14600253 0.05391021
-0.17271526 -0.17695574 0.10951708 0.25620607 0.021739837 0.12792498 -0.1065859 0.040894806
0.036390774 0.03435847 0.00024051227 0.1078688 -0.10915373 0.061823364 0.15722449 -0.046968352

action_net.bias f4 [17]
00000000: 0000 0000 0000 0000 0000 0000 0000 0000
00000010: 0000 0000 0000 0000 0000 0000 0000 0000
00000020: 0000 0000 0000 0000 0000 0000 0000 0000
00000030: 0000 0000 0000 0000 0000 0000 0000 0000
00000040: 0000 0000
0.0 0.0 0.0 0.0 0.0 0.0 0.0 0.0
0.0 0.0 0.0 0.0 0.0 0.0 0.0 0.0
0.0

value_net.weight f4 [1, 64]
00000000: 8642 1dbe 6e86 173e de33 fd3d 4af2 e7bd
00000010: acc3 81be f5c9 493e 5ea6 40be 87a9 973e
00000020: a20f 5d3d 70f2 403c 51fb 453e 3ab5 743e
00000030: c31d 973e c361 8b3e 763b 69be e8b1 c4bd
00000040: f12f 0ebe b964 983e ea9d 83bd 39f2 71be
00000050: 9e65 163e bd7e 81bd 600a 87be 2ba6 123e
00000060: 764f 213c d59a 6f3e 0f9a 4e3c bb08 6fbe
00000070: 8a0b 7b3e b208 ae3d 8c03 30bd d5df c33d
00000080: 8ab4 2bbe 30c0 c9bc e13c 6bbe 315f c9bc
00000090: 7fa8 dd3b eef0 68bc 7834 c7bd 0e29 483e
000000a0: de57 68be c100 81be 42ac 54bb f4d3 82be
000000b0: 486c 7ebe aeed 523d b770 623e b202 673e
000000c0: 3288 123e 1fab 023e 2b85 3fbe 2b16 103e
000000d0: cbe4 823d 9b41 84be 70b0 9fbb 2fe9 c43d
000000e0: 248a 3fbd a1d1 593c df92 65bd 9a1c 84be
000000f0: ef87 813e b425 503e 19dc 1dbd 346d e13d
-0.15357408 0.14797375 0.123634085 -0.1132551 -0.25344598 0.19705947 -0.18813464 0.29621527
0.053969987 0.011776552 0.19334151 0.23897257 0.29514894 0.27223024 -0.22776589 -0.096042454
-0.13885476 0.29764345 -0.06426604 -0.23627557 0.14687201 -0.063230015 -0.26375103 0.143212
0.009845605 0.23398907 0.012609973 -0.23343174 0.2451612 0.08497752 -0.042972133 0.09564177
-0.16768089 -0.024627775 -0.22972442 -0.024581524 0.006764471 -0.014217598 -0.097268045 0.19546911
-0.22689769 -0.25195888 -0.0032451306 -0.25552332 -0.24845994 0.0514962 0.2211331 0.22559622
0.14309767 0.1276059 -0.18703143 0.14070956 0.06391295 -0.25831303 -0.004873328 0.09614789
-0.0467626 0.013294608 -0.05604827 -0.2580307 0.25299022 0.20326883 -0.03853998 0.11007157
